Assets/Models/My Behavior-499938.onnx (onnx, 578818 bytes, 21 tensors)

network_body.observation_encoder.processors.0.self_ent_encoder.seq_layers.0.bias f4 [128]
0	0xbc06a5db	-0.008218254
1	0xbb1111a3	-0.0022135756
2	0xbb2426bd	-0.0025047504
3	0x3b3815ea	0.0028089234
4	0xbbbe60be	-0.0058098724
5	0x3ba53088	0.0050411858
6	0xbc0f7123	-0.008755001
7	0xbc9543cb	-0.018220803
8	0x3bfec56f	0.0077750008
9	0xbb6ab8fb	-0.0035815823
10	0x3b9235e8	0.0044619925
11	0x3ad348f4	0.0016119764
12	0xbbfc5fc1	-0.0077018444
13	0xbb4e9b3c	-0.0031525632
14	0xb8557df3	-5.0900457e-05
15	0x3ae2da5a	0.0017307505
16	0xbc0146bf	-0.007890402
17	0xbba68225	-0.0050814324
18	0x3bf1c780	0.0073785186
19	0x3bce049a	0.0062871696
20	0x3bd2f598	0.0064379685
21	0xbc75bb7c	-0.014998313
22	0xbc497af0	-0.012297377
23	0x3c0842b6	0.008316686
24	0xbb42a9b2	-0.0029703197
25	0x3bcd60c9	0.006267641
26	0x3c187765	0.00930581
27	0xbcaddb35	-0.02122269
28	0xbbc5fdad	-0.0060422034
29	0xbbdc2cf6	-0.006719227
30	0xbb7a2d95	-0.0038174142
31	0xbb7e137b	-0.0038768935
32	0x3c295366	0.010334825
33	0xbb495014	-0.0030717896
34	0x3ba17e16	0.0049283607
35	0x3be26bff	0.006909847
36	0xbad66002	-0.0016355517
37	0x3c31c28f	0.010849609
38	0xbc86e12d	-0.016464794
39	0xbb41a0a5	-0.0029545214
40	0x3bf61758	0.007510107
41	0xbaf8abd9	-0.0018972113
42	0xbbdd16f0	-0.006747119
43	0x3c57d4d4	0.013173301
44	0x3bd7f4af	0.006590448
45	0x3a3beb10	0.0007168511
46	0x3b140c11	0.00225902
47	0x3c394ad1	0.0113093415
48	0xbb936447	-0.004498038
49	0x3b3f6d3f	0.0029209403
50	0x3c32b6ac	0.01090781
51	0xbb5acbdc	-0.003338567
52	0xb9768db0	-0.00023513171
53	0x3c6b87ad	0.014375609
54	0x3c23817e	0.009979604
55	0xbc836547	-0.016039504
56	0xbb80260e	-0.0039107865
57	0xbba4c83d	-0.005028753
58	0x3bfed819	0.0077772257
59	0x3b9f3dad	0.0048596472
60	0xbc2afefc	-0.01043677
61	0x3b0217f7	0.001985071
62	0xbc02b2e0	-0.007977217
63	0xbb310054	-0.0027008252
64	0x3b173312	0.0023071212
65	0x3c76c7d4	0.015062291
66	0xbc4e4095	-0.01258864
67	0x3bbd3043	0.0057735755
68	0xbc2550be	-0.010090051
69	0xbc40c241	-0.011765064
70	0x3a2b7d35	0.00065417896
71	0xbc9200f9	-0.01782273
72	0x3c93e56a	0.01805373
73	0x3bb28536	0.005448009
74	0xbc917f08	-0.017760769
75	0xbc8ddd64	-0.017317481
76	0xbc51f702	-0.012815239
77	0xbb86e1cc	-0.0041162726
78	0xbc1a190f	-0.0094053885
79	0x3aa30bbe	0.0012439413
80	0xbb00938b	-0.0019619192
81	0xbbab83c5	-0.005234214
82	0x398c9b20	0.00026818458
83	0xbbb1b2ae	-0.0054229116
84	0xba5a6e30	-0.0008332459
85	0xbc25ac70	-0.010111913
86	0x3c596f46	0.013271159
87	0x3c44db8b	0.012015234
88	0xbb8edb22	-0.0043596188
89	0xbc29b297	-0.010357521
90	0x3bb43f11	0.005500682
91	0x3c2b0250	0.010437563
92	0x3bf5514c	0.007486498
93	0xbc811ad2	-0.01575986
94	0x3a862f82	0.0010237547
95	0x3a6c32ef	0.0009010275
96	0x3b9391a5	0.004503446
97	0x39ed2fa5	0.0004523966
98	0xbb969f3d	-0.0045966194
99	0xbb3572eb	-0.0027686905
100	0xbc5ba879	-0.013406866
101	0xbbb17276	-0.005415256
102	0xbb56bf59	-0.003276786
103	0x3ca4e4c8	0.020128623
104	0xbc18de05	-0.009330277
105	0xbbd88c23	-0.0066085025
106	0xbc47a09c	-0.012184288
107	0xbb970e19	-0.004609835
108	0x3b267905	0.0025401723
109	0x3be7fee4	0.007079946
110	0x3c3cc70a	0.011522064
111	0xb942bd7b	-0.00018571869
112	0x3abbd1be	0.0014329476
113	0x3c8ac4fb	0.01693963
114	0xbb4024ee	-0.0029318887
115	0x3c30484c	0.010759424
116	0x3ca770f4	0.020439602
117	0x3be05b5b	0.006846828
118	0xbba0689d	-0.0048952834
119	0xbb428f99	-0.0029687642
120	0xbbcbb923	-0.0062171384
121	0xbba46857	-0.005017321
122	0x3c658ef4	0.014011133
123	0x3ab74d92	0.001398491
124	0x3befa0cb	0.007312869
125	0xbbfb29c2	-0.00766489
126	0x3c82b078	0.015953287
127	0x3c305dfc	0.010764595

network_body.observation_encoder.processors.1.self_ent_encoder.seq_layers.0.bias f4 [128]
0	0xbba80427	-0.005127448
1	0xbac0c65d	-0.0014707554
2	0x3c69385f	0.014234631
3	0xbb16f3dc	-0.0023033535
4	0xbc36b14a	-0.011150667
5	0xbc9ba194	-0.018997945
6	0x3d1462d0	0.036227047
7	0xbccaa99d	-0.024739081
8	0xbb195057	-0.0023393834
9	0x3d4e6bac	0.050395653
10	0xbd0e34af	-0.03471821
11	0x3a136499	0.0005622595
12	0x3d380226	0.044923924
13	0xbbb3883e	-0.005478888
14	0xbc1e0a93	-0.009646076
15	0x3ce0b11c	0.027428202
16	0x3ca9d320	0.020730555
17	0x3ba9d7ad	0.0051831813
18	0xbc090f06	-0.008365398
19	0xba7f5829	-0.0009740615
20	0xbc9bfd3a	-0.019041646
21	0xbb40ed92	-0.0029438478
22	0x3c338f5e	0.010959474
23	0xbc604731	-0.013688848
24	0x3c2cce55	0.01054724
25	0xbb5b2e5f	-0.0033444387
26	0xbb8e6d21	-0.0043465053
27	0x3ad9b084	0.0016608392
28	0x3c65a203	0.014015677
29	0xbcc80503	-0.024416452
30	0x3cd2cf70	0.02573368
31	0x3b8693bc	0.004106967
32	0x3ced00ae	0.028930988
33	0x3c00e3b6	0.0078667905
34	0xbc6abbf1	-0.014327035
35	0x3b87dfb7	0.004146542
36	0xbbaeb0c2	-0.0053311298
37	0xbb8cf50b	-0.0043016723
38	0x3c1859b9	0.009298735
39	0xbd0ff84a	-0.035148896
40	0xbb9c3004	-0.004766466
41	0xb96110e1	-0.0002146396
42	0xba25d529	-0.0006326014
43	0x3b04084b	0.0020146545
44	0xbcc28976	-0.023747187
45	0xbb83f209	-0.0040266556
46	0x3c1174aa	0.008877913
47	0x3bb89771	0.0056332876
48	0x3d06c7a6	0.032905243
49	0x39efba1f	0.00045724303
50	0x3c5ec768	0.013597347
51	0xbcb1fe33	-0.021727657
52	0xbd05a1a3	-0.032624852
53	0x3c514d9f	0.012774854
54	0xbbc0ddc8	-0.0058858134
55	0x3c462006	0.012092596
56	0xbcf90c80	-0.030401468
57	0xbb3e8fd2	-0.0029077423
58	0xbc8ea983	-0.017414814
59	0xbbaf245d	-0.005344911
60	0x3c98db7e	0.01865935
61	0xbc3d2303	-0.011543992
62	0xbc0c6122	-0.00856808
63	0xbc11f800	-0.008909225
64	0x3b16b98f	0.0022998785
65	0xbc983340	-0.018579125
66	0xbbf79882	-0.007556022
67	0xba04748e	-0.00050527684
68	0x3bdf821d	0.0068209306
69	0xbcc51ef6	-0.024062615
70	0xbc746232	-0.01491599
71	0x3cb5b219	0.02217965
72	0xbd21a643	-0.0394652
73	0xbcc6c05c	-0.024261646
74	0xbc4da88a	-0.01255239
75	0x3c5a6cfb	0.013331647
76	0xbb2f609d	-0.0026760467
77	0xb9ea2c26	-0.0004466485
78	0x3c958321	0.018251004
79	0xba6a82ce	-0.0008945883
80	0xbcc3ac4a	-0.023885865
81	0x3a7a6173	0.0009551264
82	0xb6f64a12	-7.339994e-06
83	0xbc3cc336	-0.011521151
84	0xbcd605ee	-0.026125874
85	0x3ca1d7bd	0.019756192
86	0x3c006601	0.00783682
87	0xbbbef138	-0.0058270954
88	0xbbe0345d	-0.0068421797
89	0x3c02e9ce	0.007990314
90	0xbba26d60	-0.004956886
91	0x3cfd9398	0.030954167
92	0x3ca2e74f	0.019885687
93	0xbb603b35	-0.0034214978
94	0xbcb8fc84	-0.022581346
95	0x3b2f1e16	0.0026720813
96	0xbb8e4f7f	-0.0043429728
97	0xbc1f9a5a	-0.00974139
98	0xbbfc7e2f	-0.007705472
99	0xbcb0f9be	-0.021603461
100	0xbc48cc94	-0.0122558065
101	0x3b8467da	0.0040407004
102	0xbbc0f794	-0.0058888886
103	0xbc1d981a	-0.009618783
104	0x3a1a9ecd	0.0005898297
105	0x3cb2a67e	0.021807905
106	0x3c25a904	0.010111097
107	0x3c837eeb	0.01605173
108	0x3b48a002	0.003061295
109	0xbc9f9604	-0.019480713
110	0x3bd36a67	0.006451893
111	0xbca55f91	-0.020187171
112	0xbc27f7f8	-0.010251991
113	0x3c83c051	0.016082915
114	0xbc8ff11a	-0.01757102
115	0xbca41a11	-0.02003196
116	0xbc1d2150	-0.009590462
117	0x3c31851d	0.010834959
118	0x3ceb14ba	0.028696407
119	0x3aea72b3	0.0017886966
120	0xbca81b3c	-0.020520799
121	0xbc88169f	-0.01661235
122	0x3ca6bb51	0.020352991
123	0x3a966ae9	0.0011475954
124	0xba6a5a67	-0.00089398626
125	0x3cb8c7b1	0.022556158
126	0x3c17b3ca	0.009259174
127	0x3c7a30cf	0.015270426

network_body.observation_encoder.rsa.fc_q.bias f4 [128]
0	0xbd0f658e	-0.03500896
1	0x3ce75a64	0.028241344
2	0x3c500a26	0.012697732
3	0x3d058cb4	0.032604888
4	0x3c1db15f	0.009624808
5	0xbc452815	-0.012033482
6	0xbbd01b77	-0.0063509303
7	0x3c8dab10	0.017293483
8	0xbc85814f	-0.01629701
9	0x3bb64244	0.0055620987
10	0x3cdfb7a2	0.027309243
11	0x3b8e15a3	0.0043360754
12	0xbb900a28	-0.004395742
13	0xbd04bf32	-0.0324089
14	0x3ca7bd48	0.020475999
15	0x3be30d28	0.0069290586
16	0xbb8632c4	-0.004095407
17	0xbce37f4d	-0.027770663
18	0x3ce3d3ce	0.027810957
19	0xbca4ecdf	-0.02013248
20	0xbb85ccd3	-0.004083255
21	0x3a869d29	0.0010270226
22	0xbbf88eff	-0.007585406
23	0xbb8b487f	-0.0042505856
24	0x3a9c0b35	0.0011905195
25	0xba4149e3	-0.00073733757
26	0xbb6983e5	-0.0035631594
27	0x3b838fd1	0.004014947
28	0x3c7326a7	0.014840758
29	0x3c0753b0	0.008259699
30	0x3c8c7162	0.017143909
31	0x3b11e9cb	0.0022264596
32	0xba2d8aa3	-0.0006620085
33	0x3d2a7e9c	0.04162465
34	0x3ce186b9	0.027530061
35	0xbbdd62de	-0.0067561707
36	0x3afec073	0.0019436016
37	0xbd42f441	-0.04759622
38	0xbc1cfed9	-0.009582245
39	0xbc800dde	-0.015631612
40	0xb8bfd32f	-9.146926e-05
41	0xbd14b421	-0.036304597
42	0xbbd32e16	-0.006444703
43	0x3cc85a08	0.024456993
44	0xbc95dcdb	-0.018293789
45	0x3c7301d3	0.014831978
46	0x3c084cde	0.008319108
47	0x3b596170	0.003316965
48	0xbc196904	-0.009363417
49	0x3c582e4e	0.013194634
50	0x3c75c3f7	0.015000335
51	0xbd15c1b0	-0.036561668
52	0xbceda788	-0.02901055
53	0x3c3ac22f	0.011398836
54	0x3c299153	0.010349589
55	0x3c226535	0.009911825
56	0xbce032c4	-0.027367957
57	0x3c904288	0.01760985
58	0x3b3d2b00	0.0028864741
59	0x3bea3834	0.007147813
60	0xbd184415	-0.037174303
61	0xbc82e81c	-0.015979819
62	0x3c75e1b4	0.015007425
63	0x3cb14e1c	0.02164369
64	0x3c8f4cb8	0.017492637
65	0xbba2aba1	-0.0049643074
66	0x3b8ef431	0.004362606
67	0x3c896f9d	0.016776854
68	0x3c2b4d39	0.010455423
69	0x3c2430da	0.010021413
70	0xbc2d0f52	-0.010562735
71	0x3d0964eb	0.03354351
72	0x3b784e6a	0.0037888535
73	0xbc09b660	-0.008405298
74	0xbcb4dc0f	-0.022077588
75	0x3c7f1748	0.0155695155
76	0xbbe08685	-0.0068519735
77	0x3c6aeb0d	0.014338267
78	0xbc5b7bca	-0.013396213
79	0x3c396466	0.011315441
80	0xbb89dfac	-0.004207572
81	0xbcaa8978	-0.020817503
82	0xbc5a155c	-0.0133107565
83	0x3b16df96	0.0023021451
84	0x3cac5750	0.021037728
85	0xbc0e8220	-0.008698016
86	0x3c90422d	0.01760968
87	0x3cbad265	0.022805402
88	0x3b311643	0.0027021326
89	0xbd06820f	-0.032838877
90	0xbbbe364f	-0.005804814
91	0xbb5779b8	-0.0032878947
92	0x3bd60af4	0.0065320674
93	0xbc8269d7	-0.015919609
94	0xbb8d7111	-0.004316457
95	0xb89d22da	-7.492835e-05
96	0xbd12ff91	-0.03588826
97	0xbbecc530	-0.007225655
98	0xbca5749e	-0.020197209
99	0x3d151d65	0.036404986
100	0x3c57a1fc	0.013161179
101	0x3b4aa5b9	0.0030921532
102	0xbc998b5b	-0.018743208
103	0x3cbe06a0	0.023196518
104	0x3c7b4927	0.015337265
105	0x3c9d3f2b	0.01919516
106	0x3cd27d4f	0.025694517
107	0x3d06ccf3	0.0329103
108	0xbc372478	-0.011178128
109	0x3b2dcbc4	0.002651916
110	0x3cfeac60	0.031088054
111	0x3d06a4e4	0.032872096
112	0x3ca4cb2d	0.020116413
113	0xbb54b031	-0.003245365
114	0xbca23575	-0.01980088
115	0x3bd9c5b5	0.006645883
116	0x3c88796d	0.016659463
117	0x3d1ec9d5	0.0387667
118	0xba9afb3c	-0.0011824141
119	0x3cca30cc	0.024681471
120	0x3cb83f80	0.022491217
121	0xbcac5c06	-0.021039974
122	0x3d10a47b	0.03531311
123	0x3c48c311	0.012253539
124	0xbceb35af	-0.028712122
125	0xbd00d18f	-0.03144985
126	0xbbb00308	-0.005371455
127	0x3ce590a9	0.02802308

network_body.observation_encoder.rsa.fc_k.bias f4 [128]
0	0xb70e06e3	-8.465463e-06
1	0xb50b8416	-5.1973745e-07
2	0x35f4f074	1.8249398e-06
3	0x35bedbe4	1.42201e-06
4	0xb4176499	-1.4099568e-07
5	0xb62233fa	-2.4170135e-06
6	0x351905be	5.70053e-07
7	0x356b138a	8.7572755e-07
8	0xb6cf5ba0	-6.1797473e-06
9	0x3594391c	1.104348e-06
10	0xb69cab57	-4.669109e-06
11	0x36517901	3.121386e-06
12	0xb6abafb9	-5.116654e-06
13	0xb31537f2	-3.4742648e-08
14	0xb61a8ff3	-2.3031578e-06
15	0xb5d02810	-1.5508867e-06
16	0x363b4638	2.7906044e-06
17	0xb6264526	-2.4776177e-06
18	0xb5393134	-6.898947e-07
19	0xb65ea691	-3.3177532e-06
20	0xb444227b	-1.8266466e-07
21	0x33e0502f	1.0445398e-07
22	0xb6712313	-3.5932214e-06
23	0x35be65f3	1.4185774e-06
24	0xb69cfcf1	-4.6786085e-06
25	0xb33a5d97	-4.339162e-08
26	0xb69e4fcd	-4.718057e-06
27	0xb60314b8	-1.953258e-06
28	0x361a2a2f	2.2972342e-06
29	0x34b77132	3.4168767e-07
30	0x35821049	9.690494e-07
31	0x368b736a	4.155959e-06
32	0xb698be90	-4.5521374e-06
33	0xb5a47936	-1.2254229e-06
34	0xb5c5154f	-1.4683845e-06
35	0x365f8321	3.3305917e-06
36	0xb6f1dc98	-7.20804e-06
37	0xb60154f1	-1.927194e-06
38	0xb5b8a0ef	-1.3755906e-06
39	0xb6c7566f	-5.9407243e-06
40	0xb6cc993d	-6.097513e-06
41	0xb70a0334	-8.226187e-06
42	0xb68c0507	-4.1729104e-06
43	0xb669d9ed	-3.4846555e-06
44	0xb5b1e3fd	-1.3253881e-06
45	0x368dbba8	4.2239735e-06
46	0x361d5edf	2.3450045e-06
47	0x364f1d10	3.086232e-06
48	0xb68835c7	-4.0593764e-06
49	0xb66c5e26	-3.5221542e-06
50	0xb6dffbc8	-6.675229e-06
51	0x36d827e5	6.441946e-06
52	0xb594fcf3	-1.1100477e-06
53	0x36c0a1c5	5.7408784e-06
54	0xb316320d	-3.4970117e-08
55	0x36c05cf7	5.7328684e-06
56	0x3651c2d5	3.1256834e-06
57	0x366f050b	3.561671e-06
58	0x36646c8f	3.4037837e-06
59	0x36746bb3	3.6421523e-06
60	0x35174f95	5.636769e-07
61	0xb69b927e	-4.636414e-06
62	0x36654b24	3.4167397e-06
63	0x36544e98	3.163621e-06
64	0xb67cfcf4	-3.7698164e-06
65	0x353f5e69	7.129043e-07
66	0xb5f35060	-1.8128303e-06
67	0xb67f0a02	-3.8003786e-06
68	0xb5c60de6	-1.4756195e-06
69	0x345b6751	2.043355e-07
70	0x35ce4d60	1.5370715e-06
71	0xb5dbd14f	-1.6377688e-06
72	0xb5c6b249	-1.4804037e-06
73	0x35870005	1.005829e-06
74	0x34db4f02	4.0849415e-07
75	0xb59ef507	-1.184323e-06
76	0xb43d9457	-1.7655962e-07
77	0xb655cf16	-3.1860013e-06
78	0xb4e81afd	-4.3233004e-07
79	0xb5634f21	-8.467924e-07
80	0x34857d01	2.4864133e-07
81	0x355b1590	8.1615235e-07
82	0xb5086f8f	-5.082629e-07
83	0x355cd374	8.226409e-07
84	0xb61d00be	-2.3395255e-06
85	0x35acad27	1.2865393e-06
86	0xb5d40c58	-1.5798823e-06
87	0xb63b6474	-2.7923643e-06
88	0xb60302bd	-1.9522115e-06
89	0xb42db7c9	-1.6178741e-07
90	0xb5618454	-8.4011594e-07
91	0x350270d8	4.8592983e-07
92	0xb586851b	-1.0022517e-06
93	0x356b8037	8.77309e-07
94	0x358060d7	9.564927e-07
95	0x352c4184	6.417033e-07
96	0xb6723df5	-3.6096874e-06
97	0xb5ec7c57	-1.7619558e-06
98	0xb646a63d	-2.9601063e-06
99	0xb682ea45	-3.9015745e-06
100	0xb67016f8	-3.5776156e-06
101	0xb6cc7c0d	-6.094115e-06
102	0x36aba127	5.1149577e-06
103	0x352964f0	6.310429e-07
104	0x36e6de42	6.8804084e-06
105	0x36b73db1	5.461007e-06
106	0xb4c0fcd3	-3.594674e-07
107	0xb6055296	-1.9866616e-06
108	0x3469a743	2.1760665e-07
109	0x364d713e	3.0613296e-06
110	0x361eb58d	2.3649511e-06
111	0xb5a2918b	-1.2112299e-06
112	0x33a8c2e7	7.858562e-08
113	0xb615e66d	-2.2336856e-06
114	0x36925e23	4.362098e-06
115	0x3563bc9d	8.483856e-07
116	0xb6f283ee	-7.2275207e-06
117	0xb67c842b	-3.7627858e-06
118	0x363dcbe0	2.8281866e-06
119	0xb694f554	-4.4393037e-06
120	0xb4db4f1c	-4.0849488e-07
121	0x36b542df	5.402005e-06
122	0xb6c27ee1	-5.796421e-06
123	0xb6a5c460	-4.9402443e-06
124	0x369b67cc	4.6314435e-06
125	0x36aaa951	5.086106e-06
126	0xb4e988d4	-4.3499188e-07
127	0x36535210	3.1489217e-06

network_body.observation_encoder.rsa.fc_v.bias f4 [128]
0	0x3b659e19	0.003503686
1	0xbbd607e9	-0.0065317047
2	0x3c6482a2	0.013947161
3	0xbc471001	-0.012149812
4	0x3c325c39	0.010886245
5	0xbc49667b	-0.0122925
6	0x3b571c52	0.0032823277
7	0xbc3712b3	-0.011173892
8	0xbc49af3f	-0.012309848
9	0xbb1959c2	-0.0023399447
10	0xb886fb8a	-6.436471e-05
11	0xbbdf06e0	-0.0068062395
12	0x3c2b3261	0.010449023
13	0xbc368048	-0.011138983
14	0xbb83f783	-0.0040273084
15	0xbc0ae985	-0.008478527
16	0xbc4a9d91	-0.012366668
17	0x3ad6a1db	0.0016375141
18	0xbb884b57	-0.004159372
19	0x3c30269b	0.010751392
20	0x3ba86891	0.0051394184
21	0x3c0d51d5	0.008625467
22	0xbb8440a6	-0.004036027
23	0xbb34f803	-0.0027613647
24	0x3c423adc	0.0118548535
25	0x3c7e0eb6	0.015506437
26	0xbaae1e10	-0.0013284106
27	0x3ab1ea92	0.0013573936
28	0x3ba25173	0.004953557
29	0xbaf04f6a	-0.0018334214
30	0x3c2397cf	0.009984924
31	0xbc573128	-0.013134278
32	0xbc285921	-0.010275156
33	0x3c355e7d	0.011069891
34	0xbc4ae09c	-0.012382653
35	0xbb87d73b	-0.0041455305
36	0x3c6dd179	0.014515274
37	0x3baedb1f	0.00533618
38	0xbc176960	-0.009241432
39	0x3ba3a313	0.004993805
40	0xbb5702fa	-0.003280817
41	0xbbeb6a68	-0.0071843155
42	0x3ae34e8b	0.0017342133
43	0xbb9fb258	-0.004873555
44	0xbc111152	-0.008854227
45	0xbba5d2f9	-0.0050605503
46	0xbc0e63f5	-0.008690824
47	0xba340fa7	-0.00068687875
48	0xbb06ed97	-0.0020588392
49	0xbb742c48	-0.003725784
50	0x3abda8c2	0.0014469849
51	0xbb5ab6e9	-0.0033373183
52	0x3b96123f	0.004579812
53	0x3b400997	0.002930259
54	0xb89de616	-7.5292e-05
55	0x3bb96f0d	0.0056589902
56	0xbc9fc94c	-0.019505166
57	0xbb6e0e6c	-0.0036324514
58	0xbc0b446b	-0.008500199
59	0x3a99a536	0.001172221
60	0x3c462e77	0.012096039
61	0x3c7a1ab6	0.015265157
62	0x3bafa374	0.0053600613
63	0xbc13e748	-0.00902731
64	0xbc2a3389	-0.0103882635
65	0xbc03e4aa	-0.008050123
66	0x3afcde90	0.0019292403
67	0xbc0bf407	-0.008542067
68	0xbc8b83eb	-0.017030677
69	0x3c037bcd	0.008025122
70	0xbbd1ee0d	-0.0064065517
71	0xbc7d2cf1	-0.015452609
72	0x3b8db1c1	0.0043241684
73	0x3bf3948c	0.0074334797
74	0x3bf88e17	0.007585298
75	0xbb913eee	-0.0044325506
76	0x3c02e0c1	0.007988156
77	0xbae51250	-0.0017476771
78	0xbc0375da	-0.0080237035
79	0x38ad8d7a	8.275635e-05
80	0xba5c023d	-0.00083926675
81	0xbc0c1a9b	-0.008551265
82	0x3c51bff2	0.012802111
83	0x3b7a53ad	0.0038196847
84	0x3c7a32e6	0.015270924
85	0xbba00e8b	-0.004884546
86	0x3c830b6d	0.01599666
87	0xbc2209ad	-0.009890002
88	0xbc40d3a3	-0.011769208
89	0x3b9a6bf9	0.0047125784
90	0x3b43db54	0.0029885368
91	0x3bbe11a6	0.0058004437
92	0xbc64e61b	-0.013970877
93	0x3c07e5cf	0.008294537
94	0xbc49598b	-0.012289415
95	0x3c39ac8d	0.011332643
96	0xbb914505	-0.0044332766
97	0xbc11249f	-0.008858829
98	0xbb39cb44	-0.0028349916
99	0xbb2816ff	-0.0025648472
100	0x3c0fc7d0	0.008775666
101	0x3bc4b00d	0.006002432
102	0x3c2ec790	0.010667697
103	0x3c0abac9	0.008467385
104	0x3a991407	0.0011678942
105	0xbb594be8	-0.0033156816
106	0xbc02b1af	-0.007976933
107	0xbc04a2ca	-0.008095453
108	0xbb356a1a	-0.002768165
109	0xbbb477d3	-0.005507448
110	0x3c09c3b4	0.008408476
111	0xbbe3bceb	-0.006950011
112	0xba9cd0fe	-0.001196414
113	0x399aeaa9	0.00029548004
114	0x3b8e5a86	0.0043442873
115	0xbbb6969c	-0.0055721533
116	0xbc103c5a	-0.008803451
117	0xbb6c654e	-0.0036071124
118	0xbb430eb3	-0.00297634
119	0x3b5ee302	0.003400982
120	0xbb93cc8c	-0.004510468
121	0x3b871e7e	0.004123508
122	0xbaa86704	-0.0012848084
123	0xbc1bd998	-0.009512328
124	0xbc003ca6	-0.00782696
125	0xbba66b4f	-0.00507871
126	0x3aa30423	0.0012437146
127	0xbc2b2924	-0.01044682

network_body.observation_encoder.rsa.fc_out.bias f4 [128]
0	0x3c9e0879	0.01929115
1	0xbb871feb	-0.004123678
2	0x3c8b383a	0.016994584
3	0x3a03b469	0.00050241366
4	0xbbc24f03	-0.005929829
5	0xbc4984c6	-0.012299722
6	0x3bdeaed9	0.006795746
7	0xb9cc7610	-0.00038997876
8	0xbc53787c	-0.012907144
9	0x3b170119	0.0023041426
10	0x3b901c67	0.004397917
11	0xbc669754	-0.014074165
12	0x3c9b5a4f	0.01896396
13	0xbb1cfc53	-0.0023954108
14	0x3b16e250	0.0023023076
15	0x3ae96cc7	0.0017808907
16	0xbc22ed7a	-0.009944314
17	0x3c8a11af	0.016854135
18	0xbc3b8e8a	-0.011447558
19	0xbbc9ef66	-0.0061625717
20	0x3bad220d	0.0052836
21	0xba65d314	-0.000876711
22	0x39faeb80	0.00047859177
23	0xbc714192	-0.014725106
24	0x3cddccf0	0.02707526
25	0xbba748fe	-0.005105137
26	0xbc22fb28	-0.009947576
27	0x3bc55541	0.006022126
28	0xb953e2ec	-0.00020207063
29	0xbc89c628	-0.016818121
30	0x3c3041fa	0.010757918
31	0x3b5ff038	0.003417028
32	0xba98e098	-0.0011663614
33	0x3b8f9f48	0.0043830015
34	0xbc0e7d60	-0.008696884
35	0x3ace60f0	0.0015745442
36	0xbc8d8e7e	-0.01727986
37	0x3ba53611	0.0050418456
38	0x3c6fbc9b	0.014632369
39	0xbbf40650	-0.0074470416
40	0xb996ab87	-0.00028738027
41	0x3af3f477	0.0018612285
42	0xbb9e8851	-0.0048380275
43	0xbc3b9197	-0.011448286
44	0x3ab7ca6d	0.001402212
45	0x3c624a81	0.013811708
46	0x3b3fc88d	0.0029263825
47	0x3bee9e3c	0.0072820466
48	0x3c9e5596	0.01932792
49	0xbac19d22	-0.0014771561
50	0xbab9f262	-0.0014186616
51	0xbc3334e5	-0.010937904
52	0x3b429442	0.002969042
53	0x3bdd10ff	0.006746411
54	0xbbbc7b8b	-0.005752032
55	0x3baf447f	0.0053487415
56	0xbbcc3e98	-0.0062330477
57	0xbbcd6ae2	-0.006268845
58	0xbbc8bf24	-0.0061263014
59	0xbc4bd816	-0.012441656
60	0x3bdf347d	0.006811677
61	0x3c805b2d	0.015668476
62	0x3c137798	0.009000681
63	0x3cc0d903	0.02354098
64	0x3b429469	0.002969051
65	0xbb9bfd65	-0.0047604316
66	0x3a44cd1a	0.0007507369
67	0xbb228995	-0.0024801244
68	0xbba96124	-0.005169051
69	0x3a391dc4	0.00070616254
70	0xbc71cb7e	-0.014757989
71	0xb9c862e4	-0.00038220652
72	0xba9452b5	-0.0011316153
73	0x3a29ab28	0.00064723426
74	0x3a9b59ad	0.0011852287
75	0x3bd184d2	0.0063940072
76	0xbaefecb1	-0.0018304792
77	0xb9ecf42c	-0.0004519535
78	0x3b46e743	0.0030350245
79	0x3ca4d965	0.020123193
80	0x3b363d91	0.0027807693
81	0xbb893b25	-0.004187959
82	0x3af0421a	0.0018330247
83	0xbc8b66ac	-0.017016731
84	0xba452e0f	-0.0007521817
85	0x3c00d9d4	0.007864434
86	0xbb67293b	-0.0035272378
87	0x3c436ee9	0.0119282985
88	0x3a835915	0.0010021055
89	0xba878059	-0.0010337933
90	0xbc054b95	-0.008135696
91	0x3a8c0c04	0.0010684733
92	0x3c904b89	0.017614143
93	0x3b78c439	0.0037958755
94	0xbc086686	-0.008325225
95	0xbbf8dc8e	-0.0075946515
96	0xbb4d1925	-0.0031295505
97	0xbc421200	-0.011845112
98	0xba18a57f	-0.00058230007
99	0x3ba2db3b	0.004969982
100	0x3b94e867	0.004544306
101	0x3c0d0e7b	0.008609409
102	0xbca11ea4	-0.01966793
103	0xb9d12bd0	-0.0003989623
104	0x3b10f349	0.0022117666
105	0x3bf0f1cc	0.007353043
106	0x3c240af4	0.010012377
107	0xbb41d75c	-0.0029577827
108	0x3bea25ad	0.0071456046
109	0x3b012f5c	0.0019712066
110	0xbb655cc9	-0.0034997931
111	0xbb692438	-0.0035574567
112	0xba52712a	-0.0008027727
113	0x3be591d1	0.007005908
114	0x3a9266cb	0.0011169551
115	0xbb56e554	-0.0032790499
116	0x3c5d7d40	0.013518631
117	0xbba7cc40	-0.005120784
118	0xbbd3d4d1	-0.0064645787
119	0xbbe355f7	-0.006937738
120	0x3b140782	0.0022587483
121	0x3bcab26b	0.00618582
122	0xbbcd62b0	-0.006267868
123	0xbc2b148a	-0.010441909
124	0xbaa0baed	-0.001226274
125	0xbc2d8bef	-0.010592445
126	0x3c509f09	0.012733229
127	0x3c02440c	0.007950794

network_body.observation_encoder.x_self_encoder.seq_layers.0.weight f4 [128, 3]
0	0x3c1ad811	0.009450928
1	0x3b6c3771	0.0036043788
2	0xbcd93cd8	-0.02651827
3	0xbc061643	-0.008184019
4	0x3d0b6bf3	0.034038495
5	0x3d38c300	0.04510784
6	0x3d53e85d	0.05173527
7	0xbb88e38f	-0.0041775177
8	0x3bfcaecb	0.0077112666
9	0x3d60d04b	0.054886144
10	0x3ca6b91e	0.020351943
11	0x3ca3cde6	0.019995641
12	0xbc6cba51	-0.014448718
13	0x3c844ee8	0.016150907
14	0x3d1e5a44	0.038660303
15	0x3d042035	0.032257278
16	0x3be6d142	0.0070439884
17	0x3b6cfdf0	0.00361621
18	0x3bd09160	0.0063649863
19	0x3cdfc024	0.0273133
20	0x3c1ee0d8	0.009697162
21	0xbd145e5f	-0.03622281
22	0x3d19b802	0.037529
23	0x3b82a1d0	0.0039865747
24	0x3d1a6ae9	0.037699614
25	0x3c7d8096	0.015472552
26	0x3c2c527a	0.010517711
27	0xbd352907	-0.04422858
28	0xbc031b43	-0.008002105
29	0x3c88cf70	0.016700476
30	0x3cc56e3d	0.024100417
31	0x3b970586	0.0046088127
32	0xbccc3c34	-0.02493105
33	0xbc049360	-0.008091778
34	0xbce1f7db	-0.027584007
35	0xbb8baea7	-0.0042627635
36	0xbd443751	-0.047904316
37	0xbc2e0433	-0.010621118
38	0x3d1fd1c9	0.039018426
39	0x3d1029ba	0.035196044
40	0x3cf6254f	0.030047087
41	0x3c8eb101	0.017418386
42	0xbb015f0f	-0.0019740497
43	0x3bf96147	0.0076104733
44	0x3cd9adca	0.026572127
45	0xbc858164	-0.01629705
46	0x3cba81c8	0.022766963
47	0x3b619c4d	0.0034425438
48	0xbd44820c	-0.047975585
49	0x3b83c35a	0.0040210905
50	0x3cef1616	0.029185336
51	0x3ca71c51	0.020399245
52	0x3d2628ba	0.040566184
53	0x3abf5274	0.0014596717
54	0xbd083750	-0.033255875
55	0x3c5e0ed4	0.01355334
56	0x3c6c46d9	0.014421188
57	0x3cfead8c	0.031088613
58	0x3d238fe4	0.039932147
59	0xbd794a6d	-0.060861994
60	0xbd0b4084	-0.033997074
61	0xbd420f35	-0.047377784
62	0xbc223498	-0.009900235
63	0xbca6e074	-0.0203707
64	0xbc28019a	-0.010254288
65	0xbcc7c297	-0.02438478
66	0x3d69a226	0.057039402
67	0x3cb52b97	0.022115512
68	0x3cf29f6c	0.029617034
69	0x3cb7b2ea	0.02242418
70	0x3d038f62	0.032119162
71	0xbc9d7338	-0.01921998
72	0x3c9d06a0	0.019168198
73	0xbcbf64d2	-0.023363505
74	0xbc9b876d	-0.018985474
75	0x3cfe0c9f	0.031011878
76	0xbb3bd7e6	-0.002866262
77	0x3c1425e6	0.009042239
78	0x3cdecc60	0.027197063
79	0x3b9541e7	0.0045549753
80	0x3cee71ca	0.029106993
81	0x3d28a5f9	0.04117391
82	0x3d3c18ab	0.045921963
83	0xbb20f1c7	-0.0024558173
84	0x3c80b097	0.015709205
85	0x3bff9cfe	0.0078006973
86	0x3ca514f3	0.02015159
87	0xbd9e622f	-0.07733571
88	0x39128805	0.00013974316
89	0xbd04dfb6	-0.03243991
90	0x3cfab612	0.030604396
91	0x3b7f0e2b	0.0038918357
92	0xbd7e43a2	-0.06207622
93	0x3ca70840	0.020389676
94	0xbc213dcb	-0.009841393
95	0xbbd27ebb	-0.006423799
96	0xbcc82f98	-0.024436757
97	0x3c37ac64	0.011210535
98	0x3d1062fa	0.03525064
99	0x3d8b16ad	0.067914344
100	0x3d29357d	0.041310776
101	0xbcb4c3ad	-0.022065962
102	0xbc03c44d	-0.008042407
103	0xb9c9d9e2	-0.00038500043
104	0xbd4e3497	-0.050343122
105	0xbda06740	-0.078321934
106	0x3c8de14c	0.017319344
107	0xbd283e4e	-0.041075043
108	0x3ceec68a	0.029147405
109	0x3cf0e5c4	0.029406436
110	0xbc846144	-0.016159661
111	0xbda655f0	-0.0812186
112	0xbd5e6dfd	-0.05430411
113	0xbd02b311	-0.031909052
114	0x3bb31ca0	0.005466059
115	0x3c458bc8	0.012057252
116	0x3c9e76e6	0.019343805
117	0xbb901c27	-0.0043978873
118	0xbcbf0939	-0.023319827
119	0xbc93de6c	-0.018050395
120	0x3d3b1d06	0.045681976
121	0xbcabf6ea	-0.020991761
122	0xbc9d543f	-0.01920521
123	0xbc696f8d	-0.014247787
124	0xbd913157	-0.07089489
125	0xbd27bcd8	-0.04095158
126	0xbc2139fd	-0.009840486
127	0x3d314960	0.043282866
128	0xbbd0053a	-0.0063482793
129	0xbc6a5799	-0.0143031115
130	0xbd0e1682	-0.034689434
131	0x3c27a4f4	0.010232199
132	0x3d6363e4	0.055515185
133	0x3d2c5502	0.042073257
134	0xbc9855ad	-0.01859554
135	0xbd2ef298	-0.042711824
136	0x3ce0b0d8	0.027428076
137	0x3af1c516	0.0018445577
138	0xbd0002e4	-0.031252757
139	0xbbc52c4e	-0.0060172444
140	0xbb971d08	-0.004611615
141	0x3b3bce00	0.002865672
142	0x3d1614ad	0.03664081
143	0x3c7eb925	0.015547072
144	0xbd8828e5	-0.06648425
145	0xbd3ac7df	-0.04560077
146	0x3a692682	0.0008893983
147	0xbc9d403b	-0.019195667
148	0xba2b55c4	-0.00065359124
149	0xbb1cfed2	-0.0023955596
150	0xbcfa20f0	-0.030533284
151	0xbcc74d1f	-0.024328766
152	0xbc4ea77f	-0.012613176
153	0x3d4e941d	0.05043422
154	0xbcbb2961	-0.02284688
155	0x3d95b4e3	0.07309892
156	0x3cc57f54	0.024108566
157	0x3b1544b0	0.0022776537
158	0x3b87adbd	0.0041405843
159	0x3cf9e413	0.030504262
160	0x3d8ea3f4	0.06964865
161	0x3cdbdedb	0.026839664
162	0x3d028be9	0.03187171
163	0xbd8cd021	-0.06875635
164	0x3b863946	0.004096183
165	0xbd2575da	-0.040395595
166	0x3c57088c	0.013124596
167	0xbbd675da	-0.0065448107
168	0xbca0ae45	-0.019614348
169	0x3d9d9b40	0.07695627
170	0xbb3527fb	-0.0027642238
171	0x3d58c19a	0.052919008
172	0xbc7ca8e0	-0.015421122
173	0x3c933733	0.017970657
174	0xbd13b583	-0.036061775
175	0xbd3e76b3	-0.04649992
176	0xbc0490b4	-0.008091141
177	0xbc8e68b8	-0.017383918
178	0xbcc6d341	-0.024270656
179	0xbb0c8aed	-0.002144511
180	0xbd04c6f2	-0.03241629
181	0xbd8fad61	-0.07015491
182	0x3c7cfea1	0.015441568
183	0x3c990e7a	0.01868366
184	0xbb92ea4e	-0.0044834977
185	0xbd054a15	-0.032541353
186	0xbd3ef68a	-0.046621837
187	0xbcc2ac93	-0.02376393
188	0x3cde9cbc	0.027174346
189	0xbdb1a833	-0.086746596
190	0xbd3552c8	-0.0442684
191	0x3b8715d6	0.004122476
192	0xbd0773a7	-0.03306928
193	0x3d0b0a95	0.03394564
194	0xbc9c61b3	-0.019089555
195	0xbcb6d525	-0.022318432
196	0x3c72dc46	0.014823025
197	0xbc249e01	-0.010047437
198	0xbcde0557	-0.027102156
199	0xba3993a5	-0.00070791907
200	0x3c2a93f8	0.010411255
201	0xbd805a2d	-0.062672
202	0x3ca9c83c	0.020725362
203	0x3c149652	0.009069042
204	0xbcbc2de1	-0.022971096
205	0x3c4817cc	0.012212705
206	0xbc6bbed9	-0.014388763
207	0x3d4ea24e	0.050447755
208	0x3c0763e6	0.008263564
209	0xbb85cb6c	-0.0040830877
210	0xbcc9685b	-0.024585893
211	0xbcc6af61	-0.024253549
212	0xbcfdcd3e	-0.030981656
213	0x3c6ceaa5	0.0144602405
214	0x3d23e1fc	0.040010437
215	0xbd0af937	-0.033929076
216	0x3ce383e1	0.027772846
217	0x3c26dbea	0.010184268
218	0xbaea83b5	-0.0017892035
219	0x3c7dba42	0.015486302
220	0xbc7aeb47	-0.015314884
221	0xbb9e8c16	-0.004838477
222	0x3d2a1ce3	0.041531455
223	0x3d4a031c	0.04931937
224	0xbca5ff42	-0.020263318
225	0xbc01be5e	-0.007918922
226	0xbc969707	-0.018382562
227	0x3cb947e8	0.022617295
228	0xbccd4d8d	-0.025061393
229	0x3c17cc4d	0.009265018
230	0x3cd9d8d3	0.026592648
231	0xbcb261ab	-0.021775087
232	0x3c9e058e	0.019289758
233	0xbc35ade6	-0.011088824
234	0xbb38d60a	-0.002820375
235	0xbd92aca0	-0.07161832
236	0x3c59953a	0.013280207
237	0xbd299a92	-0.041407175
238	0x3dbd646d	0.0924767
239	0xbd503342	-0.050830133
240	0xbcd96990	-0.026539594
241	0x3d771dcc	0.06033115
242	0xba4a907e	-0.00077272195
243	0xbca6804f	-0.020324854
244	0x3c5343b8	0.012894563
245	0xbd055f45	-0.03256156
246	0xbd0ed650	-0.034872353
247	0x3d835b9b	0.06413957
248	0x3b874e38	0.0041291974
249	0x3d332bf7	0.0437431
250	0x3befc611	0.0073173125
251	0xbd6efee9	-0.05834857
252	0x3d56cc9b	0.05244122
253	0xbc84f51d	-0.01623016
254	0xbc94496c	-0.018101417
255	0x3d99094e	0.07472478

network_body.observation_encoder.x_self_encoder.seq_layers.0.bias f4 [128]
0	0xbb34ad5b	-0.0027569148
1	0x3b1fda03	0.002439142
2	0xba1a8436	-0.0005894335
3	0x3ae2730d	0.001727672
4	0xbc6f5837	-0.014608434
5	0x39a96241	0.00032307397
6	0xbbb9c403	-0.0056691184
7	0xbb61458a	-0.0034373724
8	0x38d9cf61	0.00010385994
9	0xbc227b13	-0.0099170385
10	0xbbe7e48a	-0.0070768045
11	0xba4d994c	-0.00078429724
12	0x3c01805d	0.007904139
13	0xbc53f252	-0.012936192
14	0x3c1ac1d5	0.009445627
15	0x3c8efd78	0.017454848
16	0xbb9369f2	-0.0044987136
17	0x38989027	7.274775e-05
18	0x3c440fa3	0.011966619
19	0xb9d1080f	-0.0003986959
20	0x3c2037a3	0.00977889
21	0x3c4ceddf	0.012507885
22	0x3b51c646	0.003200905
23	0x3bf32671	0.007420354
24	0x3b413ea4	0.00294868
25	0xbba6a762	-0.0050858716
26	0xbb5a06b6	-0.003326816
27	0xbc96e998	-0.018421933
28	0xbc146b98	-0.0090588555
29	0x3c2efb51	0.010680036
30	0xbc0162c8	-0.007897086
31	0xbb4d1ae6	-0.003129655
32	0x3bfb04a3	0.007660465
33	0xbcbb027d	-0.022828335
34	0xbc21c053	-0.009872514
35	0x3b16cc94	0.0023010122
36	0xbc07288a	-0.008249411
37	0x3c88e5de	0.016711172
38	0xbc53f4e4	-0.012936804
39	0x3b94536d	0.0045265467
40	0x3b83f66b	0.004027178
41	0xbb4418a4	-0.0029921914
42	0xbb1ca53a	-0.0023902194
43	0x3afc5aaf	0.00192531
44	0xbc155a02	-0.009115698
45	0x3aefe2b8	0.001830182
46	0xbbd2cfe4	-0.006433474
47	0xbb0be519	-0.002134627
48	0x3c2e63ef	0.010643943
49	0xbc4009e1	-0.011721105
50	0xbb257f77	-0.0025252977
51	0x3c39d458	0.011342131
52	0x3aae6be4	0.00133073
53	0xbaccf1cd	-0.0015636027
54	0x3abef45b	0.0014568673
55	0x3acaf1ed	0.0015483476
56	0xbc06eb6c	-0.00823484
57	0x3b112ab5	0.00221507
58	0x3c2c87bc	0.0105304085
59	0x3b928936	0.004471923
60	0x3bcc9cef	0.006244294
61	0xbc2bd2cb	-0.010487269
62	0xbb6b173f	-0.003587201
63	0xbb376759	-0.0027985184
64	0x3aa6f3ca	0.001273745
65	0xbb958475	-0.0045629092
66	0x3b163a06	0.0022922768
67	0x3a12ab1b	0.0005594955
68	0x398d816a	0.00026990037
69	0x3a9f8bd8	0.0012172414
70	0xbb2527b3	-0.0025200665
71	0xbbfa0523	-0.007630007
72	0xbbb78e42	-0.0056016752
73	0xbba04bb3	-0.0048918366
74	0xbbdefb5b	-0.0068048663
75	0xba1d44d6	-0.0005999332
76	0x3a8050f4	0.0009789751
77	0xbc048e69	-0.008090594
78	0x3c09cdd0	0.008410886
79	0x3bfc8da9	0.007707317
80	0xba9eacb6	-0.0012105915
81	0xbbebb9d1	-0.007193782
82	0x3bc58218	0.0060274713
83	0xbaf9ba83	-0.0019052777
84	0x3bcd0fb3	0.006257975
85	0x3c29a994	0.010355372
86	0xbc788ad6	-0.01516982
87	0xbb462369	-0.0030233508
88	0x3bfc80c9	0.007705782
89	0xbc0a67d3	-0.008447605
90	0x3c5b1827	0.013372458
91	0xbb280eb5	-0.0025643532
92	0xbbc9d9df	-0.0061600055
93	0x3bab796d	0.005232981
94	0x3bf27b7b	0.007399974
95	0x3aea50df	0.0017876885
96	0x3bb6c6f8	0.005577918
97	0xbc55c920	-0.01304844
98	0xbc1e921f	-0.009678393
99	0xbc29fdf4	-0.010375489
100	0x3beb1fb7	0.0071754116
101	0xbbaac0ad	-0.005210957
102	0xbc3f19ac	-0.0116638355
103	0x3b45430f	0.0030099784
104	0x3b340e53	0.0027474358
105	0x3c1daba9	0.0096234465
106	0x3b53be38	0.0032309424
107	0x3b1fe3c1	0.0024397227
108	0xba58a467	-0.0008264244
109	0x3c161299	0.009159707
110	0x3c26408b	0.010147224
111	0xbc075b2e	-0.008261485
112	0xbab67a30	-0.0013921913
113	0x3b2cf2e2	0.0026389887
114	0x3c985773	0.018596387
115	0x3b9c3e86	0.0047681956
116	0x3abea1df	0.0014544091
117	0xbbebdd56	-0.007198016
118	0xbb1330ef	-0.0022459587
119	0xbbb27af0	-0.005446784
120	0x39080ee7	0.00012975522
121	0x3c7caa16	0.015421411
122	0xbae791c1	-0.0017667339
123	0x3af56818	0.0018723039
124	0xbb8582b1	-0.0040744175
125	0xbb4d8b88	-0.0031363685
126	0x3b497079	0.0030737205
127	0x3b27282d	0.0025506124

network_body._body_endoder.seq_layers.0.weight f4 [128, 131]
0	0xbd48f663	-0.049063098
1	0xbce89f37	-0.028396232
2	0xbd770e80	-0.060316563
3	0xbd85bfa1	-0.06530691
4	0x3d9a218b	0.07525929
5	0xbd396e3e	-0.04527115
6	0xbd9591f2	-0.073032275
7	0x3d146cb3	0.036236476
8	0x3d5598b0	0.052147567
9	0x3c8e7013	0.017387426
10	0xbe3c7241	-0.1840296
11	0x3e41f720	0.18941927
12	0xbe01a46a	-0.12660375
13	0xbdb30e5c	-0.08742973
14	0x3d40cd7d	0.04707097
15	0xbdaf3cdf	-0.08556532
16	0xbd2f0fe7	-0.042739775
17	0xbe2d669b	-0.16933672
18	0xbb209f36	-0.002450896
19	0x3e3fa548	0.18715394
20	0xbca581cd	-0.020203495
21	0x3e2611e9	0.1621777
22	0xbe3816d7	-0.17977463
23	0xbc8178fe	-0.015804764
24	0xbd01edff	-0.03172111
25	0xbd8e8c7d	-0.0696039
26	0x3e1ac2e5	0.15113409
27	0xbd4b7062	-0.049667723
28	0x3e175989	0.14780249
29	0x3df237f2	0.11827077
30	0xbe86f9d2	-0.26362473
31	0xbdb01d0e	-0.08599292
32	0xbdfc85f8	-0.1233024
33	0xbe09b295	-0.1344703
34	0x3b930dea	0.0044877427
35	0x3e0e6ab5	0.13907893
36	0xbdaac100	-0.08337593
37	0x3dbdf2c8	0.092748225
38	0x3cc4090a	0.023930091
39	0x3dc145dd	0.094371535
40	0x3ab28fc7	0.0013623171
41	0x3d632a50	0.055460274
42	0xbd97a584	-0.074046165
43	0x3e1c9cc5	0.15294178
44	0x3cb9379c	0.022609524
45	0x3e0354e5	0.12825353
46	0xbe105d19	-0.14098014
47	0x3cee64c7	0.029100789
48	0xbdc2cb1b	-0.095113955
49	0x3a1d3af1	0.00059978577
50	0x3d115a5c	0.035486564
51	0x3e08c0cf	0.133548
52	0xbced287d	-0.02894997
53	0x3d3551af	0.044267353
54	0xbc9bc27a	-0.019013632
55	0xbe031e88	-0.12804615
56	0x3d317fbc	0.043334708
57	0x3e3f605c	0.18689102
58	0x3bb47b29	0.005507846
59	0x3d8eb9de	0.06969045
60	0x3c8e8731	0.017398449
61	0x3d708b45	0.058726568
62	0xbc971b69	-0.018445687
63	0x3de51887	0.11186319
64	0x3c6c7a35	0.014433433
65	0xbc0bc334	-0.008530427
66	0xbded9d3f	-0.11602258
67	0x3df43da2	0.11925818
68	0x3dcc0e3c	0.099636525
69	0xb9ab3c89	-0.00032660764
70	0x3d2a7a13	0.041620325
71	0xbdad86dc	-0.08472988
72	0x3d3d48c5	0.046211977
73	0x3db6e546	0.08930449
74	0xbdfab9ea	-0.122424915
75	0x3d48e95d	0.049050678
76	0xbcb8f1ff	-0.02257633
77	0xbd656e5b	-0.056013446
78	0x3bbc07cf	0.0057382355
79	0xbd495153	-0.049149822
80	0xbc6f4e07	-0.0146060055
81	0xbdb1f175	-0.086886324
82	0x3ce2851d	0.027651364
83	0xbddd7af7	-0.10814469
84	0xbb9a7aa7	-0.0047143283
85	0xbd0b558c	-0.03401713
86	0xbcabfd16	-0.020994704
87	0x3d760d78	0.06007144
88	0xbc8463c1	-0.016160848
89	0x3ccfa2e7	0.025346233
90	0x3c4ad3df	0.012379616
91	0xbc57c6d6	-0.013169965
92	0xbd9f9a21	-0.0779307
93	0xbde18317	-0.110113315
94	0x3e14aae4	0.14518315
95	0xbd12b584	-0.035817638
96	0xbd536f88	-0.051620036
97	0xbc914bea	-0.017736394
98	0x3e3ce474	0.18446523
99	0x3b0caf0b	0.0021466638
100	0xbde0465f	-0.10950922
101	0x3d68882a	0.05677048
102	0x3dc3c3da	0.0955884
103	0xbe42cd48	-0.19023621
104	0xbe182fda	-0.14862004
105	0x3c3af498	0.011410855
106	0x3d87cb1f	0.06630539
107	0xbd343680	-0.043997288
108	0xbd12d2d8	-0.035845608
109	0x3d954cfd	0.07290075
110	0x3c50370a	0.012708435
111	0xbd72519b	-0.059159856
112	0x3c4ca847	0.012491292
113	0x3e48d24d	0.19611473
114	0xbc6f5ee3	-0.014610025
115	0x3c89b3c6	0.016809355
116	0x3dbfaf47	0.093596034
117	0xbc808975	-0.015690545
118	0xbd134928	-0.03595844
119	0x3dd69c18	0.10478991
120	0xbd85425c	-0.06506798
121	0x3e183d64	0.14867169
122	0xbda36a36	-0.079792425
123	0x3cc80703	0.024417406
124	0x3d78f329	0.06077877
125	0x3e0e1894	0.13876563
126	0x3e340407	0.17579661
127	0x3de3d1c1	0.11123992
128	0x3ddc909a	0.10769768
129	0x3e75d8d9	0.24008502
130	0x3e7aaec0	0.24480724
131	0x3d9df048	0.07711846
132	0xbe1eb9c7	-0.15500556
133	0x3e310258	0.1728605
134	0xbe43d1de	-0.19123027
135	0xbd7b4d55	-0.061353046
136	0xbdbb4271	-0.09143532
137	0x3c924c61	0.017858686
138	0xbc3d785e	-0.011564342
139	0xbd58ac88	-0.052898914
140	0xbc1f8d72	-0.009738313
141	0xbdd9477e	-0.10609339
142	0xbb6e5030	-0.0036363713
143	0x3df2b0ce	0.11850129
144	0xbccd8a97	-0.025090499
145	0x3dd96404	0.106147796
146	0xbd260870	-0.04053539
147	0x3e4e0dcf	0.20122455
148	0x3d3ba3fb	0.04581068
149	0xbb8ed0f6	-0.004358406
150	0x3d995398	0.07486647
151	0xbc410419	-0.011780762
152	0xbd798be5	-0.06092443
153	0x3d5616dd	0.052267898
154	0x3d8d6df3	0.06905737
155	0x3d47c608	0.04877284
156	0xbd60cdf1	-0.0548839
157	0xbde50d56	-0.11184184
158	0x3dc95c54	0.09832063
159	0x3d9101f3	0.0708045
160	0xbe05edb0	-0.13078952
161	0xbda2c350	-0.07947409
162	0xbdf26dc0	-0.118373394
163	0x3c994631	0.018710228
164	0x3d2eea06	0.04270365
165	0xbda1f3f1	-0.07907856
166	0xbc9d171d	-0.01917606
167	0xbc37b0f3	-0.011211622
168	0x3d90bc5d	0.070671774
169	0xbdac3fcf	-0.08410608
170	0x3d00d4fd	0.03145312
171	0xbc854d19	-0.016272115
172	0xbe1d72ba	-0.15375796
173	0xbdaab551	-0.083353646
174	0xbc4235e3	-0.011853668
175	0xbdaaa939	-0.08333058
176	0xbd8d614c	-0.069033235
177	0xbd5cd6a2	-0.053915627
178	0x3d950404	0.072761565
179	0x3c88c7b5	0.01669679
180	0x3de8fac0	0.11375952
181	0x3d0cd9f0	0.03438753
182	0xbdb41d35	-0.08794633
183	0x3d28ea14	0.04123886
184	0x3cbd9a10	0.023144752
185	0xbd40723a	-0.046983935
186	0xbd5d52c4	-0.05403401
187	0x3d54a9e9	0.05191985
188	0x3d445cc7	0.047940042
189	0x3dd2554b	0.102701746
190	0xbdedbf9e	-0.11608814
191	0xbcb68e7b	-0.022284737
192	0x3cbf686a	0.023365218
193	0xbe15a0b5	-0.14612086
194	0x3d1eabc8	0.038738042
195	0xba16605f	-0.00057364063
196	0xbdb078d6	-0.086167976
197	0xbbcc59a7	-0.0062362733
198	0xbd0410f1	-0.03224272
199	0xbd89706b	-0.06710895
200	0x3c6c5993	0.014425653
201	0x3c4dda49	0.01256425
202	0xbdb52f21	-0.0884688
203	0x3a291a13	0.0006450724
204	0xbd8ebc70	-0.06969535
205	0x3c9df888	0.019283548
206	0x3d94e7af	0.07270753
207	0xbe34e4ca	-0.17665401
208	0x3d81fcc6	0.06347041
209	0xbd94b99a	-0.07261963
210	0x3d1d480f	0.0383988
211	0x3d29dd82	0.041471012
212	0x3e34a6df	0.17641781
213	0x3d2b3b18	0.041804403
214	0x3d51b419	0.051197145
215	0x3ca1786e	0.019710746
216	0xbd6a54c4	-0.057209745
217	0x3d07fe02	0.033201225
218	0xbe2b4d30	-0.16728663
219	0x3d5b53c6	0.05354669
220	0x3cbd4696	0.023104947
221	0xbe018a84	-0.12650496
222	0xbc1a28fd	-0.009409186
223	0xbda6b2cd	-0.08139572
224	0xbe3c8cc7	-0.18413077
225	0x3dc19d43	0.094538234
226	0xbd90cec5	-0.07070688
227	0xbdab5b54	-0.08367029
228	0xbd88014b	-0.066408716
229	0xbcf1b9c9	-0.029507535
230	0xbc29c885	-0.010362749
231	0x3e1868e3	0.14883761
232	0xbd03a6a5	-0.032141346
233	0xbce36907	-0.027760042
234	0x3de7b715	0.11314217
235	0xbddb1aed	-0.10698495
236	0x3decda9f	0.11565136
237	0x3d68a180	0.056794643
238	0x3cb9200f	0.022598295
239	0xbd49561e	-0.049154393
240	0xbd25c330	-0.04046935
241	0xbd126733	-0.03574295
242	0xbdd6494e	-0.104632005
243	0x3d8c6a9d	0.06856272
244	0xbc2d960d	-0.010594857
245	0x3da341ed	0.07971559
246	0x3def5169	0.1168545
247	0xbddbf080	-0.10739231
248	0xbe15889d	-0.14602895
249	0xbd817810	-0.06321728
250	0x3dc71831	0.09721411
251	0x3c95b754	0.018275894
252	0x3db26f8b	0.087126814
253	0xbd90c773	-0.07069292
254	0xbc977939	-0.01849042
255	0xbd88294d	-0.066485025

network_body._body_endoder.seq_layers.0.bias f4 [128]
0	0xb9d5c620	-0.0004077414
1	0xbb0bce12	-0.0021332544
2	0x3c362ea8	0.011119522
3	0x3c54a31e	0.012978343
4	0xbc2449ea	-0.010027388
5	0xba779567	-0.0009444565
6	0x3ca3cf3c	0.019996278
7	0x3c88fa50	0.01672092
8	0xbb82e18e	-0.0039941734
9	0x3ce52309	0.027970808
10	0x3bd92bd2	0.0066275382
11	0x3a799b64	0.0009521751
12	0x3b99b424	0.004690664
13	0x3c5addf8	0.013358586
14	0xbc2e3535	-0.010632803
15	0xbbf7dcf8	-0.0075641833
16	0xbc41f9f4	-0.011839379
17	0xbae33d85	-0.001733706
18	0xbb674ef4	-0.0035294862
19	0xbbbd2883	-0.0057726516
20	0x3b41d7eb	0.002957816
21	0x3cc6ab67	0.024251653
22	0xbc15b40f	-0.009137168
23	0x3b667adb	0.0035168442
24	0x3b6c7f23	0.0036086522
25	0x3aa0aa36	0.0012257758
26	0x3c3cd263	0.0115247695
27	0x3b16f521	0.0023034292
28	0x3c0f25fd	0.008737084
29	0x3c0fddfa	0.008780951
30	0x3abe2bca	0.00145089
31	0xbc4ae885	-0.012384539
32	0x3c47142a	0.012150804
33	0x3b8c61bf	0.004284113
34	0xbb10f85f	-0.0022120697
35	0xbc016e7e	-0.007899879
36	0xb898056f	-7.248937e-05
37	0x3c72c19f	0.014816671
38	0x3c22449c	0.009904053
39	0x3c9492b6	0.018136363
40	0xbc2db789	-0.01060284
41	0xbc14bed2	-0.009078698
42	0xbc67f4cb	-0.014157484
43	0xba7cebd9	-0.0009648181
44	0x3b7c5200	0.0038501024
45	0x3cd619fc	0.026135437
46	0x3c8cb31e	0.017175253
47	0xbbc0ed5c	-0.0058876704
48	0x3b808d6d	0.0039231093
49	0x3c2a7a53	0.010405141
50	0xbc04f520	-0.008115083
51	0x3b8848c0	0.004159063
52	0x3c929251	0.017892035
53	0xbba824b3	-0.005131328
54	0x3c8327d7	0.016010208
55	0xbbda93ff	-0.0066704745
56	0xbcaa8828	-0.020816877
57	0x3c1740ba	0.009231741
58	0xba9a34b3	-0.0011764973
59	0xbc6830e4	-0.014171813
60	0x3be739b7	0.0070564407
61	0x3c262a10	0.010141864
62	0x3b7389eb	0.0037161063
63	0x3bf06811	0.0073366244
64	0xbc4221b9	-0.01184886
65	0x3c5b176b	0.0133722825
66	0x3c31159b	0.010808374
67	0xbb9ed866	-0.004847574
68	0xbbeacbc1	-0.0071654026
69	0xbc2b0979	-0.01043927
70	0xbcd045ae	-0.02542385
71	0x3c45aa98	0.0120645985
72	0xbc8e9433	-0.017404651
73	0x3c0b443a	0.008500153
74	0x3bbe0a56	0.005799572
75	0x3c2c24d6	0.010506829
76	0x3a60ce76	0.0008575687
77	0x3c5bad95	0.013408084
78	0xbb93660e	-0.00449825
79	0x3b9f0055	0.0048523345
80	0xb9f6f050	-0.00047099823
81	0x3c2f8b36	0.010714343
82	0x3bddbe28	0.006767053
83	0x3b26ce74	0.0025452645
84	0x3c9f13a2	0.019418541
85	0xbc0a4a61	-0.008440585
86	0xbc9fdd2f	-0.019514648
87	0x3ac79609	0.0015227209
88	0x3b8157db	0.0039472408
89	0x3c5e32d1	0.01356192
90	0x3aacd854	0.0013187029
91	0x3c5f2fe7	0.013622261
92	0xbc9bdcfe	-0.019026276
93	0x3be0d754	0.0068616066
94	0xbb9fb9f4	-0.0048744623
95	0xbbd32893	-0.006444046
96	0xbc7f82ab	-0.0155951185
97	0x3c764cfa	0.015033001
98	0xbacd65c9	-0.0015670593
99	0xbc81dca1	-0.015852274
100	0x3b1a2885	0.0023522687
101	0xbb7a0011	-0.0038147012
102	0x3bd36b0d	0.0064519704
103	0x3bd559b2	0.0065109367
104	0x3c3a4729	0.011369505
105	0xbbbed48a	-0.0058236765
106	0x3c606e53	0.013698178
107	0x3c76c2b5	0.01506107
108	0xbb681352	-0.0035411906
109	0x3ad70360	0.0016404204
110	0x3c1c244c	0.009530138
111	0x3bd98818	0.006638538
112	0xbb842ade	-0.0040334305
113	0x3b985bf0	0.0046496317
114	0x3bbdf86d	0.005797437
115	0x3c3bbf65	0.011459206
116	0x3b9b3918	0.0047370307
117	0x3b816a61	0.003949449
118	0x3ba0c3fd	0.004906176
119	0xb9bdabd5	-0.00036176914
120	0xbb0c7a0b	-0.0021435048
121	0xbc24b837	-0.010053686
122	0xbb83bb0e	-0.0040201014
123	0x3bd1b75e	0.006400033
124	0x3b89cf11	0.0042055924
125	0x3c00a472	0.007851707
126	0xba67a0ca	-0.000883591
127	0x3af9aa2f	0.0019047911

network_body._body_endoder.seq_layers.2.weight f4 [128, 128]
0	0xbd688be4	-0.056774035
1	0x3da1f31a	0.07907696
2	0xbc492a28	-0.012278117
3	0xbe034a10	-0.12821221
4	0x3c0fd66b	0.008779149
5	0x3db48783	0.08814909
6	0x3c3e656d	0.0116208615
7	0xbe6916b2	-0.22762564
8	0xbcea37a7	-0.02859099
9	0x3d278c9e	0.040905587
10	0xbe10b566	-0.14131698
11	0x3d63b7ad	0.05559509
12	0x3dc8da1a	0.098072246
13	0x3e1f754e	0.15572092
14	0xbce75980	-0.02824092
15	0xbdce45d8	-0.100719154
16	0xbdd4d526	-0.10392217
17	0x3d3b6050	0.045746148
18	0x3e106f92	0.1410506
19	0xbd0032ca	-0.031298436
20	0x3db4a044	0.08819631
21	0xbd58705f	-0.05284154
22	0x3d224141	0.039613012
23	0x3db959fb	0.090503655
24	0xbd8b6660	-0.06806636
25	0xbc9fa577	-0.01948808
26	0x3e043c22	0.12913564
27	0x3e0d8d62	0.13823465
28	0xbc2d35fe	-0.010571955
29	0x3de37bd7	0.11107605
30	0xba6780fb	-0.000883117
31	0x3db88d59	0.09011335
32	0x3dbd7b4b	0.09252032
33	0x3dddeaa4	0.1083577
34	0xbd807c47	-0.06273704
35	0x3bc5ca87	0.006036106
36	0x3aa05997	0.0012233731
37	0x3da8ee9c	0.08248636
38	0xbdc346ac	-0.09534964
39	0x3e08eb27	0.13370954
40	0x3e014010	0.12622094
41	0xbe30f027	-0.17279111
42	0xbda4493e	-0.08021782
43	0x3afd52d7	0.0019327056
44	0xbd9d2dbe	-0.0767474
45	0xbdc172a2	-0.094456926
46	0xbcb999df	-0.02265638
47	0xbd627db6	-0.05529567
48	0xbd8d37cd	-0.06895409
49	0x3d65223b	0.055940848
50	0xbd21f65f	-0.0395416
51	0xbcaddd21	-0.021223607
52	0xbc8be2b2	-0.01707587
53	0xbdbfc2a7	-0.09363299
54	0x3d5ee88f	0.054421004
55	0x3d3a04eb	0.045414846
56	0xbc81dd7e	-0.015852686
57	0x3e11a021	0.1422124
58	0x3c965b78	0.018354163
59	0xbd5ef4af	-0.054432567
60	0x3e261b27	0.16221295
61	0xbd7e7e28	-0.06213203
62	0xbab5334c	-0.0013824492
63	0x3d55a616	0.052160345
64	0xbce98854	-0.02850739
65	0xbcc95420	-0.024576247
66	0xbc5486f7	-0.012971631
67	0xbdb3768f	-0.08762848
68	0xbe80ba64	-0.25142205
69	0xbd051dc4	-0.03249909
70	0xbcb4ad93	-0.022055423
71	0xbe034115	-0.12817796
72	0x3c98b9d8	0.018643305
73	0x3be90e78	0.0071123205
74	0xbd1c0665	-0.038092036
75	0x3dcb086b	0.09913715
76	0x3de1b4ac	0.110207886
77	0x3c670df9	0.014102452
78	0xbcbe38f6	-0.02322052
79	0x3dd0ab96	0.101889774
80	0xbdcb6a48	-0.09932381
81	0x3d6a7636	0.05724164
82	0x3c3677b7	0.011136941
83	0xbe53b81a	-0.20675698
84	0xbdaae9ac	-0.083453506
85	0xbcb1391f	-0.021633683
86	0x3d91e602	0.07123949
87	0xbc984209	-0.018586176
88	0x3d7a5506	0.06111624
89	0x3cbf6298	0.023362443
90	0xb84417fe	-4.6752386e-05
91	0xbdc01168	-0.0937832
92	0xbdba1b23	-0.09087207
93	0x3b804d08	0.003915433
94	0xbdd39a2a	-0.10332139
95	0xbdd1fd3c	-0.10253379
96	0x3cf56c91	0.029958995
97	0xbd40987a	-0.047020413
98	0x3d28125b	0.04103313
99	0x3d24a613	0.040197443
100	0x3d1476ef	0.036246236
101	0xbd90f203	-0.0707741
102	0x3c339af3	0.010962236
103	0x3d426954	0.04746373
104	0x3c9509a1	0.018193068
105	0x3db48c48	0.08815819
106	0xbd9e9270	-0.077427745
107	0xbd97e14c	-0.07416019
108	0xbd4a531a	-0.049395658
109	0x3bd91468	0.006624747
110	0xbc131bf9	-0.008978837
111	0xbcc4b729	-0.024013119
112	0xbe3bbf0d	-0.18334599
113	0x3deaaa00	0.11458206
114	0x3e004b2d	0.12528677
115	0xbcb64351	-0.022248896
116	0xbc942f3e	-0.018088933
117	0x3de5ab3f	0.11214303
118	0x3bcf74c2	0.0063310573
119	0x3d0a2175	0.033723313
120	0xbe2c1307	-0.16804133
121	0xbd2efa8f	-0.04271942
122	0xbd494e88	-0.04914716
123	0xbd5f58fc	-0.05452822
124	0x3e5333be	0.20625207
125	0x3df46b51	0.119345315
126	0x3da919dc	0.082568854
127	0x3e0ad959	0.13559474
128	0xbda10c74	-0.07863703
129	0xbcfa9270	-0.030587405
130	0x3d9b07a3	0.07569816
131	0xbdc5d942	-0.09660579
132	0xbe17bff2	-0.14819315
133	0x3d18f5a7	0.037343647
134	0x3e2a1de5	0.16612966
135	0x3de19551	0.11014808
136	0x3d49bcc7	0.049252298
137	0x3e0f30b9	0.1398343
138	0x3df468ad	0.11934028
139	0xbccd5fd6	-0.025070112
140	0x3ddb66c1	0.10712958
141	0x3c8f7750	0.017512947
142	0xbdf9a50e	-0.12189685
143	0x3c4e8cbb	0.012606795
144	0xbd3b37ed	-0.04570763
145	0x3dd06f16	0.10177438
146	0x3ded3537	0.115824156
147	0xbd887e6f	-0.0666474
148	0x3deee123	0.11664035
149	0x3dfb4754	0.12269464
150	0x3e1e63f5	0.15467818
151	0x3ceeda90	0.029156953
152	0xbc9cd789	-0.019145744
153	0x3e077175	0.13226874
154	0x3d960b60	0.07326388
155	0xbd972ace	-0.07381211
156	0xbd61a3f7	-0.05508801
157	0xbd845f08	-0.06463438
158	0xbd6bd4d8	-0.05757603
159	0xbda10116	-0.07861535
160	0x3dd61242	0.10452701
161	0xbcff1653	-0.031138575
162	0xbddc3f70	-0.10754287
163	0xbd04efb5	-0.032455165
164	0x3e1c548f	0.15266632
165	0xbc788b0a	-0.015169868
166	0xbcf49454	-0.029855885
167	0xbd414d69	-0.047192965
168	0xbd26d38a	-0.040729083
169	0xbd675a2d	-0.056482483
170	0xbda12093	-0.07867541
171	0xbe04eabf	-0.12980174
172	0xbe072757	-0.131986
173	0x3d048454	0.03235276
174	0x3e2e95f7	0.17049395
175	0xbd9064f8	-0.07050508
176	0xbd77c457	-0.06048998
177	0x3d0c63e8	0.034274966
178	0xbdf59ec5	-0.119931735
179	0x3d5c5a93	0.053797316
180	0xbd23831a	-0.03991995
181	0x3cd96cb1	0.026541086
182	0xbdacaf7d	-0.08431909
183	0xbde0bd83	-0.109736465
184	0xbcd0f8ac	-0.025509201
185	0x3c80c4c3	0.015718823
186	0xbd0f85d0	-0.035039723
187	0x3dcb3cef	0.099237315
188	0xbd97a28c	-0.0740405
189	0x3db9ea50	0.09077895
190	0xbcd47954	-0.02593676
191	0x3ca07119	0.01958518
192	0xbca57f5c	-0.020202331
193	0xbd829415	-0.06375901
194	0xbcf86d1d	-0.030325467
195	0x3d4f6e5d	0.05064236
196	0xbdb8549f	-0.09000515
197	0xbdc26919	-0.09492702
198	0xbe257728	-0.16158736
199	0x3d60d6e0	0.05489242
200	0x3c255d8d	0.010093105
201	0xbc283498	-0.010266446
202	0x3dd4cecb	0.10391005
203	0xbe3e4b9b	-0.18583529
204	0xbd80dc49	-0.06292016
205	0xbcbbb73d	-0.022914523
206	0xbd46a29c	-0.04849492
207	0x3e5df350	0.21674848
208	0x3c32dcd5	0.010916908
209	0x3ce67704	0.028132923
210	0x3bfebefc	0.007774232
211	0xbc6d508e	-0.014484538
212	0xbdcb92b9	-0.099400945
213	0x3db17620	0.08665109
214	0xbcaac482	-0.020845655
215	0xbc1ff1f5	-0.009762277
216	0xbdfcd0ce	-0.12344514
217	0xbd9c4b20	-0.076315165
218	0xbc65e92a	-0.014032641
219	0xbce24436	-0.027620416
220	0xbdeb4d4a	-0.11489351
221	0xbe298992	-0.16556385
222	0xbcdd9311	-0.027047666
223	0xbbf2c250	-0.0074084178
224	0xbdaa9736	-0.083296224
225	0xbd74b8c8	-0.059746534
226	0xbc644476	-0.013932338
227	0x3d6c94d3	0.057759117
228	0xbe2c1324	-0.16804177
229	0x3cd60a16	0.026127856
230	0x3dfa0e9b	0.12209817
231	0xbce398c2	-0.027782802
232	0xbc94834e	-0.018129017
233	0x3d5f99d5	0.054590065
234	0xbda7a288	-0.08185297
235	0x3d9e7e29	0.07738907
236	0x3d0b4c3c	0.03400825
237	0x3c0307a6	0.007997429
238	0x3e1b2a7e	0.15152928
239	0x3d3cb3d3	0.04606993
240	0x3abd4e1d	0.0014442835
241	0x3dff2a0f	0.12459194
242	0xbb8e4136	-0.00434127
243	0xbd6a0b17	-0.057139482
244	0x3dee637b	0.11640068
245	0x3e39579c	0.18099827
246	0xbde1c931	-0.11024702
247	0x3da87bbc	0.082267255
248	0x3db5d204	0.08877948
249	0x3cf2b6b7	0.02962814
250	0x3d943d14	0.07238212
251	0xbd4f0976	-0.050546132
252	0xbbb90035	-0.0056457766
253	0x3d6e4f94	0.05818136
254	0xbc9befa0	-0.01903516
255	0xbc3ade24	-0.0114055015
