Assets/Models/My Behavior-1499977.onnx (onnx, 578818 bytes, 21 tensors)

network_body.observation_encoder.processors.0.self_ent_encoder.seq_layers.0.bias f4 [128]
00000000: 2810 e6bb 08a4 b0ba 72e4 23bb a8a5 77b8
00000010: e340 3abc f114 a03b a14d 77bc a1b5 a1bc
00000020: 465c 073c 157f 37bb d4e8 6739 6dcb 9a3a
00000030: 9947 43bc 0dec 3cba a231 3f3a 2739 cb3a
00000040: 5363 d0bb ef4f 2fbb 2a45 ed3b 6ac6 e6ba
00000050: b80e cc3b f191 7cbc 238a 24bc ee02 183c
00000060: ccc1 06bc 79db c43b e217 233c 33fe 93bc
00000070: d0f9 f0bb e8e8 54bb e8c2 ea3a b9d9 67bb
00000080: aa76 573c 6051 05bb cc4d bc3a e47a 003c
00000090: 3f50 cabb 2a52 673c e416 71bc a461 10bc
000000a0: c0e2 1f3c 19f2 2bbb fe53 39bc 7a03 4e3c
000000b0: 6b79 b23a ccb0 89bb 0206 883b 4d6f 233c
000000c0: 64e3 f5bb 9ad4 f1ba 64b0 9f3c c6ce 8abb
000000d0: af0f 13bc 1af1 ca3b d2bb 513c 3358 debc
000000e0: 3306 41bb 814d 91bb f1f4 0b3c 50bc 5c3b
000000f0: deef 77bc b4ea 173b cf8e 0bbc 27d6 19bc
00000100: 547e 503b 3112 6b3c 41f2 61bc 4c54 2d3b
00000110: 2c76 31bc 393f 45bc e32a 9639 ae5b 87bc
00000120: 5364 813c 0136 363b 4671 aabc 6a4f 95bc
00000130: fc81 49bc 1585 1cbb bfa0 02bc a92e 973a
00000140: 7321 73bb 61a1 63bb 9286 763b b440 8cbb
00000150: 4dee 8b3b be2a 0ebc 79fd 073c 6fb0 963c
00000160: fcdf ccbb cd40 49bc bef1 f03b afe8 323c
00000170: 5c18 f83b d495 71bc 65f9 363b f959 e5bb
00000180: 7f9d 403b ea53 5a39 47c3 86bb 6fdf abbb
00000190: 5654 4dbc 8c23 7eba fc10 4bbb bfbf 8f3c
000001a0: cb0c 0dbc f7d3 8bba 4aa0 2abc e82c 9fbb
000001b0: 428d af3a 3e5a 193c 52f6 693c cf09 1bbb
000001c0: e1a1 153b f29d 863c 6aff f3bb 2288 213c
000001d0: 04e9 c43c 5f1d 183c d7f6 33bb 304b 3dbb
000001e0: f151 61bb 3a64 1bbc 122e 193c d108 d4b9
000001f0: 58ff ce3b b3d8 a1bb 8fb3 ad3c 3481 1e3c
-0.007020969 -0.001347662 -0.002500799 -5.904367e-05 -0.011368009 0.004885309 -0.015094192 -0.019739928
0.008261746 -0.002799933 0.00022116612 0.0011809893 -0.011918926 -0.0007206805 0.00072934676 0.0015504704
-0.0063594966 -0.0026750525 0.007240911 -0.001760674 0.0062273405 -0.0154156545 -0.0100427 0.009278042
-0.008224916 0.0060076085 0.009954425 -0.018065548 -0.0073539987 -0.0032487456 0.001791087 -0.0035377576
0.01315085 -0.0020342693 0.0014366447 0.007841799 -0.006174117 0.0141187105 -0.01471493 -0.008812342
0.009758651 -0.002623683 -0.011311529 0.012574071 0.0013616508 -0.004201984 0.004151107 0.009975267
-0.0075039137 -0.0018450201 0.01949329 -0.004236075 -0.008975907 0.0061932923 0.0128011275 -0.027141666
-0.0029453158 -0.004434288 0.008542285 0.003368158 -0.015132872 0.0023180665 -0.008517935 -0.009389437
0.0031813579 0.014347599 -0.013790668 0.002644795 -0.010831397 -0.012038999 0.00028642183 -0.016523208
0.015794909 0.0027803185 -0.020805966 -0.018226344 -0.012299057 -0.0023883034 -0.007972895 0.0011534292
-0.0037098795 -0.003473364 0.0037616831 -0.004280174 0.004270351 -0.008677183 0.008300179 0.018394677
-0.006252287 -0.012283516 0.0073530367 0.010919734 0.0075712632 -0.014745194 0.0027919647 -0.006999251
0.002939075 0.0002082136 -0.0041126343 -0.005245141 -0.012532314 -0.0009694628 -0.0030985465 0.017547486
-0.008609007 -0.0010668029 -0.010414192 -0.004857648 0.0013393539 0.009359894 0.014279919 -0.002365697
0.0022832083 0.016432736 -0.007446219 0.009859117 0.024036892 0.009284346 -0.002746036 -0.0028883927
-0.0034381116 -0.009484345 0.009349363 -0.0004044236 0.0063170604 -0.0049391626 0.021203784 0.009674359

network_body.observation_encoder.processors.1.self_ent_encoder.seq_layers.0.bias f4 [128]
00000000: 9bea 4bbb 886e b43b aa19 a33c 04f4 223c
00000010: 667b 88bc e168 8ebc 9d12 323d a9c1 b4bc
00000020: ee42 263b feaf 653d b677 d6bc 746b 7f3b
00000030: 6a85 253d 0814 22bc cf73 6ebc 46be ed3c
00000040: 1304 c03c b650 953b d383 92bc 5f5c 323b
00000050: 9ce4 b6bc 8c17 f5bb c909 4c3c 8901 49bc
00000060: b807 313c f03e 09bc 25f8 09bb d870 89bb
00000070: 7fe4 9b3c 06b3 04bd 2f5f c73c ea32 643c
00000080: 7a4d b23c d9cd 903b df16 84bc a13d 5d3c
00000090: fc5c a53b 3765 9ebb e53c b23c acc8 13bd
000000a0: 3c08 57bc c0f2 403c 2f4a ae39 5d1c bc3a
000000b0: 1848 88bc cd64 1e3b 2eb4 863b 8eee a53a
000000c0: 3444 043d fb16 633a 5049 753c 7d2a bebc
000000d0: 1eeb 29bd 959b 443c 7b08 f3bb 902f 723c
000000e0: fdb2 0fbd e966 2a3a ff2a 86bc 823a 4ebb
000000f0: 1a71 963c 85d5 87bc 9533 763a 0494 c0bb
00000100: c775 2ab9 e04a 45bc 58c9 61bc 3af1 87bb
00000110: 6808 363c ff85 afbc fe90 47bc 8350 ee3c
00000120: defc 2ebd 9135 babc a834 04bc 5749 193c
00000130: d7c8 d2bb 4efb e5bb 980e ee3c 5054 013c
00000140: 09e3 d7bc 3c11 37bb 0f2c 523b f2af 2abc
00000150: 985b fabc f781 913c 7cea cf3c 6484 e3bb
00000160: 04f8 babb 8702 033c c4e3 03bc ecfb 093d
00000170: c0b1 d93c 1140 d3bb e4e1 f3bc 9617 c13b
00000180: 10be 1ebc b79c a0bc 0a48 06bc b032 03bd
00000190: 4172 86bc 967d af39 5789 45bb e35d 97bc
000001a0: 1a5a 893c 1620 fc3c e83e 0b3c e57d 8e3c
000001b0: 8efb 87ba 2731 42bc 9c91 c03b 8469 d8bc
000001c0: 9734 90bc b8b6 243c 4aee b2bc 1256 a2bc
000001d0: 66a3 a0bc 3845 843c b281 c93c 173c 813b
000001e0: 5dd2 9abc 2c0a 75bc 3a21 c13c aa7e 113c
000001f0: 3b5e 4bbb b203 873c 4405 0e3b 1a51 533c
-0.0031115178 0.0055063404 0.019909699 0.009945873 -0.016660403 -0.017383995 0.043474782 -0.022065
0.0025369483 0.056076042 -0.02618013 0.003897396 0.040410437 -0.009892471 -0.014553978 0.029021394
0.023439443 0.0045567406 -0.017885124 0.0027215702 -0.022325806 -0.0074796136 0.012453505 -0.012268432
0.010805063 -0.008376822 -0.0021052447 -0.00419436 0.019029854 -0.032397293 0.02433738 0.0139281545
0.02176546 0.00441907 -0.016124187 0.013503463 0.005046485 -0.004833843 0.021757552 -0.036080047
-0.013124522 0.011776626 0.00033243137 0.0014351715 -0.01663594 0.0024168969 0.0041108346 0.0012659596
0.032291606 0.0008662787 0.014971092 -0.02321362 -0.04148399 0.011999984 -0.0074167824 0.014781848
-0.035082806 0.000650032 -0.016377924 -0.003146798 0.018364478 -0.016581306 0.00093918416 -0.00587702
-0.00016256339 -0.012041777 -0.013780914 -0.0041486295 0.011110403 -0.021426199 -0.012180565 0.029091125
-0.04272162 -0.02273062 -0.008069195 0.0093558645 -0.0064326334 -0.0070184832 0.029059693 0.007893637
-0.026353376 -0.0027933856 0.0032069718 -0.010417925 -0.030561253 0.017762167 0.025380366 -0.0069432724
-0.0057058353 0.007996208 -0.008049909 0.033687517 0.026574016 -0.0064468463 -0.029770799 0.0058927042
-0.009688869 -0.019605977 -0.008195886 -0.03203076 -0.016411902 0.0003347217 -0.0030141675 -0.018477386
0.016766597 0.030777019 0.008498885 0.017394016 -0.0010374652 -0.011852539 0.005876733 -0.026417501
-0.017603202 0.010053329 -0.02184214 -0.019816432 -0.019609164 0.016146287 0.024597976 0.003943931
-0.018899137 -0.014956038 0.023575414 0.008880297 -0.0031031508 0.016481254 0.002167062 0.012897754

network_body.observation_encoder.rsa.fc_q.bias f4 [128]
00000000: c269 e9bc 600c f23c 7131 b83c 8a0c ac3c
00000010: b718 8bba 3bbf b7bc c043 1a3b e53c dd3c
00000020: c5ab 2fbc 3af8 42bc 416b fd3c dd8d 353a
00000030: 3f84 15bc efee fabc 879e 8d3c b924 1b3c
00000040: c1b3 a6bb f0e3 14bd 0643 213d dbb3 4dbc
00000050: f99b 533c 91d5 273c 5513 9abc 15f5 51bc
00000060: 02a8 553b 6d19 3fba a17b 36bc 3b7e 8d3a
00000070: d933 0a3c d973 e53b 88f1 c83c 0777 2ebc
00000080: 5ae4 1cbc 1b13 1b3d 4708 963c 0279 f23b
00000090: 2864 9ebb f2db 15bd d663 45bc e733 cdbc
000000a0: 244e bdbb 93ca 0abd 5aac 98bc d7ba 923c
000000b0: 392b dcbb 17f6 cb3c 2989 973c ae4e 323c
000000c0: ca56 89bc 5db8 aa3b d1e8 803b 6e6a bcbc
000000d0: 3bf0 cabc 72ba 5d3c cca3 07ba 242b 8a3c
000000e0: 8a2d c5bc 7453 993c 39f5 ae3b c0f6 763c
000000f0: 6b7d cdbc 8876 d3bc 7277 3c3c af64 b13c
00000100: 8ea8 003d 9b28 c0bc f87f 853c bc40 033d
00000110: da0d 143d 8cd4 bd3b d925 9fbc 7796 7a3d
00000120: a750 bf3c 38a7 1ebd d69d 02bd 97f8 173d
00000130: 6b12 d5bb 5aa3 573c 7782 8ebc 3604 0c3d
00000140: f2aa 24bc 7538 0fbd 4578 37bc 97dd d03c
00000150: 54c5 563d 9b54 87bc c46e 0a3d fb30 153d
00000160: da37 633c 02c4 38bd 54ac 41bb 8f7e bdbb
00000170: 4705 5b3c 6875 c8bc 0bbf 2fb9 5c2b 0e3c
00000180: dd1f 8dbd 5abb 32bd 2c43 7ebd ea32 543d
00000190: 9c63 0d3c d9fa 2bbc 456d 97bc c745 513d
000001a0: 2968 5a3d c822 ef3c 1dd9 173d 0e9e 9d3d
000001b0: a55f a5bc 7874 e03c 4416 963d f4ab 0b3d
000001c0: ed52 8a3d a905 4dbc 3438 78bc 8cf6 603c
000001d0: 24fb af3a 9ec6 703d 6e1e 553c 5018 6a3d
000001e0: be22 653d 1e1e 12bd 8714 653d bffd 8d3c
000001f0: 348c 85bd 9dba 38bd 4f3a 95bc 8e7f 253d
-0.028492812 0.029546916 0.022484513 0.021002073 -0.0010612224 -0.022430053 0.0023538917 0.027006576
-0.010722105 -0.011900002 0.030934932 0.00069257413 -0.009125768 -0.03063151 0.017287506 0.009469205
-0.0050873463 -0.03635019 0.03937056 -0.012555088 0.012915605 0.010243789 -0.018808046 -0.01281478
0.003260136 -0.00072898605 -0.011137874 0.0010795066 0.008435213 0.0070023355 0.024529234 -0.0106484955
-0.009575928 0.037860017 0.018314494 0.007399679 -0.004833717 -0.03658671 -0.0120477285 -0.025049163
-0.0057771374 -0.033884596 -0.018636871 0.017911358 -0.0067190197 0.024897618 0.01849802 0.0108830165
-0.016765017 0.005209966 0.003934004 -0.022999968 -0.024772754 0.013533222 -0.0005174249 0.016866274
-0.024069566 0.018716551 0.0053392914 0.015073478 -0.025084218 -0.025813356 0.011503087 0.021654455
0.031410746 -0.023456862 0.016296372 0.032044157 0.036146022 0.00579316 -0.019427227 0.06117865
0.023353888 -0.03873369 -0.031888805 0.037102308 -0.0065024397 0.013161505 -0.017396195 0.034183703
-0.010050522 -0.03496595 -0.011198108 0.025496287 0.05243428 -0.016519835 0.03379704 0.036423665
0.0138682965 -0.045108803 -0.0029552178 -0.005782909 0.013367957 -0.024470046 -0.0001676047 0.00867733
-0.06890843 -0.043635704 -0.06207578 0.051806368 0.008629706 -0.010496818 -0.018484721 0.051091935
0.05332199 0.02919139 0.03707229 0.07696162 -0.020187208 0.027399287 0.073284656 0.034099534
0.06754098 -0.0125135565 -0.015150119 0.013730656 0.0013426286 0.058783166 0.013007743 0.057152092
0.055941336 -0.035673253 0.05592778 0.01733291 -0.06520882 -0.045099843 -0.01821628 0.04040485

network_body.observation_encoder.rsa.fc_k.bias f4 [128]
00000000: 009b 9ab7 e656 0e36 749c 3236 7335 7e36
00000010: e79d ef36 d97b 47b6 a34a 42b6 3668 6a36
00000020: d8c1 4cb7 76d0 ca36 654f 95b5 24a7 f336
00000030: a4be 92b6 3306 efb6 9250 4736 2e82 3536
00000040: 578d dc36 4359 5ab6 6750 1136 d027 e7b6
00000050: 8db9 dfb6 63bc 5fb6 0468 8ab6 c4b2 4e36
00000060: d219 0ab7 5385 1936 2954 a6b6 6504 00b4
00000070: 2231 ff36 5d3a 2d34 ce08 8b36 2826 c836
00000080: 4b9e 25b6 44ca 15b6 64d0 4bb6 24f8 d036
00000090: e32f a9b6 c69e 4535 845f 21b4 c09e 4db6
000000a0: 40f4 6db6 9c6b 80b6 922d 93b6 2f7d 32b6
000000b0: e480 8fb5 e7fb 3f36 fe6c e535 f9be a636
000000c0: 2224 9fb6 abee 7fb6 93d8 01b7 5c46 0b37
000000d0: 306a 3936 288d 7636 c260 38b6 b2ff 1d36
000000e0: a394 6d36 6561 de35 ba30 3f36 933a 2436
000000f0: 02a7 a636 2ed0 83b6 5a44 2236 6c4a 6d36
00000100: 0fa4 a5b5 3d24 7634 61c5 d6b5 7950 95b5
00000110: a1bd 9a35 5ff5 e0b5 db20 6533 84fd dd35
00000120: 0182 5934 6e36 0db4 3792 4eb6 a637 2a36
00000130: 4f74 d3b4 ae91 2eb6 221b b6b5 db08 cb35
00000140: af8b 34b4 e9e6 1fb6 68ef 98b5 c133 ab35
00000150: dbd1 bc35 a3fb 40b4 6bd1 57b4 852b d2b5
00000160: a8b4 b6b5 2c40 23b6 e986 1eb6 d37d 7634
00000170: 25dd 02b6 2761 06b5 167d 0736 d3b9 0c34
00000180: 3cda cab6 cbf4 a4b6 6709 c3b6 8448 e8b6
00000190: 057e 18b7 7290 2ab7 d8aa 0137 a2c7 4732
000001a0: 20a7 3837 4cff 0037 1d32 d135 07a9 fbb5
000001b0: 5fcf 76b4 e36f ee36 1e62 9834 8a9d a6b6
000001c0: 8e2a dd36 d753 bdb6 5a72 0737 f339 b4b4
000001d0: c86c 46b7 33e9 91b6 ee3a 4c37 ec92 16b7
000001e0: 1b1d 3435 385b 6f37 0df2 2cb7 fd1d f7b6
000001f0: f280 c236 99f1 f836 8b23 47b6 2d4b afb5
-1.8430408e-05 2.121023e-06 2.6615135e-06 3.788006e-06 7.1411373e-06 -2.97254e-06 -2.8951697e-06 3.4929376e-06
-1.220448e-05 6.044337e-06 -1.1124472e-06 7.261422e-06 -4.3733326e-06 -7.1234767e-06 2.970021e-06 2.7046876e-06
6.572965e-06 -3.2536489e-06 2.1653484e-06 -6.8889713e-06 -6.667519e-06 -3.3339245e-06 -4.1248295e-06 3.0800447e-06
-8.231453e-06 2.2876382e-06 -4.956983e-06 -1.1922528e-07 7.605312e-06 1.6133113e-07 4.143548e-06 5.9649064e-06
-2.4679055e-06 -2.2320464e-06 -3.0370657e-06 6.2277704e-06 -5.0421672e-06 7.3619265e-07 -1.5029042e-07 -3.0639785e-06
-3.5457924e-06 -3.8272246e-06 -4.3862465e-06 -2.6596933e-06 -1.0691842e-06 2.8607844e-06 1.709355e-06 4.9694177e-06
-4.7427757e-06 -3.8136884e-06 -7.739424e-06 8.301427e-06 2.7628957e-06 3.673902e-06 -2.7474457e-06 2.3543657e-06
3.540227e-06 1.6568634e-06 2.848958e-06 2.4472e-06 4.966628e-06 -3.9283395e-06 2.4179667e-06 3.5359071e-06
-1.2341205e-06 2.2923719e-07 -1.6001687e-06 -1.1124786e-06 1.1529083e-06 -1.6760713e-06 5.33481e-08 1.6539566e-06
2.0256995e-07 -1.315145e-07 -3.07815e-06 2.5364366e-06 -3.9386438e-07 -2.6012817e-06 -1.3567953e-06 1.5127256e-06
-1.6814623e-07 -2.3827254e-06 -1.1394559e-06 1.2755555e-06 1.4068168e-06 -1.7972938e-07 -2.0099621e-07 -1.5658885e-06
-1.3612635e-06 -2.4326246e-06 -2.3622363e-06 2.295631e-07 -1.9500233e-06 -5.0060265e-07 2.0189377e-06 1.3106119e-07
-6.045475e-06 -4.9160785e-06 -5.8125474e-06 -6.9225807e-06 -9.089247e-06 -1.0166421e-05 7.728777e-06 1.1628716e-08
1.10061665e-05 7.6888355e-06 1.5586298e-06 -1.8750151e-06 -2.2985976e-07 7.105978e-06 2.8383596e-07 -4.9655255e-06
6.5912673e-06 -5.642399e-06 8.073252e-06 -3.3569776e-07 -1.1827047e-05 -4.3484847e-06 1.2173068e-05 -8.974905e-06
6.709758e-07 1.4266749e-05 -1.0308356e-05 -7.3646647e-06 5.7966618e-06 7.4191016e-06 -2.9674e-06 -1.3060395e-06

network_body.observation_encoder.rsa.fc_v.bias f4 [128]
00000000: 6d57 db3a c2ed e4bb 1f11 323c 9e50 39bc
00000010: b7cd 303c 192e 2fbc 3007 1f38 9e27 15bc
00000020: b50b 31bc 4674 baba 9b5a 1b3b 2e93 9abb
00000030: 2c0f 223c f4e7 46bc 6df0 0cbc d511 e4bb
00000040: 1107 56bc e950 caba d101 7ebb 3752 b23b
00000050: 9d4c e23b 9f23 763c 1072 b5bb 3021 5fbb
00000060: 7199 e03b 92ca 983c 5471 45bb 7769 2c3b
00000070: f243 853b 5a80 afba 89b7 2b3c a05a ddbb
00000080: febd a7bb 2c0d 123c 2513 1fbc 09d6 aebb
00000090: 1d4d 473c 4a95 533b 89a7 bebb 9879 483b
000000a0: 249b 73bb 78b1 1abb 88ad 6f3b 3eae cdbb
000000b0: 8c67 03bc 2fbb aabb 3c8a 06bc b1f5 c13a
000000c0: fbec 91bb 8a28 bdba ad1d db39 b6ec 47bb
000000d0: b40c 803b 6841 933b aa89 3738 6514 413a
000000e0: 403e 30bc 71dc 70bb b848 e0bb 3760 87ba
000000f0: b150 253c d599 603c 977c 9d3b bf80 00bc
00000100: 1d16 0cbc bea0 07bc d6f5 2a3b 1343 ddbb
00000110: e208 5abc e4f8 8c3b 7e8e 31bb 1125 f5bb
00000120: 6c72 1db9 0b71 c23b f4ae bb3b f0f1 f8bb
00000130: e125 953b c029 29bb d7ff dbbb 726c 673a
00000140: 9737 fcb8 2839 d1bb 3dc4 eb3b 693a b33b
00000150: 15ef 4e3c ebf5 a1bb 9282 6c3c 675c 1bbc
00000160: 211d 27bc 5a71 b3ba 13ee dc37 6186 bd3a
00000170: 4c40 84bc 83b3 7a3b 9a54 35bc 38a9 493b
00000180: 8fb6 8abb 4a27 10bc 10f9 4cba dcf3 843b
00000190: d454 143c ebc3 773b 1682 1e3c 076f a13b
000001a0: 0595 d039 d9b6 adbb 9805 18bc eefa 12bc
000001b0: 7c63 67ba dc5d eabb 8495 d03b 3ea9 c6bb
000001c0: 47ca 35ba 3782 2c3a 6645 6a3b f34c bebb
000001d0: d18c 06bc 2c3b 28bb e5d1 7bbb a718 5b3b
000001e0: 363f 99bb 5deb 5e3b 553e afbb bc30 16bc
000001f0: 51b7 02bc 8973 9dbb aa18 c63a 8e7f 3bbc
0.0016734429 -0.0069863508 0.01086834 -0.011310725 0.010791234 -0.010692143 3.7915248e-05 -0.009103684
-0.010806014 -0.0014225326 0.0023705128 -0.004717252 0.009891313 -0.012140263 -0.008602244 -0.0069601336
-0.013063208 -0.001543549 -0.0038758407 0.0054419297 0.0069061057 0.015023141 -0.005537279 -0.003404688
0.006854229 0.01865128 -0.0030127363 0.002630798 0.0040669376 -0.0013389692 0.01048077 -0.006755188
-0.0051190844 0.008914273 -0.009709154 -0.0053355736 0.012164381 0.0032285028 -0.0058183116 0.0030590054
-0.0037171328 -0.0023604315 0.0036571939 -0.006276875 -0.008020293 -0.0052103023 -0.008211669 0.0014797953
-0.004453299 -0.0014431637 0.00041793045 -0.003050608 0.0039077643 0.004493881 4.375881e-05 0.0007365405
-0.010757029 -0.0036752487 -0.0068446063 -0.0010328357 0.010090039 0.013708551 0.004806112 -0.007843195
-0.008550194 -0.00827807 0.002608647 -0.0067523806 -0.013307782 0.004302131 -0.0027092989 -0.0074812253
-0.00015015312 0.005933886 0.005727643 -0.0075972006 0.0045516347 -0.0025812238 -0.006713848 0.00088281103
-0.00012026651 -0.0063849874 0.0071950243 0.0054696095 0.012630244 -0.004942646 0.014435427 -0.00948248
-0.010199816 -0.0013690398 2.6336906e-05 0.0014459604 -0.01614394 0.003825397 -0.011067534 0.0030771028
-0.0042331885 -0.00879843 -0.00078190956 0.0040573906 0.009053428 0.0037805985 0.00967457 0.0049265656
0.0003978388 -0.005301338 -0.009278677 -0.008970959 -0.0008826775 -0.007152302 0.00636548 -0.0060626557
-0.0006934744 0.0006580683 0.003574693 -0.005807513 -0.008212284 -0.0025670035 -0.0038424667 0.0033431442
-0.004676725 0.00340148 -0.0053480067 -0.009166893 -0.007978276 -0.0048050326 0.0015113552 -0.011443986

network_body.observation_encoder.rsa.fc_out.bias f4 [128]
00000000: a292 933c 7c27 05bb 45f2 863c 3bc1 703a
00000010: 951a afbb bf6f 48bc abf1 153c 7340 3eba
00000020: 8a56 3cbc a115 043b b423 283a 2a63 60bc
00000030: 7422 9d3c b99a 37ba 4568 173b 3720 783b
00000040: bde8 96bb 11c2 6e3c 4624 4fbc b290 c9bb
00000050: 0b4a 713b a644 bfbb 17e8 cb3b 1774 49bc
00000060: f382 bc3c 4097 dabb 308f 21bc 3558 ae3b
00000070: 819c 1cbb c833 5ebc dd19 3d3c 3a2f be3b
00000080: 458c 613b a164 b23b b387 2cbc c8f3 2e3b
00000090: 92b2 8ebc 92f1 183b e1df 933c f21d 2ebc
000000a0: f3bc 803a b7c2 843b 48fd cabb 1018 2dbc
000000b0: 5a1a bebb e031 4c3c 6498 e83a 59e2 f93b
000000c0: e925 8f3c 4dd5 edba ab99 1c3c 9927 40bc
000000d0: ea55 8ebb 39c0 2e3c 5887 8dbb cb2f 04bc
000000e0: c5bd 14bc c370 c4bb a29c 60bb 146e 58bc
000000f0: 2cea c53b 9a16 6b3c 8307 2c3c aff1 8e3c
00000100: 3b39 573a fc3e 973a 15b5 9aba 6586 43bb
00000110: 7ac0 bdbb 3304 ac3b 1118 6abc 053b 123b
00000120: 13c6 09bc ac99 c33b 8f72 e8b6 aae2 be3b
00000130: 1edd bfbb 42e6 2aba fe40 003c 9c17 953c
00000140: 6663 03bb 53b5 8bbb 6325 7738 68b2 52bc
00000150: 6380 5c3b 6b3e c13b 7f67 89bb 1ce6 543c
00000160: 3b31 75b9 2e62 57ba 05a8 dbbb 16f6 ab3b
00000170: 5162 bc3c 293a 2b3b 56c5 18bc 4225 0dbc
00000180: 0479 42bb 7acf 10bc b4df 9c3b 499a d23b
00000190: 2eb5 b73a c64c 303c 2b1e 9fbc 0841 1abb
000001a0: 2384 bb3a cd17 2c3c 03f4 383c cd38 63bb
000001b0: 1399 133c 7bc9 2639 3bc0 d8ba c37f 40bb
000001c0: d2fc e3ba 7b61 11bb b021 5d3b 030e 183b
000001d0: 4c9d 5f3c 9a7c 81bb 3101 aebb 56df e4bb
000001e0: b734 f03b d79e c83b ac15 acbb e44f 1fbc
000001f0: cf4a 00bc 9663 b5bb 1936 803c 8b28 633c
0.018014256 -0.0020317724 0.016472945 0.0009184067 -0.005343745 -0.012233674 0.009151856 -0.00072575285
-0.011495242 0.0020154493 0.00064140116 -0.013695518 0.019181468 -0.00070039515 0.002310292 0.0037860998
-0.0046053813 0.014572636 -0.012642926 -0.006151282 0.0036817815 -0.005837041 0.0062227356 -0.012295744
0.02301166 -0.0066708624 -0.009860799 0.0053205737 -0.0023896995 -0.01356215 0.011541811 0.0058039697
0.0034415883 0.005444125 -0.0105304 0.0026695598 -0.017419133 0.0023337347 0.01805109 -0.010627257
0.0009821936 0.004051532 -0.0061947443 -0.010564819 -0.005801481 0.012463063 0.0017745611 0.0076258597
0.017474132 -0.0018145234 0.009558122 -0.011728191 -0.004343738 0.010665947 -0.0043191127 -0.008068035
-0.009078448 -0.0059948876 -0.0034273048 -0.013209838 0.0060398784 0.01434865 0.010499838 0.017449228
0.0008210127 0.0011539157 -0.0011803234 -0.0029834744 -0.0057907673 0.005249524 -0.014287964 0.002231301
-0.008409041 0.005969247 -6.927475e-06 0.0058253603 -0.0058552166 -0.00065192964 0.007827995 0.018199734
-0.002004826 -0.004263559 5.8924208e-05 -0.012859918 0.003364586 0.0058973334 -0.004193246 0.0129943155
-0.0002338336 -0.0008216229 -0.006703379 0.0052478416 0.0229961 0.0026127195 -0.009324392 -0.00861484
-0.0029674182 -0.008838529 0.0047874097 0.0064270836 0.0014015788 0.010760492 -0.019423565 -0.0023537297
0.0014306348 0.010503721 0.011288646 -0.0034671307 0.009008664 0.00015906051 -0.0016536781 -0.0029373027
-0.0017394072 -0.0022183347 0.0033742003 0.002320171 0.013648342 -0.0039516212 -0.0053102006 -0.0069846315
0.007330503 0.006122451 -0.005251607 -0.009723637 -0.007830336 -0.005535553 0.015650796 0.013864647

network_body.observation_encoder.x_self_encoder.seq_layers.0.weight f4 [128, 3]
00000000: fa54 123c 50da 3a3b d83c d9bc 293e cdbb
00000010: 0e98 eb3c 00c3 383d c12b 603d 6978 a1bb
00000020: cbae fc3b 3894 603d 428b a73c e6cd a33c
00000030: ea5e 8ebc 89b6 713c 445a 1e3d af5e 0e3d
00000040: bdf0 f03b f0fd 6c3b f065 c53b 657f b63c
00000050: d8e0 1e3c 47a1 1fbd c5a4 123d d0a1 823b
00000060: 5ddf 1c3d d8c9 733c 7a52 2c3c 86f1 38bd
00000070: 7104 bbbb 70cf 883c 7de5 d53c 9712 7e3b
00000080: 343c ccbc f2b5 e7bb 3314 a6bc a7ae 8bbb
00000090: c3e2 4abd af11 12bc c9d1 1f3d 8527 183d
000000a0: bfdd eb3c 01b1 8e3c 91dc bdb9 c82c 233b
000000b0: caad d93c 7239 86bc df5a c43c 4d9c 613b
000000c0: a7bd 47bd 2846 de3b 1616 ef3c 5575 aa3c
000000d0: 0274 1a3d 7452 bf3a 8d16 12bd 56aa 673c
000000e0: d946 6c3c 32cb e83c 60bd 1b3d 6d4a 79bd
000000f0: c377 12bd 4707 38bd 9834 22bc 6b4b b7bc
00000100: 555a 07bc 97c2 c7bc 9c35 6a3d b2a5 af3c
00000110: 6c9f f23c 1bc4 bf3c 9a0b e43c 3873 9dbc
00000120: 8078 c13c 3683 b7bc 6d87 9bbc edc9 023d
00000130: 087e 0bbb e625 143c 96aa e63c 31bf 7f3b
00000140: ca71 ee3c 2c21 223d 0972 303d c7f1 20bb
00000150: 68c0 993c aeb5 fc3b f314 a53c f50f a3bd
00000160: 642a cf38 b6df 04bd 76b9 ff3c 380f 523b
00000170: a243 7ebd c65f a53c fa79 25bc bb7e d2bb
00000180: 717f dfbc 45ea 383c fa62 103d c279 8a3d
00000190: f5a1 283d adc3 b4bc 1087 4dbb 0d08 103b
000001a0: 9734 4ebd eb0c a6bd 6171 8e3c 4e3e 28bd
000001b0: b193 ee3c 755d f03c 4461 84bc f08c aabd
000001c0: 7e08 57bd 11b3 02bd 13d7 d23b dc16 1d3c
000001d0: e676 9e3c 6284 57ba c7a3 7cbc 6cde 93bc
000001e0: 32b5 423d 3f3a b0bc 3f54 9dbc 8a79 74bc
000001f0: e391 88bd d8bc 27bd 60e0 0cbc 8e69 303d
00000200: 3a05 d0bb 131b 74bc ade2 f5bc f4a4 273c
00000210: 37e1 683d 6dea 253d ad55 98bc 540c 39bd
00000220: 2f1b e43c 16c5 f13a b11a fcbc fc3b a7bb
00000230: 081d 97bb 7b19 943b 0f1f 053d 25b9 7e3c
00000240: 0f23 89bd 9bc9 2cbd 8226 693a 0144 a4bc
00000250: a497 2c3a d2fe 1cbb f9b9 fdbc 503a b2bc
00000260: 7fa7 4ebc 4bce 573d 9f22 c7bc e3b4 953d
00000270: 8269 ca3c 6d92 1e3b bdad 873b 7b87 f43c
00000280: ce3a 8b3d dbde db3c ca79 123d faea 8bbd
00000290: 4639 863b 435f 2abd f3c1 5e3c da75 d6bb
000002a0: b0d4 b8bc 0922 8d3d fb27 35bb 2085 5e3d
000002b0: cd0b 88bc 3337 933c eab6 1bbd 4f3c 39bd
000002c0: b490 04bc 7f5e a8bc 82ac b3bc ed8a 0cbb
000002d0: 0fd6 0cbd 66f2 87bd a1fe 7c3c c43c 9c3c
000002e0: f99a 5dbb 154a 05bd 11a5 45bd 0714 bcbc
000002f0: bc9c de3c dd50 b3bd 4286 31bd d615 873b
00000300: ca84 0fbd 1cb3 063d b361 9cbc 3d40 a8bc
00000310: ee41 7e3c 019e 24bc c850 e6bc 9637 f039
00000320: f893 2a3c 2792 84bd 63f4 ba3c 5296 143c
00000330: b301 c7bc d65a 4f3c d9be 6bbc e203 523d
00000340: 61a6 f33b 6ccb 85bb a90a e5bc 7321 bfbc
00000350: 3ecd fdbc 487a 8c3c 18b5 1d3d 37f9 0abd
00000360: 4eb0 e23c cedb 263c b583 eaba 017a 843c
00000370: 2b9e 85bc 168c 9ebb cf2d 303d cc96 443d
00000380: 42ff a5bc aa27 9bbb ec2d 50bc e847 b93c
00000390: 4294 d4bc dd8d 283c d3d8 d93c 2a19 b7bc
000003a0: 50ef a63c e6ad 35bc d690 853a 7971 88bd
000003b0: 3a95 593c ba05 31bd 1017 b33d 4233 50bd
000003c0: 82fe dfbc 50de 663d 7e90 4aba c1ab b2bc
000003d0: 86f4 513c 455f 05bd cf43 1bbd 918d 7d3d
000003e0: 384e 873b 570c 373d 1f26 e73b e9fe 6ebd
000003f0: 0ecd 5b3d 77b0 83bc 6c49 94bc aca8 9a3d
0.008931393 0.0028511472 -0.02651827 -0.0062635136 0.028759029 0.04510784 0.054729227 -0.004927684
0.0077112666 0.054828852 0.020452145 0.019995641 -0.017379243 0.014752992 0.038660303 0.034758266
0.007352917 0.00361621 0.006024115 0.022277543 0.009697162 -0.038972165 0.035801668 0.0039865747
0.038298953 0.014879666 0.010517711 -0.04515221 -0.0057073166 0.016700476 0.026110405 0.0038768405
-0.02493105 -0.00707125 -0.020273304 -0.0042627635 -0.049532663 -0.008915349 0.039018426 0.037147064
0.02879226 0.017418386 -0.00036213224 0.0024898518 0.026572127 -0.016384814 0.023969112 0.0034425438
-0.04876485 0.0067832656 0.029185336 0.020807901 0.03770829 0.0014596717 -0.035666037 0.014139732
0.014421188 0.028417204 0.0380224 -0.060861994 -0.035758745 -0.044928815 -0.009900235 -0.02237483
-0.008261283 -0.02438478 0.057180032 0.021441314 0.029617034 0.02340894 0.027837563 -0.01921998
0.02361703 -0.022401433 -0.018985474 0.031930853 -0.0021284837 0.009042239 0.028157514 0.003902387
0.029106993 0.039582416 0.043077502 -0.0024558173 0.018768504 0.0077120876 0.02015159 -0.07962028
9.878425e-05 -0.03243991 0.031216364 0.0032052528 -0.06207622 0.02018727 -0.010099882 -0.006423799
-0.027282448 0.011286323 0.03525064 0.06761505 0.04117008 -0.022065962 -0.003136102 0.0021977455
-0.050343122 -0.08107933 0.017388048 -0.041075043 0.02912316 0.029341439 -0.016159661 -0.08327663
-0.052498333 -0.031909052 0.0064343303 0.00958797 0.019343805 -0.00082213257 -0.015419907 -0.018050395
0.047536083 -0.021512149 -0.01920521 -0.014921555 -0.06668451 -0.04095158 -0.008598417 0.043069415
-0.0063482793 -0.014899033 -0.030015314 0.010232199 0.056855407 0.04050677 -0.01859554 -0.045177773
0.027844993 0.0018445577 -0.030774446 -0.0051035862 -0.004611615 0.004519639 0.032500323 0.015547072
-0.0669614 -0.042184453 0.0008893983 -0.020051958 0.00065838755 -0.0023955596 -0.030972468 -0.021756321
-0.012613176 0.05268697 -0.0243085 0.07309892 0.024708513 0.0024196163 0.0041405843 0.029849758
0.067983255 0.026839664 0.03576068 -0.068319276 0.004096183 -0.041594755 0.013596046 -0.0065448107
-0.022562355 0.06891257 -0.0027642238 0.054326177 -0.01660719 0.017970657 -0.038016237 -0.04522353
-0.008091141 -0.020552872 -0.021932844 -0.002144511 -0.03438383 -0.06638031 0.015441568 0.019071944
-0.0033814295 -0.032541353 -0.048253123 -0.022958769 0.027174346 -0.08755658 -0.04334093 0.004122476
-0.035038747 0.032885656 -0.019089555 -0.020538444 0.015518649 -0.010047437 -0.028114691 0.00045817782
0.010411255 -0.06473189 0.02282161 0.009069042 -0.024292802 0.012655934 -0.014388763 0.051273234
0.0074356054 -0.0040830877 -0.027959185 -0.02333138 -0.030981656 0.017148152 0.038502783 -0.033929076
0.02767196 0.010184241 -0.0017892035 0.016171457 -0.016310772 -0.004838477 0.043012436 0.047995374
-0.020263318 -0.004734953 -0.012706261 0.022617295 -0.025949601 0.010287729 0.026592648 -0.022350866
0.020377785 -0.011088824 0.0010190259 -0.06662268 0.013280207 -0.043218352 0.08744633 -0.050830133
-0.027343038 0.056364357 -0.00077272195 -0.021810414 0.012814647 -0.03256156 -0.037906464 0.061902586
0.0041291974 0.044689503 0.007054105 -0.05834857 0.053662352 -0.016075356 -0.018101417 0.07551703

network_body.observation_encoder.x_self_encoder.seq_layers.0.bias f4 [128]
00000000: 2267 03bb 03f3 fc3b 442b 2639 1b15 d53a
00000010: 886d 58bc 1d68 5837 e679 25ba 6644 e0ba
00000020: 2e57 363a e816 48bc 72f1 cfbb b3a2 04bc
00000030: b012 cb3b 8567 3fbc fdb3 6e3c b125 853c
00000040: 92f3 edbb 6e28 403b 5171 3a3c 5a20 c63a
00000050: 9128 f03b f746 2c3c 90d4 7d3b 61b3 3f3c
00000060: 670e 023b f2de bebb 4a50 2fbb 823e 7fbc
00000070: 2ffc 12bc c8a0 2f3c 4053 ecbb a138 3cbb
00000080: 9584 f83b 20e0 b9bc 590d 4cbc 4e2f 123b
00000090: 721d 06bc 0e2f 743c db7c 2bbc 4329 5dbb
000000a0: aff6 943b cb10 ecbb 6577 0ebb f740 34bb
000000b0: a96d f7bb 4c2a b93a 75c5 f0bb e096 033b
000000c0: 42cb ec3b 1787 55bc e70c a7bb 98bf 513c
000000d0: a1b2 9b3a 9430 d538 b37c 853a f514 8d3a
000000e0: f104 48b9 f4c6 5e3b 079b 173c 40d8 0b3b
000000f0: d8d5 213b 47e5 3dbc 7bf4 8fbb 4047 74bb
00000100: 44ec 183b 934c acbb c88c 933a 3095 c9ba
00000110: 64d2 35b9 beee 053b 2192 61bb 11a0 c8bb
00000120: 0397 b7bb 0b63 7fbb d5a8 b3bb 39bd cdbb
00000130: 8bd1 37b8 1f62 16bc 2fab 5f3b ffb0 503c
00000140: cda3 343b 0716 e9bb 0b66 073c 3c75 d7ba
00000150: c6ea c73b 7922 2d3c a524 67bc 56e3 bebb
00000160: 2db8 df3b e97b 56bc f6e1 5f3c 10c8 48bb
00000170: 6669 c1bb bcf4 333c cf9c ad3b 19c0 fe3a
00000180: a2e4 073c 9e95 1bbc 90bd eebb f2a4 49bc
00000190: f3a8 f73b 5f8c b6bb d2a1 2cbc 1c72 7e3b
000001a0: e2dc eb39 79f1 053c 96ac 183b c791 ce3b
000001b0: 2bdf cbba ec4b 223c 913b 093c e818 f4bb
000001c0: 19e3 7dba 1fdd 273b f287 883c fcc8 543b
000001d0: 578d e6ba 4cfb 25bc 4d9d 33bb 4578 7cbc
000001e0: 1eb2 f23b 80b1 7e3c dde1 a9ba 28ea 803b
000001f0: bb6b 66bb 19c5 24bb dcc3 e33a 56a5 893a
-0.0020050486 0.007719399 0.00015847111 0.00162569 -0.013209708 1.2898844e-05 -0.0006312415 -0.0017110228
0.000695574 -0.0122124925 -0.006345921 -0.008095431 0.006197296 -0.011682396 0.01456928 0.016253324
-0.007261702 0.0029320973 0.011379556 0.0015115843 0.0073290546 0.010514966 0.0038731433 0.011700482
0.001984501 -0.005824917 -0.0026750737 -0.015578868 -0.008971258 0.010719486 -0.0072120726 -0.0028720277
0.0075841644 -0.022689879 -0.012454354 0.0022306028 -0.008185731 0.014903797 -0.01046678 -0.0033746518
0.0045460085 -0.0072041503 -0.0021738645 -0.0027504542 -0.0075509143 0.0014126985 -0.0073477575 0.0020078942
0.0072263787 -0.013032696 -0.0050979736 0.012802027 0.0011878797 0.0001016568 0.0010184258 0.0010763692
-0.00019075327 0.0033993097 0.00925327 0.0021338612 0.0024694111 -0.0115903085 -0.004393158 -0.0037273914
0.0023334185 -0.005258152 0.0011257166 -0.0015379544 -0.00017339882 0.002043649 -0.0034419375 -0.006122597
-0.005602719 -0.0038968946 -0.005482773 -0.0062786606 -4.3825752e-05 -0.009178667 0.0034129133 0.012737512
0.0027563453 -0.0071132216 0.008264075 -0.0016438137 0.006100985 0.010567301 -0.014107858 -0.0058254404
0.0068273754 -0.013091066 0.013664713 -0.0030636825 -0.005902457 0.010983642 0.005298234 0.0019435912
0.008294256 -0.009496121 -0.007285781 -0.012307392 0.007557982 -0.0055709328 -0.010536628 0.0038825339
0.00044987263 0.008175247 0.0023296229 0.006303999 -0.001555418 0.0099057965 0.008376018 -0.007449258
-0.0009685024 0.0025613976 0.016666386 0.0032468429 -0.001758973 -0.010130715 -0.002740699 -0.015409534
0.007406487 0.015545249 -0.0012960989 0.0039341636 -0.0035159427 -0.0025141893 0.0017377096 0.0010501544

network_body._body_endoder.seq_layers.0.weight f4 [128, 131]
00000000: 9d39 33bd 04b8 05bd 800e 77bd 9282 a1bd
00000010: 92c1 8d3d d1a3 4bbd 9c03 a8bd 304d 4e3d
00000020: 44c1 623d ca7c 8a3c dd0d 42be 266e 343e
00000030: aea3 0bbe e190 bebd 6c21 353d 18ca aabd
00000040: 6a27 33bd 2a90 2dbe 082a a0bb 7f68 323e
00000050: daa0 e23a d791 2d3e 5fc5 38be 5b48 80bc
00000060: b5e1 b9bc 4d98 a1bd 9f31 253e c9fc 59bd
00000070: c628 223e 5def f13d 647c 89be 9636 a9bd
00000080: 8b87 06be 657b 08be 1515 6c3a abbd 003e
00000090: a1c6 9ebd ed0e c03d 2193 ae3c 3c0b bf3d
000000a0: 72cb 253c 2d2a 613d 922b a7bd b21c 223e
000000b0: cc06 073d 7271 f73d 1afd 10be 2f5b 203d
000000c0: 9595 d2bd 432e b6bb 5c95 233d 172a 013e
000000d0: aa03 06bd f770 2d3d 6320 bebc 53bd efbd
000000e0: 6ab6 233d 3521 3b3e eb84 c13b c706 8c3d
000000f0: 5076 053c 1b61 6f3d ef5e 2abc 329e f43d
00000100: baf7 433c df28 5bbc 247b e4bd daff e93d
00000110: 5a5c ba3d 69fa 4d3b 0268 3d3d 8868 b4bd
00000120: 63aa 3c3d 0270 a53d b97a 08be 1d56 823d
00000130: 13f1 edbc 4915 84bd f5c4 7d3a b11e 56bd
00000140: d2a2 96bc 6cf7 cebd d472 c23c 9e16 e5bd
00000150: fc59 21bc 4cf8 18bd 09d2 eebc 61b4 643d
00000160: c5e2 debc a5ed 8b3c a50f ba3c bf60 9bbc
00000170: e6c6 a9bd dcd5 dfbd 23b3 0a3e 2864 1cbd
00000180: 0c2d 37bd ae36 90bb 3562 3f3e f5cf 14bb
00000190: 0674 d7bd a3e3 763d 1c79 dd3d e30f 43be
000001a0: 081d 1ebe ccbe 463c 7b4e 933d 86f8 57bd
000001b0: dca9 25bd 97c2 923d 7555 1e3c 5da3 60bd
000001c0: 07fa 973c 870c 4a3e d02d c7bb 0057 2e3c
000001d0: 3d0b e13d 0cb9 eabc 3a81 10bd 4a26 f13d
000001e0: de9b 92bd f4bc 133e a631 a4bd ebe4 f73c
000001f0: 6943 4a3d c386 053e 6002 2f3e d7e4 003e
00000200: 3dc4 cc3d 49e5 6f3e 88b5 823e a37e a73d
00000210: d45e 20be 5802 313e 3045 44be 4931 82bd
00000220: 94aa bbbd a4c8 493c c5d7 80bc 66c0 62bd
00000230: 9732 21bc 0985 cebd 3122 0cbb 7b25 ff3d
00000240: a0c6 abbc fcd8 d23d 6fa2 16bd ae94 543e
00000250: 304d 2b3d 9d76 90bb 38b4 ac3d 4fff b6bc
00000260: 18ac 74bd 527b 5c3d 4769 8d3d 8afe 3d3d
00000270: d69c 5cbd 62af f4bd a389 b93d 535f 843d
00000280: f6ae 09be 75b4 96bd 1949 fcbd e539 ac3c
00000290: ba07 303d f0fa a7bd 0572 6bbc 902e 0fbc
000002a0: 33f7 953d 0b69 bbbd 52b2 133d 5a1c 8dbc
000002b0: 18d2 20be 38cd 95bd 2b9f 51bc b4f6 bfbd
000002c0: 908a 8fbd c670 66bd eafe 8f3d b7bf 943c
000002d0: 861e f23d 6dfe ec3c 3aad b4bd 8323 313d
000002e0: f352 c23c 7206 36bd a604 77bd 02b8 4f3d
000002f0: 67bd 533d f23d d23d a67c f1bd c184 a0bc
00000300: 668d 9c3c 8255 19be 3a68 273d 02f4 0d3a
00000310: 325a b5bd 55c7 43bc 9c41 cfbc 40f0 8ebd
00000320: e8ed 753c dfcc 2c3c 57ad babd b4ae 4d3b
00000330: 3fe9 8abd 3c7a b23c 48b1 893d e8f3 2fbe
00000340: bc29 953d 10c7 88bd ded2 393d 7186 413d
00000350: 5c70 383e 8df3 223d edf2 523d 47d6 df3c
00000360: b868 7cbd 30ff 2c3d debc 2dbe 7656 803d
00000370: b90b de3c e877 08be d761 2ebc d1a7 9bbd
00000380: 83fe 3cbe f934 c03d 8801 8dbd 96e3 a4bd
00000390: 1b9e 8dbd d251 f6bc eb1e afbb 6c46 163e
000003a0: a5d6 f5bc 8166 dcbc 7e67 f33d 1320 d0bd
000003b0: c93d ed3d d622 563d 8048 e53c b7da 3bbd
000003c0: ee0c 14bd e24d 1dbd 9899 e1bd 0350 7d3d
000003d0: 6d02 91bc 9f87 a43d 8748 003e 6e2f efbd
000003e0: d24e 13be 71cb 85bd bf0e c13d 64dd 6f3c
000003f0: 208d b93d 8276 92bd 2175 93bc 2583 86bd
-0.043756116 -0.032646194 -0.060316563 -0.078862324 0.06921686 -0.049716774 -0.082038134 0.05036658
0.055360094 0.016905207 -0.18950601 0.17620143 -0.13636658 -0.09304977 0.044221327 -0.083393276
-0.04373876 -0.16949525 -0.004887823 0.17422675 0.0017290369 0.16950165 -0.18044041 -0.015659502
-0.022690633 -0.07890377 0.1613221 -0.05321959 0.15835866 0.11813233 -0.26852715 -0.082623646
-0.13137643 -0.13328321 0.0009005827 0.12572353 -0.07752729 0.09377847 0.02131039 0.09328315
0.010119306 0.054971863 -0.08162607 0.15831259 0.032965466 0.12082185 -0.1415905 0.03914946
-0.10282437 -0.005559714 0.039937362 0.12613712 -0.032718338 0.04234406 -0.023208803 -0.117060326
0.039968885 0.18274386 0.0059057376 0.0683723 0.008145884 0.058442216 -0.0103986105 0.11944236
0.011960918 -0.013376444 -0.111563 0.11425753 0.09099646 0.0031429774 0.046241768 -0.08809
0.04606093 0.080780044 -0.13328065 0.06364081 -0.029045617 -0.06449372 0.0009680533 -0.052275363
-0.018388186 -0.10105786 0.023736395 -0.111859545 -0.009848114 -0.03734617 -0.029152887 0.055836085
-0.027207742 0.017081091 0.022712538 -0.01896703 -0.0828989 -0.10929462 0.13544898 -0.038181454
-0.044720694 -0.0044010496 0.18689807 -0.002270696 -0.105201766 0.060275685 0.108141154 -0.19049029
-0.15440762 0.01213045 0.07192703 -0.052727245 -0.040445194 0.07166021 0.009663929 -0.054843295
0.01855184 0.19731341 -0.0060784593 0.01064086 0.10988472 -0.02865269 -0.03527949 0.11774881
-0.071586356 0.14427549 -0.08017282 0.030260524 0.049380694 0.13039689 0.1709075 0.12587295
0.09998367 0.23427309 0.25529122 0.08178451 -0.15661174 0.1728605 -0.19167018 -0.06357057
-0.091633946 0.012315903 -0.015727887 -0.055359267 -0.009838722 -0.10083968 -0.0021382684 0.12458321
-0.020968735 0.10295293 -0.036776002 0.20759842 0.04182166 -0.004408671 0.084328115 -0.022338537
-0.059734434 0.053828545 0.06904846 0.046385325 -0.053860508 -0.11947514 0.09059455 0.06463494
-0.13445649 -0.07358638 -0.1231863 0.0210237 0.04297612 -0.082021594 -0.014370446 -0.008739129
0.0732254 -0.09150895 0.03605873 -0.017225433 -0.15705144 -0.07314533 -0.012794296 -0.09373227
-0.070088506 -0.056259893 0.07031043 0.018157823 0.11822228 0.028929913 -0.08822103 0.043246757
0.023721194 -0.04443974 -0.060307167 0.050712593 0.0516943 0.102657214 -0.11791353 -0.019594552
0.019110393 -0.14974025 0.040870883 0.0005415083 -0.08855094 -0.01194938 -0.02529984 -0.06979418
0.015010335 0.010546892 -0.09115093 0.0031384649 -0.067827694 0.021786802 0.06723267 -0.17182887
0.07283351 -0.06678593 0.045367114 0.047247354 0.18011612 0.03978305 0.051501203 0.027323855
-0.061623305 0.042235553 -0.16966578 0.06266491 0.0271052 -0.1332699 -0.010643444 -0.07600368
-0.18456464 0.09385104 -0.06885058 -0.08051221 -0.06914922 -0.030068312 -0.005344262 0.14675301
-0.030009577 -0.026904346 0.11884974 -0.10162368 0.1158405 0.052279316 0.027988672 -0.04586288
-0.036145143 -0.038404353 -0.11015624 0.061843883 -0.017701352 0.0803368 0.12527667 -0.11678968
-0.14385536 -0.06532944 0.09426641 0.014640186 0.090601206 -0.0715151 -0.018000187 -0.065679826

network_body._body_endoder.seq_layers.0.bias f4 [128]
00000000: 97aa 7b3b d203 0aba 7384 423c 8cf8 813c
00000010: c88c 26bc 5985 f23b 7073 ad3c 358b 8f3c
00000020: d623 31bc ce5f 143d 28e0 043c 261e 1cbb
00000030: 4a63 ee3b 8c3d 5a3c d38f 8bbc a0da 07bc
00000040: 20a2 1dbc 9ca2 62bb 1277 0bbc 2ca8 d3bb
00000050: c501 a03a 3db9 e13c 8b44 2ebc 8fca 853b
00000060: fc90 bf3b f9eb 363c 2cc3 5a3c 88ca 933b
00000070: 124d d93b c5a2 0c3c f555 80bb bb3e c4bb
00000080: 05cd 313c 8591 df3b 4d63 0bbc df26 00bc
00000090: 1807 a53a f3f9 873c 75c3 ae3c 983f 6c3c
000000a0: 15c8 8abc 2eb8 55bc 3a15 7abc 123a 803b
000000b0: dae2 663b bfe8 e53c e92c a93c b975 b7bb
000000c0: a393 683c 5aef 0a3c 0270 33bc 3051 1b3c
000000d0: 5a5d 863c 4c8f 86bb a17d b93c 6c2b 06bc
000000e0: aa0e 90bc 4add 723c 2c59 92ba a2b3 c7bc
000000f0: e314 233c d8b3 b33b c883 fd3a 6967 3a3c
00000100: 9a61 8abc e468 b23c 2bed 593c 59d5 ecba
00000110: feae a6bb d2aa 49bc b933 8dbc a495 4b3c
00000120: c1e3 24bc 26f0 f63b 3675 2d3c b724 0f3c
00000130: 4a8e ceb9 b7b6 943c 51e8 49bb 2c2f 373b
00000140: 5e3d b1bb 1a3f 983b 3141 bf3b c9b6 083c
00000150: 62f4 a73c 05e6 76bb 1e7f a8bc 99f7 cbbb
00000160: b5d3 923a f781 8d3c 6027 0d3b c061 243c
00000170: 0281 aabc ff7b 8d3c d923 47bc ab43 25bc
00000180: 01d3 89bc 6f89 253c 8541 f2bb c685 bbbc
00000190: ea91 943b 1979 37bc a2a7 2a3c 2d7b ab3b
000001a0: 62ac 973c 25f3 2dbb 0dbd 273c 4ea6 c63c
000001b0: b367 c5ba b6ff 233b 9149 003c 2c73 7839
000001c0: 2261 7ebc a131 703c ce65 023b a728 853c
000001d0: 5251 593c 5c91 0e3c 6309 a83b 0ef3 90ba
000001e0: 9ba1 4a3a 65f4 50bc e12a 27ba 99e6 fb3b
000001f0: 7f72 e63b b27d 0f3c 7f58 c03a 3bad ab3b
0.003840124 -0.00052648515 0.011872399 0.015865587 -0.010165401 0.00740115 0.021173209 0.017522434
-0.010811767 0.03622418 0.008110084 -0.002382168 0.00727502 0.013320338 -0.017036354 -0.00829187
-0.009621173 -0.0034581786 -0.008512275 -0.0064592566 0.0012207559 0.027554149 -0.010636459 0.0040829848
0.005846141 0.011164659 0.013352197 0.0045102276 0.006631502 0.008583729 -0.003916497 -0.0059889234
0.010852103 0.006822767 -0.008507562 -0.007821768 0.0012590615 0.016598677 0.021333436 0.014419459
-0.01694111 -0.0130444 -0.01526385 0.0039131725 0.003523043 0.028065084 0.020651298 -0.0055987504
0.014195356 0.008479917 -0.010951998 0.009479806 0.016401935 -0.004106438 0.022642912 -0.0081890635
-0.017585117 0.014823267 -0.0011165491 -0.024377648 0.00995371 0.0054840855 0.0019341642 0.011377194
-0.016892243 0.021778531 0.013301174 -0.0018068954 -0.0050867787 -0.012308793 -0.017236577 0.012425814
-0.010064066 0.007535952 0.010587027 0.008736781 -0.00039397395 0.018153531 -0.0030808637 0.00279517
-0.005408927 0.004646194 0.005836629 0.008344361 0.020502273 -0.0037673723 -0.020568427 -0.0062245843
0.001120201 0.017273886 0.0021538362 0.010033071 -0.020813469 0.01727104 -0.012154543 -0.010086934
-0.016824247 0.0101035675 -0.0073930644 -0.022890937 0.004533996 -0.0111983055 0.010415943 0.0052331896
0.018514816 -0.002654263 0.010237944 0.024249222 -0.0015060812 0.0025024242 0.00783004 0.00023694028
-0.015526088 0.01466027 0.0019897106 0.016254736 0.013264017 0.008701649 0.005128072 -0.0011058764
0.00077297696 -0.012753581 -0.0006376934 0.0076874015 0.007032692 0.008757995 0.0014674811 0.0052391565

network_body._body_endoder.seq_layers.2.weight f4 [128, 128]
00000000: 69cb 7ebd 507f 9f3d 7ed8 74bc 930d f9bd
00000010: cdf2 c53a 65d7 bc3d f0d4 a43c cc64 5dbe
00000020: f897 f8bc f9d5 523d fbaa 0fbe ddab 863d
00000030: 0d4b da3d 8905 1e3e a640 5abc 252d e4bd
00000040: 75f5 f8bd 4829 413d 8365 163e e066 29bd
00000050: a81c b43d c7c0 3fbd c9cf 253d 878c c73d
00000060: 18e4 91bd ac6f 16bc 577d 083e fd34 1c3e
00000070: 7b34 5bbc efe3 e83d 73aa 1ebc ce44 c33d
00000080: cc26 cb3d 9549 eb3d 09c5 3dbd 6867 ef3b
00000090: ff9b 44bc 0002 b23d c961 aebd 6618 f43d
000000a0: 1d93 fe3d 9474 2cbe 7a61 b0bd f538 d23b
000000b0: ea40 a6bd b9a9 b6bd 6463 2bbc a1dd 79bd
000000c0: 3ce4 a8bd 4966 7d3d e777 14bd dd17 96bc
000000d0: 617b c4bc 1c5c e3bd 97ac 6a3d 14dd 413d
000000e0: fe48 67bc e10d 173e c066 9e3c 87ab 51bd
000000f0: a750 2c3e 60aa 88bd af14 583b 43f8 5e3d
00000100: 7ce5 d8bc 602c cebc 1e88 8fbb 8bc7 babd
00000110: 6a0e 89be 9524 01bd f4e2 10bd 33a3 02be
00000120: f123 a23c 5bcc 133c 3bb5 0abd 00bc e13d
00000130: 21a4 ec3d 514d 803c fc15 88bc fdd2 da3d
00000140: 9638 dcbd f9d4 6c3d 7767 453c d8a3 69be
00000150: 75e8 a3bd 9ea5 2cbc a2af 933d 48ab cdbc
00000160: 4916 703d 9a86 f83c fe2a a3bc 35e7 c3bd
00000170: 730c abbd 5da4 f7bb 2bd5 efbd 2ee5 cdbd
00000180: 456e bf3c 1e41 1fbd 6844 043d 2316 263d
00000190: 6017 3e3d 08af 7cbd fb05 713c a69a 473d
000001a0: b79e cb3c f988 bc3d 6622 8bbd caa3 90bd
000001b0: 4ac3 44bd 4a15 7cbb e802 413b ae90 89bc
000001c0: f440 37be d22d f83d 8e94 e43d 3b8b 24bd
000001d0: 30bd 29bc 7fcc e53d badf 703c e640 fc3c
000001e0: 9e76 26be bb7f 22bd a0b6 29bd 1996 7abd
000001f0: 7ba5 5f3e d8b5 013e 0d83 9c3d 5481 053e
00000200: beb4 9bbd dcf0 bdbc b99b 993d 7e2d c9bd
00000210: 716d 1ebe 7e2d 3e3d 3584 263e 1de9 e53d
00000220: ea3d 583d 0864 103e 8c20 003e a84e 8ebc
00000230: 1e1d e23d 9a23 c03c e5ee e8bd 5abd 513b
00000240: 2de7 8dbd 61bc d73d ba3f f23d 0729 7abd
00000250: 692c f63d b123 fd3d f945 233e 4d14 023d
00000260: 8e3b 6fbc 899e 0b3e d58c 9b3d cd44 a4bd
00000270: 7420 62bd da71 94bd 54de 83bd 478b 9bbd
00000280: 6d55 df3d fc82 d2bc 4806 dfbd 0461 13bd
00000290: 8982 193e 2a91 15bc 3e6d d0bc a6b1 40bd
000002a0: c65f 17bd d92f 4fbd 8f99 93bd 77ee 07be
000002b0: 11cf 15be bc27 183d 5c8e 323e 5759 8bbd
000002c0: 4417 82bd 1be4 163d 50c8 f5bd b8d9 653d
000002d0: 7c3a 0fbd 6382 983c d8b7 a9bd c25b d1bd
000002e0: dbe5 abbc 57b7 8e3c 536f f9bc 4a21 da3d
000002f0: 8906 92bd 0459 b33d f8da c4bc f477 cf3c
00000300: 0c8a 62bc 0bbc 70bd 0e0a 15bd 4fc6 563d
00000310: b53e b3bd ee12 c5bd 556e 29be eec8 6f3d
00000320: e40a 8c3c a47c e6bb 37d1 df3d 997e 41be
00000330: 7a54 7abd 440a 5dbc 744e 3abd f645 623e
00000340: 0d02 0d3c 2b7b 123d 81e0 273c 50b9 2dbb
00000350: a6f9 d1bd 812a bc3d 0189 85bc 81e6 1abc
00000360: cb16 f4bd df3e 99bd b66b 8bbc ddfb c1bc
00000370: 4fc6 fdbd 2153 30be 3a7a bebc 849f c1bb
00000380: 64e2 abbd c7e6 74bd e132 9bbc 9d8c 803d
00000390: 2305 2fbe 6fff db3c 0819 043e eb96 bebc
000003a0: 7b1e 84bc 9d22 393d e9d7 a0bd 9b6a a33d
000003b0: c17c 383d 11f2 703c 7214 243e c663 473d
000003c0: dc32 283c 6fa3 043e ccd9 f3b9 5238 77bd
000003d0: 7228 f23d 397c 403e fcc2 dabd 4106 ae3d
000003e0: 458e c43d 1460 0a3d df8a a43d 2c56 38bd
000003f0: 7121 08bc 4388 7f3d 470c a5bc 8a40 92bc
-0.062205706 0.07787955 -0.014944194 -0.12160792 0.0015102267 0.09220771 0.020121068 -0.21620482
-0.030345902 0.05147359 -0.14030068 0.06575749 0.10658846 0.15431799 -0.013321077 -0.11141423
-0.12156192 0.04715851 0.14687161 -0.041357875 0.08794528 -0.046814706 0.040481362 0.097436
-0.071235836 -0.009181898 0.13329063 0.15254588 -0.013379212 0.113716 -0.009684193 0.09534608
0.09919509 0.11488644 -0.046330485 0.007306028 -0.012000083 0.08691788 -0.08514745 0.11918716
0.124304034 -0.16841346 -0.08612342 0.006415481 -0.0811785 -0.08919091 -0.010460708 -0.061002377
-0.08246657 0.061865125 -0.03624716 -0.018321926 -0.023984613 -0.11101553 0.0572935 0.047329977
-0.014116524 0.14751388 0.019336104 -0.05118897 0.16827641 -0.066731215 0.0032971313 0.05443598
-0.026476614 -0.025167644 -0.00438024 -0.09120091 -0.2676881 -0.031529028 -0.03537269 -0.12757568
0.019792529 0.00902089 -0.03386424 0.11022186 0.115547426 0.015661867 -0.016612045 0.10684774
-0.107529804 0.057820294 0.012048594 -0.22816408 -0.08003322 -0.010537533 0.07211234 -0.025106087
0.058615003 0.03033762 -0.019917961 -0.095655836 -0.08351984 -0.0075574354 -0.117105804 -0.10053478
0.02336801 -0.03888046 0.0322918 0.040548455 0.04640901 -0.06169036 0.0147108985 0.04873147
0.024855955 0.09205813 -0.0679367 -0.0706249 -0.048037805 -0.0038464838 0.0029451195 -0.016792621
-0.17895871 0.121181145 0.11161147 -0.040171843 -0.010360047 0.11220645 0.014701778 0.030792665
-0.16256186 -0.039672595 -0.04143393 -0.0611783 0.2184047 0.12667024 0.076421835 0.13037616
-0.07602833 -0.02318614 0.07500405 -0.0982313 -0.15471436 0.046430103 0.1626137 0.112261035
0.05279342 0.14100659 0.12512416 -0.01737149 0.1104071 0.023454476 -0.113736905 0.0032003731
-0.06928859 0.10533977 0.11828561 -0.061074283 0.12020189 0.12360323 0.15944661 0.03175764
-0.014601601 0.13634695 0.07595221 -0.08020935 -0.05520673 -0.07248278 -0.0643889 -0.075949244
0.109049655 -0.025697224 -0.1088987 -0.035981193 0.14991201 -0.009128848 -0.025442716 -0.04704442
-0.03695657 -0.05058274 -0.07207023 -0.13274561 -0.14629771 0.03714727 0.17437118 -0.068041496
-0.06352094 0.036838632 -0.12001097 0.056115836 -0.034967884 0.01861686 -0.082870185 -0.102225795
-0.020983627 0.017421408 -0.030448591 0.10650881 -0.07130153 0.08757213 -0.024030194 0.025325753
-0.013826858 -0.05877308 -0.036386542 0.052435216 -0.08752195 -0.09622751 -0.16545995 0.05854123
0.017095037 -0.0070339013 0.109285764 -0.1889595 -0.06111572 -0.013491217 -0.045484975 0.22097
0.008606446 0.035761993 0.010246397 -0.002650816 -0.10252695 0.091877945 -0.01630068 -0.0094543705
-0.1191841 -0.07482695 -0.017019134 -0.023679668 -0.1239134 -0.17219211 -0.023251642 -0.0059089083
-0.0839279 -0.0597904 -0.01894516 0.0627682 -0.17091803 0.026855199 0.12900174 -0.023265323
-0.016127815 0.045199025 -0.078536816 0.07979318 0.04504085 0.014706151 0.16023424 0.048679136
0.010266032 0.1295297 -0.00046510843 -0.060356446 0.118241206 0.18797387 -0.106817216 0.084972866
0.09597448 0.033783033 0.080343 -0.045004055 -0.008308754 0.06238581 -0.020147456 -0.01785304

network_body._body_endoder.seq_layers.2.bias f4 [128]
00000000: 347e 043c 89cd 6b3c dc78 d33c 3ca7 dcb9
00000010: 41c5 94bc 4775 f63b 9200 a73b 69ef 083b
00000020: fd8c f43c 8ff6 3e3c 15dc 84bb 9404 e53c
00000030: f8d4 ddbb 21b6 e03b 0a41 123b 3e8c 173c
00000040: 52bd 31bc 684e 8dbc 2689 9a3b 9b25 0d3c
00000050: 7d3e cb3b aefa 843b 694a 243c e04f 8cbc
00000060: 3614 70bb d6cb 0f3c 0b71 32bb 2fc4 9fba
00000070: d3d6 aeba eb61 2a3c 9315 88bb 8822 32bc
00000080: 53d6 6f3c 8b34 303c 37c1 8cbc 03ef ad3a
00000090: d32c a73b 2776 b83b 344c 5c3c 2f39 05bc
000000a0: 2536 2ebb 501d 0e3b d2d1 063c a37a 53bb
000000b0: c148 923a 9731 f8bb 4760 b4bb 4f08 2ebc
000000c0: 0fbe 87bb 602f c1ba 2a18 e33b 09a5 033a
000000d0: 2db8 203c 637e 543b 58b4 f439 c012 38bc
000000e0: 53ef 313c bbed 7cbb fe2e feb9 85db 4abb
000000f0: 0bd3 633b ff5e 303b c2d5 863c a971 853a
00000100: 75f8 353c cce6 283a 15f6 383b 6233 5d3b
00000110: 33d7 1fbc 93cc af3a f7e8 a93c 7619 813c
00000120: 9080 163c 0747 443c 4f74 a0bb 3015 583b
00000130: 9008 d23b 142b 6cbb 5212 00bb 5fdc ec3a
00000140: ee3f 033c b370 74bc 5dad e53b 39f4 febb
00000150: 5ec6 1bba d5c0 0c3c dc6a 74bb e4dd 3fbc
00000160: 9815 e3bb b6e5 d73b bef2 c73b 0c52 14bc
00000170: 65a5 9f3c c643 2d3c 1d8a 0bbc 308a 113c
00000180: 70a8 ea3b df99 fb3a bb36 133c 29b0 87bb
00000190: af75 27bc 0f49 333c 35ab 683c 96ce 283c
000001a0: fd03 223b df06 22bc b17f 993c 7964 bcbb
000001b0: ac44 3f3c 5a06 6dbc 1c36 f1bb 4866 07bc
000001c0: 575a 6639 f299 b23c 8197 0e3c 06a0 223b
000001d0: 9799 b43c 6ea0 0dbc 491f 893b 39d1 233c
000001e0: 3842 033c 611e ed3b 6885 95bb 97cd 97bb
000001f0: 713f 103c f9cf 213a 82b0 be3b 9741 ed3b
0.00808673 0.014392265 0.025814466 -0.0004208627 -0.018160464 0.007521305 0.0050965035 0.0020894653
0.029852385 0.011655464 -0.004054556 0.027956285 -0.0067697726 0.006857649 0.0022316598 0.009249745
-0.01084836 -0.017249301 0.0047160564 0.008614923 0.0062025175 0.0040582037 0.010027506 -0.017127931
-0.003663314 0.008776626 -0.0027228023 -0.0012189205 -0.0013339169 0.010399322 -0.0041529625 -0.010872491
0.014638501 0.010754715 -0.017181976 0.0013270084 0.005101779 0.005629319 0.013445903 -0.008131309
-0.0026582566 0.0021684952 0.008228736 -0.0032269142 0.0011160598 -0.007574271 -0.005504641 -0.010622098
-0.00414253 -0.001473885 0.006930371 0.00050218456 0.009809536 0.0032423965 0.00046673673 -0.011234939
0.010860282 -0.0038593847 -0.00048481667 -0.0030953598 0.0034763243 0.002691209 0.01645935 0.0010180968
0.0111066 0.0006443083 0.0028222848 0.003375255 -0.009755897 0.0013412408 0.02074097 0.015759211
0.009185925 0.011979825 -0.0048966776 0.0032971613 0.006409712 -0.0036036419 -0.001954217 0.0018071047
0.0080108475 -0.014919448 0.007009192 -0.0077805785 -0.000594234 0.008590897 -0.0037295138 -0.011710618
-0.0069300644 0.006588663 0.006101935 -0.009052765 0.019488046 0.0105752405 -0.0085168155 0.008883044
0.0071611926 0.0019195637 0.008985217 -0.004140873 -0.010220929 0.0109427115 0.014200975 0.01030316
0.0024721615 -0.0098893335 0.018737646 -0.005749282 0.0116740875 -0.014466846 -0.0073611867 -0.008264132
0.00021968163 0.021801922 0.0087031135 0.002481462 0.022045894 -0.008644206 0.0041846377 0.009998613
0.008011393 0.0072362875 -0.0045630224 -0.0046326625 0.008804188 0.0006172653 0.005819381 0.007240485
