Assets/Models/My Behavior-2000047.onnx (onnx, 578818 bytes, 21 tensors)

network_body.observation_encoder.processors.0.self_ent_encoder.seq_layers.0.bias f4 [128]
00000000: 5504 85bb 0240 a2bc 24ec c7bb d1a6 a03b
00000010: 11f3 87bb dbb3 99bb bbae 97bc 1e41 41bb
00000020: c127 8abb 6f8e b93b b515 3239 02e5 eaba
00000030: ef12 603a a4f1 d739 de2f 0ebc 1367 30bc
00000040: 6360 11bc 00b4 adbc 8412 0fbc 9e31 983c
00000050: 11ab faba 0309 153c a010 103c 7c9b 8eba
00000060: a329 d43b 1c92 84bb 5e99 3b3c 104a e2bb
00000070: ad14 b9ba 1864 ecba 444e 37bb f578 15bc
00000080: aca6 e9bb de1b 4a3c 0d00 ce3c 2bdd bfbb
00000090: ae16 6bbc ad8a 913a df22 713c 82b7 f63b
000000a0: 2b56 01bc 7ee8 e43a c480 b93b 196d 3ebc
000000b0: ab7e 033b 6418 8fbb 9f0f b93a 1f93 c1bb
000000c0: b363 b73c e50b debb d4e0 fa3b 5fa8 3fbb
000000d0: 9b88 5d3c 2b43 db3c 2437 38bc 2d0b 26bc
000000e0: 573d 30bb f155 89bb 7f1b f3ba e657 3fbc
000000f0: 16f8 cabb 00ed 0dbc bde8 8fbc d1ea 15ba
00000100: 8744 d4bb 4b6e 473c 42e6 883c d949 c73b
00000110: fea0 6dbc 14e3 11bc 8016 edbb b49a f8bb
00000120: 2070 f6bb 447a 56bb f735 59bc a6c2 f83b
00000130: 382b 5abc 9b7c 19ba 5338 94bc 52b9 1cbb
00000140: 575e 67bc 6ef6 c73c 21df 9bbb 3f11 443b
00000150: 38c2 713c 01b5 aabb 499c 33bc c745 9e3b
00000160: 5333 e2bc f0ea 3a3b ab2c 023c 761a 943c
00000170: 5004 10bc 3036 f2bb fa4e 0f3a c2a8 84bb
00000180: 7c2a d13b 48d0 17bc 703c b8bb 8273 ad3b
00000190: d349 efba 81bd c83c af58 92ba b6c9 70bc
000001a0: 3630 9cbc c1e0 6dbb f45f aa3a 0e73 8c3c
000001b0: b3f7 12bc b405 013d d562 3b3b b878 f3bc
000001c0: 88a1 463c d626 913c b800 cabc c83b 78bb
000001d0: 1377 873c f28a 50bc 0c81 99bc 6c71 bdbb
000001e0: 3e21 2939 c808 b33b 9e35 1a3c 76ef f0bb
000001f0: c7b4 8d3c 95fe d13c f18e ba3c 5adf 47bc
-0.0040593543 -0.019805912 -0.006101148 0.0049026986 -0.004148849 -0.00469063 -0.018515935 -0.0029488276
-0.004216165 0.0056627314 0.0001698349 -0.0017921033 0.0008547743 0.00041188032 -0.008678405 -0.010766762
-0.008873078 -0.021203995 -0.008732442 0.018578347 -0.0019124468 0.009096387 0.008793026 -0.0010880078
0.00647469 -0.004045738 0.01145014 -0.0069058016 -0.0014120542 -0.0018035201 -0.0027970234 -0.009123077
-0.0071304645 0.012335746 0.025146509 -0.0058552227 -0.014348669 0.0011103951 0.014717787 0.0075292
-0.007894079 0.0017464308 0.005661102 -0.011622691 0.0020064514 -0.0043669213 0.0014119035 -0.005907431
0.022386407 -0.0067763203 0.007656196 -0.0029244644 0.013521339 0.026765427 -0.011243615 -0.0101345
-0.002689203 -0.004191153 -0.0018547623 -0.011678671 -0.006194125 -0.008662462 -0.017567033 -0.00057188893
-0.0064778957 0.012172292 0.016711358 0.0060818014 -0.014503716 -0.008904237 -0.007235348 -0.0075868014
-0.0075206906 -0.0032726685 -0.013257495 0.0075915633 -0.013315968 -0.00058550545 -0.018093264 -0.002391417
-0.014121613 0.024409499 -0.0047568236 0.0029917506 0.014755778 -0.0052095656 -0.010962554 0.0048300955
-0.027612364 0.0028521381 0.00794522 0.018079024 -0.008790091 -0.0073917136 0.00054667855 -0.004048438
0.0063832384 -0.009265967 -0.005622439 0.0052933106 -0.0018256254 0.024504425 -0.0011165346 -0.014696529
-0.019065958 -0.0036297294 0.0012998567 0.017144706 -0.008970189 0.03149958 0.0028592844 -0.02972065
0.012123473 0.017718714 -0.024658546 -0.003787743 0.016536271 -0.01272844 -0.018738292 -0.005781343
0.0001612948 0.0054636933 0.009412197 -0.0073527647 0.017298115 0.02563409 0.022773238 -0.012199247

network_body.observation_encoder.processors.1.self_ent_encoder.seq_layers.0.bias f4 [128]
00000000: 6b00 ebbb 8ca1 c1bb 434a 803c 7aa0 0f3b
00000010: 9321 a8bc 1c72 1dbc b0df 2d3b 1d36 35bc
00000020: 048e b3bc 307f 83bc 6d70 a5bb 67a6 7f3b
00000030: 5368 433d d957 a63b d85d 483c 30b9 0a39
00000040: c8a8 6fbc 1fa9 af3c eb96 68bc 2103 4ebc
00000050: 2f3a 04bb b0ee 44bb 195e 873c 0fa6 4f3b
00000060: 7b00 ac3b 2998 84bc ac2f 8d3c 3fa5 60bb
00000070: 8e7c 133b bfbb 173a 226e 8d3b 6e83 4bbc
00000080: 4cd1 453c a59b 10bc cbf5 e3ba 4c5d 5dbc
00000090: 71dc 953b 7ee3 8bbc dd58 a7bb 4d6b 913c
000000a0: 7836 0e3b 3206 c3ba cb83 1ebb 7366 03bc
000000b0: 10f3 ff3a 1e5a b63c 0153 413b 9a4a c8bc
000000c0: d4a0 583c 925b f5ba 486d a33b b575 5abb
000000d0: 6d8e bd3b 1835 78bc 2ac6 9b3c e487 78bb
000000e0: df25 c1bb dac5 813a d20f 443b de2b 21bd
000000f0: aa98 1a3b 80c7 2cbc 390b 9fbc 493e 9fbb
00000100: 138d 8f3b e79f c2ba dc1e a6ba eee7 aabb
00000110: 601a 3bbc e323 0e3d 4128 86bb 7f63 a43b
00000120: a6b1 1d3d ac4c 093d dafb ddbc 91c8 053a
00000130: 4771 6f3b 520b 7e3b 8291 1ebd 3d42 29bb
00000140: 0ed2 e9ba 0669 93bb a81f 033c 2ae7 babb
00000150: 2c72 a5bc ebca fb3c 7b5d 9dbc d19b 66bc
00000160: cabf d7ba f0ac b23c 2c1c a4bc 91fe a63c
00000170: 7612 bfbc ad1d 4c3b dc3f 6a3c 86dc d43a
00000180: c5b1 6cbc 4488 64bb 88d9 a1bc 971f fcbc
00000190: 5f6f cbba 2045 b8bc 4191 abbc 8b38 e0bb
000001a0: 86e5 663c f277 1d3d 9b3f cc3a 678d 85bb
000001b0: 0915 52ba 869a c93b a51b 48bc 60ff db3c
000001c0: cc5e a1bc dc74 82bc 56b1 67bc 45d6 16bd
000001d0: a4dd f1bc 6f9a 12bc 8874 953c f81d 9cbb
000001e0: 0441 1c3c 633f c03a 4aae a2bc 29e3 75bc
000001f0: ed96 4d3d be9a 623c 30c7 07bc c80a 793c
-0.0071716807 -0.0059091505 0.01566041 0.002191572 -0.020523822 -0.009609725 0.0026531033 -0.011060265
-0.021918304 -0.016051859 -0.0050488026 0.0039009096 0.047706913 0.00507639 0.012229405 0.00013229693
-0.014627643 0.021442948 -0.014196138 -0.012573988 -0.0020176282 -0.0030049495 0.016524361 0.0031684672
0.0052490807 -0.016185837 0.017234646 -0.0034278182 0.002250466 0.0005788169 0.0043161074 -0.012421472
0.012073826 -0.008826171 -0.0017391978 -0.013511013 0.004573398 -0.01707625 -0.005107029 0.01775136
0.0021699946 -0.0014879166 -0.0024187441 -0.008020031 0.0019527394 0.022259768 0.0029498937 -0.024449635
0.013221938 -0.0018719307 0.0049873926 -0.003333432 0.0057848007 -0.015149377 0.01901539 -0.0037922794
-0.005894407 0.0009900883 0.0029916656 -0.039348476 0.002358953 -0.010545611 -0.019414531 -0.00485972
0.004380831 -0.001484868 -0.0012673992 -0.0052156365 -0.0114198625 0.034702193 -0.004094154 0.0050167437
0.038499497 0.033520386 -0.027097631 0.0005103434 0.0036536024 0.0038764072 -0.038712986 -0.0025826835
-0.001783909 -0.0044986038 0.008003153 -0.0057038264 -0.020196043 0.030736407 -0.019209614 -0.014075235
-0.0016460356 0.021810979 -0.020032965 0.020385059 -0.023324233 0.0031145618 0.014297452 0.0016240038
-0.01444668 -0.003487126 -0.019757047 -0.030776782 -0.0015520862 -0.022493899 -0.020943286 -0.006842678
0.014092809 0.038444467 0.0015582921 -0.0040756944 -0.0008013999 0.006152454 -0.012213622 0.02685517
-0.019698523 -0.015924864 -0.014141401 -0.036825437 -0.029524632 -0.008947953 0.018244043 -0.0047643147
0.009536985 0.0014667328 -0.019858498 -0.0150077725 0.050192762 0.013830839 -0.008287236 0.015200324

network_body.observation_encoder.rsa.fc_q.bias f4 [128]
00000000: 828d 28bd 73b8 033c 6d89 2bbd d715 963d
00000010: a892 f5bb 9954 84bd 743d 86bd 537c cebc
00000020: 6e6a 7b3d 588e eb3b 182f 1b3d 25c6 913d
00000030: f6e4 db3c bf6a 003d 0b25 2f3c 815f cd3b
00000040: 2aa4 2bbb 9c8e 22bd 3bb6 c1bc 179a f53a
00000050: 4da5 8d3d 0262 7b3d cf99 ac3c b018 383d
00000060: 6eb8 38bd 690e a9bc 0734 6c3d dd85 3c3d
00000070: b032 12bd 55b0 3e3b 1a12 3e3d a584 02bb
00000080: e608 3bbc 5175 83bd 920a 263d d364 103d
00000090: dbbb 4abd 8cd5 d7bb 93dd abbc ae9f d13c
000000a0: 8617 573b 4d89 1cbc 9f3c 35bd 4459 9fbc
000000b0: 4f85 1f3d bc0a 3cbd 8309 fb3b 3b90 9a3d
000000c0: 6c46 86bd 70a8 753d b6b4 013c 70ea 4cbc
000000d0: c15a b3bb 049c fc3c 3c0d c53c 5ba7 ad3c
000000e0: 3785 293d 1322 793d 0d5a 903b 0d9c dabb
000000f0: 339f 5fbc 6ee2 363d fe24 88bb f86d 92bc
00000100: f1a6 703c 0e17 8a3d 4569 a43d 13b9 ae3d
00000110: 9430 59bd b6bf c23c 67de b53d 6fbd 9a3d
00000120: cd3d 203d d159 4cbd 34a2 b63d ffa9 02bd
00000130: 103b 003d 4068 653d 601b 85bd e588 d9bd
00000140: 2229 9bbc 767a 323d 9c73 2fbd 4dab 4abd
00000150: 8e0f 89bd 1d26 9bbd d775 8a3d 53b1 6ebd
00000160: b7b9 a0bd fe67 0d3b bd56 c2bc 493b c3bc
00000170: d5db b73d 5656 b3bd abc7 443d 0907 bb3d
00000180: a821 e73c a2a0 afbd 3cc7 b3ba 5b79 79bd
00000190: 02f0 d0bc a4ec 02bb 1df1 c7bd afbd a7bc
000001a0: da15 4dbc 7373 653c 22b0 57bd 6fcb 40bc
000001b0: 7c0b 76bd 62db 303c 975c 1bbd 18db 1abd
000001c0: 39c2 943c 93c2 003d 4cc0 d73c f5c1 603d
000001d0: 469e 353c 8fd3 3a3d 29e8 2c3b b411 afbb
000001e0: 9d62 a6bd 3d5f cbbc 78a5 48bd 5c3b 80bd
000001f0: 551d 003d 2380 b7bd 5356 063d 770e 4e3d
-0.041150577 0.008039582 -0.041879106 0.07328384 -0.0074942894 -0.06461448 -0.0655469 -0.025205767
0.061380796 0.0071885996 0.03788671 0.07117871 0.026842576 0.0313518 0.010689984 0.0062674885
-0.0026190379 -0.039686784 -0.023646465 0.0018737939 0.06916294 0.061372764 0.021069435 0.04494542
-0.04509776 -0.020636754 0.057666805 0.0460261 -0.03569287 0.0029096801 0.04640398 -0.0019915488
-0.011415696 -0.06418861 0.040537424 0.035252403 -0.04949556 -0.006586736 -0.020979678 0.025588837
0.0032820418 -0.009554219 -0.044247266 -0.019451745 0.038945492 -0.045908675 0.007661046 0.07547041
-0.06556401 0.059975088 0.00791662 -0.012507066 -0.005473465 0.030836113 0.024054162 0.021197965
0.04138681 0.06082351 0.004405266 -0.0066714347 -0.013648796 0.044649534 -0.0041548004 -0.017874703
0.014688239 0.067426786 0.08027891 0.08531394 -0.053024843 0.023773056 0.088803105 0.07555663
0.039121438 -0.049890343 0.089176565 -0.031900402 0.031306326 0.056007624 -0.06499362 -0.10621814
-0.018940512 0.04357382 -0.042834863 -0.04947977 -0.0669242 -0.07575629 0.067607574 -0.05827458
-0.07847922 0.0021576877 -0.023723 -0.02383198 0.089774765 -0.08756702 0.04804198 0.09132201
0.02821429 -0.0857556 -0.0013715993 -0.06090675 -0.02550507 -0.0019977475 -0.097627856 -0.02047619
-0.012517417 0.014004576 -0.052658208 -0.011767252 -0.060069546 0.010794492 -0.037930097 -0.0378066
0.018159019 0.03143556 0.026336811 0.05487247 0.011085099 0.045611914 0.0026383495 -0.0053426865
-0.08124278 -0.024825687 -0.04898593 -0.06261322 0.031277973 -0.08959987 0.03279717 0.050306763

network_body.observation_encoder.rsa.fc_k.bias f4 [128]
00000000: 4db0 cbb6 2535 2fb7 3792 8036 674d 01b6
00000010: 7912 4f37 1991 8237 de44 adb5 1d0d 5d37
00000020: 2db1 4ab7 082c 2db6 2043 81b7 d02e 6db7
00000030: 2d24 aab6 2d87 a7b7 4783 cbb6 de78 bc36
00000040: 0c5e e6b6 a674 cd36 c88a 7eb7 c9df 1eb7
00000050: febb 66b6 1363 8bb7 7793 adb7 f155 8c35
00000060: 5468 8536 0e8f 57b7 7132 7db7 0cbd 7ab6
00000070: ad88 49b7 e688 f3b4 aa51 f3b7 fdb8 f137
00000080: bf8e 34b7 816d 8637 d240 17b7 8ad7 11b5
00000090: 0e29 a537 0931 05b7 9190 3c37 d146 32b7
000000a0: 9e08 c536 9939 9336 70c1 aa35 27b6 0f36
000000b0: f524 b936 1936 e435 939f 8eb6 fbb4 61b7
000000c0: b6ca d336 dd32 a2b7 f7d6 2e36 34a6 b836
000000d0: 4e1a 3f36 500d 4db5 8156 5f35 b105 32b6
000000e0: 2335 8335 44b4 74b7 1ae2 2c37 9109 3937
000000f0: 55f6 9eb6 afd5 1bb6 04f3 74b7 caf6 75b5
00000100: 036d ad36 0889 2cb7 729a 5db7 2229 45b7
00000110: 9599 1a37 5857 c5b6 f9a3 68b7 909a 81b7
00000120: bca4 17b7 b28d 0f34 2672 0836 eb6d 4437
00000130: 76a1 10b6 cf44 92b7 fa8a 9737 50d6 e036
00000140: 76d7 1836 5ccc 5cb7 4e0d c936 cb95 4c37
00000150: 5bf9 8d35 98b6 5e36 780c acb6 9d5c 6a36
00000160: 41ca d837 2dc2 5bb6 d319 02b6 5ff7 6eb6
00000170: ce8a 50b6 93eb 9235 542f c0b6 5e39 c1b6
00000180: 2c4e 0cb5 9ca3 b6b6 edbe 8eb6 6507 91b6
00000190: 4eec c536 995e 3b36 a18f d8b6 b06f b235
000001a0: 58cd b6b4 7cf6 b436 1578 8f36 b819 8936
000001b0: 8dd3 e2b5 bc21 4737 522a 6a35 1173 1ab4
000001c0: b32e 6236 e885 e336 f7c0 fa36 e76b 2b37
000001d0: bd5f b5b6 71f0 7db6 9fa2 99b6 d216 d4b6
000001e0: 3e37 01b7 f2c6 8937 f4f7 d3b6 ea53 7fb6
000001f0: 520e 1eb7 be6e 0d36 571d e035 1d53 02b6
-6.0703956e-06 -1.04431865e-05 3.831719e-06 -1.9267552e-06 1.23424625e-05 1.5564774e-05 -1.2909547e-06 1.317568e-05
-1.208139e-05 -2.5804638e-06 -1.5409256e-05 -1.41372e-05 -5.070606e-06 -1.9970897e-05 -6.065154e-06 5.6169074e-06
-6.8654826e-06 6.1230558e-06 -1.5171892e-05 -9.469638e-06 -3.4382097e-06 -1.6616226e-05 -2.0691876e-05 1.0455825e-06
3.9758543e-06 -1.2848306e-05 -1.5091719e-05 -3.7362943e-06 -1.2012356e-05 -4.5361884e-07 -2.9005885e-05 2.881558e-05
-1.0762072e-05 1.6025037e-05 -9.0153935e-06 -5.433036e-07 1.968865e-05 -7.938835e-06 1.1239333e-05 -1.0626115e-05
5.8720607e-06 4.3876466e-06 1.2722285e-06 2.1414687e-06 5.517732e-06 1.7003068e-06 -4.2505067e-06 -1.3453183e-05
6.3118887e-06 -1.933559e-05 2.6053146e-06 5.502976e-06 2.847653e-06 -7.6387823e-07 8.3199853e-07 -2.652738e-06
9.775725e-07 -1.4585505e-05 1.0304642e-05 1.1029087e-05 -4.7374438e-06 -2.322118e-06 -1.4600115e-05 -9.162874e-07
5.1684924e-06 -1.0283904e-05 -1.3208586e-05 -1.1751692e-05 9.214874e-06 -5.8812257e-06 -1.3866455e-05 -1.5449972e-05
-9.038657e-06 1.3369461e-07 2.0332022e-06 1.1708103e-05 -2.1551655e-06 -1.7436598e-05 1.8065319e-05 6.7006695e-06
2.277518e-06 -1.3160603e-05 5.9918157e-06 1.2194224e-05 1.0577891e-06 3.3186861e-06 -5.127451e-06 3.4922625e-06
2.5843388e-05 -3.2746568e-06 -1.9386541e-06 -3.5608753e-06 -3.107521e-06 1.0946409e-06 -5.7275556e-06 -5.7585266e-06
-5.226782e-07 -5.4430693e-06 -4.2541565e-06 -4.3221976e-06 5.898567e-06 2.7920235e-06 -6.4540222e-06 1.3294539e-06
-3.404955e-07 5.3931126e-06 4.2757115e-06 4.085912e-06 -1.6899882e-06 1.1869179e-05 8.7233377e-07 -1.4384229e-07
3.3703807e-06 6.780716e-06 7.4730447e-06 1.0217517e-05 -5.4053658e-06 -3.7839893e-06 -4.578687e-06 -6.320749e-06
-7.701861e-06 1.6424314e-05 -6.3171556e-06 -3.8046805e-06 -9.420868e-06 2.1075098e-06 1.669784e-06 -1.9419888e-06

network_body.observation_encoder.rsa.fc_v.bias f4 [128]
00000000: a722 023b 0f9f 20bb 64c7 45bb ff3e b6bb
00000010: 39ea 60bb 859a 37ba 3a3b 41bb 0f08 11bb
00000020: 61c9 5cbb 0b62 cd39 0165 29bb 2950 533a
00000030: 7f53 193b 746b 8dbc f593 aabb d1fd 2b3b
00000040: 7686 1f3c 0fb4 ccbb 1b52 6d3a cda1 bdbb
00000050: 78f1 1cbc 0097 68bc 0ca8 aa3b cd03 8cbb
00000060: ce3c 65bb b813 e53b 68eb b6ba c4a6 28bc
00000070: c0a5 ccb9 f783 39b9 9fb0 b43b a0b8 343b
00000080: 78ff ce3b 1ff9 8a3a d152 5cbb 366b 9dbb
00000090: abc1 dbbb fe51 bbb9 0bf7 703a b520 24bb
000000a0: e61e 55bb f920 3fbb 119b db3b fa0b 623b
000000b0: 1863 a73b 913d b43b e1e4 103b ae36 803b
000000c0: 91e2 3a3b 41bf 7e3b 8675 94bb 0503 673c
000000d0: b223 1dbb f3c3 d1b9 d3fa 6e3a e98f 64bb
000000e0: 295e ad3b d02b 14bc 7268 2a3c 3825 2fba
000000f0: 0c90 673b e2f0 4f3a f299 963c acc0 863b
00000100: 9f20 5e3b a36d 2fbb 566c 55bc d78c fdbb
00000110: 7357 183c 406d 0cbc cfba fdba 15bc bcbb
00000120: c270 a7bb b854 0e3c 4bac 243c e4ca eaba
00000130: 3d44 d43b d4f4 d939 0636 7eb9 d507 e63b
00000140: 244f 84bb f6ce 963a e0f1 df3b 0043 303c
00000150: a016 9cbb 16f5 72bb 56e8 02bb 35f7 09bc
00000160: 037b 42bb 2a2c 003c 02b7 e7ba 1c94 4c3b
00000170: 643f b23b 7560 e8ba b79c 273c 4311 c73b
00000180: 3a37 0d3c a390 303b 2450 62bb 8789 8e3b
00000190: 2a9d 473c bd0d 433b 2eb9 ce3a 7406 6e3b
000001a0: 9efc d93b b740 8c3b 729a b8ba 2d6b 0e3b
000001b0: de9e 36bb 451a 6abb 1a00 d1bb 4482 eeba
000001c0: dcaa 25bb 9600 48bb 79cc cdbb 90d4 4e3c
000001d0: e60f 1d3c 3b41 d33b df7a af3a 3f0a 353a
000001e0: 34cc 48bb ce4d 1ebb c618 b1bb b3b8 193c
000001f0: c61a 1d3c e2bc aab8 63b3 1b3a 449e 8d3b
0.001985708 -0.0024508869 -0.003017866 -0.005561709 -0.0034319295 -0.0007003921 -0.0029484765 -0.0022130047
-0.0033689367 0.00039173695 -0.0025847557 0.0008060956 0.0023395715 -0.017263152 -0.005205626 0.0026243816
0.009736648 -0.0062470506 0.0009053067 -0.0057871104 -0.009579055 -0.014196157 0.005208021 -0.004272914
-0.003497887 0.006990876 -0.0013955655 -0.010293666 -0.00039033405 -0.00017692136 0.005514219 0.0027575865
0.0063170753 0.0010602808 -0.0033618698 -0.0048040403 -0.0067064366 -0.00035728508 0.00091920857 -0.002504391
-0.0032519638 -0.002916394 0.006701835 0.0034492002 0.0051082484 0.0055005034 0.0022109079 0.0039127683
0.0028516392 0.003887132 -0.0045306114 0.014099841 -0.0023977575 -0.0004000958 0.0009116355 -0.0034875816
0.005290766 -0.009043649 0.010400878 -0.0006681266 0.0035333661 0.00079323177 0.018383954 0.0041123237
0.0033893955 -0.002676823 -0.013026318 -0.0077377367 0.009298193 -0.008570969 -0.0019358041 -0.005759726
-0.0051098773 0.008687191 0.0100508435 -0.0017913249 0.006477861 0.00041571876 -0.00024243453 0.0070199766
-0.0040377546 0.0011505771 0.0068342537 0.010758162 -0.0047634393 -0.0037072352 -0.0019974909 -0.008420755
-0.0029675371 0.0078230295 -0.0017678442 0.003121621 0.0054396857 -0.0017728942 0.010230235 0.006075056
0.008619124 0.002694168 -0.003453263 0.0043498906 0.012183467 0.0029762827 0.001577174 0.0036319764
0.006652429 0.0042801755 -0.0014084114 0.0021731362 -0.0027865688 -0.0035721224 -0.006378186 -0.0018196781
-0.0025278842 -0.0030517927 -0.0062804786 0.012623921 0.00958631 0.006446985 0.0013388059 0.0006906129
-0.0030639293 -0.0024155262 -0.0054045646 0.009382415 0.009588903 -8.141414e-05 0.00059395115 0.0043218452

network_body.observation_encoder.rsa.fc_out.bias f4 [128]
00000000: dc40 56bb b95b 153c 1e6b 0cbc df7c 8fbb
00000010: 286c d4bb be3b cf3b 46fb 4dbc 7041 d1bb
00000020: 5d1a c13b 1a83 813b e9fd f8b9 c233 c43b
00000030: 26ca 053c dd74 d63b df11 4abb 4a88 08bb
00000040: d303 09bc b14a e23a f310 1ebc 2f24 09bb
00000050: d2b7 09bb 7478 b9ba e6ef 1e3b a5d4 af3b
00000060: b11b 303c bad0 4ebb e548 b63b 680f 4c39
00000070: b99d 8bbb 0d6a d5ba b6ac caba 44f5 323a
00000080: 033c 61bc 8df1 e4ba 0ca3 373c a653 aaba
00000090: ee51 30bc 9225 623b 8567 2d3c 164b eeb9
000000a0: ea34 ecbb 8cc5 3c3a c0b7 2d3c ac14 33bb
000000b0: f1d3 ce3b efde 8f3b 54d6 813c c4ee 8abc
000000c0: e8d2 043c c3c6 5a3c 0c75 4b3c 5584 313b
000000d0: 704c 873a e3ff 1b3c 7b76 75bb 854b ec3b
000000e0: 769b 0bbc eb53 ec3b 8787 4e3a 7b51 5ebc
000000f0: ada4 1a3b cbf5 a9bb 4a2d 6cbc 8647 0cb9
00000100: 3cc9 a9bb 8a72 b23b 5172 df3b 5176 fabb
00000110: 73c4 853b ff2c e43a 3cd7 99b9 a16d b13a
00000120: 7e63 f83b b9ed 2cba 59c1 53bb 9301 983c
00000130: 2563 5cbb 905b 093b 2000 77bc 030c 303c
00000140: ea55 7bbc 4007 373c b803 66bc 71db 8b3a
00000150: d990 d53a 75f5 0bba 2564 9fbb 97d7 af3b
00000160: 96d8 42bc f0fe 933b 9e60 d43b 7627 773c
00000170: 52ed 90bb 7484 00ba df42 e73b ca2d 1bbc
00000180: 56da 78bb cbec 8abb 656e d8bb 7153 90bb
00000190: 9a53 2e3c dd48 d83a 9c46 c7bb 2e14 fbbb
000001a0: a90b 21bc 8b88 d53a 526d e33b 4a37 6b3c
000001b0: 95f5 84bb 0461 753b 6121 1cbb 115b c3bc
000001c0: 3946 2b3c 3205 c83b 15bc a9bb c399 2ebc
000001d0: d663 e53b adf8 03bb 72d3 febb b7a1 e53b
000001e0: fd37 3b3c 1846 2b3c 2a05 063b 83e9 4b3b
000001f0: 711e 683c 8039 373b c973 4f3c 9084 f33a
-0.0032692468 0.009116107 -0.008570461 -0.0043788995 -0.00648262 0.0063242605 -0.012572115 -0.0063859746
0.0058930353 0.003952396 -0.00047491424 0.0059876153 0.008165872 0.006544693 -0.0030833406 -0.0020833188
-0.008362728 0.0017264691 -0.009647596 -0.0020926108 -0.0021014106 -0.0014150278 0.0024251877 0.0053659254
0.01074879 -0.0031557516 0.005562889 0.00019460695 -0.0042607454 -0.0016282216 -0.0015462849 0.00068267086
-0.013747218 -0.0017467007 0.011208307 -0.00129949 -0.010761721 0.0034507257 0.010583763 -0.0004545084
-0.0072084563 0.00072010676 0.010602891 -0.0027325554 0.0063118865 0.0043905894 0.01584927 -0.016959555
0.008106925 0.013353053 0.012418043 0.0027086933 0.0010322463 0.009521457 -0.0037454653 0.007211151
-0.0085209515 0.0072121522 0.00078784715 -0.013569231 0.002359669 -0.0051867715 -0.014415095 -0.00013378085
-0.0051814597 0.005445783 0.0068190475 -0.007643499 0.0040822565 0.0017408429 -0.00029342796 0.00135367
0.00758022 -0.0006596703 -0.003231129 0.018555438 -0.003362843 0.0020959117 -0.015075713 0.010745051
-0.015340308 0.011171162 -0.014038973 0.0010670257 0.0016293778 -0.0005339005 -0.004864233 0.0053662765
-0.011892458 0.004516475 0.006481244 0.015085092 -0.004422822 -0.00049025496 0.007057532 -0.009471366
-0.0037971935 -0.0042396537 -0.006604957 -0.0044044782 0.010640049 0.0016501207 -0.0060814153 -0.0076623177
-0.00982944 0.0016291303 0.006940522 0.014356444 -0.004057596 0.003744186 -0.0023823606 -0.023847135
0.010453754 0.006104135 -0.005179892 -0.010656777 0.0070004268 -0.0020137236 -0.007776671 0.0070078033
0.011426923 0.010453723 0.0020449855 0.0031114526 0.014167414 0.0027957857 0.012661883 0.0018578935

network_body.observation_encoder.x_self_encoder.seq_layers.0.weight f4 [128, 3]
00000000: 9b32 63bd 2a91 603d ab7c a7bc 829d 633d
00000010: 053d d2bc 0cde 52bb 583b 08bd afcc b2bb
00000020: 3035 47bc 3665 c53d 1c46 6ebd fbd6 a73b
00000030: d3c2 69bd 8f38 273c 14e7 5ebc 0481 0abd
00000040: a49f 91bb 2947 efbc 0c68 66bb 9179 a63d
00000050: d476 78bc 97f2 90bc fc4a 00bd 07ef 67bd
00000060: e816 9b3c 69ff 133c c178 cdbc 9b8e 74ba
00000070: 9756 153b f097 d9ba 2b44 ddbc 0276 3abd
00000080: ceb5 d4bb aba7 ab3c f240 c03b f445 8a3c
00000090: ef3c 2a3d fcac f4bb f742 bebc 4b43 f53c
000000a0: 32aa 983c 2723 64ba 76bd 18bd 6b11 6f3b
000000b0: 3034 723c 1da6 9a3c bf85 543d 14fc 0eb9
000000c0: 3352 523d 1d17 6f3d c8ed e53c c7b6 783d
000000d0: 038a a23c dbe6 d0bb 170e 913c 90db 913c
000000e0: 381d 5a3c 8cba 4e3d f0f4 e73b c26f 01bc
000000f0: 199d 0abd f0fe 8f3c 7a44 9dbc 6831 2f3d
00000100: d146 f1bc 56db bb3c 4c2f 453d 0e62 933c
00000110: 7b8b 6ebc 33c5 8fbd 594b 593c 1a2f 273b
00000120: 07b1 413d e128 c5bc 282a aaba 45c7 a3bc
00000130: 6854 573c a5ec 24bc 938a 46bd 0d1f 313c
00000140: 66a0 ec3b ee2b df3c 52d0 7bbc c12f 5d3d
00000150: 1edd 57bd 2f99 1fbc 6714 183d 1a5a 0abd
00000160: b86d ef3c a2d4 693c 5165 54bc df8c 873c
00000170: 8c29 c1bc 84b9 67bd d08e 5c3d 0d1d b53c
00000180: b29e 2fbd 7b02 5ebb 3737 98bc ac01 183c
00000190: fcbf f6bc 2a0b bfbc d6ab d53c 95d9 aebc
000001a0: 9466 e23b 5d2b 143d 82d6 04bd 6c74 dc3c
000001b0: b706 8dbc ad81 a63c e500 053d 808d eb3b
000001c0: abcc e93c 5c76 c4bc 9f4d a33c 8f24 623c
000001d0: 26b4 d63b 5b98 713d cb81 9bbc 3697 553d
000001e0: 1e2d 473d 0c5e 0d3d cdea ff3c e546 33bc
000001f0: fee5 46bd aabe ad3b 3eef afbd c7a6 a33b
00000200: 2e54 ff3c 1220 75bd a55f 313d 8cb8 663c
00000210: c6ac 16bd 8614 c3ba a372 1a3c 73b5 683d
00000220: fadd 71bd 05b8 02bd 33c4 d4ba d5c0 eb39
00000230: c30c 01bd b853 d33c b85d 4ebd 1db2 13bd
00000240: 67a0 633c e590 763c e982 9d3a a850 2bbd
00000250: 0fc5 b0bc af01 0b3b 8afa 70bd 8b3a 26bd
00000260: d40f fd3c 96da 613d 2b87 c03c 08fa 703b
00000270: 7c81 46bb 5063 203b 01cc 6f3c dea5 a1bd
00000280: 201d 42b9 f125 143b 1e04 4c3d 0373 25bd
00000290: 23ba a7bc bbf0 103d 4262 1dbd ecd0 eb3c
000002a0: 927f e5bc 61f2 453d 3213 6ebc 64cf 1c3d
000002b0: baa2 d33c f961 3a3d 3ce4 403c 6d44 b8bc
000002c0: a3bb 353c ae66 a3bc 318a 28bc cd18 863d
000002d0: bc94 023d 123e 073d 94db 2abd de4e 893c
000002e0: cf83 f73c 4454 8db9 7490 323d c456 61bd
000002f0: 2783 043d 4f22 31bc d0a0 2f3c 9f8b 3cbb
00000300: fb64 a8bd 4cb4 2fbd 8a75 c33c 5e42 a5bc
00000310: af0a a23b 945d 09bd 35fc 263d dd6c 7c3d
00000320: 08c6 263c 0504 443d 129f 24ba 0604 eebc
00000330: 7668 1e3d c4de f4bc 5691 a5bc 2d38 0a3d
00000340: 9b3f 30bc 9aef 4fbc 9ff4 e0bc 9305 41bd
00000350: ef94 fcbb 29bf 36bd fcd9 bdbc 2631 523d
00000360: 7223 64bc 853a d73c 3551 a9ba c233 2d3c
00000370: 0365 88bc 0ebd ad39 ab06 d23c 484d 183d
00000380: 58ff c6bb 7426 8bbb fbfa 9cbc 8207 ffbb
00000390: aae1 293d 48c4 d1bb cba0 0c3d 582c 953d
000003a0: 93f1 a7bc 05fc 923c cff7 133d 3803 69bc
000003b0: 7083 76bb ce6f 963c b41c 7dbd 8048 ff3c
000003c0: 8bc9 01bd f276 f9b9 f6fc 84bd 5ed8 b9bd
000003d0: c897 643d 3d75 0d3b d9ca 023d 7771 293d
000003e0: 7eb2 503d cb92 47bd 2b87 eabb 0e03 643d
000003f0: 9744 67bb ccca b4bb ba6a b7bc 45b7 d93d
-0.055468183 0.05482594 -0.020445189 0.055570133 -0.025663862 -0.0032175807 -0.03325972 -0.005456529
-0.012158677 0.09638445 -0.05817233 0.005122063 -0.057070564 0.010206356 -0.013604898 -0.033814445
-0.0044440795 -0.029208736 -0.0035157232 0.08128656 -0.01516505 -0.0176938 -0.03132151 -0.05662444
0.018931821 0.0090330625 -0.025081994 -0.0009329111 0.0022787207 -0.0016601067 -0.027010044 -0.045522697
-0.0064913994 0.020953974 0.005867117 0.01687906 0.041562017 -0.0074669104 -0.02322529 0.029939314
0.018635843 -0.0008702748 -0.03729006 0.0036478888 0.01478295 0.018878037 0.051885363 -0.00013636082
0.051347923 0.058371652 0.028067484 0.060721185 0.0198412 -0.0063751764 0.017706914 0.01780489
0.01331263 0.050470874 0.0070787594 -0.00790018 -0.033841226 0.017577618 -0.019197691 0.042771727
-0.029452713 0.022931736 0.04814081 0.017991092 -0.014559622 -0.07020035 0.013262593 0.0025510252
0.047287967 -0.024067344 -0.0012982534 -0.01999248 0.013142683 -0.010066186 -0.048472 0.010810626
0.0072212694 0.027242627 -0.015369492 0.05400062 -0.05270111 -0.009741112 0.037128832 -0.033777334
0.029227123 0.014271887 -0.012963609 0.016546665 -0.023579381 -0.056573406 0.053847134 0.022108579
-0.042875953 -0.003387599 -0.018581016 0.009277742 -0.030120842 -0.023320753 0.026082914 -0.021343986
0.006909201 0.036174167 -0.032431133 0.026910983 -0.017215116 0.020325506 0.032471556 0.007188499
0.028539976 -0.02398222 0.019934474 0.013802662 0.006552237 0.058983188 -0.018982789 0.05214616
0.04862701 0.03451352 0.031239891 -0.010942196 -0.04855918 0.00530227 -0.08590554 0.0049942466
0.03116807 -0.059845038 0.043304104 0.014082085 -0.036785863 -0.0014883436 0.009426746 0.05681367
-0.059049584 -0.031913776 -0.0016232788 0.00044966364 -0.03150631 0.025796756 -0.050382346 -0.036058534
0.013893223 0.015049194 0.0012017164 -0.041824967 -0.02157834 0.002121072 -0.058832683 -0.040583175
0.030891337 0.0551401 0.023501953 0.0036770124 -0.003028958 0.0024473257 0.014636041 -0.07892965
-0.00018512132 0.0022605623 0.049808614 -0.040392887 -0.0204745 0.03538583 -0.038423784 0.028786145
-0.028014932 0.048326854 -0.014530944 0.03828372 0.02583443 0.04550359 0.011773165 -0.022493565
0.011092099 -0.019946422 -0.010286854 0.06547699 0.031880125 0.03301818 -0.041713312 0.01676124
0.030214218 -0.00026956399 0.043594792 -0.055014387 0.03235164 -0.010811402 0.010719493 -0.0028769744
-0.082223855 -0.042896554 0.023859758 -0.020173248 0.0049451212 -0.03353651 0.040767867 0.061627258
0.01017905 0.047855396 -0.0006279807 -0.029054653 0.03867384 -0.02989138 -0.020210903 0.03374498
-0.010757352 -0.012691403 -0.027460394 -0.047124457 -0.007708184 -0.0446159 -0.023175232 0.051316403
-0.013924466 0.026273021 -0.0012917878 0.010571422 -0.016649729 0.00033137988 0.025637945 0.037183076
-0.00607292 -0.0042465273 -0.019162646 -0.0077828774 0.041474976 -0.0064015724 0.03433303 0.072838485
-0.020500934 0.017942438 0.036125 -0.014221959 -0.0037614964 0.01836386 -0.06179495 0.0311625
-0.031686347 -0.00047581602 -0.06493561 -0.09074472 0.055808812 0.0021584772 0.03193173 0.041367974
0.050951473 -0.048723977 -0.0071572266 0.055666976 -0.0035288685 -0.0055173393 -0.022389758 0.10630659

network_body.observation_encoder.x_self_encoder.seq_layers.0.bias f4 [128]
00000000: e396 ae3b 6678 293c 29cb 403b 8ee8 4239
00000010: a53e 113c 0256 173c e5e6 52bc 71ce f2bb
00000020: 12ff d0ba 2eb7 bb3b dce4 c7bb 4d83 273c
00000030: 432a 84bb 2e1d 4abc 6953 febb 8972 8638
00000040: 4858 0d38 0a9f 85bb 55d4 d3bb 1dd6 0bbb
00000050: c108 30bc 99e8 ccbb bdaa af3b 8bd8 dc3b
00000060: 1592 413c 40db 08ba 2033 2c3c c45b 6bb9
00000070: 4779 6e3b 218d 03bc fa61 8c3a 6320 523c
00000080: d396 96bb ec8a ca3b 3133 003c ae59 263c
00000090: 49c0 eab9 0d17 c7ba b299 a8ba 58f9 a63b
000000a0: b0c1 5fbb b7d9 ddbb ab70 173c 73a8 033b
000000b0: 66ec ffbb 1d8b 8c3b 9605 103c b8c6 88bb
000000c0: 1853 123c fd65 2c3c 36e4 893c 26ff 613b
000000d0: 812b debb dfdc 443c 7b44 e73a e897 55bb
000000e0: ef2e 8c3a 58b7 1ebc 6200 3539 2a38 263c
000000f0: 48ea 90ba 4400 18bc 1402 a03b 9d98 e3ba
00000100: 0e2b 0e3c 386a 3a3c fe98 c13b e1a7 223c
00000110: d56c cfbb cd9d 143a d3b2 e93b 7920 413c
00000120: 0b52 45bc a073 6dbc 7567 643c 7e67 e9bc
00000130: f36a bb3b c30a b8bb a267 d93a 9633 b1ba
00000140: 4a86 c03b 001e 9c3b 8079 2dbc 54e1 283b
00000150: 2cdd ffbb fb0c bf3c 3073 293c 044e 703b
00000160: 541e 5e3c 34db f23b 62ef b03b 4af9 3bbc
00000170: 6136 8bbb b821 473c 2409 d53b 01e7 07bb
00000180: 1340 99bb 586f 7cbc 4571 863c 535d f3ba
00000190: e52e 49bb fe56 aaba 0f48 323b 27b1 28bc
000001a0: 8796 933b 748e 8b3b 3ca6 293b 36e3 823b
000001b0: 7195 c2bb 9e04 fdbb d01f 4e3b 8870 063c
000001c0: 5dca 0b3b 417c 853a 3c5e d43b 4265 483c
000001d0: d1e8 0e3c a7a9 a3bb 5844 323c 9c52 523b
000001e0: 5ca5 1b3c c3ce 333b 15a8 d63a d2a8 8b3c
000001f0: bf97 e0ba 9ff2 6f3c 5e7e 0a3c 4df1 2c3c
0.0053280457 0.010343647 0.0029417968 0.00018587915 0.008865033 0.009236814 -0.012872432 -0.0074098636
-0.0015945158 0.005728624 -0.00610028 0.010224176 -0.0040333583 -0.012336059 -0.007761408 6.410952e-05
3.3699238e-05 -0.004077797 -0.006464521 -0.0021337338 -0.010744275 -0.0062533137 0.0053609298 0.006739681
0.011814614 -0.0005220659 0.010510236 -0.00022445532 0.0036388205 -0.008029253 0.0010710352 0.012825104
-0.0045956164 0.0061811116 0.007824705 0.010153217 -0.00044775222 -0.0015189365 -0.0012863188 0.005095642
-0.0034142546 -0.0067703384 0.009243171 0.0020089417 -0.0078101633 0.0042890445 0.008790394 -0.0041740797
0.008930944 0.010522363 0.016832452 0.0034484356 -0.0067800884 0.01201555 0.001764431 -0.0032591764
0.001069514 -0.009687267 0.00017261648 0.0101452265 -0.0011056149 -0.009277407 0.00488306 -0.0017364208
0.008677257 0.011377864 0.0059081307 0.009927721 -0.0063301125 0.0005669266 0.007131913 0.011787527
-0.012043486 -0.014492899 0.013940682 -0.028491732 0.0057195364 -0.0056165173 0.0016586671 -0.0013519402
0.0058753835 0.0047643185 -0.01058805 0.0025769072 -0.007808348 0.02332162 0.010342404 0.0036667595
0.0135570355 0.007411385 0.0053996304 -0.011473009 -0.004248426 0.012154035 0.006501334 -0.0020737054
-0.0046768277 -0.015407406 0.016411433 -0.0018567241 -0.0030698117 -0.0012995896 0.0027203595 -0.010296143
0.0045040282 0.004258925 0.0025886437 0.003994371 -0.005938225 -0.0077214977 0.0031452067 0.0082055405
0.0021330335 0.0010184125 0.00648096 0.012231173 0.0087225 -0.0049945894 0.010880552 0.0032092696
0.009499874 0.0027436472 0.0016376997 0.017048273 -0.0017135068 0.014645248 0.00845298 0.010555577

network_body._body_endoder.seq_layers.0.weight f4 [128, 131]
00000000: a870 1cbd 5a10 7a3d 2cfc c33c 1856 8fbc
00000010: 9334 15bd 92e9 a23b f5f2 bbbd 3567 46bd
00000020: dea1 44bc 56e1 d43d 5363 b1bd 2bf1 93bd
00000030: 7d6d bfbd 567e cf3c caeb 853d 09ef 4d3e
00000040: 81e4 e0bc 67e0 b7bd 6113 71bc ea8f 923d
00000050: b921 ad3c 29a9 f6bc 45ab f23d 5698 413d
00000060: 522c 37be 75a0 5cbc ff38 4f3d e974 e33c
00000070: 4454 883d afdf 033e dd9f 983d c722 45bd
00000080: 94d6 953d 1481 49bd 6f3c c5bb d957 673e
00000090: 4398 babd 86b2 c83c 124e 17be a55d 8b3d
000000a0: 22ec 0f3c 00ce 86bc e435 c23d 35df 973d
000000b0: 7ba7 183d a371 3ebd 134c 5cbd 31e6 303d
000000c0: ebba 943d cd97 ec3d 28ce a5bb 4d6f f23c
000000d0: e639 183e ba51 13bd 040c 3f3d 11b6 be3c
000000e0: e78a f2bd ebb6 323d 6268 12bd 0502 843d
000000f0: 5dbf b33c 906e f8bc a001 163e c04c 61bd
00000100: c042 953d 4414 8dbc 68da 90bd 4695 3dbd
00000110: d79e 52bd 3cf9 05be 5893 073e 6719 903c
00000120: 6d23 a9bd d9f3 f4bc b619 563e 237b c73c
00000130: 7b5d 553d 7907 843d e913 5cbd e9fe 033d
00000140: 1965 81bd d466 cfbd 3968 03bd e1b0 2f3d
00000150: 7061 623c 5e3d 1cbe 8465 c1bd f77f 00bd
00000160: 3876 e8bd 47c2 11be 7998 303d d782 31bc
00000170: acd4 1c3e 883d 0fbd 4ee0 97bd c314 333c
00000180: 7151 1ebd 987a af3c ee65 c6bc 0ed0 bdbd
00000190: 53b6 abbd 6410 1a3e ee96 2b3d 736b babd
000001a0: 1724 07be 685a cebd bd75 883e 3226 393d
000001b0: 69f6 a1bb 53a6 ec3d 2b0e 5739 868f 0cbd
000001c0: 0062 bc3c b271 53bb becd 8d3c 91f8 dcbc
000001d0: b2d6 81bd 64eb 33be 3151 d93d af3f 38be
000001e0: d057 2f3b cef8 e1bd c450 0ebd f55c 093d
000001f0: 1624 2fbd c5be 0b3d c784 8fbd 0962 073d
00000200: 52d8 0e3e cb00 0c3d 5988 be3d 5d85 a73d
00000210: 1a30 cebd 15ab 713d b6a6 a0bc ff5b 653a
00000220: 578c 3c3d 98a5 eebd b37b d13d dd6c f0bb
00000230: 8566 033c 6b57 9c3d 8d11 b8bd 5d2a 31bd
00000240: 708b c4bd 0401 6f3d fafb 4abc fd50 0f3c
00000250: 56fe 1c3d df59 2dbd 02e1 b0bd dec5 593d
00000260: 066c 2fbd ca7e 04bd 1ec2 c43d b655 bebc
00000270: a475 ce3c e803 f63c 487d d63d 5240 a83c
00000280: a2c8 893d 2ed6 0fbd 497f 1abe e4f0 153d
00000290: 6654 0b3d a6f8 033d 0b49 84bb 1743 3fbd
000002a0: 219c 1ebe e5aa a0bc 6a43 a13c 8b4e 73bd
000002b0: a2bc eabd 48d0 843d 1ffb b9bd a9b3 c3bd
000002c0: e304 37bc 01fe 84bb 9888 823d 6e19 35bc
000002d0: 95d3 b6bd 6b1d 5bbd 8a1e 153e b959 5fbd
000002e0: aa66 903c 0905 b6bc 2853 413d 4b93 4cbe
000002f0: 9207 5f3d 1ad6 bdbd 969b 96bd 65dd 4d3c
00000300: 2ca6 293e 885a edbd a536 b53c 3589 f23c
00000310: 2695 8c3d 6525 793d 34d1 f6bc 474d 423d
00000320: 8fd8 3bbe 7a90 6e3d d8dd 21bd 2da9 aa3d
00000330: c234 9a3d 54ae d5bc 2236 aa3d cc9d 553d
00000340: 47a0 c7bd 4eab 8d3c a98d f7bc babd 36be
00000350: bddf 53bd 92cb 323d b4e9 06be 5483 03be
00000360: dd2f 093e 7f96 99ba 9d0a 47bd b97f 3abd
00000370: b9ad 86be bba4 f2bd 2794 7fbd 53cb 0cbc
00000380: 6641 46bc 0fc3 df3d d5c4 613a 3c28 333e
00000390: 87be be3d 5e1d ef3d d451 20bd 97ca cfbc
000003a0: 0595 603d a23f 83be 9eee 9f3d a70f 01be
000003b0: 6af4 02be 5c91 023d 2470 053e 22f3 d3bd
000003c0: 1084 89bd 3dfc 433e ee7a a23d 5871 2d3d
000003d0: e730 193d 22fb c73d bfc5 63be 41b4 17be
000003e0: dd19 12bd 9949 f2bd ee29 a4bc 97f8 a6bd
000003f0: 5c45 f33d 3eb0 f0bd c031 8bbc 5604 ac3b
-0.038193375 0.06105075 0.023923956 -0.017497107 -0.03642709 0.0049716914 -0.091772 -0.04843827
-0.012001483 0.10394542 -0.08661523 -0.072237335 -0.09347055 0.025328796 0.06539114 0.20110716
-0.02745271 -0.08978348 -0.014714093 0.07156356 0.021134244 -0.030109959 0.11849073 0.04726442
-0.17888 -0.01346599 0.050591465 0.027765708 0.066566974 0.12878297 0.074523665 -0.04812887
0.07316318 -0.049195364 -0.006019167 0.22592105 -0.09111073 0.02449919 -0.14775875 0.06804971
0.008784326 -0.01645565 0.09482935 0.0741562 0.037269097 -0.04649509 -0.053783488 0.043188278
0.07262214 0.11552391 -0.005059976 0.029594088 0.14865837 -0.035966612 0.04664232 0.023280175
-0.118429 0.043631475 -0.03574408 0.06445698 0.021941835 -0.030326158 0.14649057 -0.055004835
0.07288122 -0.017221577 -0.07072908 -0.046284936 -0.051421013 -0.13083357 0.13239801 0.017590238
-0.0825871 -0.029901432 0.20908245 0.024350708 0.052091103 0.06446738 -0.053729925 0.032225523
-0.06318111 -0.10127035 -0.032081816 0.042893294 0.013817176 -0.15257785 -0.09443191 -0.031372037
-0.113506734 -0.14234267 0.04311416 -0.010834417 0.15315503 -0.03497079 -0.074158296 0.010930243
-0.038651887 0.021420762 -0.024218526 -0.09268199 -0.08384385 0.15045315 0.041891985 -0.091025256
-0.13197361 -0.100758374 0.26652327 0.04520244 -0.0049427045 0.11555161 0.00020509276 -0.034316562
0.022995949 -0.0032263813 0.01731002 -0.026973994 -0.06339778 -0.17570263 0.10611189 -0.17993043
0.0026755221 -0.11033784 -0.034744993 0.033535916 -0.042759024 0.03411748 -0.07007747 0.033052478
0.13949707 0.034180444 0.0930335 0.08179734 -0.100677684 0.059001047 -0.019610744 0.0008749365
0.046032276 -0.11652678 0.10228672 -0.0073371963 0.008020048 0.07633861 -0.089877225 -0.04325329
-0.09596908 0.058350578 -0.012389177 0.008747336 0.03832849 -0.042322036 -0.08636667 0.053167216
-0.04282763 -0.032347478 0.096073374 -0.02323423 0.02520258 0.03003116 0.10473114 0.020538483
0.06727721 -0.035116367 -0.15087618 0.036606684 0.034016035 0.03221955 -0.0040370277 -0.04669484
-0.15489246 -0.019612739 0.019685466 -0.059401076 -0.1146176 0.06485039 -0.09081101 -0.09555752
-0.011170599 -0.0040586 0.063737094 -0.011053426 -0.08927075 -0.053494852 0.14562431 -0.054528926
0.017627079 -0.022219198 0.047198445 -0.19978063 0.05445058 -0.09269352 -0.073538944 0.012564992
0.16567296 -0.11589533 0.022120783 0.029606441 0.06864385 0.060826678 -0.030129053 0.04743698
-0.1834433 0.058243252 -0.039518207 0.08333049 0.07529594 -0.026084103 0.08311106 0.05215244
-0.09747367 0.017293599 -0.030218916 -0.17845812 -0.051727045 0.04365117 -0.13175088 -0.12843066
0.13397165 -0.0011717825 -0.048594106 -0.045531962 -0.26304415 -0.11847826 -0.06239715 -0.008593398
-0.012100553 0.10925876 0.0008612399 0.17495817 0.09313684 0.11675523 -0.039140537 -0.025365157
0.054829616 -0.25634485 0.078091845 -0.12603627 -0.12788549 0.031876907 0.1303106 -0.10349108
-0.06714642 0.1913919 0.07933603 0.04234442 0.037400153 0.09764697 -0.22243403 -0.14814855
-0.035669196 -0.11830444 -0.020039525 -0.081528835 0.118784636 -0.117523655 -0.016991496 0.0052495403

network_body._body_endoder.seq_layers.0.bias f4 [128]
00000000: c36b 6c3c ae79 353c 579e 123c 40cb 153c
00000010: a219 6cbc 54fc ab3c cef5 a6bb 94fd f73a
00000020: 120c 823c 43d8 fabb d5b8 ecbb e117 fc3b
00000030: 0c03 fbbb 755c 893c 4424 1fbb 97b1 823b
00000040: e345 ba3a b82c 313c fc98 9a3b 7a61 8fbc
00000050: 01b2 8439 36a4 a8b9 5ca0 b5bb df0c 0ebc
00000060: a1c3 df39 1033 49bc f01e 463c be63 1dbb
00000070: ad02 0d3c a290 8cbc 53f4 443b 2aa9 443c
00000080: 9886 a23c 80fc 7f3c 1a26 a53c 257e 14bc
00000090: 7c48 533c d528 98bc 6b47 8739 9fc3 abba
000000a0: 836f 4ebc 5662 23b9 3b1d 193b 4238 46bb
000000b0: ca14 433c 2035 993a 336f 15bc c3b6 5fbb
000000c0: 0e24 9fbc 3fd2 1bbb 3903 cdbb cb53 a63c
000000d0: ea88 333c 43ec 883b ef93 80bc 5952 213d
000000e0: a5f8 fcbb 218c c13a 4352 5a3b 13ed e23b
000000f0: 5890 22bc 4261 8a3b 5059 dc3b 16e6 0ebc
00000100: a0c0 38bc 1835 ec3a 9875 0e3c e09b 26ba
00000110: ab3c 46bc 6eb5 f3bb 3912 f73b 2653 3c3b
00000120: cbcc bcbc ab0c 98bc e755 523c 8f92 b9ba
00000130: 71bc a3b9 db30 f03a cd3d 923c 8e47 56bb
00000140: 1bb0 903b 9fd5 a7ba e2a5 73bc 0b5b a03c
00000150: dfd2 7f3b 1e82 c9bb 3e01 273c e1e6 bebb
00000160: 7433 80bb 58ec 093c 8e90 463c a68d a8ba
00000170: 53bb d038 f5f7 f9bb 7841 0ebb ccf0 873b
00000180: 35fd 163c 7333 153b e003 c03a 9c95 f13b
00000190: d912 1e3d e43a edbc 2e3f 353b 3662 adb9
000001a0: 3cef 633c 3071 093c 16ca 9c3c c9af 0d3c
000001b0: 6fa3 5a3b 15c3 823c ceae c13b dbf5 ddbb
000001c0: 8c0e d73b 5935 253c 5366 693c a16f 973c
000001d0: e7eb d53b 9abf af3b b234 1a3c 7cca be3c
000001e0: f52f cf3c cbdf ff3b 23f3 a0bb 488c 62bc
000001f0: 60fa 29ba 69af 933c 4d1e 3dbb 27d8 133c
0.014429989 0.011076374 0.008948884 0.009142697 -0.014410408 0.020994343 -0.00509522 0.0018920177
0.015874896 -0.007655175 -0.007224182 0.0076932763 -0.0076602753 0.01676772 -0.002428309 0.0039884555
0.0014211502 0.010813884 0.004717944 -0.017502535 0.00025309625 -0.00032165804 -0.005542798 -0.008670061
0.0004267963 -0.012280241 0.012092337 -0.002401575 0.008606595 -0.01715881 0.0030052855 0.0120032225
0.01983957 0.015624166 0.02015977 -0.009063278 0.0128957 -0.018574158 0.00025802417 -0.0013104564
-0.012599829 -0.00015581524 0.002336337 -0.0030245935 0.011906812 0.0011688806 -0.00912075 -0.0034136034
-0.019426372 -0.002377644 -0.0062564877 0.020303627 0.010957936 0.004178555 -0.01569554 0.039385173
-0.0077200704 0.0014766493 0.0033313192 0.006925234 -0.00992211 0.00422302 0.006724514 -0.008721849
-0.011276394 0.0018021194 0.008695029 -0.00063556246 -0.012099425 -0.0074373996 0.007540014 0.0028736084
-0.023046872 -0.018560728 0.0128378635 -0.0014158058 -0.00031230183 0.0018325107 0.017851735 -0.0032696459
0.0044155247 -0.0012804753 -0.0148710925 0.019574663 0.00390356 -0.0061495444 0.010193167 -0.0058258628
-0.0039123837 0.008418165 0.012119425 -0.0012859597 9.953105e-05 -0.0076284357 -0.0021706503 0.0041485783
0.009215643 0.0022766262 0.0014649592 0.007372571 0.038592193 -0.028958745 0.0027656066 -0.00033070304
0.013912018 0.008388802 0.01913933 0.0086478675 0.0033361574 0.015962163 0.005910731 -0.006773693
0.0065630134 0.01008352 0.014245587 0.018485846 0.006528366 0.005363417 0.009411978 0.023289911
0.025291422 0.0078086606 -0.0049117967 -0.013827391 -0.0006484147 0.018027978 -0.0028857172 0.009023703

network_body._body_endoder.seq_layers.2.weight f4 [128, 128]
00000000: 7920 123e eb1e 073e c451 83bd f8d0 11be
00000010: eff7 c03c c2ad 4dbd aa7c 2c3d 975a 6b3c
00000020: 3344 4cbd d837 51bd c1a9 50be 5667 a13d
00000030: 42f5 7dbd 402d 41bb 61ec d8bd 7761 90bc
00000040: e6f6 02be 4982 34be 2d58 e63d f5f8 253e
00000050: dcd3 8b3c 2692 5e3d 9499 163e bc09 d73c
00000060: c818 be3c 727c 93bc 3528 d9bd d76b aebc
00000070: 533c 2dbe 43e0 4c3d a0ba 873d 239e 06be
00000080: fa2a 8ebd 0ec3 f23c e3d0 663d 49b5 c13e
00000090: 83f2 63bd bf04 92bd feee b1bb e1e1 7cbd
000000a0: 7cdd 91bd a158 bb3b b0b6 c23d 30fa bb3d
000000b0: eeee a6bc b61a ed3d 25b9 e4bd 4e2a 02be
000000c0: 21e1 25be 8ccc 513b 953a 153e 0eb0 ebbd
000000d0: 3f5c 1f3e c083 de3d eca9 f83c 83b2 103e
000000e0: 55c5 a63c 11b9 083c fbc9 c43c 9355 44bc
000000f0: 22e6 9a3d 2209 09bd 6d29 08be 8547 77bd
00000100: ee00 103e 22cc 363d be68 2d3e cd2a ab3d
00000110: dccb 463d 92ce 2d3d f1e3 c33d 486a 8c3d
00000120: 9377 43bc cbde f9bd 65b0 f93c e86c 85bd
00000130: 9920 c6bd 4dca b73d 07bf b3bd 8a38 dbbc
00000140: 4e2d 8b3d bdfa 04bd 2c39 4cbd 6659 c6bd
00000150: aa51 b1bd b73c 1ebe e31d d1bc ec5e 0e3d
00000160: 4485 533d 8dc8 ce3d 8115 b1bd 749b 3d3d
00000170: ee13 58bd 2b77 953d 66e8 28be 9ee9 f0bc
00000180: fed2 dcbd 1cae bebd ffad 0abd 4f0c c7bd
00000190: 0dcf 9f3c c182 d13d 0567 f03d 7d34 9abc
000001a0: 78fb 563d 6f2e c53c 3422 4e3d 7d1a 25be
000001b0: 0e27 843d dcf5 9abd c6b5 113e 169e 4bbe
000001c0: f5da dc3c f2e4 02bd 9909 aebb d438 54bd
000001d0: 8429 38bd 6b18 083e 292a 4fbd f372 76bd
000001e0: cf34 9cbc 3d82 b93c edf9 873c 695c 013e
000001f0: 875e 64bc 8cb5 a6bd 7a2a 6a3d 8a29 3b3d
00000200: 0692 853d 3871 1dbd 446d 7a3c bfd6 613e
00000210: 3081 3dbd aaa0 733c 5021 893c f013 ccbd
00000220: 436d eb3c ccc9 a7bc f8f2 59bd eb7b e1bc
00000230: b2af a93b 48d2 35bd c5fb 3abe 79ac 2d3d
00000240: d7aa 49be 514f c63d 61c5 80bd 173a c63d
00000250: d1ed 7ebd 9a05 8c3d 6320 ecbc 75b6 02be
00000260: 0ac0 afbd 82af 683e b8e3 923c e048 1fbe
00000270: 05a6 27be bc70 e3bc 1bd3 c4bc 0a14 523d
00000280: 79d6 b4bd 753b d13c 8296 42bd 31f5 ea3c
00000290: 6a85 013e c8ab e13d 694d fabc 696c 63bd
000002a0: f5f6 73bd f8fc 553d 708b 97bd 13cc 13be
000002b0: afc7 de3c 0026 5f3d 2bef 1ebe 0349 e23d
000002c0: af11 59bd 9d87 07bd 6160 f9bd 7466 a5bd
000002d0: ad48 12bd 5a0f 173d f8c4 c8bc bf94 c63c
000002e0: 3482 aebc 9076 7e3c 2a4b 273c 0e32 e8bd
000002f0: 9a6b 8f3d cf36 9e3a c60d 733c 8950 923d
00000300: fcda 5ebe b6fd 803d d884 f6bc 0caa 54bd
00000310: 2f16 92bc 0023 6f3d 9dc0 debc ed77 9bbd
00000320: 39dc 55bc 01eb 11bd 2942 ff3d aac8 d93b
00000330: 172e 203e bb40 213e 9f68 0d3d bc89 b93d
00000340: 46df c63d 6000 a637 07d0 66bc bc3a 813d
00000350: 0f93 29bd 457f c7bc 5a1c 2ebe cfad 023e
00000360: 5efe ccbb 7c4e d2bd 2f44 51bc 1de2 97bd
00000370: 6240 a5bd e82a 4e3e 2e01 023c 7996 b63c
00000380: 817a 383d e334 323d e59c 1c3e 1d8a 20bd
00000390: d8d5 55be 7220 e4bd eb2a 11be e002 033d
000003a0: 1d0b fc3b 4159 a93d 472b 863d 70f9 cbbb
000003b0: d40d d23d a709 a03d a9ba 6c3c 8fd6 5abe
000003c0: f3fe f23d f68a 12be f521 00bd ac66 b83b
000003d0: e390 a2ba c86e 593c c802 4cbd 5459 c53d
000003e0: e446 d8bd dd92 993c b831 583d abfe 3cbe
000003f0: 489a 5cbc 0b41 cd3c 43a3 27bd 7de7 bb3d
0.142702 0.13195388 -0.0641208 -0.14239872 0.023555724 -0.050214536 0.042111076 0.01436486
-0.049869727 -0.051078647 -0.20377256 0.07881038 -0.062001474 -0.0029476434 -0.10591961 -0.0176246
-0.12789497 -0.17627825 0.11247287 0.16208251 0.017068796 0.054338597 0.14707023 0.026249759
0.023205176 -0.018003676 -0.10603372 -0.021291656 -0.16917543 0.05001856 0.06627393 -0.13146262
-0.06941791 0.029634025 0.056351554 0.37833622 -0.0556512 -0.071298115 -0.0054301014 -0.061738852
-0.07122323 0.0057173525 0.09507501 0.09178579 -0.020377602 0.1157736 -0.11168126 -0.1271145
-0.16199161 0.0032012789 0.14573129 -0.11508189 0.15562533 0.10864973 0.030354463 0.14130597
0.020357767 0.0083449045 0.024022093 -0.011983293 0.075634256 -0.033455975 -0.13297053 -0.06037094
0.14062855 0.04462827 0.16934487 0.08357773 0.04853426 0.04243333 0.09564961 0.06856209
-0.011930364 -0.122006975 0.03047962 -0.06514913 -0.09674186 0.08974133 -0.0877667 -0.026760358
0.067957506 -0.032465685 -0.04985921 -0.0968502 -0.08658154 -0.15452848 -0.025526946 0.034758493
0.051640764 0.10096846 -0.0864668 0.04629083 -0.05275338 0.0729812 -0.16494903 -0.029408272
-0.10782431 -0.093105525 -0.03385734 -0.097191446 0.01950791 0.102300175 0.117383994 -0.018823856
0.052485913 0.024069993 0.050325587 -0.16123386 0.064527616 -0.07566425 0.14229497 -0.19884524
0.026959876 -0.03195662 -0.0053112027 -0.051812008 -0.044961467 0.13290565 -0.050577316 -0.060168218
-0.01906815 0.02264511 0.016598666 0.12632908 -0.013938553 -0.08140096 0.057169415 0.04569391
0.065219924 -0.038438052 0.01528484 0.22054575 -0.04626578 0.014869848 0.016739517 -0.0996474
0.028738623 -0.020481966 -0.05321023 -0.027524909 0.005178415 -0.044389993 -0.18260105 0.04240081
-0.19694076 0.09683097 -0.06287647 0.096790485 -0.06223852 0.06837006 -0.028824037 -0.12764914
-0.085815504 0.22723201 0.01793085 -0.15555143 -0.16371925 -0.027763717 -0.024026444 0.051288642
-0.0882997 0.025541047 -0.047506817 0.02868137 0.1264855 0.11019093 -0.03055449 -0.05552331
-0.05956169 0.052243203 -0.073996425 -0.14433317 0.027194826 0.0544796 -0.15520923 0.11049082
-0.05299538 -0.033088315 -0.12176586 -0.08076182 -0.03571384 0.036879875 -0.024507985 0.02424085
-0.02130232 0.015531197 0.010210792 -0.11337672 0.07002945 0.0012070778 0.014834827 0.07144267
-0.21763223 0.062983915 -0.030092642 -0.05191998 -0.017832844 0.058382988 -0.027191455 -0.075912334
-0.013052993 -0.035624508 0.12463791 0.0066462355 0.15642582 0.15747349 0.034523603 0.09059474
0.09710555 1.9788917e-05 -0.0140876835 0.06310031 -0.04140001 -0.024352679 -0.17003003 0.12761615
-0.006255909 -0.10268876 -0.012772604 -0.074161746 -0.08068921 0.20133555 0.007934852 0.022288548
0.045038704 0.043507468 0.15294226 -0.039194215 -0.20882356 -0.11139001 -0.14176528 0.031985164
0.0076917545 0.08268977 0.06551223 -0.0062248036 0.10256544 0.07814341 0.0144488 -0.2137091
0.11865034 -0.14310822 -0.031282384 0.005627474 -0.0012402799 0.013271041 -0.04980734 0.096361786
-0.10560396 0.018746788 0.05278179 -0.18456523 -0.013464518 0.025055429 -0.040927183 0.09175012

network_body._body_endoder.seq_layers.2.bias f4 [128]
00000000: 7d47 e4ba a0c1 4f3c 4948 8e3c 1009 5b3a
00000010: a014 a13c 9824 c6bc ef77 503c 4e12 8abb
00000020: f465 9f3b 7086 a9bb fba6 923b fc80 97bc
00000030: 2b74 303c 5e2c 573a 628c 81bb 8590 963b
00000040: 7f4f febb 3071 e5b9 02cd edba 6a40 99bb
00000050: 5d3c f4bb 08e7 bc3b 5429 43bb fab4 403c
00000060: 2a15 21bb 4fab 593c dc2f 023c 0fe5 113c
00000070: ea50 1c3b 93d0 8e3b 0bcf 2bbb dac6 8cbb
00000080: a421 8a3b df9b 83bc 30e2 3fbb d000 41bc
00000090: de16 09bc 49e5 c13b bc56 283c a2bd 973c
000000a0: e640 513c 9059 293b c9e5 ae3b b20d 1c3c
000000b0: e999 0c3c 7076 143d e4a0 29bc 9688 86bc
000000c0: d889 313a c883 2fbc 7b71 023c 5e98 163c
000000d0: cb06 0c3c b514 703b 860e 14bc 7f6a 403c
000000e0: 4fc1 cabb b4e0 243c 0a2f 013c 5901 183b
000000f0: efe6 4a3b 56ac 003c c1fe fbba 2cff 70bc
00000100: 63ec 2f3c 8b37 933a 98c8 a538 b134 0cbb
00000110: 60e9 263c d8da 0c3b 95f7 073c 2c2c 383b
00000120: 8337 863b a758 813c 22f8 8d3b 7f50 08bc
00000130: 6e34 433b e0f5 4fbc 5f2c 953b 9109 863b
00000140: fe53 353c 4952 063c 041e 563c 572a 3a3c
00000150: 00f3 2ebc 2c08 9d3a cd6a a33c ed6a e13a
00000160: 8576 04bb 1df5 ca3b 281b 2fb9 ec8e 94bb
00000170: db35 93bb 4fb0 4cbc 66d1 3e3c e4ea dbba
00000180: 01b5 3cbc 91cb 3c3c 206c bd3b bc53 55bc
00000190: 2a02 73bb 2e87 10bc 1521 2d3b d590 433a
000001a0: 2ed4 9cbb 1062 aabb ee01 553b 003f 173c
000001b0: e73b 89bc 88cf 5c3c a937 653a af25 efbc
000001c0: c4ca 84bc 6d26 04bb 4688 3e3c aea8 02bc
000001d0: 7e57 5ebc 3c27 9d3b ea0c 2e3c 50e5 873c
000001e0: 5217 74bc 3524 64bb 038f 363c 0139 2c3b
000001f0: d6a7 3f3c 5a6b 0fbb c638 1cbb 11ae a03a
-0.0017416325 0.012680441 0.017368453 0.00083555374 0.019663155 -0.024187371 0.012723907 -0.004213608
0.0048644487 -0.005173497 0.004475472 -0.018494122 0.010769884 0.00082082103 -0.0039535025 0.004594865
-0.0077609415 -0.00043762615 -0.0018142762 -0.004676868 -0.007453485 0.0057648458 -0.0029779272 0.011761898
-0.0024579265 0.013285472 0.007945981 0.0089047095 0.002385194 0.00435836 -0.0026215937 -0.004296166
0.004215436 -0.016065536 -0.0029279105 -0.011779979 -0.008367268 0.0059172255 0.010274585 0.018523041
0.012771821 0.0025840737 0.005337451 0.00952475 0.008581617 0.036245763 -0.010353301 -0.016422551
0.00067725545 -0.010712571 0.007961626 0.009191601 0.008546541 0.0036633436 -0.009036666 0.011744141
-0.006187595 0.010063339 0.00788475 0.0023194163 0.00309604 0.007853588 -0.0019225703 -0.014709275
0.010737511 0.0011231763 7.9051766e-05 -0.0021393711 0.010187477 0.0021492746 0.008298774 0.00281025
0.004095973 0.015789343 0.0043325583 -0.008319973 0.002978589 -0.0126928985 0.0045524086 0.004090496
0.011067389 0.008198329 0.01306868 0.011362634 -0.010678053 0.0011980585 0.019948388 0.0017198004
-0.0020212245 0.0061937706 -0.00016699417 -0.004533639 -0.004492504 -0.012493207 0.011646604 -0.0016778377
-0.011517764 0.011523143 0.005780712 -0.013020452 -0.0037080147 -0.008821292 0.0026417424 0.00074602413
-0.004786036 -0.0051996782 0.003250237 0.009231329 -0.016752196 0.013477214 0.0008743951 -0.029192774
-0.016209967 -0.0020164505 0.01162917 -0.007974787 -0.013570664 0.004795937 0.010623196 0.016588837
-0.014898138 -0.003481162 0.011142495 0.0026279094 0.01169773 -0.0021884055 -0.002383755 0.0012258907
