Assets/Models/My Behavior-999993.onnx (onnx, 578818 bytes, 21 tensors)

network_body.observation_encoder.processors.0.self_ent_encoder.seq_layers.0.bias f4 [128]
0	0xbbaeee75	-0.005338485
1	0xbb31ff87	-0.0027160363
2	0x3a9666ba	0.0011474707
3	0x3b31d697	0.0027135962
4	0xbc6b3d7a	-0.014357919
5	0x3b60f90b	0.0034328129
6	0xbc5d3a68	-0.013502695
7	0xbc8a3473	-0.016870713
8	0x3bfb8428	0.0076756664
9	0xbaac885e	-0.0013163199
10	0x3b75465f	0.0037425978
11	0x39e7aa80	0.00044186786
12	0xbbb3e633	-0.0054900884
13	0xba91d7fd	-0.0011126992
14	0xbb701f40	-0.003663972
15	0x3b0c38f5	0.0021396254
16	0xbbb06354	-0.0053829346
17	0xbc072eb0	-0.008250877
18	0x3c021121	0.007938654
19	0x3addaff0	0.0016913395
20	0x3bff7c3a	0.0077967914
21	0xbc666268	-0.014061548
22	0xbc4f4590	-0.012650862
23	0x3bcdb650	0.006277837
24	0xbb9a7fbf	-0.0047149356
25	0x3bc076df	0.0058735455
26	0x3be1c36f	0.0068897526
27	0xbc82a02a	-0.015945513
28	0xbbf92dd7	-0.0076043415
29	0xbb72aa6e	-0.0037027854
30	0x3b3bc702	0.0028652553
31	0xbbd35894	-0.0064497683
32	0x3c6e12c0	0.014530838
33	0xba8ffe23	-0.0010985773
34	0xba8e39ad	-0.0010850929
35	0x3bc841fd	0.006111382
36	0xbb5ec710	-0.0033993162
37	0x3c6202ae	0.013794584
38	0xbc8d53cb	-0.01725187
39	0xbbc4a631	-0.006001257
40	0x3c22c437	0.009934477
41	0xbb95314a	-0.004552995
42	0xbc6c1bce	-0.014410926
43	0x3c45ef73	0.012081015
44	0xbb5072fa	-0.0031806813
45	0xbb0de2dd	-0.0021650114
46	0x3b4f2e63	0.0031613342
47	0x3c1a351d	0.009412077
48	0xbc37a563	-0.011208865
49	0xb9de525a	-0.00042404496
50	0x3ccf0844	0.025272496
51	0xbb32b45b	-0.0027268145
52	0xbbfe7684	-0.007765593
53	0x3c01ccb9	0.007922345
54	0x3c3927a6	0.011300957
55	0xbcb61b7d	-0.022229904
56	0xbb8f09fe	-0.004365205
57	0xbbce2d56	-0.0062920256
58	0x3bca3c9b	0.0061717755
59	0x3b369f5b	0.002786598
60	0xbc4fa02e	-0.012672467
61	0x3b91517f	0.004434764
62	0xbbe06e8e	-0.0068491166
63	0xbc49d2a6	-0.012318289
64	0x3b611f77	0.003435103
65	0x3c3df6bd	0.0115944715
66	0xbc29d43f	-0.010365545
67	0x3bbe5780	0.0058087707
68	0xbc2bd8b6	-0.01048868
69	0xbc61009c	-0.013733055
70	0x39b7dc6f	0.00035068716
71	0xbc555188	-0.013019927
72	0x3c67bd89	0.01414431
73	0x3b9855bb	0.0046488917
74	0xbc9214f0	-0.01783225
75	0xbc7bfd1d	-0.015380171
76	0xbc2eba12	-0.01066448
77	0xbab2d101	-0.001364261
78	0xbbd9961c	-0.006640209
79	0x3b7b303c	0.003832831
80	0xba90d0f9	-0.0011048607
81	0xbb3daa37	-0.0028940567
82	0x39f7a639	0.00047235357
83	0xbba176db	-0.0049274988
84	0x3b065003	0.0020494468
85	0xbbfbfee7	-0.007690299
86	0x3bfab56b	0.0076510212
87	0x3c6c57c7	0.014425225
88	0xbbb5ccee	-0.005548111
89	0xbbff5314	-0.007791886
90	0x3be99b69	0.007129122
91	0x3c147e05	0.0090632485
92	0x3bf8f680	0.0075977445
93	0xbc50ff75	-0.012756218
94	0x3ac646cd	0.0015127301
95	0xbc0f128d	-0.00873245
96	0x3b910921	0.004426137
97	0x3a10ab05	0.0005518648
98	0xbbb1013d	-0.005401759
99	0xbbdeef51	-0.006803431
100	0xbc4c34c0	-0.012463748
101	0x3b10d4b4	0.0022099437
102	0xbb7154b1	-0.0036824162
103	0x3c877853	0.016536867
104	0xbc0b7078	-0.008510701
105	0x3adce357	0.001685242
106	0xbc0e067d	-0.008668539
107	0xbba4bd3e	-0.0050274422
108	0xb965505d	-0.0002186908
109	0x3bd7d530	0.006586693
110	0x3c103a4a	0.00880296
111	0xba8afd44	-0.0010604043
112	0x3b22852e	0.002479862
113	0x3c648d58	0.013949715
114	0xbbe970c7	-0.00712404
115	0x3c430d9a	0.011905098
116	0x3cb9339d	0.022607619
117	0x3bc272ec	0.00593411
118	0xbb690bc6	-0.0035559996
119	0xbb701be7	-0.0036637725
120	0xbb7c76b1	-0.0038522894
121	0xbbe1a94b	-0.0068866364
122	0x3c07bd2d	0.008284849
123	0xbb1d6963	-0.0024019114
124	0x3aca0086	0.0015411533
125	0xba7a59bb	-0.0009550114
126	0x3c8ea8c7	0.017414464
127	0x3b9e7c4f	0.004836596

network_body.observation_encoder.processors.1.self_ent_encoder.seq_layers.0.bias f4 [128]
0	0xbb936b90	-0.0044989064
1	0x3b1d38b3	0.0023990094
2	0x3c8e86f8	0.017398342
3	0x3b6ae3da	0.0035841377
4	0xbc814b09	-0.01578285
5	0xbca0d71c	-0.019633822
6	0x3d4124d6	0.04715427
7	0xbcbe3bd0	-0.02322188
8	0x3aeb2b95	0.0017942066
9	0x3d53a8cd	0.051674653
10	0xbcb87240	-0.022515416
11	0x3ba0e696	0.0049103005
12	0x3d1e502b	0.038650673
13	0xbc07faae	-0.008299513
14	0xbc35b18b	-0.011089693
15	0x3cf85132	0.030312154
16	0x3cac270d	0.021014715
17	0x3b3e2bcc	0.0029017804
18	0xbcbe918d	-0.023262763
19	0x3c64d9e8	0.0139679685
20	0xbcba6489	-0.022753017
21	0xbbba67f5	-0.005688662
22	0x3c4b96ed	0.01242612
23	0xbc641caa	-0.01392285
24	0x3c43e4d7	0.011956415
25	0xbbe43bfa	-0.0069651576
26	0xbb70582a	-0.0036673644
27	0xbba6e002	-0.005092622
28	0x3ca01820	0.019542754
29	0xbcfff57e	-0.03124499
30	0x3ca694bc	0.020334594
31	0x3c26ab96	0.010172745
32	0x3cccc503	0.024996286
33	0x3b8aeb7f	0.004239499
34	0xbc9fc381	-0.019502403
35	0x3bfc30be	0.00769624
36	0x3b63e2c7	0.003477262
37	0xbc20f599	-0.00982418
38	0x3c78f75f	0.015195697
39	0xbd04a29d	-0.032381643
40	0xbc32c35a	-0.010910833
41	0x3c1d808a	0.009613166
42	0xbb6152df	-0.003438167
43	0x3b57a1e9	0.0032902902
44	0xbca85d5f	-0.020552335
45	0xbad06a85	-0.0015900886
46	0x3b175314	0.002309029
47	0x3b81641a	0.0039487006
48	0x3d1c690f	0.03818613
49	0xbbaa0f21	-0.005189792
50	0x3ca73516	0.020411056
51	0xbc9807d3	-0.018558418
52	0xbd1c5dc7	-0.03817537
53	0x3c549daa	0.012977043
54	0xbc0b9910	-0.00852038
55	0x3c57ea87	0.013178474
56	0xbd0ee9b0	-0.03489083
57	0xbb578aa5	-0.0032889035
58	0xbc8d3b93	-0.017240321
59	0xbbc55f0f	-0.0060232948
60	0x3c6954d9	0.014241421
61	0xbc2955d5	-0.010335405
62	0x3b7f042e	0.0038912403
63	0xbc0b5b93	-0.00850572
64	0xbae33111	-0.0017333349
65	0xbc51be06	-0.012801653
66	0xbc25b079	-0.010112875
67	0xba053277	-0.0005081067
68	0x3c60f8af	0.013731166
69	0xbcdb75b0	-0.026789516
70	0xbc3c1dfc	-0.011481758
71	0x3cfb3061	0.030662717
72	0xbd452fb3	-0.048141193
73	0xbcb09ba1	-0.021558585
74	0xbc36ad59	-0.011149728
75	0x3c28933d	0.010289011
76	0xbbb692cf	-0.0055717
77	0xbb3e7dcf	-0.0029066687
78	0x3d03f7c3	0.032218706
79	0xba19e27c	-0.00058702356
80	0xbcd4e90c	-0.025990032
81	0xbb10e4a2	-0.0022108932
82	0x36d69143	6.3946077e-06
83	0xbc53b367	-0.012921191
84	0xbce4d4a1	-0.02793342
85	0x3c9e2ba9	0.019307928
86	0x3c7aa959	0.015299165
87	0xbc3a096e	-0.011354787
88	0x3ace4db1	0.0015739707
89	0x3bc016ee	0.0058621084
90	0xbc03ceb6	-0.008044889
91	0x3d094d69	0.03352109
92	0x3ccf57a0	0.025310338
93	0xbb831d25	-0.004001277
94	0xbce47d5e	-0.027891811
95	0x3b929d57	0.004474323
96	0xbc019653	-0.007909375
97	0xbc85969e	-0.016307171
98	0xbc3dc5b5	-0.011582782
99	0xbcc7f273	-0.024407601
100	0xbc83ef2e	-0.01610526
101	0x3b5d9c4a	0.003381508
102	0xbb9a00bd	-0.004699795
103	0xbc850b22	-0.01624066
104	0x3c61a1e7	0.013771511
105	0x3cc4c15c	0.024017982
106	0x3bff6b05	0.00779474
107	0x3c9e4c74	0.019323565
108	0x3c03edca	0.008052299
109	0xbc9b2f66	-0.0189435
110	0x3ba491b6	0.005022253
111	0xbccc06d1	-0.024905594
112	0xbc8cca0e	-0.017186191
113	0x3c44902b	0.011997263
114	0xbc7ddd15	-0.015494605
115	0xbcbd804d	-0.023132468
116	0xbc8fdd24	-0.017561503
117	0x3c5ac99b	0.013353731
118	0x3ce48484	0.02789522
119	0x3b82a763	0.003987239
120	0xbcb9dd93	-0.022688663
121	0xbcb5bfd1	-0.022186192
122	0x3cc6bfb1	0.024261327
123	0x3b85f6da	0.004088265
124	0xbbc6d21e	-0.0060675284
125	0x3cdaa734	0.026691057
126	0x3bab6560	0.0052305907
127	0x3c8e98da	0.01740687

network_body.observation_encoder.rsa.fc_q.bias f4 [128]
0	0xbcee8a77	-0.02911876
1	0x3cf29b47	0.029615058
2	0x3ca9a906	0.02071048
3	0x3cbfbee2	0.02340645
4	0x3a2e7d3a	0.00066562335
5	0xbca98c96	-0.02069692
6	0x39dc2872	0.00041991804
7	0x3cc38067	0.023864938
8	0xbc200cdd	-0.009768692
9	0xbc0153e6	-0.007893538
10	0x3ced660d	0.028979326
11	0xb94d9277	-0.00019604886
12	0xbbd23a65	-0.0064156526
13	0xbcf27228	-0.02959545
14	0x3c96fbe9	0.018430667
15	0x3bed2d5b	0.007238073
16	0xbbdf5f5e	-0.0068167886
17	0xbd0c78b9	-0.034294818
18	0x3d124d56	0.035718285
19	0xbc1b7915	-0.009489317
20	0x3c3145aa	0.010819832
21	0x3c2caf0d	0.010539782
22	0xbc8d42eb	-0.017243823
23	0xbc3a5582	-0.011372926
24	0x3b8f6d36	0.0043770326
25	0xbb314670	-0.002705004
26	0xbc1d0c9a	-0.009585524
27	0x3a3ebab3	0.0007275745
28	0x3bf1f7db	0.007384283
29	0x3bf6bcaa	0.0075298147
30	0x3ca3b64c	0.019984387
31	0xbc08bcab	-0.008345763
32	0xbba32d34	-0.004979754
33	0x3d2ab3ca	0.041675366
34	0x3ccc9576	0.024973612
35	0x38c88d6c	9.563085e-05
36	0x3b03ed93	0.002013062
37	0xbd306b8f	-0.043071326
38	0xbc1d4f58	-0.009601437
39	0xbca1d8ad	-0.01975664
40	0x39bce204	0.0003602655
41	0xbd102581	-0.035192017
42	0xbc4d76cf	-0.012540533
43	0x3cdf43ba	0.027253974
44	0xbc59ab4d	-0.01328547
45	0x3c93054e	0.017946865
46	0x3c51ef86	0.0128134545
47	0x3bc1a832	0.005909943
48	0xbc4cb288	-0.012493737
49	0x3c0b49f4	0.0085015185
50	0x3c39691f	0.011316567
51	0xbcf0cbe7	-0.029394103
52	0xbcdbfa71	-0.026852818
53	0x3c17159c	0.009221461
54	0x3b7b2939	0.0038324131
55	0x3c5b519c	0.013386156
56	0xbcfdc5f9	-0.03097819
57	0x3c67089f	0.0141011765
58	0x3b9df712	0.004820713
59	0x3c527f85	0.012847786
60	0xbd02eff6	-0.031967126
61	0xbca6e369	-0.02037211
62	0x3c4e3ae5	0.012587284
63	0x3caad527	0.020853592
64	0x3cd5c7d9	0.026096271
65	0xbc987d31	-0.018614383
66	0x3c2f7886	0.010709887
67	0x3cc0b316	0.023522895
68	0x3d10ea0c	0.035379454
69	0x3c240c38	0.010012679
70	0xbcb86a06	-0.022511493
71	0x3d64346a	0.05571405
72	0x3cb056fa	0.021525849
73	0xbd0aabdd	-0.033855308
74	0xbce13acd	-0.027493859
75	0x3d0f9570	0.035054624
76	0xbc2d00ee	-0.010559304
77	0x3c19f75c	0.009397354
78	0xbca73509	-0.020411031
79	0x3d0a80ba	0.03381417
80	0xbc81aa99	-0.015828418
81	0xbd122699	-0.03568134
82	0xbc76bcca	-0.015059659
83	0x3cb81c5a	0.022474457
84	0x3d44fc1b	0.04809199
85	0xbc9f7949	-0.019467013
86	0x3d04dc9c	0.032436952
87	0x3d0146e2	0.03156174
88	0x3b8abc2d	0.004233858
89	0xbd116511	-0.035496775
90	0xbb8000f6	-0.0039063646
91	0xbb802178	-0.00391024
92	0x3c155eed	0.00911687
93	0xbccd6656	-0.025073212
94	0x3ba6d0d7	0.0050908136
95	0x3bdc1851	0.006716766
96	0xbd835d26	-0.06414251
97	0xbd22271f	-0.03958809
98	0xbd64e3db	-0.055881362
99	0x3d4604ac	0.0483443
100	0x3c0a58eb	0.008444051
101	0xbbb70fbb	-0.005586592
102	0xbc8c3977	-0.017117245
103	0x3d4fc834	0.050728038
104	0x3d4071d7	0.046983566
105	0x3ce51528	0.02796419
106	0x3d07f6ba	0.03319428
107	0x3d8f6732	0.07002105
108	0xbc8ad51e	-0.016947325
109	0x3c9e818e	0.019348886
110	0x3d889b6a	0.06670268
111	0x3d063bbf	0.032771822
112	0x3d78cd0e	0.06074243
113	0xbc0f2d55	-0.008738835
114	0xbc81f608	-0.015864387
115	0x3c0974dd	0.008389679
116	0x3b620b88	0.0034491736
117	0x3d5cf205	0.053941745
118	0x3c1b1a5e	0.009466736
119	0x3d4c94be	0.04994654
120	0x3d59ccf3	0.05317397
121	0xbd019717	-0.03163823
122	0x3d61e0fb	0.0551462
123	0x3c9a963a	0.018870462
124	0xbd7d97b6	-0.06191226
125	0xbd2e672d	-0.042578865
126	0xbc8ee97d	-0.01744532
127	0x3d18a7c2	0.03726936

network_body.observation_encoder.rsa.fc_k.bias f4 [128]
0	0xb7a037cc	-1.9099469e-05
1	0x36d1ffaf	6.258451e-06
2	0x36dd9c4c	6.6045086e-06
3	0x36b6cedc	5.4481043e-06
4	0x36fd5eff	7.5510466e-06
5	0xb6fc0f7e	-7.5119888e-06
6	0xb5d588db	-1.5909567e-06
7	0x36f3f7db	7.2708185e-06
8	0xb739ab34	-1.1066721e-05
9	0x36bd00d0	5.6327335e-06
10	0x3662b524	3.3782062e-06
11	0x363e9515	2.8398983e-06
12	0xb6814f43	-3.853727e-06
13	0xb7222b02	-9.665966e-06
14	0x3686958d	4.010921e-06
15	0x369cd2f6	4.6737214e-06
16	0x368b0dfe	4.1441517e-06
17	0xb6fa1786	-7.453319e-06
18	0x36adae56	5.176097e-06
19	0xb6a0a53c	-4.7876074e-06
20	0xb67e09f1	-3.7854736e-06
21	0xb5bb5f40	-1.3960307e-06
22	0xb6c212db	-5.7838456e-06
23	0x367fa2f6	3.8092817e-06
24	0xb6a70bc9	-4.97836e-06
25	0xb4e23379	-4.2133232e-07
26	0xb682d1d7	-3.8987305e-06
27	0x35208320	5.9795457e-07
28	0x36f3c60c	7.26502e-06
29	0x364b058b	3.0252584e-06
30	0x36c02e87	5.7274624e-06
31	0x367bee34	3.7540567e-06
32	0xb6295047	-2.522969e-06
33	0xb476cab2	-2.2984275e-07
34	0xb6236077	-2.4345043e-06
35	0x3699db3e	4.5852785e-06
36	0xb6c84ebd	-5.969631e-06
37	0xb59eb867	-1.1825585e-06
38	0xb6011e79	-1.9240235e-06
39	0xb691bfbd	-4.343658e-06
40	0xb6bec052	-5.6848303e-06
41	0xb6d10d07	-6.230202e-06
42	0xb69fdf11	-4.7645376e-06
43	0xb682d2a8	-3.8988255e-06
44	0x349b4285	2.89194e-07
45	0x36817261	3.857815e-06
46	0x3604a81d	1.9767388e-06
47	0x3657ca49	3.2155242e-06
48	0xb6a43d5e	-4.894725e-06
49	0xb65de52b	-3.306496e-06
50	0xb6e53398	-6.830738e-06
51	0x36924d23	4.360119e-06
52	0x35e9ef1b	1.7429442e-06
53	0x368198a5	3.8622698e-06
54	0xb54b2b59	-7.568647e-07
55	0x368be50c	4.1691874e-06
56	0x366a38e2	3.4901827e-06
57	0x36578a30	3.2117932e-06
58	0x36543d62	3.1626191e-06
59	0x362e5f10	2.5983354e-06
60	0x361b76be	2.3165917e-06
61	0xb6842526	-3.938231e-06
62	0x35f83b1e	1.8494645e-06
63	0x3689e44c	4.1094954e-06
64	0xb60bcd8e	-2.0832263e-06
65	0xb49f0838	-2.9622038e-07
66	0xb5e38b59	-1.6953373e-06
67	0xb57358c3	-9.065372e-07
68	0x3605579b	1.9869537e-06
69	0xb5e376af	-1.6947359e-06
70	0xb4f0986a	-4.481438e-07
71	0x35e80005	1.7285353e-06
72	0x353ae934	6.9629755e-07
73	0xb5464761	-7.386462e-07
74	0xb65b6981	-3.2694954e-06
75	0x361dc504	2.3509501e-06
76	0xb4991ba7	-2.851859e-07
77	0xb628ce8f	-2.5154184e-06
78	0xb5b0c947	-1.3171601e-06
79	0x36669b8e	3.4363215e-06
80	0xb568baeb	-8.6698736e-07
81	0xb65e1a43	-3.3095864e-06
82	0xb5a2915f	-1.2112249e-06
83	0x35a9847d	1.263004e-06
84	0x36109e30	2.154975e-06
85	0x34881a72	2.5351216e-07
86	0x357c4f0a	9.399233e-07
87	0xb558c637	-8.075471e-07
88	0xb5ae1d40	-1.2972523e-06
89	0xb64bf4af	-3.0391782e-06
90	0xb62381e9	-2.436451e-06
91	0x3461e3e4	2.1037664e-07
92	0xb5e65e6e	-1.7163818e-06
93	0xb58c2485	-1.0441441e-06
94	0x36388e08	2.750081e-06
95	0x34f1914a	4.499546e-07
96	0xb6bab492	-5.564253e-06
97	0xb627276b	-2.4907883e-06
98	0xb5ab4a16	-1.2762055e-06
99	0xb715c7a7	-8.927577e-06
100	0xb6d4f6a8	-6.346807e-06
101	0xb703a17b	-7.845806e-06
102	0x3721a735	9.635279e-06
103	0xb56a99a0	-8.7395347e-07
104	0x370b066b	8.28654e-06
105	0x37061e89	7.994132e-06
106	0x34e66032	4.291083e-07
107	0xb6309d48	-2.6317593e-06
108	0x35126ece	5.455048e-07
109	0x367e6bc4	3.7911677e-06
110	0xb51388b7	-5.4960714e-07
111	0xb6605395	-3.3427252e-06
112	0x35ca3fca	1.5068738e-06
113	0xb68aa1b5	-4.1315457e-06
114	0x36e4785d	6.8089416e-06
115	0xb4120c05	-1.3601682e-07
116	0xb749f0b7	-1.2036579e-05
117	0xb6993aef	-4.566616e-06
118	0x36bc33bf	5.6088606e-06
119	0xb72d8d66	-1.0344525e-05
120	0xb5cf5ed4	-1.54503e-06
121	0x37405bbd	1.1465451e-05
122	0xb72dbe98	-1.035598e-05
123	0xb6d0e3a8	-6.2253857e-06
124	0x36bb407c	5.5805413e-06
125	0x36e7ddcd	6.9101575e-06
126	0xb633e333	-2.6805326e-06
127	0xb6998ca5	-4.5761285e-06

network_body.observation_encoder.rsa.fc_v.bias f4 [128]
0	0x3b5d243b	0.003374352
1	0xbbe30870	-0.006928496
2	0x3c53ff80	0.012939334
3	0xbc6b0e42	-0.014346661
4	0x3c454443	0.012040201
5	0xbc6b70e0	-0.014370173
6	0xba2240d6	-0.0006189471
7	0xbc243b75	-0.010023941
8	0xbc5e61f1	-0.013573156
9	0x3a6294b6	0.00086433755
10	0x3ba44f35	0.005014325
11	0xbbb0b575	-0.005392725
12	0x3c2be508	0.010491617
13	0xbc8dcd49	-0.017309802
14	0xbc5bbd1c	-0.013411786
15	0xbc108d38	-0.008822732
16	0xbc657ab1	-0.014006303
17	0xbb150554	-0.0022738772
18	0xbbb4d9fb	-0.0055191494
19	0x3bef576f	0.007304124
20	0x3c091e31	0.008369015
21	0x3c62e9de	0.013849704
22	0xbba8b626	-0.005148667
23	0xbb45bbef	-0.0030171832
24	0x3b3eadf5	0.0029095386
25	0x3caa6e2d	0.020804489
26	0xbb6e9ba2	-0.0036408682
27	0x3aea7743	0.0017888326
28	0x3bea6698	0.0071533434
29	0xbb0a7269	-0.0021125323
30	0x3c5c7eaa	0.013457933
31	0xbbddfaf8	-0.0067743026
32	0xbbecb514	-0.0072237346
33	0x3c491b73	0.012274611
34	0xbc575892	-0.013143675
35	0xbbfc77d8	-0.007704716
36	0x3c722d48	0.014781304
37	0x3b79327c	0.0038024476
38	0xbc266277	-0.010155312
39	0x3ac0fd0e	0.0014723854
40	0xbb92d00c	-0.0044803675
41	0xbbc3ffeb	-0.0059814355
42	0x3aca6a11	0.0015442987
43	0xbbbc449c	-0.0057454836
44	0xbc1cd51c	-0.009572294
45	0xbbc9ac58	-0.006154578
46	0xbc202b95	-0.009776016
47	0xba8b7fc3	-0.0010642934
48	0xbba714e8	-0.0050989278
49	0xba4dc457	-0.00078493863
50	0x3b32a8b7	0.0027261206
51	0xbadd5df1	-0.0016888959
52	0x3bedaba9	0.0072531295
53	0x3b844458	0.0040364675
54	0x39ba4da5	0.00035534534
55	0x3b8ee404	0.0043606777
56	0xbc78aa69	-0.015177348
57	0xbbc8e8be	-0.0061312607
58	0xbc205163	-0.009785029
59	0xbb86df0f	-0.004115946
60	0x3c513785	0.012769585
61	0x3c73c902	0.014879467
62	0x3bad93b3	0.005297148
63	0xbc1fa598	-0.0097440705
64	0xbbf664ac	-0.0075193252
65	0xbc37d21d	-0.0112195285
66	0x3a484138	0.0007639113
67	0xbbda1e8f	-0.006656475
68	0xbc85eb7a	-0.016347636
69	0x3bf60503	0.0075079217
70	0xb8053125	-3.175544e-05
71	0xbbf7432b	-0.007545849
72	0x3b8c90c2	0.0042897174
73	0x3c25b49e	0.010113863
74	0x3b9864c8	0.004650686
75	0xbbdd0efa	-0.00674617
76	0x3bbe311a	0.005804193
77	0xba992b34	-0.0011685849
78	0xbc0c8e4f	-0.008578851
79	0x398a7a27	0.00026412422
80	0x3b1a90cd	0.0023584843
81	0x3a60b0e0	0.00085712783
82	0x3b9b2dc9	0.0047356826
83	0x3bbef1cb	0.005827164
84	0x3c27a7e6	0.010232901
85	0xbbc88454	-0.0061192904
86	0x3c83873f	0.016055701
87	0xbc41db37	-0.01183205
88	0xbc615cca	-0.013755033
89	0x3b1f5e06	0.0024317517
90	0x3b584a3a	0.0033003227
91	0x3bb39c55	0.0054812827
92	0xbc97dc56	-0.018537682
93	0x3be5c5ba	0.0070120962
94	0xbc601a05	-0.013678079
95	0x3b972e6f	0.0046136896
96	0xbb87c7e0	-0.0041437
97	0xbc2edf64	-0.010673378
98	0xbb9c1386	-0.0047630696
99	0x3b309ca6	0.0026948838
100	0x3c2fd790	0.010732546
101	0x3b98b945	0.0046607577
102	0x3bd153c2	0.0063881585
103	0x3bb6427a	0.005562124
104	0xba9da9c9	-0.0012028749
105	0xbb2e77b2	-0.0026621637
106	0xbc3a8d0a	-0.011386165
107	0xbbf6fd8f	-0.0075375508
108	0xb89dc17a	-7.522381e-05
109	0xbc0e3bcb	-0.008681248
110	0x3b94be53	0.00453929
111	0xbc066487	-0.0082026785
112	0xbb18c29c	-0.0023309356
113	0x3ad54f58	0.0016274257
114	0x3b45ea3f	0.0030199436
115	0xbc07d52d	-0.008290571
116	0xbc16d256	-0.009205421
117	0xbc031ebb	-0.008002932
118	0xbbfe103d	-0.0077534006
119	0x3b97343e	0.004614382
120	0xbbc2d4c0	-0.005945772
121	0x3b077f97	0.0020675415
122	0xbb56b68c	-0.0032762615
123	0xbc0c7f97	-0.008575342
124	0xbc09a3df	-0.008400886
125	0xbbd92cbf	-0.0066276486
126	0x3aa7593a	0.001276768
127	0xbc38a2a7	-0.011269248

network_body.observation_encoder.rsa.fc_out.bias f4 [128]
0	0x3ca04b67	0.019567205
1	0xbb8535e8	-0.004065264
2	0x3c9c17bc	0.019054286
3	0x3aab5292	0.0013070873
4	0xbc393cff	-0.0113060465
5	0xbc513520	-0.012769014
6	0x3c1bb089	0.0095025385
7	0xb803f049	-3.1456617e-05
8	0xbc4e3bb2	-0.012587475
9	0x3b761ae2	0.0037552644
10	0x3b6a4902	0.0035749082
11	0xbc6f58c6	-0.014608568
12	0x3cc1980c	0.023632072
13	0xb8f3c1c6	-0.00011623236
14	0x3b0aaeaa	0.0021161237
15	0x3bb83079	0.0056210128
16	0xbb07a63f	-0.0020698456
17	0x3c3f7759	0.01168617
18	0xbc83418a	-0.016022462
19	0xbb6ae147	-0.0035839842
20	0x3c098707	0.008394009
21	0xba8ab9a0	-0.0010583885
22	0x3b143dc9	0.0022619835
23	0xbc8a9a09	-0.016919153
24	0x3cd67018	0.026176497
25	0xbbd9bc18	-0.006644737
26	0xbc55eea4	-0.013057385
27	0x3c2fc5b7	0.010728291
28	0xbabf30a8	-0.0014586644
29	0xbc5398b3	-0.012914824
30	0x3c1c9be4	0.009558652
31	0x3afbcc11	0.0019210597
32	0x3bb9f503	0.0056749596
33	0x3bfbb4a7	0.0076814475
34	0xbc541b24	-0.012945924
35	0x3a96696a	0.0011475508
36	0xbc88dfaa	-0.016708214
37	0x3b6daedc	0.0036267554
38	0x3c5ed905	0.013601546
39	0xbc0ec0b8	-0.00871294
40	0x3aadb194	0.0013251775
41	0x3b0509b0	0.0020299964
42	0xbc285d85	-0.010276203
43	0xbc39a10d	-0.011329901
44	0xbc1550a2	-0.009113463
45	0x3c63ba92	0.013899462
46	0x3ad83c9f	0.0016497559
47	0x3be76fbb	0.00706288
48	0x3c7ee81e	0.015558271
49	0xbb6ff16d	-0.0036612407
50	0x3c45ad5d	0.012065259
51	0xbc1c0fbd	-0.009525237
52	0xba536506	-0.0008064065
53	0x3c28787e	0.010282634
54	0xbbbd3c74	-0.005775029
55	0xbb43619f	-0.0029812825
56	0xbc19e880	-0.009393811
57	0xbbf0f9a6	-0.007353979
58	0xbc01d11d	-0.007923392
59	0xbc693543	-0.01423389
60	0x3bfb7ab7	0.007674541
61	0x3c9230aa	0.01784547
62	0x3c60e813	0.013727206
63	0x3c8b22d9	0.01698439
64	0x3b2a087a	0.0025944994
65	0xbbf680e6	-0.00752269
66	0x3acdda12	0.0015705249
67	0xbaee3862	-0.0018174762
68	0xbb8ab067	-0.0042324546
69	0x3b88b278	0.0041716658
70	0xbc7bf7d8	-0.015378915
71	0x3bcd01e8	0.0062563308
72	0xbc17c996	-0.00926437
73	0x3b9f6e8f	0.0048654745
74	0x3b297278	0.0025855582
75	0x3c0e8940	0.008699715
76	0xba99e43e	-0.0011740995
77	0x3af55369	0.0018716875
78	0x3c1d80ef	0.00961326
79	0x3c9ea922	0.019367758
80	0x39b38ab5	0.00034244885
81	0xbaaf1062	-0.0013356323
82	0xbb2ab1db	-0.0026045952
83	0xbc647e16	-0.013946077
84	0xba51464e	-0.00079831935
85	0x3c15f0ee	0.00915168
86	0xbbaded93	-0.005307862
87	0x3c1dfbf4	0.00964259
88	0x3b109cb4	0.0022066059
89	0x388aaba8	6.612326e-05
90	0xbbc98968	-0.0061504133
91	0x3b18874c	0.0023274003
92	0x3cb57ce3	0.022154277
93	0x3bd5bce2	0.0065227607
94	0xbc275504	-0.01021314
95	0xbc6dd4f4	-0.014516104
96	0xbb0ffd4a	-0.002197104
97	0xbc1d7406	-0.009610182
98	0x3b4c049d	0.003113068
99	0x3be1c64b	0.0068900934
100	0x3b512a9c	0.0031916266
101	0x3c8f67ef	0.017505614
102	0xbcb17123	-0.021660393
103	0xbb436879	-0.002981691
104	0x3abef032	0.0014567433
105	0x3c47fd58	0.012206398
106	0x3c765dd3	0.015037018
107	0xbb813f4f	-0.0039443146
108	0x3be5fdab	0.007018765
109	0xbb0e9dc6	-0.002176152
110	0xbbaf032e	-0.005340955
111	0xbb10a640	-0.002207175
112	0xba2cc1bc	-0.0006590148
113	0xbba1ea00	-0.004941225
114	0x3b0b5557	0.0021260583
115	0x3b186db8	0.0023258757
116	0x3c571c6f	0.013129338
117	0xbbdf007b	-0.006805477
118	0xbc049cd7	-0.008094034
119	0xbbe2da3b	-0.0069229878
120	0x3bd046dd	0.006356104
121	0x3b87c4d1	0.0041433354
122	0xbbee64ac	-0.0072751846
123	0xbc6ce31d	-0.014458445
124	0xbc5cda4b	-0.0134797795
125	0xbb3777fa	-0.0027995096
126	0x3c5b1ce2	0.013373585
127	0x3c14198b	0.009039293

network_body.observation_encoder.x_self_encoder.seq_layers.0.weight f4 [128, 3]
0	0x3c1a5dfd	0.009421823
1	0x3b9849be	0.0046474626
2	0xbcd93cd8	-0.02651827
3	0xbbb12986	-0.0054065613
4	0x3cfb7903	0.030697351
5	0x3d38c300	0.04510784
6	0x3d5f766f	0.054556306
7	0xbb94d7dc	-0.004542334
8	0x3bfcaecb	0.0077112666
9	0x3d655a19	0.055994127
10	0x3ca20f32	0.019782636
11	0x3ca3cde6	0.019995641
12	0xbc81fad1	-0.015866669
13	0x3c666b65	0.014063691
14	0x3d1e5a44	0.038660303
15	0x3d0bc2ef	0.03412145
16	0x3be5f4d9	0.0070177135
17	0x3b6cfdf0	0.00361621
18	0x3c11a454	0.0088892765
19	0x3cbf684d	0.023365164
20	0x3c1ee0d8	0.009697162
21	0xbd19884b	-0.037483495
22	0x3d169294	0.03676088
23	0x3b82a1d0	0.0039865747
24	0x3d206171	0.039155427
25	0x3c64cce6	0.013964867
26	0x3c2c527a	0.010517711
27	0xbd3552f9	-0.044268582
28	0xbbb43b43	-0.0055002286
29	0x3c88cf70	0.016700476
30	0x3cd85595	0.026407996
31	0x3b4834bb	0.0030549008
32	0xbccc3c34	-0.02493105
33	0xbc09501d	-0.008380917
34	0xbcb57c44	-0.022153981
35	0xbb8baea7	-0.0042627635
36	0xbd47a4b7	-0.04874107
37	0xbc0af11f	-0.008480339
38	0x3d1fd1c9	0.039018426
39	0x3d1cfb63	0.03832568
40	0x3ce917ba	0.028453697
41	0x3c8eb101	0.017418386
42	0x3940b026	0.00018376167
43	0x3b16904e	0.0022974196
44	0x3cd9adca	0.026572127
45	0xbc921610	-0.017832786
46	0x3ca841b5	0.020539144
47	0x3b619c4d	0.0034425438
48	0xbd475c9e	-0.04867231
49	0x3bc9e5ab	0.0061614118
50	0x3cef1616	0.029185336
51	0x3cae92f0	0.0213103
52	0x3d117873	0.03551526
53	0x3abf5274	0.0014596717
54	0xbd09f436	-0.033680163
55	0x3c7025e9	0.014657476
56	0x3c6c46d9	0.014421188
57	0x3d0028fb	0.031289082
58	0x3d18f819	0.03734598
59	0xbd794a6d	-0.060861994
60	0xbd102d56	-0.035199486
61	0xbd361d02	-0.044461258
62	0xbc223498	-0.009900235
63	0xbcb5fa78	-0.02221416
64	0xbc01ec2b	-0.007929842
65	0xbcc7c297	-0.02438478
66	0x3d6ac9bb	0.05732129
67	0x3cb180cb	0.021667859
68	0x3cf29f6c	0.029617034
69	0x3cc5605d	0.024093801
70	0x3cf5a116	0.029984038
71	0xbc9d7338	-0.01921998
72	0x3cb3246f	0.021867959
73	0xbcb1f0be	-0.02172124
74	0xbc9b876d	-0.018985474
75	0x3d030a2e	0.03199213
76	0xbb2c1c8b	-0.002626213
77	0x3c1425e6	0.009042239
78	0x3ce62090	0.028091699
79	0x3b5de648	0.0033859182
80	0x3cee71ca	0.029106993
81	0x3d2ac423	0.041690957
82	0x3d3025f0	0.04300493
83	0xbb20f1c7	-0.0024558173
84	0x3c8ec293	0.017426765
85	0x3bf710bb	0.007539836
86	0x3ca514f3	0.02015159
87	0xbd9fb94d	-0.07799015
88	0x3a673b67	0.00088208023
89	0xbd04dfb6	-0.03243991
90	0x3d00bddb	0.03143106
91	0x3b5a0eda	0.0033273012
92	0xbd7e43a2	-0.06207622
93	0x3ca686b0	0.020327896
94	0xbc302db7	-0.010753087
95	0xbbd27ebb	-0.006423799
96	0xbcd7a230	-0.026322454
97	0x3c400574	0.01172005
98	0x3d1062fa	0.03525064
99	0x3d8d2c64	0.068932325
100	0x3d274304	0.040835395
101	0xbcb4c3ad	-0.022065962
102	0xbbae2972	-0.0053149993
103	0x3aa0d202	0.0012269618
104	0xbd4e3497	-0.050343122
105	0xbda2ce64	-0.07949522
106	0x3c933ba0	0.017972767
107	0xbd283e4e	-0.041075043
108	0x3cea312f	0.028587906
109	0x3cf7838c	0.030214094
110	0xbc846144	-0.016159661
111	0xbda79709	-0.081831045
112	0xbd551b73	-0.05202813
113	0xbd02b311	-0.031909052
114	0x3bdf858f	0.0068213413
115	0x3c180d5b	0.009280528
116	0x3c9e76e6	0.019343805
117	0xbb37028d	-0.0027925104
118	0xbc8516f5	-0.016246298
119	0xbc93de6c	-0.018050395
120	0x3d433f11	0.047667567
121	0xbcb08f03	-0.021552568
122	0xbc9d543f	-0.01920521
123	0xbc7cc2ee	-0.015427334
124	0xbd86f366	-0.06589393
125	0xbd27bcd8	-0.04095158
126	0xbbb8fff5	-0.005645747
127	0x3d29c1d7	0.041444626
128	0xbbd0053a	-0.0063482793
129	0xbc84cb33	-0.016210174
130	0xbcf1640f	-0.029466657
131	0x3c27a4f4	0.010232199
132	0x3d6db3e5	0.05803289
133	0x3d23f503	0.040028583
134	0xbc9855ad	-0.01859554
135	0xbd3627ca	-0.04447154
136	0x3ce6d8f0	0.028179616
137	0x3af1c516	0.0018445577
138	0xbd016261	-0.031587962
139	0xbb7cd0fc	-0.0038576713
140	0xbb971d08	-0.004611615
141	0x3b200648	0.0024417806
142	0x3d02380e	0.03179174
143	0x3c7eb925	0.015547072
144	0xbd881fe8	-0.06646711
145	0xbd2b69fa	-0.041849114
146	0x3a692682	0.0008893983
147	0xbc9fa514	-0.019487895
148	0x3a591444	0.0008280913
149	0xbb1cfed2	-0.0023955596
150	0xbcf55f39	-0.029952632
151	0xbcb1b723	-0.021693772
152	0xbc4ea77f	-0.012613176
153	0x3d57b1bf	0.052659746
154	0xbcc5dcdd	-0.024153167
155	0x3d95b4e3	0.07309892
156	0x3ccb202c	0.024795614
157	0x3b0a0c11	0.002106432
158	0x3b87adbd	0.0041405843
159	0x3d066df7	0.032819714
160	0x3d870c66	0.06594162
161	0x3cdbdedb	0.026839664
162	0x3d0ff80a	0.035148658
163	0xbd8b80a5	-0.06811646
164	0x3b863946	0.004096183
165	0xbd272129	-0.04080311
166	0x3c65c674	0.014024366
167	0xbbd675da	-0.0065448107
168	0xbcafcb9b	-0.021459391
169	0x3d8ac2b8	0.06775421
170	0xbb3527fb	-0.0027642238
171	0x3d5ef322	0.05443109
172	0xbc85ea02	-0.016346935
173	0x3c933733	0.017970657
174	0xbd17c3e0	-0.037052035
175	0xbd33c26c	-0.043886587
176	0xbc0490b4	-0.008091141
177	0xbc96c9ea	-0.018406827
178	0xbcb0854f	-0.021547941
179	0xbb0c8aed	-0.002144511
180	0xbd0aaf06	-0.03385832
181	0xbd895315	-0.067053
182	0x3c7cfea1	0.015441568
183	0x3c9fb8fc	0.019497387
184	0xbb90bfc7	-0.004417393
185	0xbd054a15	-0.032541353
186	0xbd448f06	-0.04798796
187	0xbcb876c2	-0.022517566
188	0x3cde9cbc	0.027174346
189	0xbdb08bb0	-0.08620393
190	0xbd2ea9ec	-0.04264252
191	0x3b8715d6	0.004122476
192	0xbd07afc7	-0.03312662
193	0x3d0bf2aa	0.03416697
194	0xbc9c61b3	-0.019089555
195	0xbcb1d576	-0.021708231
196	0x3c7b7436	0.015347531
197	0xbc249e01	-0.010047437
198	0xbcdcd261	-0.026955785
199	0x3a0db993	0.0005406376
200	0x3c2a93f8	0.010411255
201	0xbd83484d	-0.06410275
202	0x3cb9102d	0.022590721
203	0x3c149652	0.009069042
204	0xbcc34e72	-0.023841117
205	0x3c4ce7b7	0.012506417
206	0xbc6bbed9	-0.014388763
207	0x3d5372b4	0.05162306
208	0x3bf05853	0.007334748
209	0xbb85cb6c	-0.0040830877
210	0xbcd67693	-0.026179587
211	0xbcbd3627	-0.02309711
212	0xbcfdcd3e	-0.030981656
213	0x3c908722	0.017642561
214	0x3d1be3a4	0.038058892
215	0xbd0af937	-0.033929076
216	0x3ce7e04f	0.0283052
217	0x3c24a979	0.010050171
218	0xbaea83b5	-0.0017892035
219	0x3c7cbe43	0.015426221
220	0xbc8931a0	-0.016747296
221	0xbb9e8c16	-0.004838477
222	0x3d33f9fb	0.04393957
223	0x3d43089b	0.04761563
224	0xbca5ff42	-0.020263318
225	0xbbc3791a	-0.005965364
226	0xbc71b1dc	-0.014751878
227	0x3cb947e8	0.022617295
228	0xbccfd44d	-0.025369788
229	0x3c23d8c5	0.010000412
230	0x3cd9d8d3	0.026592648
231	0xbcb8ef55	-0.02257506
232	0x3ca346b3	0.019931173
233	0xbc35ade6	-0.011088824
234	0xbba68498	-0.0050817244
235	0xbd83b83a	-0.06431623
236	0x3c59953a	0.013280207
237	0xbd2e3519	-0.042531107
238	0x3db595ae	0.0886644
239	0xbd503342	-0.050830133
240	0xbcc7c30e	-0.024385002
241	0x3d6dd9db	0.05806909
242	0xba4a907e	-0.00077272195
243	0xbcb274a2	-0.02178413
244	0x3c4a4df6	0.012347689
245	0xbd055f45	-0.03256156
246	0xbd13c3b8	-0.036075324
247	0x3d7fe6f7	0.062476125
248	0x3b874e38	0.0041291974
249	0x3d3877a3	0.04503597
250	0x3be625f0	0.0070235655
251	0xbd6efee9	-0.05834857
252	0x3d5c1032	0.053726383
253	0xbc84b441	-0.016199233
254	0xbc94496c	-0.018101417
255	0x3d9bd6cb	0.07609328

network_body.observation_encoder.x_self_encoder.seq_layers.0.bias f4 [128]
0	0xbb790d54	-0.003800233
1	0x3bbd6bf1	0.00578069
2	0xb96c0c0a	-0.00022511199
3	0x3b1683a2	0.0022966643
4	0xbc4d2546	-0.012521094
5	0x39b6ff4d	0.0003490396
6	0xbae1964b	-0.0017210928
7	0xbb2ee9c2	-0.0026689623
8	0x3ad32da3	0.0016111623
9	0xbc4b76ad	-0.012418431
10	0xbbb4fd49	-0.005523358
11	0xbbcb9f3c	-0.0062140506
12	0x3bbcddcd	0.0057637454
13	0xbc39d8b1	-0.011343167
14	0x3c71cbbe	0.014758049
15	0x3ca13e1c	0.019682936
16	0xbbd987fb	-0.0066385246
17	0x3ba7e0d5	0.0051232376
18	0x3c31f9e9	0.010862806
19	0x3b0f515f	0.002186857
20	0x3be0e070	0.0068626925
21	0x3c26db18	0.010184072
22	0x3b6f1743	0.003648237
23	0x3c1c8cab	0.009555022
24	0x3aab2ed0	0.0013060216
25	0xbbae895b	-0.0053264326
26	0xbb0d70ed	-0.0021582202
27	0xbc7e0a25	-0.015505348
28	0xbc10266c	-0.008798223
29	0x3c22d34b	0.0099380715
30	0xbbf04932	-0.0073329443
31	0xbb1163af	-0.002218466
32	0x3bea55c5	0.007151338
33	0xbcb71e3e	-0.022353288
34	0xbc3c276e	-0.01148401
35	0x3ad7fd70	0.0016478729
36	0xbc1465a0	-0.009057432
37	0x3c6c8326	0.014435565
38	0xbc267836	-0.010160496
39	0xbb26e8db	-0.0025468383
40	0x3b965452	0.0045876885
41	0xbc02f2e8	-0.007992484
42	0xba10abd0	-0.0005518766
43	0xbb58170a	-0.0032972717
44	0xbbe7b68e	-0.0070713228
45	0x3a8d748f	0.0010792183
46	0xbc0cc798	-0.008592509
47	0x3b31e3da	0.0027143867
48	0x3be1dd90	0.0068928674
49	0xbc584eb9	-0.013202363
50	0xbba91349	-0.0051597697
51	0x3c4f39f6	0.012648096
52	0x3ac4d02e	0.0015015656
53	0x3b0c738a	0.0021431171
54	0x3a56178e	0.0008166962
55	0x3a2a2407	0.0006490354
56	0x3a7d5ee9	0.0009665327
57	0x3b4dcf41	0.003140405
58	0x3c01b841	0.007917465
59	0x3ae5501e	0.001749519
60	0x3b4dfa89	0.0031429848
61	0xbc2ce9d7	-0.010553799
62	0xbb9e5f9a	-0.004833174
63	0xbb90f713	-0.004423985
64	0x3a8a0289	0.001052932
65	0xbba6aef3	-0.0050867735
66	0x3a88d46c	0.0010439283
67	0xbaab177a	-0.0013053261
68	0xb7c3e318	-2.335156e-05
69	0x3b0c9ee8	0.002145702
70	0xbb70eb84	-0.0036761472
71	0xbbba145e	-0.0056786975
72	0xbbb32c6b	-0.0054679415
73	0xbb62bcfe	-0.0034597511
74	0xbba72b02	-0.0051015625
75	0xbb8a9ef3	-0.004230374
76	0x397fedbe	0.00024407261
77	0xbc0f0ebb	-0.008731539
78	0x3a915aaf	0.0011089648
79	0x3c3cbf6f	0.011520251
80	0x3a89ce8a	0.0010513824
81	0xbbd9c88f	-0.006646223
82	0x3bfc07dd	0.007691367
83	0xbad3457b	-0.0016118729
84	0x3bcc08d3	0.006226638
85	0x3c32dd39	0.010917001
86	0xbc3366be	-0.010949789
87	0xbbbbdf35	-0.0057333955
88	0x3bd80a06	0.0065929918
89	0xbc795bce	-0.015219642
90	0x3c55b852	0.013044434
91	0xbb3744e5	-0.0027964648
92	0xbbba7599	-0.0056902883
93	0x3c1db915	0.0096266465
94	0x3b94c951	0.0045406003
95	0x3b0b391b	0.0021243754
96	0x3c026a8f	0.007959976
97	0xbc0c2ced	-0.008555633
98	0xbbbd1855	-0.005770723
99	0xbc4cacd2	-0.012492375
100	0x3bd87bb1	0.006606542
101	0xbbaec7f5	-0.0053338953
102	0xbc20d496	-0.009816309
103	0x3b7dd1dd	0.0038729825
104	0x39e1b591	0.00043050622
105	0x3c09e1a4	0.008415613
106	0x3b042ca8	0.0020168219
107	0x3bd8e675	0.0066192695
108	0xbac91f88	-0.001534448
109	0x3c259fb3	0.010108876
110	0x3bef9521	0.0073114787
111	0xbbde8ffd	-0.006792067
112	0xba12421c	-0.0005579309
113	0x3aeca8b0	0.0018055644
114	0x3c84af5f	0.016196905
115	0x3bef7f60	0.0073088855
116	0xba8f86fd	-0.0010950264
117	0xbc1e31b5	-0.009655406
118	0xbb352f4e	-0.0027646604
119	0xbc5c34c6	-0.013440317
120	0x3be6a7c3	0.0070390417
121	0x3c7facfe	0.015605209
122	0xbacde964	-0.0015709815
123	0x3b3534b7	0.0027649829
124	0xbba861a5	-0.0051385933
125	0xbac7ed07	-0.0015253135
126	0x3b023bc5	0.0019872051
127	0x39d804c5	0.00041202284

network_body._body_endoder.seq_layers.0.weight f4 [128, 131]
0	0xbd529b94	-0.051417902
1	0xbcd08825	-0.025455544
2	0xbd770e80	-0.060316563
3	0xbd968f76	-0.07351582
4	0x3d8a6221	0.06756998
5	0xbd3e2204	-0.04641916
6	0xbda01bda	-0.07817812
7	0x3d35b264	0.04435958
8	0x3d672703	0.05643369
9	0x3c807746	0.015681874
10	0xbe3c05f0	-0.1836164
11	0x3e33fbf0	0.17576575
12	0xbe0ad547	-0.13557921
13	0xbdb7f7d4	-0.08982816
14	0x3d2b683a	0.041847445
15	0xbdb5e97c	-0.08882424
16	0xbd24f4c1	-0.040272478
17	0xbe298f4f	-0.16558574
18	0xbbaf8de1	-0.0053574895
19	0x3e31a3b9	0.17347611
20	0xba1ef877	-0.0006064246
21	0x3e272a12	0.16324642
22	0xbe3829ff	-0.1798477
23	0xbc06f8b3	-0.008238005
24	0xbcb1350a	-0.021631736
25	0xbd9e1782	-0.077193275
26	0x3e1f9c79	0.15587033
27	0xbd4fa6fb	-0.050696354
28	0x3e21aa46	0.1578761
29	0x3deced28	0.115686715
30	0xbe8502ce	-0.25978702
31	0xbdb08ffb	-0.08621212
32	0xbe01e160	-0.1268363
33	0xbe0e24fb	-0.13881294
34	0xba032434	-0.0005002648
35	0x3e044cc5	0.1291991
36	0xbda8a7b7	-0.08235114
37	0x3dc1ee6b	0.09469303
38	0x3ca1f3e1	0.01976961
39	0x3dc39518	0.09549922
40	0x3bd26401	0.006420613
41	0x3d56eb28	0.052470356
42	0xbd9e944c	-0.07743129
43	0x3e231ca5	0.15928896
44	0x3d0364d1	0.032078568
45	0x3dfa1ee9	0.12212927
46	0xbe11e711	-0.14248301
47	0x3d1acf00	0.037795067
48	0xbdca0b7f	-0.09865474
49	0xbba16dda	-0.0049264254
50	0x3d2bdee5	0.041960616
51	0x3e00e3c7	0.1258689
52	0xbcd6bd40	-0.026213288
53	0x3d24ca51	0.040232006
54	0xbc94f0e9	-0.018181281
55	0xbdf17f29	-0.11791832
56	0x3d2b9cc4	0.04189755
57	0x3e3e6a73	0.18595295
58	0x3ba1d1ef	0.004938356
59	0x3d9c15d2	0.076213494
60	0x3bea2737	0.007145788
61	0x3d6571b5	0.056016643
62	0xbc930e84	-0.017951258
63	0x3df1ac2f	0.118004195
64	0x3c794004	0.015213016
65	0xbc052330	-0.008126065
66	0xbddf3e77	-0.10900586
67	0x3df14bcd	0.11782036
68	0x3dc4704d	0.09591732
69	0x3b865f56	0.0041007204
70	0x3d410445	0.047123212
71	0xbdb199c0	-0.086719036
72	0x3d256cda	0.040387012
73	0x3da99c9d	0.08281825
74	0xbe088774	-0.13332921
75	0x3d801713	0.06254401
76	0xbcd79e0a	-0.026320476
77	0xbd789dc7	-0.060697343
78	0x3aafa193	0.0013399593
79	0xbd3959c2	-0.045251615
80	0xbc62bf10	-0.013839498
81	0xbdc73ac9	-0.09728009
82	0x3cd94c18	0.026525542
83	0xbdd7c50e	-0.10535632
84	0xbbd060ba	-0.006359187
85	0xbd121c6a	-0.03567163
86	0xbceb99c7	-0.02875985
87	0x3d623e0c	0.055234954
88	0xbcc39d39	-0.02387868
89	0x3ca0c34a	0.019624371
90	0x3c96b44e	0.018396523
91	0xbc4b18c0	-0.012396038
92	0xbda49949	-0.08037049
93	0xbddb0c1a	-0.106956676
94	0x3e0d6ae7	0.13810311
95	0xbd29531d	-0.04133903
96	0xbd42c62f	-0.047552284
97	0xbbcfb784	-0.0063390154
98	0x3e39201c	0.18078655
99	0x3a68aa49	0.0008875472
100	0xbdd37ab7	-0.103261404
101	0x3d5c6add	0.05381285
102	0x3dd902e7	0.10596257
103	0xbe407e08	-0.18798077
104	0xbe1acc8c	-0.15117091
105	0x3c3a2138	0.011360459
106	0x3d93d037	0.07217448
107	0xbd56404c	-0.052307412
108	0xbd32b04a	-0.043625154
109	0x3d8db680	0.06919575
110	0x3be7a572	0.007069283
111	0xbd5bd527	-0.053670075
112	0x3c9d6c6a	0.019216735
113	0x3e45fdf1	0.19335152
114	0xbba8f937	-0.005156662
115	0x3c4d00cd	0.012512398
116	0x3ddff98e	0.10936271
117	0xbccdf869	-0.025142865
118	0xbd0774b2	-0.033070274
119	0x3dec30d9	0.115327545
120	0xbd923087	-0.07138162
121	0x3e1364e3	0.14393954
122	0xbdad5da7	-0.084651284
123	0x3cd8804d	0.026428366
124	0x3d6462af	0.055758175
125	0x3e06548c	0.1311819
126	0x3e2b637d	0.1673717
127	0x3dfdaae1	0.12386108
128	0x3dd195ca	0.10233648
129	0x3e6bb346	0.23017606
130	0x3e80e934	0.2517792
131	0x3da85978	0.0822019
132	0xbe202daa	-0.1564242
133	0x3e310258	0.1728605
134	0xbe43b99d	-0.19113775
135	0xbd76c19b	-0.06024323
136	0xbdbff5f4	-0.09373084
137	0x3c7d9ee9	0.015479782
138	0xbc294587	-0.010331518
139	0xbd5387fd	-0.05164336
140	0xbc2682ef	-0.010163053
141	0xbdd5934a	-0.10428484
142	0xbaccd3f4	-0.0015627132
143	0x3df853e5	0.121253766
144	0xbcc7d6cc	-0.024394415
145	0x3dd6ca32	0.104877844
146	0xbd1cc53e	-0.038274042
147	0x3e4dc2d8	0.20093858
148	0x3d2b0d9e	0.041761033
149	0xbbc13a31	-0.0058968295
150	0x3da5216a	0.08063014
151	0xbc706fa6	-0.014675057
152	0xbd79ccc2	-0.060986288
153	0x3d56c5a3	0.052434575
154	0x3d8ad0e1	0.06778122
155	0x3d409ba0	0.047023416
156	0xbd67464c	-0.056463525
157	0xbde8566f	-0.11344611
158	0x3dc177bd	0.094466664
159	0x3d890b7b	0.06691643
160	0xbe059161	-0.13043739
161	0xbda1d15d	-0.07901261
162	0xbdf4cffa	-0.11953731
163	0x3c9ab970	0.018887252
164	0x3d2f3b05	0.042780895
165	0xbda08724	-0.07838276
166	0xbc8bac2a	-0.017049868
167	0xbc1ecfad	-0.009693068
168	0x3d94c565	0.072642125
169	0xbdaf3ae5	-0.08556155
170	0x3d02756d	0.031850267
171	0xbc8a360b	-0.016871473
172	0xbe1da304	-0.15394217
173	0xbda2e2e9	-0.07953436
174	0xbc6aca8b	-0.014330517
175	0xbdb14676	-0.086560175
176	0xbd8b0f45	-0.06790022
177	0xbd5c1ea4	-0.05374016
178	0x3d96c4a7	0.07361727
179	0x3c8ec15a	0.017426182
180	0x3ded7cbc	0.11596057
181	0x3cef249b	0.02919226
182	0xbdb5b8d0	-0.08873141
183	0x3d281320	0.041033864
184	0x3cc6aff1	0.024253817
185	0xbd3f8cb8	-0.04676506
186	0xbd7040f5	-0.058655698
187	0x3d4bfb36	0.04980012
188	0x3d4cbe82	0.04998637
189	0x3dcfe2ff	0.10150718
190	0xbdf25d19	-0.11834163
191	0xbc9a1576	-0.018809061
192	0x3cc7272b	0.024310669
193	0xbe16036e	-0.14649746
194	0x3d24c91c	0.040230855
195	0xbb1dea39	-0.0024095906
196	0xbdb5df06	-0.08880429
197	0xbc1c08ac	-0.009523552
198	0xbd017deb	-0.031614225
199	0xbd8a8332	-0.06763305
200	0x3c5a4b0c	0.013323557
201	0x3c299acb	0.010351847
202	0xbdb9d158	-0.09073132
203	0x3b829ea3	0.003986196
204	0xbd8a7553	-0.06760659
205	0x3ca60372	0.020265315
206	0x3d9088b7	0.07057326
207	0xbe3235c6	-0.17403325
208	0x3d8592bb	0.06522127
209	0xbd9174df	-0.071023695
210	0x3d1d96a3	0.038473736
211	0x3d2e404b	0.042541783
212	0x3e3529c9	0.17691721
213	0x3d265262	0.04060591
214	0x3d418239	0.04724333
215	0x3ca8ef2f	0.020621864
216	0xbd6cd7da	-0.05782304
217	0x3d1bdb99	0.03805122
218	0xbe2a18ca	-0.16611019
219	0x3d67a695	0.05655535
220	0x3cd558b0	0.026043266
221	0xbe0537b2	-0.13009527
222	0xbc65f946	-0.014036482
223	0xbda48a10	-0.08034146
224	0xbe3c0ab9	-0.18363465
225	0x3dbd5a61	0.09245754
226	0xbd8a8032	-0.067627326
227	0xbdaac6b5	-0.083386816
228	0xbd881dfa	-0.066463426
229	0xbce92ea5	-0.028464625
230	0xbc21667f	-0.009851097
231	0x3e166b19	0.14689292
232	0xbcf2cba9	-0.029638128
233	0xbcc942f8	-0.024568066
234	0x3dec16c9	0.115277834
235	0xbdd8daa9	-0.10588581
236	0x3df36c1f	0.11885857
237	0x3d5c6f27	0.05381694
238	0x3cd432ea	0.025903184
239	0xbd381302	-0.044940002
240	0xbd20d841	-0.039268736
241	0xbd189256	-0.03724893
242	0xbddc2551	-0.10749305
243	0x3d88bad4	0.0667626
244	0xbc480698	-0.012208603
245	0x3da51cea	0.080621555
246	0x3df47f12	0.11938299
247	0xbde45024	-0.11148098
248	0xbe17611f	-0.14783143
249	0xbd838e30	-0.064236045
250	0x3dc5791b	0.0964224
251	0x3c96c4be	0.01840436
252	0x3db1da3d	0.08684204
253	0xbd920465	-0.071297444
254	0xbc953846	-0.01821531
255	0xbd85a3b4	-0.065253645

network_body._body_endoder.seq_layers.0.bias f4 [128]
0	0xbb5b6306	-0.003347577
1	0xba3b61f1	-0.00071480783
2	0x3c216942	0.009851756
3	0x3c4e11be	0.012577472
4	0xbc0c9850	-0.008581236
5	0x3c0e1050	0.008670881
6	0x3c89e1fc	0.01683139
7	0x3ca69418	0.020334288
8	0xbc21c65c	-0.009873953
9	0x3d1d7c95	0.03844889
10	0x3bdee989	0.006802742
11	0xbb7a618d	-0.0038205117
12	0x3c1101c2	0.008850517
13	0x3c54b501	0.012982608
14	0xbc7a985f	-0.015295117
15	0xbbaad0e0	-0.005212888
16	0xbc38d294	-0.0112806745
17	0xbbb8c064	-0.005638169
18	0xbb6c6dfe	-0.0036076303
19	0xbc15997f	-0.009130835
20	0x3bcc125b	0.006227774
21	0x3cbec238	0.02328597
22	0xbc157dcd	-0.0091242315
23	0x3c12eb0e	0.008967174
24	0x3b89beba	0.0042036446
25	0x3c445e7f	0.01198542
26	0x3c49e69f	0.012323051
27	0x3b99eb79	0.00469726
28	0x3ace35b8	0.0015732562
29	0x3c128fab	0.008945386
30	0xbabfd6a9	-0.0014636117
31	0xbbb18502	-0.005417467
32	0x3c74182e	0.014898343
33	0x3c1acec2	0.009448709
34	0xbbf43645	-0.0074527585
35	0xbbd61912	-0.0065337503
36	0x38b9dfda	8.863183e-05
37	0x3c8ad5a3	0.016947573
38	0x3cccf5d4	0.025019564
39	0x3c7d7f2e	0.0154722165
40	0xbc8132c1	-0.015771272
41	0xbbf66d7c	-0.007520376
42	0xbcaab4f5	-0.02083824
43	0xba9f9112	-0.0012173972
44	0x3b574eda	0.0032853396
45	0x3ce6c935	0.028172115
46	0x3ca1db8b	0.019758007
47	0xbc231dc7	-0.00995583
48	0x3c2b5d14	0.010459203
49	0x3c49a728	0.01230792
50	0xbc20b0dc	-0.009807792
51	0x3c5b5a96	0.013388297
52	0x3c8fc7f1	0.017551394
53	0xbb872db5	-0.0041253217
54	0x3c73de95	0.014884611
55	0xbb1cef98	-0.002394652
56	0xbca88984	-0.020573385
57	0x3c877751	0.016536387
58	0x3a891d25	0.0010460956
59	0xbc9b9661	-0.018992605
60	0x3c0ebb4a	0.008711645
61	0x3bcfc548	0.0063406564
62	0x3adcb478	0.0016838452
63	0x3c6987f6	0.014253607
64	0xbc5ec91e	-0.013597755
65	0x3c942f33	0.018088913
66	0x3c46eef4	0.012141932
67	0xbbbb7fb5	-0.005722011
68	0xbb8b9f6a	-0.004260947
69	0xbc02ffb8	-0.007995538
70	0xbc814ed3	-0.015784657
71	0x3c38343b	0.011242921
72	0xbc46be2d	-0.012130302
73	0x3bc9eede	0.0061625084
74	0x3c28222a	0.010262052
75	0x3c05b9f8	0.008162014
76	0xb97ac3ec	-0.00023914844
77	0x3c825e22	0.015914027
78	0xbb4c9f68	-0.0031222943
79	0x3b4d3b55	0.0031315882
80	0xbbac690c	-0.005261546
81	0x3b8ee5fb	0.004360912
82	0x3bcdddb1	0.006282531
83	0x3aea245a	0.0017863617
84	0x3ca57fe4	0.020202585
85	0x39a960c0	0.00032306276
86	0xbc93f2b1	-0.01806006
87	0xbbe1b24f	-0.006887711
88	0x3b9c1f25	0.004764455
89	0x3c494df0	0.012286648
90	0x3a9d2eaf	0.0011992062
91	0x3c44cf91	0.012012378
92	0xbca8f872	-0.02062628
93	0x3c76b8b1	0.015058682
94	0xbc356013	-0.011070269
95	0xbc4ab340	-0.012371838
96	0xbc7eb7d7	-0.0155467605
97	0x3c40c17c	0.01176488
98	0xbc00bbb5	-0.007857253
99	0xbca695c0	-0.020335078
100	0x3b52b762	0.0032152762
101	0xbc3c2a7a	-0.011484737
102	0x3c0ba80b	0.008523951
103	0x3b806194	0.003917882
104	0x3ca43020	0.020042479
105	0xbb19a376	-0.0023443378
106	0x3c1da81b	0.009622599
107	0x3cba050e	0.022707488
108	0xba9bd6e2	-0.0011889602
109	0xbb537c7b	-0.003227024
110	0x3bb953c4	0.0056557376
111	0xbac56247	-0.0015059196
112	0xbc903d61	-0.017607393
113	0x3c5fca9a	0.013659144
114	0x3b4234a9	0.0029633439
115	0x3c751da3	0.014960679
116	0x3c71c9e3	0.014757606
117	0x3be901cc	0.00711081
118	0x3a67f6cd	0.0008848727
119	0xbbb3b64f	-0.0054843794
120	0x3b24546a	0.0025074729
121	0xbc7fd9f1	-0.015615926
122	0xb9d37317	-0.00040330805
123	0x3bc8f88b	0.0061331443
124	0x3bf24545	0.0073935115
125	0x3be15e27	0.006877679
126	0x393774c0	0.00017495733
127	0x3b8ba4bc	0.004261581

network_body._body_endoder.seq_layers.2.weight f4 [128, 128]
0	0xbd6346b7	-0.05548736
1	0x3daae450	0.083443284
2	0xbc866249	-0.016404288
3	0xbdefccc1	-0.117089756
4	0x3c019790	0.0079096705
5	0x3dc1a5bc	0.094554394
6	0x3c9b3040	0.018943906
7	0xbe5c2871	-0.21499802
8	0xbd18a953	-0.037270855
9	0x3d5712d5	0.052508194
10	0xbe0dd2e6	-0.13849983
11	0x3d8bb23b	0.06821104
12	0x3dda70d3	0.10666051
13	0x3e201d44	0.15636164
14	0xbc906400	-0.017625809
15	0xbdd7e2d6	-0.105413124
16	0xbdecf5e1	-0.11570335
17	0x3d3beb15	0.04587849
18	0x3e19e6e2	0.15029481
19	0xbd0dbd0e	-0.034604125
20	0x3db665c0	0.08906126
21	0xbd4d35e6	-0.05010023
22	0x3d2de42d	0.042453934
23	0x3dc69c51	0.09697784
24	0xbd8811bd	-0.06644008
25	0xbc106895	-0.008813997
26	0x3e08573c	0.13314527
27	0x3e17d4f8	0.14827335
28	0xbc3495c5	-0.011022036
29	0x3dd2dac4	0.102956325
30	0xbbd76f10	-0.006574519
31	0x3dbebf49	0.093138285
32	0x3dcc7af1	0.09984387
33	0x3def26a9	0.11677296
34	0xbd67a47a	-0.05655334
35	0x3c37c23b	0.011215742
36	0xb9272197	-0.00015938874
37	0x3db4261c	0.08796331
38	0xbdabee0d	-0.08395014
39	0x3df772b6	0.12082426
40	0x3df0001f	0.11718773
41	0xbe26e56c	-0.16298455
42	0xbdacf3b2	-0.08444919
43	0x3c217646	0.009854859
44	0xbda01b15	-0.078176655
45	0xbdb51857	-0.08842533
46	0xbc0c42dc	-0.008560862
47	0xbd812c83	-0.06307318
48	0xbd9f2a99	-0.07771797
49	0x3d7d5740	0.061850786
50	0xbd0ae458	-0.03390917
51	0xbc871777	-0.016490681
52	0xbd067ea5	-0.03283562
53	0xbdc9090f	-0.09816181
54	0x3d5b2b19	0.053507898
55	0x3d4f3f73	0.05059762
56	0xbc6fb7b6	-0.014631202
57	0x3e185e02	0.14879611
58	0x3c9b6e00	0.01897335
59	0xbd6a79a4	-0.05724491
60	0x3e2dd363	0.16975169
61	0xbd867f9d	-0.06567309
62	0xba1d27d8	-0.0005995012
63	0x3d57c469	0.052677546
64	0xbcc1c134	-0.023651697
65	0xbccce161	-0.025009813
66	0xbc0a4c20	-0.008441001
67	0xbdb50f6e	-0.088408336
68	0xbe872786	-0.2639734
69	0xbcfd0961	-0.030888261
70	0xbcc90c68	-0.024542049
71	0xbe027d07	-0.12743007
72	0x3cbeab7b	0.023275128
73	0x3c208aa6	0.009798681
74	0xbd038615	-0.032110292
75	0x3dda8f86	0.10671906
76	0x3de8684c	0.11348018
77	0x3c9d10fc	0.019173138
78	0xbc9808ba	-0.018558849
79	0x3deb6809	0.114944525
80	0xbdd6fc49	-0.10497338
81	0x3d558107	0.052125003
82	0x3ae27431	0.0017277059
83	0xbe5fc1ba	-0.21851245
84	0xbd9c4264	-0.076298505
85	0xbcb84125	-0.022492
86	0x3d98a5ae	0.07453476
87	0xbcc1650b	-0.023607751
88	0x3d7ae465	0.06125297
89	0x3d06b649	0.032888684
90	0xbc395d17	-0.011313698
91	0xbdc244fb	-0.09485813
92	0xbdb374c9	-0.087625094
93	0xbbef4a91	-0.00730259
94	0xbde061cc	-0.10956153
95	0xbdcb9717	-0.099409275
96	0x3cf4e41b	0.029893925
97	0xbd239c30	-0.039943874
98	0x3d138771	0.03601784
99	0x3d21d730	0.03951186
100	0x3d32ee64	0.04368438
101	0xbd7b6a19	-0.06138048
102	0x3c8fbda7	0.017546488
103	0x3d4b9ff3	0.049713086
104	0x3cd86484	0.026415117
105	0x3dc37ffc	0.095458955
106	0xbd96b1fc	-0.073581666
107	0xbd839609	-0.06425101
108	0xbd325603	-0.04353906
109	0xbab5ef3e	-0.0013880504
110	0x3bc7569c	0.0060833227
111	0xbcc5cbee	-0.024145093
112	0xbe37451e	-0.1789746
113	0x3dfdcada	0.123922065
114	0x3de6d3ed	0.112708904
115	0xbce7366d	-0.028224194
116	0xbc28ed1e	-0.010310439
117	0x3ded1ddb	0.1157796
118	0x3c909328	0.017648295
119	0x3d07be30	0.03314036
120	0xbe21b029	-0.15789856
121	0xbd10ff85	-0.035399932
122	0xbd18b45a	-0.03728137
123	0xbd6131f7	-0.05497929
124	0x3e5d3e88	0.21605885
125	0x3df698fc	0.12040898
126	0x3d9e5ac4	0.07732156
127	0x3e07a0af	0.1324489
128	0xbda1b8e7	-0.078965954
129	0xbcd6b473	-0.026209092
130	0x3d9b6745	0.075880565
131	0xbdc7fc66	-0.09764938
132	0xbe1b9f3c	-0.15197462
133	0x3d3107cc	0.043220326
134	0x3e25f60d	0.16207142
135	0x3de603a9	0.11231167
136	0x3d606a56	0.05478891
137	0x3e108878	0.14114559
138	0x3dfa9522	0.12235476
139	0xbca32f13	-0.019919908
140	0x3ddc41a3	0.10754707
141	0x3c9f9891	0.019481929
142	0xbde8e49a	-0.11371727
143	0x3bfdc878	0.007744845
144	0xbd686ccb	-0.056744378
145	0x3dd717a8	0.10502559
146	0x3df00562	0.11719777
147	0xbd80f93c	-0.06297538
148	0x3df0cc60	0.117577314
149	0x3df8445e	0.12122415
150	0x3e2068ee	0.15665027
151	0x3cf1e6dc	0.029529028
152	0xbc8919ef	-0.016735999
153	0x3e0a7ae1	0.13523437
154	0x3d998618	0.074962795
155	0xbd9ba23f	-0.07599305
156	0xbd637ea3	-0.055540692
157	0xbd8fc7e3	-0.07020547
158	0xbd7c6e09	-0.061628375
159	0xbd9e7933	-0.07737961
160	0x3dd9aa11	0.10628141
161	0xbce93fc6	-0.028472792
162	0xbdd2744f	-0.1027609
163	0xbd1383c8	-0.03601435
164	0x3e1c4eba	0.15264407
165	0xbc5bd2f7	-0.013416997
166	0xbce0a4aa	-0.027422268
167	0xbd4006e6	-0.04688158
168	0xbd194172	-0.03741593
169	0xbd5e922c	-0.05433862
170	0xbd970f03	-0.0737591
171	0xbe0927d6	-0.13394102
172	0xbe104d2f	-0.14091943
173	0x3d138d4e	0.03602343
174	0x3e316cfb	0.17326729
175	0xbd8e1539	-0.06937642
176	0xbd856fec	-0.06515488
177	0x3d16208f	0.036652144
178	0xbdf43374	-0.119238764
179	0x3d5d7bae	0.05407303
180	0xbd0d9033	-0.034561347
181	0x3ccb0056	0.024780434
182	0xbdb26217	-0.087101154
183	0xbdd7536a	-0.10513957
184	0xbcc38072	-0.023864958
185	0x3c8cc73d	0.017184848
186	0xbcfdabf0	-0.030965775
187	0x3dd3589b	0.103196345
188	0xbd970dba	-0.07375665
189	0x3db5106c	0.08841023
190	0xbcb723fa	-0.022356022
191	0x3cae4a78	0.021275744
192	0xbc9230f1	-0.017845603
193	0xbd78139f	-0.060565587
194	0xbd002b50	-0.031291306
195	0x3d4d65d4	0.05014594
196	0xbdb3b647	-0.08775001
197	0xbdc11e8f	-0.09429657
198	0xbe257968	-0.16159594
199	0x3d66fcca	0.056393422
200	0x3c386afe	0.011255978
201	0xbc050d2f	-0.008120819
202	0x3dd958df	0.10612654
203	0xbe3d7d0e	-0.18504736
204	0xbd727d96	-0.0592018
205	0xbca09b6e	-0.019605365
206	0xbd3a6ae4	-0.045512095
207	0x3e5ed616	0.21761355
208	0x3c291a4a	0.010321209
209	0x3d0ebd0a	0.03484825
210	0x3c3070aa	0.010769049
211	0xbb2f1a0c	-0.0026718406
212	0xbdd0d797	-0.101973705
213	0x3dba7949	0.091051646
214	0xbc94c40d	-0.01815989
215	0xbc1a4ab2	-0.009417223
216	0xbdfb8f47	-0.12283187
217	0xbd9ae1a5	-0.075625695
218	0xbc6f38e2	-0.014600964
219	0xbcd075c0	-0.025446773
220	0xbdf1fb86	-0.118155524
221	0xbe2fd5c8	-0.17171395
222	0xbcc9b192	-0.024620805
223	0xbc1ea8d1	-0.009683804
224	0xbdadf7de	-0.084945425
225	0xbd7490de	-0.05970847
226	0xbc5a2e7f	-0.01331675
227	0x3d813040	0.06308031
228	0xbe2b83d4	-0.16749507
229	0x3cd6eaf9	0.02623509
230	0x3dfd779e	0.12376331
231	0xbcce8fbf	-0.025215028
232	0xbc88ddc2	-0.016707305
233	0x3d3dcd1f	0.046338197
234	0xbda2f33f	-0.07956552
235	0x3d9e45d5	0.07728163
236	0x3d1a0efd	0.03761195
237	0x3c523f82	0.012832524
238	0x3e2069af	0.15665315
239	0x3d4831ab	0.048875492
240	0x3bf831b4	0.0075742844
241	0x3e007ab6	0.1254681
242	0xbb92a3bf	-0.0044750865
243	0xbd6b61f7	-0.057466473
244	0x3ded2bc7	0.115806155
245	0x3e3b4a90	0.18290162
246	0xbdde4e71	-0.10854805
247	0x3dab044f	0.08350431
248	0x3dbd73c2	0.09250595
249	0x3cf5996d	0.029980386
250	0x3d9bed4a	0.07613619
251	0xbd427954	-0.04747899
252	0xbbd0b11e	-0.0063687703
253	0x3d7b9239	0.061418746
254	0xbc964129	-0.018341618
255	0xbc8ac0b2	-0.016937587
