Assets/Models/My Behavior-999944.onnx (onnx, 578818 bytes, 21 tensors)

network_body.observation_encoder.processors.0.self_ent_encoder.seq_layers.0.bias f4 [128]
-0.0033871294 -0.018599309 -0.003995112 0.005009894 -0.004028973 -0.004740113 -0.010526472 -0.0043061515
-0.0046581384 0.0068387166 1.6688673e-05 -0.00085336453 0.00049476844 0.009206351 -0.007896116 -0.0046087955
-0.009602369 -0.020311758 -0.010055518 0.016189525 -0.00015399317 0.009232591 0.009003902 -0.00022252582
0.0056889458 -0.004126801 0.010603863 -0.0038421568 -0.0021471416 -0.0010181383 -0.002326071 -0.010803308
-0.0077670882 0.01110864 0.021740532 -0.0057439916 -0.013344302 0.0019446987 0.016432548 0.008221806
-0.0070323637 0.0020359382 0.008754068 -0.008320167 0.0010702943 -0.00031182874 0.0011296979 -0.0059659374
0.019454464 -0.0026975519 0.007472747 0.00089663995 0.012559222 0.023894131 -0.009834077 -0.008065451
-0.0021178774 -0.0039016444 0.0021332514 -0.011298756 -0.0058524334 -0.008801672 -0.017038327 0.002969977
-0.0059528844 0.012013373 0.017460005 0.00580669 -0.006494653 -0.010831412 -0.0051895375 -0.006846106
-0.007203466 -0.0016186539 -0.011302593 0.00051271485 -0.01141531 0.0008560668 -0.014705922 -0.0015693022
-0.014270543 0.019558268 -0.0036893934 0.0030606217 0.015308169 -0.0042862794 -0.010273029 0.0009591705
-0.026727682 0.0029367553 0.0016935488 0.017686866 -0.009065861 -0.0026297192 -0.0004391312 -0.0031812785
0.005110274 -0.008276077 -0.0061852853 0.0058979564 -0.0013520388 0.02055718 -0.0007799947 -0.008567028
-0.014227562 -0.0035707809 0.0029841145 0.014589327 -0.007936591 0.030227331 -0.0007435785 -0.025308136
0.009869532 0.017864136 -0.021430219 -0.007017697 0.008457924 -0.012262791 -0.019118795 -0.00341226
-7.4693875e-05 0.0059309015 0.008595536 -0.005731584 0.014814475 0.022397742 0.02140485 -0.009268928
00000000: 9afa 5dbb 945d 98bc 6ee9 82bb 092a a43b
00000010: 7a05 84bb f352 9bbb 3977 2cbc 9e1a 8dbb
00000020: 4ca3 98bb 5017 e03b a7fe 8b37 53b4 5fba
00000030: 59b3 013a 3cd6 163c b65e 01bc 6105 97bb
00000040: 4153 1dbc d864 a6bc e6bf 24bc e59f 843c
00000050: 3a79 21b9 4b44 173c 1a85 133c d255 69b9
00000060: 566a ba3b 1e3a 87bb d3bb 2d3c b2cc 7bbb
00000070: 0fb7 0cbb 0d73 85ba ff70 18bb 5c00 31bc
00000080: 0f83 febb 0301 363c 3319 b23c 1838 bcbb
00000090: 0fa2 5abc 43e5 fe3a 8d9d 863c c1b4 063c
000000a0: be6f e6bb 606d 053b 396d 0f3c 4f51 08bc
000000b0: 1e49 8c3a f27c a3b9 5f12 943a e97d c3bb
000000c0: f85e 9f3c 69c9 30bb f2dd f43b 7d0c 6b3a
000000d0: 32c5 4d3c a0bd c33c 1c1f 21bc f424 04bc
000000e0: 16cc 0abb bbb2 7fbb 05ce 0b3b 6b1e 39bc
000000f0: c5c5 bfbb e334 10bc f693 8bbc f2a3 423b
00000100: 6a10 c3bb bdd3 443c 4908 8f3c 0c46 be3b
00000110: 19d1 d4bb 3c76 31bc ff0c aabb 4d55 e0bb
00000120: 0d0b ecbb 0329 d4ba 832e 39bc b667 063a
00000130: 4807 3bbc ac69 603a 1cf1 70bc 0bb1 cdba
00000140: ffce 69bc a938 a03c c0c9 71bb b694 483b
00000150: 1dcf 7a3c eb73 8cbb 3550 28bc d870 7b3a
00000160: 03f4 dabc 9476 403b 11fa dd3a 0ce4 903c
00000170: fa88 14bc 5e57 2cbb 313b e6b9 ff7c 50bb
00000180: 1674 a73b 6298 07bc efad cabb a543 c13b
00000190: e536 b1ba 8867 a83c 8f78 4cba b85c 0cbc
000001a0: b81a 69bc c303 6abb 2291 433b 1308 6f3c
000001b0: 7a08 02bc 4f9f f73c b5ec 42ba 0253 cfbc
000001c0: d1b3 213c cf57 923c 6d8e afbc b6f4 e5bb
000001d0: 1b93 0a3c e0e9 48bc 059f 9cbc 39a0 5fbb
000001e0: f8a4 9cb8 0258 c23b 4bd4 0c3c 03d0 bbbb
000001f0: 69b8 723c 787b b73c 3959 af3c b4dc 17bc

network_body.observation_encoder.processors.1.self_ent_encoder.seq_layers.0.bias f4 [128]
-0.009920583 -0.0066460655 0.014666737 0.0027739566 -0.021053277 -0.00803786 -0.00181045 -0.010577652
-0.019778367 -0.012575883 -0.0053728605 0.00092120713 0.04565891 0.0040616156 0.011358656 -0.0024270625
-0.017624103 0.020845015 -0.02126208 -0.011293794 -0.00227716 -0.002179368 0.014439147 -0.0009223944
0.004269061 -0.016916899 0.017250488 -0.0039101564 -0.0028858946 -8.805693e-05 0.0033078415 -0.013067398
0.007971707 -0.0065295356 0.003965754 -0.013645697 0.0052118036 -0.017297981 -0.006447161 0.017270066
-0.0015335105 -0.0019004651 0.0004957954 -0.009079073 0.0024656893 0.024101412 0.002197908 -0.022445984
0.013664716 -0.0049653165 0.005182768 -0.001543582 0.0078325225 -0.010920897 0.019467128 -0.004710797
-0.00780904 -0.004360792 0.0022144134 -0.033758733 -0.0002963732 -0.011427602 -0.019260814 -0.0044825356
0.00403102 0.0009861516 0.001092612 -0.0053534275 -0.012357574 0.032468684 -0.0040609553 0.0015861173
0.03755581 0.035929345 -0.029577274 0.0017549845 0.00028923183 0.0059191203 -0.03816388 -0.0044674384
-0.0066141784 -0.0029606365 0.007910682 -0.005147717 -0.014710226 0.027915733 -0.017833207 -0.011865633
-0.0036303783 0.022189246 -0.018999053 0.022777185 -0.023607455 0.0005066002 0.0139982235 0.0037817394
-0.013638895 -0.0038451648 -0.02040737 -0.028820436 0.0049327207 -0.017072888 -0.01768775 -0.008184565
0.01952502 0.033376317 0.002802744 -0.0014715167 -0.0054194387 0.007200811 -0.009871063 0.037749138
-0.015821377 -0.013431797 -0.011999052 -0.034772564 -0.027434533 -0.0060944203 0.01301271 -0.011670393
0.008274308 0.0016393551 -0.019514905 -0.01759611 0.051362414 0.020352779 -0.006503286 0.011437841
00000000: f189 22bc 3dc7 d9bb c14c 703c 45cb 353b
00000010: ec77 acbc 3ab1 03bc 9f4c edba e34d 2dbc
00000020: 3e06 a2bc 140b 4ebc d20e b0bb 2a7d 713a
00000030: d604 3b3d 4d17 853b a819 3a3c 5a0f 1fbb
00000040: 6c60 90bc 2ac3 aa3c d02d aebc 9b09 39bc
00000050: 683c 15bb bad3 0ebb 2c92 6c3c d7cc 71ba
00000060: 7be3 8b3b 4f95 8abc e550 8d3c c520 80bb
00000070: 4721 3dbb 34ab b8b8 5fc8 583b a418 56bc
00000080: c39b 023c b7f5 d5bb 28f3 813b 3492 5fbc
00000090: c7c7 aa3b 7fb4 8dbc b542 d3bb f479 8d3c
000000a0: 1300 c9ba 0719 f9ba 44f8 013a 64c0 14bc
000000b0: 6797 213b 5370 c53c c70a 103b a4e0 b7bc
000000c0: f9e1 5f3c 18b4 a2bb 36d4 a93b 0452 caba
000000d0: fb53 003c 90ed 32bc 8779 9f3c 085d 9abb
000000e0: fae2 ffbb fae4 8ebb b11f 113b 9946 0abd
000000f0: 8a62 9bb9 d63a 3bbc dbc8 9dbc 3ce2 92bb
00000100: a616 843b c241 813a fa35 8f3a ce6b afbb
00000110: 6c77 4abc e2fd 043d c311 85bb 44e5 cf3a
00000120: 1fd4 193d a62a 133d 0a4c f2bc 8207 e63a
00000130: 0aa4 9739 2ef5 c13b bb51 1cbd 9763 92bb
00000140: c0bb d8bb 3d07 42bb ce9b 013c 2eae a8bb
00000150: 2903 71bc 89af e43c f216 92bc 1268 42bc
00000160: a4eb 6dbb 39c6 b53c e7a3 9bbc 3897 ba3c
00000170: 6c64 c1bc 5dcd 043a ce58 653c 0fd7 773b
00000180: ac75 5fbc 29ff 7bbb 5b2d a7bc d618 ecbc
00000190: a9a2 a13b 71dc 8bbc e6e5 90bc 8e18 06bc
000001a0: eff2 9f3c 9bb5 083d 3eae 373b e8df c0ba
000001b0: 8c95 b1bb c8f4 eb3b 3dba 21bc d79e 1a3d
000001c0: d59b 81bc 0a11 5cbc ac97 44bc ad6d 0ebd
000001d0: 63be e0bc b4b3 c7bb 4333 553c 2d35 3fbc
000001e0: f790 073c a1df d63a b9dd 9fbc b825 90bc
000001f0: 6561 523d dfba a63c 8419 d5bb c865 3b3c

network_body.observation_encoder.rsa.fc_q.bias f4 [128]
-0.03025088 0.005917271 -0.040078215 0.07248821 -0.0047563342 -0.063416556 -0.05960642 -0.021473806
0.062050264 0.0078067626 0.04093517 0.06895544 0.033159424 0.029141609 -0.002372495 0.0034572491
-0.006845989 -0.038736835 -0.020121863 0.012392977 0.05645075 0.05445317 0.01573991 0.034118045
-0.04056539 -0.017576778 0.055668492 0.042014938 -0.032673154 -0.002843792 0.045959096 -0.0014142942
-0.009652148 -0.0526239 0.03407583 0.028577683 -0.043869287 -0.008068362 -0.016246635 0.02250582
0.0055858972 -0.0049291025 -0.03835484 -0.014404966 0.038564447 -0.0405136 0.005018834 0.06889224
-0.05561386 0.048968516 0.010827695 -0.013532022 0.0012641335 0.021791838 0.017498584 0.017667707
0.030488085 0.04982841 0.009887459 -0.0012229825 -0.013393492 0.03830273 -0.0048542214 -0.017270517
0.006632887 0.070084564 0.07972227 0.08360973 -0.06509664 0.03293209 0.0801366 0.07329481
0.040637877 -0.043159783 0.0842755 -0.020347048 0.02214882 0.052954197 -0.07257281 -0.1002791
-0.007286358 0.043526527 -0.03290265 -0.037167653 -0.06987313 -0.07203021 0.07456174 -0.045790974
-0.078775175 -0.0066946386 -0.02100998 -0.03391383 0.09297301 -0.086475745 0.037645314 0.08846173
0.020942133 -0.067184635 -0.00024867014 -0.05244528 -0.015263462 -0.0066857594 -0.079544365 -0.011419367
-0.005572359 0.0065038376 -0.049739327 -0.007158258 -0.04454463 0.0130697945 -0.03637874 -0.024061661
0.013799025 0.019305391 0.019539999 0.043493353 0.017542573 0.03048889 3.7926926e-05 -0.0057950444
-0.06720679 -0.026958859 -0.046557322 -0.04911824 0.028838512 -0.07514923 0.035876345 0.046253115
00000000: b2d0 f7bc abe5 c13b 0e29 24bd b374 943d
00000010: 06db 9bbb 8ae0 81bd dd25 74bd d6e9 afbc
00000020: 6b28 7e3d dfcf ff3b a3ab 273d 8238 8d3d
00000030: 2dd2 073d 62ba ee3c dc7b 1bbb 0493 623b
00000040: 5154 e0bb 84aa 1ebd 9bd6 a4bc ea0b 4b3c
00000050: e738 673d 4a0a 5f3d fcf0 803c 5dbf 0b3d
00000060: e527 26bd 2dfd 8fbc a504 643d db17 2c3d
00000070: 49d4 05bd ea5e 3abb 9b3f 3c3d d75f b9ba
00000080: 0b24 1ebc 298c 57bd 1993 0b3d bf1b ea3c
00000090: 48b0 33bd 2a31 04bc aa17 85bc 205e b83c
000000a0: e709 b73b 4f84 a1bb f719 1dbd ce02 6cbc
000000b0: c1f5 1d3d 97f1 25bd 0875 a43b 6017 8d3d
000000c0: 5ccb 63bd 3693 483d a566 313c 6ab5 5dbc
000000d0: 48b1 a53a cc84 b23c 3159 8f3c debb 903c
000000e0: 26c2 f93c e018 4c3d 02ff 213c 7c4c a0ba
000000f0: 6170 5bbc 53e3 1c3d 2910 9fbb e67a 8dbc
00000100: b058 d93b 7f88 8f3d 6e45 a33d 943b ab3d
00000110: 6351 85bd cde3 063d a81e a43d 971b 963d
00000120: e773 263d 50c8 30bd a298 ac3d daae a6bc
00000130: 7171 b53c 80e6 583d 0ea1 94bd 215f cdbd
00000140: 67c2 eebb df48 323d eec4 06bd 1c3d 18bd
00000150: a519 8fbd 9384 93bd d3b3 983d 518f 3bbd
00000160: e154 a1bd b35e dbbb 1f1d acbc 3ae9 0abd
00000170: a268 be3d 321a b1bd f931 1a3d 6c2b b53d
00000180: d68e ab3c 1998 89bd f15f 82b9 ddd0 56bd
00000190: 9a13 7abc 3714 dbbb 28e8 a2bd 4c18 3bbc
000001a0: 5698 b6bb 251e d53b 77bb 4bbd d28f eabb
000001b0: 6e74 36bd b122 563c e001 15bd f61c c5bc
000001c0: 4e15 623c 5726 9e3c 5912 a03c 1626 323d
000001d0: 71b5 8f3c d6c3 f93c ba13 1f38 5be4 bdbb
000001e0: b7a3 89bd d3d8 dcbc e4b2 3ebd 3530 49bd
000001f0: be3e ec3c d7e7 99bd 13f3 123d e873 3d3d

network_body.observation_encoder.rsa.fc_k.bias f4 [128]
-4.364877e-08 -4.5090515e-06 7.3206306e-06 -3.025614e-06 2.5418942e-06 9.247741e-06 -5.030186e-06 5.647684e-06
-3.8475964e-06 6.855207e-06 -2.0981344e-05 -9.661245e-06 -6.5326276e-06 -1.3061904e-05 -3.3716865e-06 5.921333e-06
-4.2180702e-07 7.4508052e-06 -8.94998e-06 -1.161231e-05 -3.0806575e-06 -1.8084333e-05 -9.280606e-06 -1.2704256e-06
-9.0397475e-07 -1.1544354e-05 -8.257633e-06 -1.3688383e-06 -3.492441e-06 7.062349e-06 -8.860751e-06 1.5096967e-05
-5.814274e-06 2.2059238e-07 -4.411574e-06 -5.5772834e-06 7.2469e-06 -8.982866e-06 4.791121e-06 -4.0529785e-06
6.3254806e-06 3.1503341e-06 -1.816601e-06 6.159174e-06 1.1889436e-05 -1.8741689e-06 -3.2087626e-06 -1.0155084e-07
9.322954e-06 -6.996256e-06 -2.4711057e-06 4.039461e-06 -5.2532564e-06 -6.757328e-07 -5.1357256e-07 -2.6240104e-07
1.1058056e-06 -4.1626176e-06 8.63182e-06 9.772117e-06 -2.2254815e-06 -1.8438378e-06 -7.339597e-06 -9.129423e-07
3.1209834e-06 -3.8037267e-06 2.0437653e-06 -2.6526625e-06 -6.582582e-07 -1.05888276e-07 -4.812678e-06 -3.6388515e-06
-3.492126e-06 -3.2244054e-06 1.0656869e-05 2.616299e-06 -3.3804772e-06 -4.0642544e-06 8.592237e-06 -7.233835e-08
3.083971e-06 -4.545448e-06 1.2748596e-07 6.2068684e-06 -8.5535e-06 -5.14918e-06 -1.9602271e-07 -2.0311165e-06
8.760687e-06 -6.275378e-06 1.0550872e-06 -7.641881e-06 6.6811126e-06 -6.185158e-06 -6.1577093e-06 -6.186873e-07
2.6013458e-06 -3.8500953e-06 -3.1938066e-06 -5.5210376e-06 4.053276e-06 1.5348072e-06 -4.835982e-06 2.361751e-06
1.8041404e-06 7.233099e-06 -5.184387e-07 4.1673347e-06 -6.11768e-06 1.4469439e-05 -5.969923e-06 -1.4593844e-06
1.923308e-06 5.8907963e-06 7.733572e-06 1.2444601e-05 -2.8629804e-06 2.2518431e-07 -1.7681699e-06 -3.1831667e-06
-1.3555517e-05 1.2766083e-05 -1.1067585e-05 -1.12485895e-05 -4.3679156e-06 -7.223592e-06 5.924933e-06 2.2079942e-06
00000000: 5578 3bb3 754c 97b6 bda3 f536 a70b 4bb6
00000010: 6995 2a36 bf26 1b37 f8c8 a8b6 3c81 bd36
00000020: 9a1a 81b6 c805 e636 1801 b0b7 bb16 22b7
00000030: d832 dbb6 7324 5bb7 2245 62b6 ddaf c636
00000040: b774 e2b4 ee01 fa36 df27 16b7 7ed2 42b7
00000050: 4bbd 4eb6 cfb3 97b7 e6b3 1bb7 7e83 aab5
00000060: aca8 72b5 9fae 41b7 448a 0ab7 edb8 b7b5
00000070: ae5f 6ab6 1ef9 ec36 a3a8 14b7 fb48 7d37
00000080: 3c18 c3b6 f9db 6c34 2207 94b6 8024 bbb6
00000090: 662a f336 1eb5 16b7 6ac3 a036 d2fe 87b6
000000a0: 773f d436 546a 5336 efd1 f3b5 e7aa ce36
000000b0: bd78 4737 f48b fbb5 1f56 57b6 2a14 dab3
000000c0: c869 1c37 62c1 eab6 46d5 25b6 b58a 8736
000000d0: 2145 b0b6 0164 35b5 70dc 09b5 20e0 8cb4
000000e0: 316b 9435 9dac 8bb6 62d1 1037 ecf2 2337
000000f0: 7b59 15b6 c979 f7b5 a846 f6b6 eb10 75b5
00000100: 1672 5136 8743 7fb6 9f27 0936 6504 32b6
00000110: 29b3 30b5 b264 e3b3 977c a1b6 fe32 74b6
00000120: 455a 6ab6 dd62 58b6 e7ca 3237 ad93 2f36
00000130: 28dc 62b6 ae5f 88b6 6027 1037 6e58 9bb3
00000140: 38f6 4e36 1a85 98b6 13e3 0834 9844 d036
00000150: 0181 0fb7 1fc7 acb6 507a 52b4 514e 08b6
00000160: ddfa 1237 1691 d2b6 859c 8d35 a135 00b7
00000170: 522e e036 1a8a cfb6 529e ceb6 de13 26b5
00000180: c892 2e36 1130 81b6 2e55 56b6 5a41 b9b6
00000190: 6001 8836 93ff cd35 c544 a2b6 937e 1e36
000001a0: cb25 f235 d9b3 f236 d62a 0bb5 22d5 8b36
000001b0: 7946 cdb6 c4c1 7237 4051 c8b6 11e0 c3b5
000001c0: 2e12 0136 8ea9 c536 70bf 0137 28c9 5037
000001d0: a121 40b6 31ca 7134 db51 edb5 639e 55b6
000001e0: 816c 63b7 e92d 5637 eaae 39b7 53b8 3cb7
000001f0: 1c90 92b6 2f62 f2b6 c9ce c636 0d2d 1436

network_body.observation_encoder.rsa.fc_v.bias f4 [128]
0.0027355007 -0.001520696 -0.0026613455 -0.0067415657 -0.0027182132 -0.000998078 -0.0039314474 0.0017041748
-0.004525426 0.0022329434 -0.0012519374 0.0028916742 0.000790665 -0.015017383 -0.0064891223 0.002068308
0.010209284 -0.008510388 0.00057406834 -0.0052778455 -0.010428177 -0.01083049 0.0045340415 -0.005082877
-0.0043300316 0.0062734256 -0.0009260004 -0.012867477 0.000848444 -0.0020306536 0.0057301065 0.0050152824
0.0073074084 -0.0017039679 -0.0049170097 -0.005474116 -0.0025505426 -0.0013005687 0.0020557202 -0.0032779481
-0.0038465406 -0.0057722447 0.006855978 0.0049990644 0.0062148105 0.0040886966 0.002547402 0.0030787038
0.0030566892 0.0039526657 -0.0033188467 0.0134012485 -0.0018463741 0.00078808016 0.0017776078 -0.0033633655
0.005337984 -0.006522722 0.007515615 -0.0009542134 0.0020878904 0.00025710172 0.019329445 0.0045293435
0.0027423082 -0.003457752 -0.013300713 -0.009756218 0.0071710963 -0.00556302 -0.001864428 -0.0021928817
-0.006207784 0.0090173455 0.0075161015 -0.0015228377 0.005687499 -0.00034561823 0.00083300326 0.0078579355
-0.0046971547 0.0011752713 0.009021885 0.010530496 -0.004816088 -0.0038473457 -0.0017257722 -0.008324441
-0.0031887863 0.007489306 -0.0048661586 0.003672363 0.005647047 0.0014691235 0.006912815 0.0066468073
0.007771902 0.0043238597 -0.0003987797 0.0027202563 0.012038499 0.005641192 0.0016453601 0.0037659316
0.004915375 0.0026994194 -0.0023220216 0.0040617557 -0.003105668 -0.0048946245 -0.00565297 -0.0025320896
-0.0026379798 -0.0018636174 -0.004549577 0.012104315 0.012152559 0.0069705276 -0.0011102714 -4.4718625e-05
0.0027449797 -0.005076859 -0.0048409724 0.005482709 0.014638614 0.0010046858 0.0018814948 0.004672632
00000000: 1646 333b 1752 c7ba f869 2ebb 5ae8 dcbb
00000010: 0d24 32bb f1d1 82ba 5fd3 80bb 9e5e df3a
00000020: 064a 94bb 9356 123b 0c18 a4ba 3e82 3d3b
00000030: a144 4f3a 780b 76bc b4a2 d4bb 738c 073b
00000040: d744 273c 286f 0bbc 137d 163a c7f1 acbb
00000050: f2da 2abc 5e72 31bc 4c92 943b 438e a6bb
00000060: f0e2 8dbb 4f91 cd3b d6be 72ba 1cd2 52bc
00000070: 1d6a 5e3a b714 05bb 9ec3 bb3b 3d57 a43b
00000080: fc72 ef3b ad57 dfba de1e a1bb 3760 b3bb
00000090: 0127 27bb d877 aaba 43b9 063b d8d2 56bb
000000a0: 3e16 7cbb 1925 bdbb 1da8 e03b 31cf a33b
000000b0: 9ca5 cb3b 79fa 853b 50f2 263b 14c4 493b
000000c0: bc52 483b 5d85 813b 0281 59bb e990 5b3c
000000d0: 0902 f2ba 2a97 4e3a 9ffe e83a e96b 5cbb
000000e0: 41ea ae3b 8fbc d5bb 8c45 f63b 2d24 7aba
000000f0: fdd4 083b 9ccb 8639 c958 9e3c e36a 943b
00000100: 4cb8 333b 749b 62bb 3ceb 59bc 8bd8 1fbc
00000110: 84fb ea3b fe49 b6bb d35f f4ba 73b6 0fbb
00000120: ab6a cbbb 7dbd 133c a149 f63b f499 c7ba
00000130: 335e ba3b 1834 b5b9 e75d 5a3a 92be 003c
00000140: 97ea 99bb 900b 9a3a 87d0 133c 1a88 2c3c
00000150: 46d0 9dbb c023 7cbb 4e33 e2ba 3c63 08bc
00000160: f5fa 50bb da68 f53b 4c74 9fbb 07ac 703b
00000170: dd0a b93b 9b8f c03a e584 e23b 76cd d93b
00000180: 70ab fe3b 2aaf 8d3b 4e13 d1b9 5446 323b
00000190: 203d 453c c0d9 b83b 20a9 d73a d9cd 763b
000001a0: 2711 a13b bee8 303b 0f2d 18bb 7a18 853b
000001b0: 7688 4bbb 1663 a0bb 8d3c b9bb 6af1 25bb
000001c0: f5e1 2cbb a044 f4ba 9e14 95bb 2d51 463c
000001d0: 871b 473c 0669 e43b 8786 91ba 4290 3bb8
000001e0: 1ee5 333b c85b a6bb 05a1 9ebb 4ca8 b33b
000001f0: ccd6 6f3c a9af 833a 7d9c f63a e11c 993b

network_body.observation_encoder.rsa.fc_out.bias f4 [128]
-0.008303073 0.0068354593 -0.0059835366 -0.00510484 -0.009762452 0.006662395 -0.0076509267 -0.0145514
0.0030625314 0.003979107 -0.00087024237 0.005240791 0.009434009 0.015862726 -0.0019860761 0.003234818
-0.015411878 0.0016149927 -0.015519252 -0.005902823 -0.00096536736 -0.0026972282 0.004505571 0.0030418513
0.009959079 -0.0020323165 0.007387294 -0.00070582435 -0.009291331 -0.0011252785 9.443696e-05 -0.0074793813
-0.015271302 -0.0010776055 0.014721309 -0.0028246325 -0.0094487835 0.0009460641 0.010433515 0.00782782
-0.0077483286 0.00038685603 0.013983477 0.0016581347 0.004358643 0.0070489286 0.016904373 -0.01860577
0.0071041705 0.008671316 0.012046581 0.0069295736 0.0030550358 0.011448239 0.00050618075 0.00631619
-0.008604556 0.004417415 0.004869959 -0.014341136 -0.0014336456 -0.009098565 -0.014790335 -0.00023143436
-0.008662582 0.006734889 0.011053522 -0.007980581 0.0056336136 0.00033745903 0.004587888 0.00096446363
0.0073373956 0.004065068 -0.006552903 0.01908568 -0.0029904146 0.0025708308 -0.016163588 0.008481929
-0.017941795 0.010872976 -0.0127201835 0.0025910046 0.0028248588 0.0021716773 -0.009300587 0.001507104
-0.011720973 0.0054689175 0.001132747 0.01763517 -0.0051110485 0.0022273592 0.0054582213 -0.006492283
-0.006057184 -0.004598784 -0.0069020498 -0.0072658868 0.014319307 0.00024831475 -0.007007492 -0.004460086
-0.003052414 0.003852697 0.007454746 0.014382781 -0.0033852016 0.0045450544 -0.0049257306 -0.015885372
0.009191949 0.0060702614 -0.0057058795 -0.012338083 0.00075395027 -0.0071182093 -0.0067391307 -0.0012970762
0.009886305 0.008620876 -0.0033107952 0.005039202 0.018732972 0.009640494 0.015680065 0.0025237773
00000000: 9d09 08bc fdfb df3b 8b11 c4bb 8046 a7bb
00000010: b1f2 1fbc 3850 da3b a0b4 fabb ff68 6ebc
00000020: c0b4 483b 2b63 823b fa20 64ba f1ba ab3b
00000030: 1a91 1a3c 8cf2 813c d428 02bb 3eff 533b
00000040: 1a82 7cbc 2aae d33a 7644 7ebc 786c c1bb
00000050: b510 7dba fbc3 30bb 78a3 933b cc59 473b
00000060: 682b 233c 9d30 05bb 1d11 f23b 1207 39ba
00000070: ab3a 18bc 157e 93ba 750c c638 9915 f5bb
00000080: 7c34 7abc 713e 8dba a531 713c 781d 39bb
00000090: 12cf 1abc 4901 783a 55f1 2a3c 4240 003c
000000a0: b1e5 fdbb f0d2 ca39 f41a 653c c555 d93a
000000b0: f3d2 8e3b b3fa e63b 0a7b 8a3c 216b 98bc
000000c0: 1aca e83b 2312 0e3c 065f 453c 7a11 e33b
000000d0: ff36 483b 6591 3b3c 37b1 043a 0bf8 ce3b
000000e0: 20fa 0cbc f6bf 903b 2d94 9f3b 16f7 6abc
000000f0: 2ae9 bbba 2612 15bc 2953 72bc 30ad 72b9
00000100: 81ed 0dbc 58b0 dc3b d519 353c fcc0 02bc
00000110: 2d9a b83b fcec b039 fe55 963b 0fd4 7c3a
00000120: 896e f03b 4334 853b bcb9 d6bb 9259 9c3c
00000130: d5fa 43bb 627b 283b 8069 84bc caf7 0a3c
00000140: acfa 92bc 9124 323c 5168 50bc d8cd 293b
00000150: 4421 393b b352 0e3b 7d61 18bc 058a c53a
00000160: 5309 40bc 9b34 b33b af78 943a a277 903c
00000170: 957a a7bb e3f8 113b e1da b23b 38bd d4bb
00000180: 587b c6bb 65b1 96bb 972a e2bb ad16 eebb
00000190: 879b 6a3c 3e30 8239 1a9f e5bb ea25 92bb
000001a0: 020b 48bb 887d 7c3b f146 f43b c2a5 6b3c
000001b0: 42da 5dbb aeee 943b 0668 a1bb 0a22 82bc
000001c0: d499 163c 0be9 c63b 63f8 babb ac25 4abc
000001d0: bfa4 453a de3f e9bb edd3 dcbb a802 aaba
000001e0: 2bfa 213c 933e 0d3c edf9 58bb e41f a53b
000001f0: e475 993c 2af3 1d3c 7b73 803c f565 253b

network_body.observation_encoder.x_self_encoder.seq_layers.0.weight f4 [128, 3]
-0.05652063 0.054271452 -0.020445189 0.054537702 -0.025263626 -0.0032175807 -0.03328444 -0.0050555062
-0.012158677 0.095109686 -0.057643235 0.005122063 -0.056546245 0.010912481 -0.013604898 -0.03373054
-0.004329365 -0.029208736 -0.003999593 0.07943631 -0.01516505 -0.015254256 -0.031298265 -0.05662444
0.018587997 0.008886805 -0.025081994 -0.0009030968 -0.0006127017 -0.0016601067 -0.026998647 -0.045747153
-0.0064913994 0.020937525 0.0058651143 0.01687906 0.04103972 -0.007615284 -0.02322529 0.029842652
0.017655402 -0.0008702748 -0.03655517 0.0039430507 0.01478295 0.019529508 0.050561722 -0.00013636082
0.05201084 0.057822913 0.028067484 0.060394503 0.019533057 -0.0063751764 0.018003719 0.017147232
0.01331263 0.049856935 0.0068675596 -0.00790018 -0.034696978 0.017111162 -0.019197691 0.042894274
-0.0296635 0.022931736 0.04773565 0.019121144 -0.014559622 -0.06999194 0.013656086 0.0025510252
0.046362903 -0.023260389 -0.0012982534 -0.019809948 0.012433109 -0.010066186 -0.04801973 0.011666275
0.0072212694 0.026198637 -0.015227335 0.05400062 -0.052611936 -0.0095678605 0.037128832 -0.034179635
0.0285468 0.014271887 -0.013766027 0.01512371 -0.023579381 -0.056719013 0.05413442 0.022108579
-0.041982744 -0.0031571041 -0.018581016 0.0082490835 -0.030820612 -0.023320753 0.025103806 -0.0213635
0.006909201 0.03567546 -0.032033987 0.026910983 -0.017579926 0.020071113 0.032471556 0.008239434
0.02751991 -0.02398222 0.019841686 0.012786623 0.006552237 0.05889852 -0.01925728 0.05214616
0.048318498 0.034678694 0.031239891 -0.011460963 -0.046735436 0.00530227 -0.086031094 0.0052025425
0.03116807 -0.06059476 0.043377202 0.014082085 -0.03751475 -0.0022297835 0.009426746 0.05661518
-0.059689518 -0.031913776 -0.0010364836 8.393728e-06 -0.03150631 0.024023496 -0.05056978 -0.036058534
0.012128757 0.017227484 0.0012017164 -0.04072717 -0.02119849 0.002121072 -0.058061413 -0.0398068
0.030891337 0.054919243 0.023552945 0.0036770124 0.0014126401 0.0033562973 0.014636041 -0.07890752
0.00032489264 0.0022605623 0.049374867 -0.040436435 -0.0204745 0.03439902 -0.03782062 0.028786145
-0.029259067 0.047577996 -0.014530944 0.03804756 0.025833888 0.04550359 0.011584989 -0.021971766
0.011092099 -0.01897154 -0.009831456 0.06547699 0.032267604 0.032176226 -0.041713312 0.016611598
0.028478682 -0.00026956399 0.042231698 -0.05582642 0.03235164 -0.010711932 0.009933276 -0.0028769744
-0.08081203 -0.041680817 0.023859758 -0.01936859 0.0054368083 -0.03353651 0.04121629 0.061454184
0.01017905 0.04789314 -0.0009901244 -0.029054653 0.0374581 -0.02978761 -0.020210903 0.03347339
-0.0112243965 -0.012691403 -0.026910605 -0.046448465 -0.007708184 -0.044219434 -0.022634998 0.051316403
-0.015358781 0.023711523 -0.0012917878 0.009836988 -0.01643807 0.00033137988 0.026504256 0.036914464
-0.00607292 -0.0022196309 -0.024757382 -0.0077828774 0.041225046 -0.006504222 0.03433303 0.07217532
-0.020696424 0.017942438 0.0349439 -0.013977376 -0.0037614964 0.018446023 -0.06253556 0.0311625
-0.031036278 0.00021365432 -0.06493561 -0.091157325 0.056407716 0.0021584772 0.03232616 0.04008787
0.050951473 -0.04829585 -0.0070861005 0.055666976 -0.005432069 -0.0027932916 -0.022389758 0.10609263
00000000: 2d82 67bd be4b 5e3d ab7c a7bc ed62 5f3d
00000010: aaf5 cebc 0cde 52bb 4455 08bd a9a8 a5bb
00000020: 3035 47bc dec8 c23d 501b 6cbd fbd6 a73b
00000030: 099d 67bd 43ca 323c 14e7 5ebc 0929 0abd
00000040: 59dd 8dbb 2947 efbc 050f 83bb 81af a23d
00000050: d476 78bc fdec 79bc 9c32 00bd 07ef 67bd
00000060: db45 983c f699 113c c178 cdbc cdbd 6cba
00000070: b79d 20ba f097 d9ba 442c ddbc 5e61 3bbd
00000080: ceb5 d4bb 2c85 ab3c 2530 c03b f445 8a3c
00000090: 4419 283d a289 f9bb f742 bebc 9478 f43c
000000a0: 10a2 903c 2723 64ba e0ba 15bd b534 813b
000000b0: 3034 723c 59fc 9f3c cf19 4f3d 14fc 0eb9
000000c0: 5209 553d b8d7 6c3d c8ed e53c 3a60 773d
000000d0: ca03 a03c dbe6 d0bb 897c 933c 5a78 8c3c
000000e0: 381d 5a3c c936 4c3d 4409 e13b c26f 01bc
000000f0: 6b1e 0ebd b52c 8c3c 7a44 9dbc e8b1 2f3d
00000100: de00 f3bc 56db bb3c 7586 433d f2a3 9c3c
00000110: 7b8b 6ebc ef57 8fbd c7bd 5f3c 1a2f 273b
00000120: 07e7 3d3d 928c bebc 282a aaba 7948 a2bc
00000130: 3db4 4b3c a5ec 24bc 56b0 44bd e723 3f3c
00000140: 66a0 ec3b 869e d63c 127c 79bc c12f 5d3d
00000150: 9d7f 57bd 84c2 1cbc 6714 183d f2ff 0bbd
00000160: fbda e93c a2d4 693c e78a 61bc 70c9 773c
00000170: 8c29 c1bc 3252 68bd 0ebc 5d3d 0d1d b53c
00000180: 19f6 2bbd 6be7 4ebb 3737 98bc 2a27 073c
00000190: 827b fcbc 2a0b bfbc 7fa6 cd3c 8202 afbc
000001a0: 9466 e23b 6e20 123d 1236 03bd 6c74 dc3c
000001b0: c703 90bc 2d6c a43c e500 053d b1fe 063c
000001c0: 6f71 e13c 5c76 c4bc 088b a23c fc7e 513c
000001d0: 26b4 d63b 933f 713d 71c1 9dbc 3697 553d
000001e0: 9ee9 453d 3f0b 0e3d cdea ff3c c3c6 3bbc
000001f0: a86d 3fbd aabe ad3b 1231 b0bd 177a aa3b
00000200: 2e54 ff3c 3632 78bd 4bac 313d 8cb8 663c
00000210: 11a9 19bd 8f21 12bb a372 1a3c 52e5 673d
00000220: ff7c 74bd 05b8 02bd 9eda 87ba cad2 0c37
00000230: c30c 01bd eccc c43c 4222 4fbd 1db2 13bd
00000240: b2b7 463c a720 8d3c e982 9d3a 88d1 26bd
00000250: 75a8 adbc af01 0b3b ced1 6dbd 750c 23bd
00000260: d40f fd3c 00f3 603d 1bf2 c03c 08fa 703b
00000270: 5628 b93a 53f5 5b3b 01cc 6f3c 449a a1bd
00000280: 5a56 aa39 f125 143b 4d3d 4a3d ada0 25bd
00000290: 23ba a7bc fde5 0c3d cbe9 1abd ecd0 eb3c
000002a0: b6b0 efbc 25e1 423d 3213 6ebc c2d7 1b3d
000002b0: 97a1 d33c f961 3a3d f7ce 3d3c 22fe b3bc
000002c0: a3bb 353c 346a 9bbc 1d14 21bc cd18 863d
000002d0: 092b 043d 38cb 033d 94db 2abd 0c15 883c
000002e0: 204c e93c 4454 8db9 25fb 2c3d 3faa 64bd
000002f0: 2783 043d 1981 2fbc 2ebf 223c 9f8b 3cbb
00000300: c780 a5bd 81b9 2abd 8a75 c33c e1aa 9ebc
00000310: 4127 b23b 945d 09bd 6ad2 283d 62b7 7b3d
00000320: 08c6 263c 992b 443d 10c7 81ba 0604 eebc
00000330: aa6d 193d 2505 f4bc 5691 a5bc 651b 093d
00000340: 88e6 37bc 9aef 4fbc a173 dcbc bf40 3ebd
00000350: ef94 fcbb 701f 35bd 086d b9bc 2631 523d
00000360: 66a3 7bbc ab3e c23c 3551 a9ba 512b 213c
00000370: 22a9 86bc 0ebd ad39 741f d93c 9f33 173d
00000380: 58ff c6bb 3a77 11bb fecf cabc 8207 ffbb
00000390: 98db 283d 5e21 d5bb cba0 0c3d a7d0 933d
000003a0: 8c8b a9bc 05fc 923c 5621 0f3d 5d01 65bc
000003b0: 7083 76bb 1d1c 973c a512 80bd 8048 ff3c
000003c0: cb3f febc 6508 6039 f6fc 84bd b1b0 babd
000003d0: c70b 673d 3d75 0d3b 7068 043d 2e33 243d
000003e0: 7eb2 503d dfd1 45bd 8532 e8bb 0e03 643d
000003f0: 7fff b1bb a80f 37bb ba6a b7bc 1847 d93d

network_body.observation_encoder.x_self_encoder.seq_layers.0.bias f4 [128]
0.005882385 0.009943482 0.0025407805 -0.00034314292 0.008158904 0.009122089 -0.0110222185 -0.0074331006
-0.0014482661 0.008619806 -0.005875804 0.010226161 -0.0038849826 -0.011355686 -0.008056569 0.0013876996
0.0005824426 -0.003769681 -0.0058068717 -0.0019225365 -0.010277793 -0.006042517 0.0042308876 0.0063462122
0.01100773 0.00018752881 0.009654576 -0.00036664496 0.0034655894 -0.007348941 0.0024939885 0.0125378715
-0.0048261145 0.0068808496 0.007844254 0.009756019 -0.00019335351 -0.00049889775 -0.00027030802 0.005370042
-0.003579424 -0.008594155 0.009034866 0.0019358638 -0.007068728 0.004928947 0.009231655 -0.0039866795
0.0067526954 0.010142583 0.016056009 0.0033974682 -0.0076890443 0.011505531 0.0018080304 -0.0038624336
0.001818341 -0.009686704 -0.0003491507 0.009689844 -0.0002636907 -0.0075419596 0.0056951265 -0.00095020386
0.0074614505 0.0108861895 0.0060811625 0.010289866 -0.006433902 0.001033962 0.006456017 0.01124729
-0.009482023 -0.014704471 0.014209259 -0.022897221 0.0058221947 -0.0054210722 0.0014140937 -0.00061129057
0.00518592 0.0041653607 -0.009307944 0.0025057818 -0.0105322795 0.022268267 0.010153701 0.0035385003
0.013464482 0.008078289 0.0053739087 -0.0116130505 -0.004375038 0.011963093 0.006231271 -0.0013837611
-0.003848387 -0.014851698 0.015926285 -0.00204455 -0.0031852662 -0.0020644723 0.001554681 -0.009950951
0.0047469223 0.0042288313 0.0018393437 0.0022680433 -0.0057661207 -0.0068380013 0.002770768 0.007897709
0.0026959735 0.0012272561 0.005795218 0.0115541015 0.008390137 -0.004302447 0.010347909 0.0026529625
0.0090662325 0.003114784 0.0018785622 0.017650783 -0.0020721245 0.015514264 0.0077974065 0.010340799
00000000: 06c1 c03b fce9 223c 3983 263b dde7 b3b9
00000010: ecac 053c d074 153c 8996 34bc 5e91 f3bb
00000020: bfd3 bdba 163a 0d3c d189 c0bb a18b 273c
00000030: 319b 7ebb 330d 3abc b3ff 03bc 79e3 b53a
00000040: 10af 183a c10c 77bb 9247 bebb 9ffd fbba
00000050: 3064 28bc 4e00 c6bb 42a3 8a3b e3f3 cf3b
00000060: c459 343c 62a3 4439 3a2e 1e3c 413a c0b9
00000070: f11e 633b 63cf f0bb 2f72 233b a56b 4d3c
00000080: 6224 9ebb c078 e13b 3085 003c b6d7 1f3c
00000090: f0be 4ab9 76c8 02ba 21b8 8db9 2df7 af3b
000000a0: c594 6abb 80ce 0cbc f906 143c cfbc fd3a
000000b0: caa0 e7bb 0183 a13b 5e40 173c b1a2 82bb
000000c0: b745 dd3b 142d 263c e487 833c 0fa8 5e3b
000000d0: 61f4 fbbb b281 3c3c 6ffb ec3a e220 7dbb
000000e0: 6655 ee3a fbb4 1ebc 370e b7b9 27c2 1e3c
000000f0: f73f 8ab9 8b22 f7bb 2f9e ba3b 1a17 79ba
00000100: 2f7f f43b fd5b 323c 7d44 c73b d396 283c
00000110: 7bd3 d2bb 0286 873a ff8c d33b 8e46 383c
00000120: 7d5a 1bbc 06eb 70bc f4cd 683c f492 bbbc
00000130: 1cc8 be3b 40a3 b1bb 1c59 b93a 043f 20ba
00000140: a6ee a93b 947d 883b 5980 18bc 0b38 243b
00000150: 958f 2cbc f16b b63c b55b 263c 2fe6 673b
00000160: 219a 5c3c cd5a 043c 9d17 b03b aa44 3ebc
00000170: 7b5c 8fbb d900 443c b12f cc3b 515f b5ba
00000180: 3835 7cbb 8954 73bc d777 823c dbfd 05bb
00000190: e6bf 50bb 194c 07bb 70c6 cb3a 5009 23bc
000001a0: 128c 9b3b 0292 8a3b 2216 f13a 74a3 143b
000001b0: baf1 bcbb 5011 e0bb c695 353b 6465 013c
000001c0: eeae 303b e2db a03a d0e5 bd3b 6a4d 3d3c
000001d0: c976 093c 8bfb 8cbb 478a 293c 53dd 2d3b
000001e0: 898a 143c 6721 4c3b 163a f63a 6098 903c
000001f0: 7bcc 07bb 8a2f 7e3c 6381 ff3b 746c 293c

network_body._body_endoder.seq_layers.0.weight f4 [128, 131]
-0.03511125 0.06746256 0.023923956 -0.016155792 -0.038130928 -0.007907343 -0.090074144 -0.046685908
-0.004376708 0.09869044 -0.09296207 -0.0754693 -0.09948359 0.03033828 0.06380403 0.19853246
-0.033504274 -0.08938248 -0.018449292 0.07064393 0.019229205 -0.024553038 0.12190197 0.04181171
-0.1823894 -0.02298117 0.041983213 0.03211843 0.059228864 0.120104186 0.07263832 -0.051449906
0.07445495 -0.05742818 -0.0025472979 0.21606445 -0.08654167 0.03486073 -0.14206286 0.0653487
0.012685264 -0.011006047 0.089481995 0.06300888 0.042154945 -0.042197503 -0.047595583 0.043634936
0.07502754 0.1072152 -0.010580401 0.041342746 0.1469569 -0.03580546 0.0458298 0.02795393
-0.11372 0.04264145 -0.038703345 0.060074806 0.029384907 -0.035800856 0.14951254 -0.05068831
0.072284274 -0.028388603 -0.062363278 -0.041257262 -0.047666166 -0.13333972 0.13080855 0.020972032
-0.08344421 -0.022010224 0.1990591 0.022127118 0.05784328 0.07076877 -0.05302389 0.030635275
-0.05699908 -0.10111924 -0.026533684 0.045057897 0.016434813 -0.15402707 -0.09910323 -0.029551735
-0.11704402 -0.13863097 0.04377878 -0.011953678 0.1524373 -0.030538466 -0.07349198 0.016587675
-0.03419944 0.024097897 -0.026488155 -0.08708191 -0.08417366 0.14835581 0.040002335 -0.093552805
-0.12553242 -0.09523542 0.26201022 0.045435242 -0.016126411 0.11211904 -0.0050923033 -0.031242589
0.037278593 -0.0043401597 0.015791608 -0.018623589 -0.061197653 -0.17813823 0.10568556 -0.1740824
0.005926693 -0.11061123 -0.032730803 0.036041316 -0.040135574 0.034937274 -0.062759936 0.032855395
0.133308 0.036428913 0.08329901 0.07823469 -0.10498371 0.059001047 -0.021741021 0.0017844491
0.0459041 -0.114887536 0.105757676 -0.004361746 0.0034465622 0.06979059 -0.09632464 -0.04596069
-0.096400276 0.061050847 -0.009609847 0.0049337004 0.04033368 -0.04526103 -0.08719028 0.053326238
-0.045839164 -0.031358972 0.09494388 -0.021676075 0.01980286 0.030417003 0.10658988 0.016028095
0.06796206 -0.03802424 -0.15700524 0.040672276 0.03144351 0.032158352 -0.006055013 -0.046187308
-0.15038383 -0.019011995 0.018626774 -0.062844135 -0.11538588 0.06577394 -0.092979036 -0.097717285
-0.003012863 -0.003158804 0.06488919 -0.008897957 -0.09092827 -0.05636347 0.14739442 -0.05518282
0.014011007 -0.022722775 0.052570704 -0.20420857 0.059311174 -0.09906473 -0.07322593 0.015781177
0.16465542 -0.11718371 0.024400316 0.029901188 0.06348256 0.06305401 -0.023647998 0.050112415
-0.18486181 0.057537507 -0.037913993 0.0883013 0.07930632 -0.033692606 0.08761413 0.056846194
-0.09695908 0.021164266 -0.027313452 -0.17161833 -0.053648807 0.0449798 -0.12861916 -0.13244537
0.13526869 0.0012213306 -0.049328096 -0.04447665 -0.26561642 -0.1226941 -0.06287786 -0.0062364447
-0.016204959 0.109766096 0.0009694172 0.17436185 0.09632274 0.11941845 -0.03912321 -0.027925203
0.052239116 -0.25930044 0.077703975 -0.12816918 -0.12808427 0.027024232 0.13506648 -0.10676354
-0.06682736 0.19003227 0.082361825 0.045549236 0.033871967 0.09966581 -0.21994415 -0.1524558
-0.04400505 -0.121838085 -0.028250754 -0.08158669 0.115393415 -0.120055296 -0.01483724 0.0077971397
00000000: d0d0 0fbd d029 8a3d 2cfc c33c 2759 84bc
00000010: 2d2f 1cbd cd8d 01bc cb78 b8bd b939 3fbd
00000020: 7d6a 8fbb 371e ca3d e662 bebd a68f 9abd
00000030: 0dbe cbbd fc87 f83c b0ab 823d 184c 4b3e
00000040: c73b 09bd 290e b7bd f822 97bc c4ad 903d
00000050: 9186 9d3c 7423 c9bc bda7 f93d c142 2b3d
00000060: 49c4 3abe 0243 bcbc 97f6 2b3d 9d8e 033d
00000070: f799 723d 2ff9 f53d 66c3 943d 23bd 52bd
00000080: d67b 983d d039 6bbd 91f0 26bb 0040 5d3e
00000090: c23c b1bd 20ca 0e3d ed78 11be 8ad5 853d
000000a0: dbd5 4f3c b552 34bc 5642 b73d cd0a 813d
000000b0: aaaa 2c3d 4ad7 2cbd 96f3 42bd 8cba 323d
000000c0: 0aa8 993d a593 db3d 6b59 2dbc 0357 293d
000000d0: df7b 163e bfa8 12bd 07b8 3b3d a4ff e43c
000000e0: 08e6 e8bd cda8 2e3d 6687 1ebd 0011 763d
000000f0: 9eb8 f03c eba3 12bd d119 193e 8c9e 4fbd
00000100: c709 943d 378f e8bc a370 7fbd 60fd 28bd
00000110: 993d 43bd 358a 08be adf2 053e 8acd ab3c
00000120: cce4 aabd c94e b4bc 26d6 4b3e ee43 b53c
00000130: 13ed 6c3d 38ef 903d 942f 59bd d4f6 fa3c
00000140: de77 69bd 9b17 cfbd 2b5d d9bc a18e 383d
00000150: 4da2 863c 46b9 1dbe a2f6 cabd 7b16 f2bc
00000160: c6b4 efbd 47f5 0dbe 6151 333d 5cd9 43bc
00000170: 8618 1c3e ce2b fabc f782 96bd e0e2 873c
00000180: b614 0cbd f468 c53c b0fd d8bc 0058 b2bd
00000190: 3d63 acbd 96ea 173e 7dd9 233d 9d98 bfbd
000001a0: 928b 00be ca0a c3bd 3426 863e 4e1a 3a3d
000001b0: 891b 84bc ab9e e53d 56dd a6bb 75f0 ffbc
000001c0: 70b1 183d e637 8ebb 675d 813c 7f90 98bc
000001d0: 64aa 7abd de69 36be ac71 d83d a842 32be
000001e0: b434 c23b 2488 e2bd bc10 06bd 0fa0 133d
000001f0: 3365 24bd 631a 0f3d 4888 80bd 6193 063d
00000200: e481 083e 7c36 153d ac98 aa3d 8239 a03d
00000210: b301 d7bd 15ab 713d 3a1a b2bc 2de4 e93a
00000220: f005 3c3d 284a ebbd 7b97 d83d faec 8ebb
00000230: b8df 613b 5eee 8e3d da45 c5bd 4741 3cbd
00000240: 826d c5bd 7410 7a3d 9f72 1dbc e1aa a13b
00000250: ee34 253d a163 39bd d190 b2bd 9d6c 5a3d
00000260: d9c1 3bbd 4472 00bd f071 c23d 0692 b1bc
00000270: 9c39 a23c 142d f93c cc4b da3d 5a4d 833c
00000280: b12f 8b3d 4ebf 1bbd fbc5 20be f997 263d
00000290: e9ca 003d 7ab8 033d 2169 c6bb e72e 3dbd
000002a0: 38fe 19be 0bbf 9bbc 2d97 983c 6db4 80bd
000002b0: 6f4f ecbd 7db4 863d cb6b bebd 0020 c8bd
000002c0: 7473 45bb f003 4fbb a0e4 843d bdc8 11bc
000002d0: 9a38 babd 62dd 66bd 90ee 163e 6107 62bd
000002e0: 6c8e 653c 1d25 babc 6154 573d 0d1c 51be
000002f0: 46f0 723d 73e2 cabd 7af7 95bd 8747 813c
00000300: 6e9b 283e 03fe efbd 2ce3 c73c 56f3 f43c
00000310: 2503 823d 7622 813d 72b9 c1bc ad42 4d3d
00000320: 6a4c 3dbe 73ac 6b3d b44b 1bbd 50d7 b43d
00000330: 5a6b a23d 4201 0abd 096f b33d 8ed7 683d
00000340: 7b92 c6bd af60 ad3c 76c0 dfbc b7bc 2fbe
00000350: dabe 5bbd bd3c 383d beb4 03be c29f 07be
00000360: e083 0a3e 0e15 a03a 420c 4abd 262d 36bd
00000370: e0fe 87be 0b47 fbbd 1cc6 80bd 175b ccbb
00000380: 43c0 84bc 0ccd e03d 7d20 7e3a ea8b 323e
00000390: db44 c53d a991 f43d a93f 20bd 65c3 e4bc
000003a0: aff8 553d 07c3 84be 4323 9f3d c83e 03be
000003b0: 8628 03be ec61 dd3c de4e 0a3e d8a6 dabd
000003c0: c8dc 88bd d297 423e 51ad a83d d691 3a3d
000003d0: 55bd 0a3d 971d cc3d 0a39 61be 601d 1cbe
000003e0: a43e 34bd 3f86 f9bd 206e e7bc ec16 a7bd
000003f0: 6253 ec3d 8ddf f5bd e517 73bc 267f ff3b

network_body._body_endoder.seq_layers.0.bias f4 [128]
0.008018494 0.015382432 0.009348899 0.009955104 -0.0102742845 0.018952029 -0.00072230375 0.0026492444
0.016716596 -0.0043804296 -0.0008119381 0.008303582 -0.009492188 0.013158028 -0.0028007259 0.00025138073
-0.0048605492 0.011283185 0.0064236093 -0.016518 -0.0003042716 0.003707562 -0.0044988287 0.000103392165
0.0013829224 -0.0061526736 0.011430005 -0.0033387158 0.012451433 -0.017412193 0.0039562597 0.015965171
0.017657824 0.012258166 0.023583133 -0.009635357 0.012893308 -0.023018382 0.0030402446 0.0021592698
-0.0075553562 0.00027646672 0.0037829166 -0.005573093 0.007929828 -0.0033577383 -0.0127948355 -0.005764976
-0.015270501 -0.0036928763 -0.010175648 0.01808366 0.006878595 0.0047958908 -0.018173942 0.041423626
-0.0070240023 0.001400986 0.0040957304 0.0072399224 -0.011428556 0.0055780597 0.0064554834 -0.005248949
-0.013775397 -0.0011706925 0.00828834 -0.002905202 -0.015256204 -0.014483586 0.009227347 0.0005220225
-0.018996317 -0.0161218 0.010247215 0.0030329085 0.0032654179 0.0009218182 0.017886525 -0.007502981
0.004533753 0.0018918567 -0.014334492 0.012744414 0.006208058 -0.008031318 0.010760617 -0.012479944
-0.00055091124 0.0056986664 0.008232875 -0.0010388519 -0.0018767997 -0.009059126 -0.00065324444 0.011806091
0.007864255 0.004083563 0.010308109 0.010962761 0.037260186 -0.027278824 0.0012129189 0.003867383
0.016101735 0.008950837 0.019534158 0.012020714 -0.00047080708 0.01593153 0.002681558 -0.0023709598
0.0040267073 0.013531487 0.01563106 0.014406827 0.00868228 0.0073693963 0.0035798904 0.023946043
0.020443879 0.007746577 -0.0050939727 -0.011427438 -0.010649216 0.016808981 0.0028052153 0.009005029
00000000: 0060 033c 9906 7c3c 202c 193c bc1a 233c
00000010: 7955 28bc 4941 9b3c fc58 3dba f29e 2d3b
00000020: 3ef1 883c b589 8fbb 3ed8 54ba bf0b 083c
00000030: 1f85 1bbc c594 573c 628c 37bb c0cb 8339
00000040: 3e45 9fbb 1cdd 383c 247d d23b c250 87bc
00000050: a586 9fb9 92fa 723b e96a 93bb 3fd4 d838
00000060: 2d43 b53a 5e9c c9bb ea44 3b3c 5bce 5abb
00000070: 1801 4c3c 04a4 8ebc 83a3 813b 64c9 823c
00000080: 24a7 903c 7ad6 483c 6a31 c13c 9edd 1dbc
00000090: 743e 533c 0c91 bcbc d73e 473b 8982 0d3b
000000a0: ec92 f7bb bcf2 9039 cfea 773b 7e9e b6bb
000000b0: 1cec 013c 800d 5cbb 6ea1 51bc 20e8 bcbb
000000c0: 2031 7abc 2f04 72bb c3b7 26bc 2f24 943c
000000d0: d665 e13b d926 9d3b 85e1 94bc d2ab 293d
000000e0: 9a29 e6bb 4aa1 b73a 7a35 863b df3c ed3b
000000f0: d73e 3bbc 28c8 b63b 8588 d33b 60ff abbb
00000100: 34b2 61bc ec71 99ba d1cb 073c 3465 3ebb
00000110: 28f5 79bc 904c 6dbc 4c2e 173c 56d8 083a
00000120: 2a9e 9bbc dd11 84bc efe3 273c c3c3 463b
00000130: 9f00 563b 2ca6 713a c386 923c 91db f5bb
00000140: e08f 943b 2df8 f73a 38db 6abc f2cd 503c
00000150: f76c cb3b ca95 03bc 4d4d 303c ae78 4cbc
00000160: 076b 10ba e1bb ba3b 2ee3 063c 162a 88ba
00000170: f3fe f5ba ba6c 14bc 7e3e 2bba 566e 413c
00000180: 14d9 003c 69cf 853b 58e3 283c 279d 333c
00000190: 239e 183d d777 dfbc cefa 9e3a ec73 7d3b
000001a0: c9e7 833c 88a6 123c 1906 a03c 87f2 443c
000001b0: a8d6 f6b9 d782 823c 14bd 2f3b 1b62 1bbb
000001c0: 78f2 833b 2cb3 5d3c b50c 803c 9d0a 6c3c
000001d0: 1f40 0e3c fa7a f13b 989c 6a3b 7e2a c43c
000001e0: ec79 a73c ffd6 fd3b 57eb a6bb 263a 3bbc
000001f0: 0d7a 2ebc fdb2 893c b4d7 373b d489 133c

network_body._body_endoder.seq_layers.2.weight f4 [128, 128]
0.13774788 0.13460387 -0.06078637 -0.13536152 0.023479942 -0.043767497 0.042325962 0.013585334
-0.04594935 -0.053387284 -0.20582893 0.07809047 -0.060948815 -0.0076125204 -0.102858745 -0.028820265
-0.1328988 -0.1734555 0.11375901 0.15491074 0.014171429 0.056623153 0.15188268 0.02544422
0.028454116 -0.02378654 -0.09798536 -0.011943786 -0.17020942 0.04105421 0.06220261 -0.12819727
-0.063596964 0.025845826 0.058926243 0.37644616 -0.050359644 -0.06979037 -0.0043364232 -0.057807047
-0.06611909 0.004141328 0.09927463 0.09202387 -0.022315573 0.11145386 -0.11262683 -0.11863181
-0.15978049 0.0005183886 0.14287306 -0.108154535 0.1515863 0.10705234 0.021525614 0.14436282
0.020776656 0.0085605895 0.020754596 -0.017491596 0.07810266 -0.03470531 -0.12309971 -0.061069857
0.13952886 0.051766586 0.16306622 0.081852496 0.039028123 0.04573196 0.09683032 0.063303456
-0.019804925 -0.12120968 0.026885066 -0.072746314 -0.09771004 0.09155422 -0.08516122 -0.03495279
0.06198693 -0.030923238 -0.0448461 -0.09022241 -0.08533166 -0.15645166 -0.025035184 0.036315978
0.04407195 0.095676176 -0.091544524 0.042993 -0.06110109 0.07119632 -0.16419268 -0.02436926
-0.110022575 -0.09320243 -0.029108554 -0.09979351 0.020790529 0.104279146 0.10871309 -0.016549118
0.055382088 0.02870655 0.0522193 -0.15633218 0.05682546 -0.07346126 0.14247127 -0.20142443
0.027601043 -0.025371943 0.00063794374 -0.05476204 -0.049254287 0.13260768 -0.042680796 -0.054375242
-0.01604553 0.019424457 0.020902013 0.12694749 -0.015417531 -0.077901304 0.04835532 0.04788987
0.058642298 -0.04011672 0.014838455 0.21675287 -0.043619797 0.016746847 0.010983818 -0.09864231
0.03224544 -0.023617009 -0.048467733 -0.031506978 0.00048773809 -0.04612251 -0.18871956 0.041083075
-0.19976294 0.09433734 -0.07053399 0.102427594 -0.0646907 0.070179924 -0.033445764 -0.11977419
-0.09041765 0.22751391 0.018619858 -0.16012394 -0.16105399 -0.025060138 -0.027840756 0.05944284
-0.09408214 0.025683718 -0.04844555 0.027772462 0.12303116 0.10908471 -0.033490907 -0.057259113
-0.057828937 0.043246504 -0.073353775 -0.13915184 0.023405746 0.05407186 -0.15424384 0.10711416
-0.05839828 -0.034902975 -0.11323639 -0.08385598 -0.040159594 0.04000556 -0.02643396 0.025895027
-0.028289897 0.007697383 0.0053996746 -0.11848887 0.06820946 -0.0068950523 0.012068601 0.06334547
-0.21188748 0.06413143 -0.025916118 -0.045144893 -0.012869131 0.05562981 -0.022873104 -0.07603904
-0.009390567 -0.039612807 0.124048725 0.0051958263 0.1602005 0.15038452 0.029270904 0.092768155
0.10219626 -0.004842629 -0.017297538 0.056449458 -0.048126575 -0.021978194 -0.17206155 0.11716193
0.00090093724 -0.10758808 -0.013984161 -0.07603172 -0.07886165 0.19715938 0.003629112 0.030209728
0.046732716 0.040890973 0.15285963 -0.044453494 -0.21050107 -0.117065325 -0.14027737 0.02962377
0.004582602 0.08029113 0.066304035 -0.0051096505 0.09998041 0.079620026 0.006417521 -0.21016915
0.12037558 -0.13994813 -0.035168946 0.0002428163 -0.003706074 0.009501511 -0.047636107 0.09696521
-0.10147083 0.015797582 0.049943794 -0.17633988 -0.018365879 0.021583041 -0.037998836 0.08965799
00000000: c80d 0d3e 99d5 093e 21fb 78bd 369c 0abe
00000010: 0259 c03c 8c45 33bd fd5d 2d3d 0595 5e3c
00000020: 6335 3cbd a0ac 5abd d2c4 52be e5ed 9f3d
00000030: 77a5 79bd 7372 f9bb 9ba7 d2bd 7a18 ecbc
00000040: 9f16 08be 529e 31be 7cfa e83d eca0 1e3e
00000050: 482f 683c aeed 673d 2287 1b3e 6670 d03c
00000060: 9b18 e93c fddb c2bc 8cac c8bd dfaf 43bc
00000070: 614b 2ebe 7628 283d 2ac8 7e3d 2546 03be
00000080: 203f 82bd a0ba d33c a55c 713d 8dbd c03e
00000090: ea45 4ebd 41ee 8ebd 8e18 8ebb 15c7 6cbd
000000a0: 7269 87bd fab3 873b 7f50 cb3d 0377 bc3d
000000b0: 26cf b6bc ec41 e43d e5a8 e6bd 3cf5 f2bd
000000c0: 7f9d 23be 78e4 073a 514d 123e 2080 ddbd
000000d0: 7039 1b3e 423e db3d 7c56 b03c d9d3 133e
000000e0: ce33 aa3c b741 0c3c 8b05 aa3c 894a 8fbc
000000f0: 4af4 9f3d 2827 0ebd b31b fcbd 6324 7abd
00000100: a7e0 0e3e 3309 543d d5fa 263e 48a2 a73d
00000110: f4db 1f3d 7051 3b3d fa4e c63d 3ea5 813d
00000120: f03d a2bc c83c f8bd 123e dc3c 05fc 94bd
00000130: 341c c8bd c780 bb3d 0169 aebd a82a 0fbd
00000140: 02e6 7d3d bb52 fdbc 8bb0 37bd 87c6 b8bd
00000150: 5ec2 aebd dd34 20be 9616 cdbc 10c0 143d
00000160: ca84 343d dff1 c33d b27b bbbd 6e19 303d
00000170: 2345 7abd 60cf 913d 2022 28be 0ba2 c7bc
00000180: 8453 e1bd eae0 bebd 1075 eebc 8a60 ccbd
00000190: e650 aa3c 4e90 d53d f8a4 de3d 0492 87bc
000001a0: 54d8 623d 002a eb3c e8e3 553d 8b15 20be
000001b0: d0c1 683d db72 96bd fde3 113e 3542 4ebe
000001c0: 951b e23c d2d8 cfbc ae3b 273a 294e 60bd
000001d0: ddbe 49bd 4fca 073e 0fd2 2ebd 93b8 5ebd
000001e0: ea71 83bc 0a20 9f3c b33a ab3c 86fe 013e
000001f0: d099 7cbc b88a 9fbd 3a10 463d 2b28 443d
00000200: e832 703d 6e51 24bd fe1c 733c 77f4 5d3e
00000210: acaa 32bd af30 893c 79f5 333c fb04 cabd
00000220: cb13 043d 7578 c1bc 1a86 46bd 760d 01bd
00000230: 19b7 ff39 f5ea 3cbd b33f 41be ba46 283d
00000240: a88e 4cbe ef33 c13d 2074 90bd 8fc5 d13d
00000250: 8f7c 84bd 7eba 8f3d 6dfe 08bd 2c4c f5bd
00000260: e42c b9bd 68f9 683e ac88 983c 88f7 23be
00000270: 56eb 24be eb4a cdbc 4c12 e4bc 567a 733d
00000280: 23ae c0bd a966 d23c d76e 46bd 1383 e33c
00000290: c3f7 fb3d ce67 df3d c32d 09bd 8888 6abd
000002a0: 09de 6cbd 3f23 313d 813a 96bd d27d 0ebe
000002b0: 68bd bf3c 747a 5d3d 19f2 1dbe ab5e db3d
000002c0: 0933 6fbd 6cf6 0ebd 7be8 e7bd afbc abbd
000002d0: 637e 24bd dfdc 233d 088c d8bc cf21 d43c
000002e0: 37c0 e7bc 543a fc3b c1ef b03b 4baa f2bd
000002f0: 67b1 8b3d e4ef e1bb 62bb 453c 45bb 813d
00000300: 08f9 58be 5757 833d 0a4e d4bc dae9 38bd
00000310: 0cd9 52bc 15dc 633d 6060 bbbc 5bba 9bbd
00000320: e5da 19bc 0a41 22bd 420d fe3d c041 aa3b
00000330: 9a0b 243e 66fe 193e 89c9 ef3c 3bfd bd3d
00000340: 464c d13d ebae 9ebb 91b3 8dbc 8c37 673d
00000350: 5f20 45bd 9d0b b4bc e730 30be 98f2 ef3d
00000360: e02c 6c3a 2457 dcbd d31d 65bc 85b6 9bbd
00000370: 3782 a1bd 26e4 493e 65d6 6d3b 647a f73c
00000380: ce6a 3f3d 4b7d 273d 3c87 1c3e de14 36bd
00000390: 988d 57be f2bf efbd dfa4 0fbe 8cad f23c
000003a0: a729 963b ad6f a43d 69ca 873d db6e a7bb
000003b0: 87c2 cc3d d30f a33d 114a d23b 9536 57be
000003c0: 7987 f63d 904e 0fbe 500d 10bd 819c 7e39
000003d0: 9be1 72bb 3aac 1b3c 141e 43bd b295 c63d
000003e0: f0cf cfbd ee69 813c dd91 4c3d 7192 34be
000003f0: 0a74 96bc ebce b03c aba4 1bbd 9c9e b73d

network_body._body_endoder.seq_layers.2.bias f4 [128]
-0.00022690928 0.00850544 0.017044688 0.0012244609 0.015156905 -0.020284055 0.01005312 -0.001003026
0.0028614935 -0.008476031 0.006516508 -0.01619756 0.010339082 0.002203229 -0.0025208408 0.006561666
-0.004801898 0.0008442104 -0.01930011 -0.0023054702 -0.01195437 0.0052987747 -0.0017471613 0.010465657
0.0029065558 0.011166058 0.012982015 0.0126522295 0.0047669597 0.0030869737 -0.0043499996 -0.0108791385
0.0016138486 -0.016594693 -0.008912884 -0.008315459 -0.007230172 0.004532423 0.0028883202 0.01625244
0.012498777 0.004142482 0.009749294 0.008937785 0.006169949 0.026055384 -0.0059952606 -0.013538564
-0.00012273203 -0.008906882 0.006929968 0.007820686 0.011400302 0.004841345 -0.008485029 0.0066612493
-0.0023619486 0.005978722 0.007055585 0.002966906 0.0021032505 0.007885097 -0.01238204 -0.010758015
0.008214031 -0.000128969 -0.0043653357 -0.0053338357 0.01425017 -0.0021420014 0.013863603 0.006514463
0.003250989 0.018734472 0.0067628343 -0.0066217575 0.004097875 -0.009152431 -0.002672038 0.0034077347
0.011870808 0.0062524406 0.01482681 0.011064098 -0.008541451 0.007064648 0.02069969 0.00020001331
-0.005253453 0.003933121 0.0038725028 -0.0044817766 0.0012614486 -0.009878335 0.008397191 0.00514293
-0.0105993245 0.0133704 0.004274007 -0.0076077986 0.0009697216 -0.012644289 -0.008491223 0.0009654535
-0.0072020385 -0.0072651263 0.0073114363 0.008330273 -0.016446352 0.013508354 0.003908806 -0.021733822
-0.016351452 0.0038530661 0.01273722 -0.0038898226 -0.011372103 0.0051230695 0.008082814 0.01352683
-0.011055565 -0.004239771 0.012534471 0.0011061963 0.01296315 -0.005152169 -0.00330527 0.0015645787
00000000: 7fee 6db9 675a 0b3c 4da1 8b3c 177e a03a
00000010: ab54 783c bf2a a6bc d7b5 243c f877 83ba
00000020: e587 3b3b 0ddf 0abc 6e88 d53b bfb0 84bc
00000030: 4165 293c 0d64 103b b134 25bb 3e03 d73b
00000040: 3d59 9dbb 004e 5d3a 441b 9ebc 5f17 17bb
00000050: 43dc 43bc 58a1 ad3b 0101 e5ba 2678 2b3c
00000060: ea7b 3e3b d7f1 363c 84b2 543c 4c4b 4f3c
00000070: 2834 9c3b d34e 4a3b 718a 8ebb 6a3e 32bc
00000080: c687 d33a 98f1 87bc 5807 12bc 903d 08bc
00000090: 14eb ecbb b884 943b f949 3d3b d623 853c
000000a0: acc7 4c3c a8bd 873b 81bb 1f3c ca6f 123c
000000b0: 492d ca3b 1a72 d53c e473 c4bb dad0 5dbc
000000c0: a1b1 00b9 2cee 11bc c914 e33b 5622 003c
000000d0: 55c8 3a3c 25a4 9e3b cb04 0bbc 9c46 da3b
000000e0: ecca 1abb 28e9 c33b 8932 e73b 6c70 423b
000000f0: b0d6 093b 7e30 013c 0ade 4abc 6342 30bc
00000100: 2594 063c da3b 07b9 170b 8fbb 75c7 aebb
00000110: 8c79 693c d260 0cbb 2a24 633c 4777 d53b
00000120: 8b0e 553b 0979 993c c49a dd3b 54fb d8bb
00000130: 7847 863b 14f4 15bc 5c1d 2fbb 4d54 5f3b
00000140: c77d 423c 46e1 cc3b 26ec 723c 3146 353c
00000150: 71f1 0bbc 907e e73b 6592 a93c aaba 5139
00000160: 2825 acbb 69e1 803b d1c9 7d3b dedb 92bb
00000170: 3157 a53a bdd8 21bc 5f94 093c 0686 a83b
00000180: caa8 2dbc 860f 5b3c f80c 8c3b d74a f9bb
00000190: ea34 7e3a fe29 4fbc c51e 0bbc 7d16 7d3a
000001a0: 14ff ebbb 4c10 eebb c694 ef3b b37b 083c
000001b0: 80ba 86bc 2552 5d3c 7115 803b 210b b2bc
000001c0: 7bf3 85bc b983 7c3b c6af 503c 65ec 7ebb
000001d0: 0f52 3abc 6cdf a73b c76d 043c a39f 5d3c
000001e0: 6722 35bc c7ed 8abb 625d 4d3c cafd 903a
000001f0: 6463 543c 87d3 a8bb 3b9d 58bb 8d12 cd3a
