Assets/Models/My Behavior-2000035.onnx (onnx, 578818 bytes, 21 tensors)

network_body.observation_encoder.processors.0.self_ent_encoder.seq_layers.0.bias f4 [128]
00000000: 74fd c5bb cb2d 23ba 051c 3fbb ddf4 573a
00000010: 39af 27bc 8ac8 7f3b 9727 63bc 09d6 99bc
00000020: d48b 143c 79e4 10bb ac85 22bb b816 fb3a
00000030: d598 41bc 1957 82ba 8a39 0b3b 9b49 4d3b
00000040: 2c91 cdbb 943a 8ebb 8d31 023c 558a cfba
00000050: 5a03 a73b dc7f 89bc d05f 07bc 9df0 213c
00000060: a534 27bc 76d3 ba3b cc2e 2f3c c553 95bc
00000070: 3979 e4bb db97 83bb 6e31 563b 9587 53bb
00000080: f6d4 4f3c b7e5 05bb ab04 843a b306 073c
00000090: 6417 04bc 0aa3 5e3c 3851 5dbc 6a91 1fbc
000000a0: 5258 173c 4fa6 50bb 14e1 39bc 2b76 5a3c
000000b0: 9af2 073a cce3 9abb 3e9d 873b 4d12 163c
000000c0: b78b c0bb 837f bfba 1a64 9a3c 8fb4 81bb
000000d0: b7d1 30bc 2803 b43b ed60 453c f9b3 e9bc
000000e0: 27d5 25bb 1034 9ebb 0313 163c e297 693b
000000f0: 1484 88bc bc39 843a effc 0dbc 725b 2abc
00000100: bba2 313b e779 773c d29b 5cbc 0d0b a93a
00000110: 2b41 29bc ad3b 54bc f152 6c3a ada1 80bc
00000120: 1a21 663c c203 3c3a 6343 97bc bf54 98bc
00000130: aff8 5ebc db9b 53bb 5b48 dfbb 391b 363b
00000140: 4128 9bbb 37b0 72bb 5858 ff3a 2ec8 85bb
00000150: a7ac 403b 5df4 11bc 66c2 173c e26f 973c
00000160: b62e cebb 907f 46bc 0593 ea3b 75f6 4a3c
00000170: 0bce 0a3c 7f36 74bc b8f1 e53a f673 aabb
00000180: 3d34 3a3b 1cf8 8839 b465 62bb 1025 b3bb
00000190: ad39 5cbc 303d 1cbb 2c41 32bb 8825 8f3c
000001a0: 96cf 0ebc b58d 57ba 9869 22bc 716b 8dbb
000001b0: 45ab 283b 89bc 0f3c dba1 833c 5c07 54bb
000001c0: a4f7 ff3a 087c 6b3c d0b7 1dbc 6e8d 223c
000001d0: bfd3 be3c ee00 223c d41b a3ba db89 13bb
000001e0: 5bb0 2bbb be69 14bc 6439 323c f238 273a
000001f0: fbc3 f13b 3e30 93bb beda a23c 0d50 2e3c
-0.006042177 -0.000622478 -0.0029160988 0.00082380866 -0.010234647 0.0039029443 -0.013864419 -0.018778818
0.009066541 -0.0022108837 -0.0024798913 0.0019156551 -0.011816223 -0.000994417 0.0021244013 0.003132439
-0.0062734094 -0.004340479 0.007946384 -0.0015834073 0.005096835 -0.0167846 -0.00826259 0.009884027
-0.0102054225 0.0057014776 0.01069231 -0.018228421 -0.0069724587 -0.0040159053 0.003268327 -0.0032276858
0.012685051 -0.002043111 0.0010072192 0.008241343 -0.008062217 0.013588676 -0.013508134 -0.009739259
0.009237366 -0.003183741 -0.011345167 0.0133338375 0.0005185992 -0.0047268625 0.004138618 0.009159637
-0.0058760303 -0.0014610145 0.01884656 -0.003958292 -0.010792187 0.0054935403 0.012047035 -0.0285282
-0.002530405 -0.0048279837 0.009159806 0.0035643508 -0.016664542 0.0010088007 -0.008666261 -0.010397779
0.0027105052 0.015104747 -0.013464885 0.001289697 -0.010330479 -0.012953681 0.0009015045 -0.015702093
0.014045978 0.0007172191 -0.01846475 -0.018595098 -0.0136090955 -0.0032288942 -0.0068140454 0.0027787222
-0.0047350232 -0.0037031302 0.0019481285 -0.004082701 0.0029399784 -0.008908358 0.009262657 0.018485967
-0.0062921895 -0.012115374 0.0071586394 0.0123878615 0.008471976 -0.014905571 0.0017543351 -0.005201812
0.0028412484 0.00026124797 -0.0034545483 -0.0054670647 -0.013441485 -0.0023840182 -0.002719949 0.017473951
-0.0087164845 -0.0008222715 -0.009912871 -0.0043157865 0.002573685 0.008772978 0.01606839 -0.003235302
0.0019528759 0.014372833 -0.009626344 0.009921415 0.023294328 0.009887917 -0.0012444207 -0.0022512588
-0.0026197645 -0.009058414 0.010877941 0.000637903 0.007378099 -0.004491835 0.019879695 0.010639203

network_body.observation_encoder.processors.1.self_ent_encoder.seq_layers.0.bias f4 [128]
00000000: a8af 4cb9 8302 dc3b b8d9 af3c 58e0 373c
00000010: cfbc 9abc 83c5 64bc 95fe 2b3d d7cf b8bc
00000020: 6e68 4d3b f0e7 5c3d 6690 adbc 129d 783b
00000030: 5f2f 223d 674d 36bc 9330 89bc 80d3 da3c
00000040: 3260 ac3c 069c 8c3b 53b5 adbc 1ef8 a23b
00000050: d759 9dbc 3332 d1bb c0a6 843b 9941 5abc
00000060: 8401 503c b634 10bc 3616 29bb 7c6a 80bb
00000070: b78b a03c 2f3f 08bd 3671 a53c 634f 6c3c
00000080: f57f a83c cd82 743b fc07 8dbc 8ba6 843c
00000090: 4321 013c f602 cabb d746 b33c fb6d 09bd
000000a0: 8a85 4fbc 70aa 883c 0f00 3fbb 3e7d 053b
000000b0: 765e 65bc 1c03 383b f506 85ba afd8 2eb7
000000c0: 2c5c fd3c 7256 ecba 9425 8d3c ccab bdbc
000000d0: ef37 19bd 5ec4 6c3c 3261 febb 52d8 663c
000000e0: 359a 0bbd 4ca4 373a 1f16 85bc 864d 17bb
000000f0: 7a3c 8a3c 9111 53bc 4193 8a3b 34ae 46bb
00000100: 74e0 213a ce14 46bc f77f 4cbc 9cff 67bb
00000110: d97d 253c b67b a0bc de41 4bbc 215d f93c
00000120: 90ed 3abd 0646 adbc f0a6 d3bb f75e 243c
00000130: 4780 b6bb ce52 cabb 5e0a e53c 07ee 2e3c
00000140: 38d7 b6bc d79c 5ebb 6e34 123b 989e 45bc
00000150: 4037 00bd 19ef 8b3c e168 d23c 3593 0cbc
00000160: 8361 a1bb 31a4 fc3b 486e 04bc 46e9 053d
00000170: 889c e23c 8271 c4bb 616f fbbc dfba 453b
00000180: 05f0 25bc 5ddf 8cbc 4dee e6bb 9fcd 00bd
00000190: 8a89 84bc 3c02 c13a 1115 54bb 3141 91bc
000001a0: 6bac 823c 5da3 f93c b728 2a3c 90ea 863c
000001b0: aee7 36bb 6f0e fbbb f9c0 b23b df10 d4bc
000001c0: 19be 91bc 11d1 443c 2536 babc a1c0 88bc
000001d0: 64d5 9cbc 9fe5 773c 18dc a53c 08c3 ad3b
000001e0: e8cb 93bc 3122 69bc c20c af3c b2ad 093c
000001f0: aee5 95bb 9957 8f3c 622d 2d3b aef1 683c
-0.00019520393 0.0067141666 0.021466121 0.011222921 -0.01888886 -0.013963106 0.041990835 -0.022560043
0.0031342763 0.05393213 -0.021187019 0.0037935418 0.039595958 -0.011126853 -0.016746795 0.02671218
0.021041963 0.0042910604 -0.021204626 0.0049734255 -0.019207878 -0.006384158 0.0040481985 -0.013321304
0.012695674 -0.00880163 -0.0025800592 -0.003918944 0.019597871 -0.03326338 0.020195585 0.014423224
0.020568827 0.0037309409 -0.017215721 0.016192695 0.007881465 -0.0061649038 0.021884365 -0.03355215
-0.012666116 0.016682833 -0.0029144322 0.002036884 -0.013999572 0.0028078025 -0.0010149168 -1.0421659e-05
0.03092774 -0.0018031134 0.017229833 -0.023153208 -0.037406858 0.014451114 -0.0077630514 0.014089661
-0.03408261 0.0007005378 -0.0162459 -0.002308698 0.01687454 -0.012882606 0.00422898 -0.0030316235
0.0006175109 -0.012089921 -0.012481681 -0.0035400158 0.010100805 -0.01959024 -0.012405841 0.030439915
-0.045636714 -0.021151554 -0.0064591095 0.010032407 -0.005569491 -0.006174422 0.027959045 0.010676867
-0.022319421 -0.0033967996 0.0022309083 -0.0120617375 -0.03130269 0.017081784 0.025684776 -0.008580019
-0.0049249544 0.007710003 -0.008082934 0.03269317 0.02766253 -0.0059949765 -0.030692758 0.0030171198
-0.010128026 -0.017196352 -0.0070474506 -0.031446096 -0.016178865 0.0014725397 -0.003236119 -0.017731281
0.015951356 0.030473405 0.010385684 0.01646927 -0.0027909088 -0.0076616327 0.005455133 -0.025886951
-0.017790841 0.012012736 -0.022730896 -0.016693415 -0.019144721 0.0151304295 0.02024655 0.0053027906
-0.018041566 -0.014229343 0.021368388 0.008403229 -0.004574499 0.017497825 0.0026424755 0.014217777

network_body.observation_encoder.rsa.fc_q.bias f4 [128]
00000000: a52c e0bc 3f75 e43c 32c2 cd3c df32 923c
00000010: ff7d 92bb 1e2b d1bc 7a70 d23b 57d9 f43c
00000020: dbd4 2dbc 6055 85bc d904 fa3c 35c3 6d3a
00000030: 73e6 37bc 59a9 f3bc 1638 813c 96c3 293c
00000040: d219 8cbb 928f 1fbd 400c 2c3d a15d 30bc
00000050: 6172 903c 1a72 4e3c 0dce b4bc 442e 76bc
00000060: ba66 3d3b 3b46 8a39 efde 5abc c2e5 02b8
00000070: 573e 093c 9bc7 c43b cdf7 db3c 2b8a 69bc
00000080: e26a 4dbc 54ee 0c3d 829c 623c 5e52 523c
00000090: 3e21 ffbb 72bd 02bd 35ec 3ebc 0e07 dfbc
000000a0: df40 03bc 2a44 f8bc e498 b6bc 6e44 7b3c
000000b0: d7f6 6abb 6174 e93c 3a6b c53c 38d2 7a3c
000000c0: 8d6a 9bbc bdb4 ea3a c535 afba e360 90bc
000000d0: 1205 b7bc 6142 793c a390 a1bb 3487 9b3c
000000e0: 4be0 a9bc 4ec8 9e3c f44c 8c3b 3b40 883c
000000f0: c993 a3bc 009a f8bc 6514 2b3c 5fbb a33c
00000100: 4bb8 073d dbf7 d5bc 064b 873c 532d 0c3d
00000110: a4df 2c3d 3a47 b63b a8d4 a7bc b5d0 843d
00000120: 84e4 cb3c a0ad 3bbd 1ccd 08bd 4ed2 213d
00000130: 0bad fbbb effa 4d3c b412 a4bc 4449 243d
00000140: 1748 4dbc 940c 1ebd cb8b 46bc 8cba 023d
00000150: 8016 6a3d 9cb5 a5bc 22f9 1b3d 3712 1c3d
00000160: 6c80 893c 2b63 3abd 9b78 84bb 8bfe a1bb
00000170: d786 553c 1a0e dbbc 045a a039 60d2 053c
00000180: 3dd9 98bd 1cdf 53bd dbcf 8fbd e962 583d
00000190: df26 c93b 1196 81bc 0d75 84bc be03 5c3d
000001a0: b0dd 7b3d 81c3 023d afc0 153d e8fc a73d
000001b0: 25f8 a2bc 9c2e 073d 1dc4 a23d f616 023d
000001c0: b05e 9b3d 9140 74bc 785d 45bc 204e 4e3c
000001d0: 7823 35bb eb86 783d f4de 863c 5c31 7c3d
000001e0: 2678 7e3d 47b3 0ebd 11f9 683d cb0e 8f3c
000001f0: 5f8a 90bd 4246 3cbd ff25 a2bc e78a 2e3d
-0.027365038 0.027887939 0.025117014 0.017846523 -0.0044705863 -0.025533255 0.0064220997 0.029888792
-0.010609831 -0.016276062 0.03051989 0.00090699206 -0.011224377 -0.029743837 0.015773814 0.010361573
-0.004275539 -0.03895528 0.04200387 -0.01076451 0.017632665 0.012600446 -0.022070909 -0.015025679
0.002890034 0.00026373737 -0.013358816 -3.1208394e-05 0.008376679 0.00600524 0.026851559 -0.014254133
-0.01253769 0.034406975 0.01383126 0.012837021 -0.007785945 -0.03191895 -0.011652996 -0.027225044
-0.008011072 -0.03030594 -0.0222897 0.015336139 -0.0035852694 0.028497877 0.024098981 0.015308909
-0.018971706 0.0017906647 -0.0013367465 -0.017624324 -0.022341285 0.01521358 -0.004930572 0.018985368
-0.020736834 0.019382622 0.0042816345 0.01663219 -0.01996793 -0.03034687 0.010441874 0.019986806
0.03313474 -0.026119163 0.016515266 0.034222912 0.042205468 0.00556269 -0.020487145 0.0648512
0.024889238 -0.04581988 -0.033398733 0.039507203 -0.0076805404 0.012572034 -0.02002845 0.040108934
-0.012529395 -0.038586214 -0.01211829 0.031916186 0.057150364 -0.0202282 0.03807939 0.03810331
0.01678487 -0.04550473 -0.0040426976 -0.004943674 0.013032637 -0.026740123 0.00030584645 0.008167833
-0.0746331 -0.051726446 -0.07022067 0.052828703 0.006138667 -0.015818628 -0.016169095 0.053714506
0.061490715 0.03192473 0.03656071 0.08202535 -0.019893715 0.033003435 0.07947562 0.03176018
0.075864196 -0.014907972 -0.0120462105 0.012591869 -0.002763955 0.060675543 0.016463734 0.06157051
0.0621263 -0.03483894 0.056878153 0.017463109 -0.07057642 -0.04596544 -0.019793509 0.042612936

network_body.observation_encoder.rsa.fc_k.bias f4 [128]
00000000: 8cc8 8bb7 c57b 1136 3dec 7236 ffc4 9336
00000010: 038c c736 d8e8 4db6 f38e 0db6 69d2 9536
00000020: b1d4 40b7 7899 be36 a2c6 18b6 2261 ed36
00000030: cf8d 96b6 6f87 c7b6 3e7d fc35 d58c dc35
00000040: 902e c636 01e2 99b6 c806 d335 4043 beb6
00000050: af74 c0b6 05ea 1bb6 82f5 a1b6 8025 3736
00000060: 692e fcb6 3a58 cf35 f2be bcb6 dde9 8eb5
00000070: 6226 f436 909e a833 f76b 7d36 338f be36
00000080: 86d5 5eb6 ff49 36b6 2351 5eb6 ec3e e536
00000090: 4e7c b3b6 fa8e bf35 e4d6 80b5 2f0c 50b6
000000a0: 1b0f 94b6 5265 81b6 8d27 acb6 78f4 74b6
000000b0: 65d5 0432 be9c 6536 0c9e f535 a15f 9936
000000c0: d43a edb6 6099 94b6 9c12 f0b6 bf5f 1737
000000d0: cbcc 4d36 6939 8336 4240 48b6 b358 7136
000000e0: baae 9036 4fa4 1436 de47 4e36 ed0d 6636
000000f0: 09eb b836 f640 93b6 285d b435 a0e8 3036
00000100: e356 a5b5 af59 7cb4 9abc c9b5 4729 33b5
00000110: 247b c035 fb98 deb5 cf52 efb4 d9ef f635
00000120: 5baf 3b35 0c1e a5b4 36ce 45b6 28a5 4e36
00000130: 2443 fcb4 f76b 38b6 40be d3b5 f6cc 0a36
00000140: 6294 bdb4 ec51 55b6 e31d 93b5 66aa be35
00000150: 1bf6 0636 a8c2 35b5 80ca c133 7778 95b5
00000160: 6ced 87b5 f9f2 1cb6 0f25 0bb6 003b 9934
00000170: c391 d8b5 6baa 80b5 64be dc35 24bc 2634
00000180: f564 ccb6 c188 70b6 d988 90b6 2532 0fb7
00000190: e011 2cb7 b57a 2ab7 eae5 d836 1756 3c34
000001a0: 3612 2e37 8e28 fa36 3b6c 0a36 df79 14b6
000001b0: 0302 8335 bc5e b436 1b78 e8b4 dd39 a2b6
000001c0: 5db1 b736 4e77 75b6 fe9c ec36 03d9 cfb2
000001d0: 55ae 4fb7 ff63 c0b6 b332 3137 d345 19b7
000001e0: 956f 2bb3 a8a1 6637 5004 1fb7 0bc9 c9b6
000001f0: a376 da36 cfac 0d37 0330 93b6 cea4 3ab6
-1.6663478e-05 2.1678727e-06 3.619832e-06 4.4038748e-06 5.9469617e-06 -3.0682913e-06 -2.1093845e-06 4.465041e-06
-1.1493613e-05 5.6803074e-06 -2.2765385e-06 7.074458e-06 -4.486857e-06 -5.9464287e-06 1.8811913e-06 1.6432265e-06
5.9062804e-06 -4.5860656e-06 1.5722699e-06 -5.67027e-06 -5.7356297e-06 -2.3233017e-06 -4.826755e-06 2.7290953e-06
-7.515588e-06 1.5448379e-06 -5.6250656e-06 -1.0647888e-06 7.276235e-06 7.851952e-08 3.7762782e-06 5.679112e-06
-3.3204865e-06 -2.7163185e-06 -3.3127806e-06 6.832057e-06 -5.3490867e-06 1.4272221e-06 -9.599285e-07 -3.1001507e-06
-4.412502e-06 -3.856295e-06 -5.1306038e-06 -3.6501133e-06 7.7319315e-09 3.4214895e-06 1.829992e-06 4.570888e-06
-7.069999e-06 -4.428599e-06 -7.154724e-06 9.022594e-06 3.0666586e-06 3.9107877e-06 -2.9839725e-06 3.5963428e-06
4.3118753e-06 2.2149359e-06 3.0738224e-06 3.4280777e-06 5.510989e-06 -4.388504e-06 1.3438157e-06 2.636145e-06
-1.2318745e-06 -2.3501956e-07 -1.5030557e-06 -6.674276e-07 1.4340953e-06 -1.6584812e-06 -4.457747e-07 1.8398233e-06
6.9918104e-07 -3.0755507e-07 -2.9475318e-06 3.0792526e-06 -4.698751e-07 -2.748098e-06 -1.5776095e-06 2.0682905e-06
-3.5311956e-07 -3.1787158e-06 -1.0961052e-06 1.4205696e-06 2.0110808e-06 -6.7711017e-07 9.0240974e-08 -1.1136425e-06
-1.0127383e-06 -2.338724e-06 -2.0734185e-06 2.85414e-07 -1.6135676e-06 -9.586341e-07 1.6446688e-06 1.55284e-07
-6.0914267e-06 -3.5842388e-06 -4.3074656e-06 -8.535139e-06 -1.0256161e-05 -1.016136e-05 6.464067e-06 1.7540184e-07
1.0375448e-05 7.455302e-06 2.06266e-06 -2.2124657e-06 9.760846e-07 5.3754466e-06 -4.3300756e-07 -4.8347124e-06
5.474473e-06 -3.657729e-06 7.0516244e-06 -2.4196657e-08 -1.2378751e-05 -5.733687e-06 1.05618265e-05 -9.135768e-06
-3.9915523e-08 1.3746707e-05 -9.478143e-06 -6.0136713e-06 6.5107174e-06 8.44449e-06 -4.3865307e-06 -2.7812089e-06

network_body.observation_encoder.rsa.fc_v.bias f4 [128]
00000000: b2ab 063b cd25 b1bb be7c 233c 2acc 24bc
00000010: 4db1 1d3c 65d5 2cbc 4f97 983a ab45 fcbb
00000020: 40ff 2abc c8b3 a638 4518 2e3b 1f0a 4abb
00000030: 75b0 103c 69b1 59bc d9e4 10bc 5995 c5bb
00000040: e9fd 47bc 3b8e 81ba e2f6 3abb 01f1 443b
00000050: de93 0a3c d061 733c c839 d4bb 7bb0 3cbb
00000060: d5c5 ad3b 187b 9f3c 45f1 02bb 2403 e43a
00000070: 3ac5 2d3b ec54 06bb af02 3f3c 5b70 dbbb
00000080: aca0 41bb 49ef 043c 0555 15bc 9b78 ccbb
00000090: 781f 553c cde2 643b 1e32 99bb d802 043b
000000a0: 8454 a2bb 8223 2cbb 776f 353b ca0b aebb
000000b0: 601c e9bb a382 8ebb d203 f4bb 8657 9a3a
000000c0: 9d67 74bb 8270 05bb a6df 11ba 93fb eaba
000000d0: 6447 913b 959c 7f3b 4e79 343a e008 85b8
000000e0: 173e 25bc 3697 43bb ef2d babb 552f f5ba
000000f0: 7b31 1a3c 3b5a 513c 2749 753b d40f debb
00000100: 034a ebbb d387 1abc 1ea8 5a3b b48c b0bb
00000110: ac82 4dbc 53e8 503b 9fab 3abb 645f bfbb
00000120: 5e92 5cba f628 993b 691e d23b 804b f3bb
00000130: 929b 5e3b 30d2 17bb 4a9b bdbb eb10 383b
00000140: 4e0d 7539 2222 d4bb 57f3 b23b 1789 9b3b
00000150: 9224 493c eb2a 75bb a60f 653c 1f13 11bc
00000160: 8167 28bc 2830 84bb d4f8 a3ba 55ab 823a
00000170: b726 6dbc 8c65 163a 3248 24bc e46e fc3a
00000180: d2d6 54bb 8bfc 01bc a375 c8ba 3e29 7a3b
00000190: 1ce9 073c 922b 113b 2c9e 253c 6341 523b
000001a0: ab2b 6b3a 0b3f b9bb edb8 2bbc 802d f6bb
000001b0: e694 e5ba 0e7e c6bb 177d f73b 2c73 a3bb
000001c0: 961a 7939 4a55 6139 44af 243b 7034 9fbb
000001d0: 2dfa e4bb 777d 8cbb 421f 30bb 9113 193b
000001e0: 527a 5ebb e49f 8f3b 0c56 a7bb 3b18 01bc
000001f0: 7f69 12bc 1dfd 71bb 74b9 d139 e617 34bc
0.0020549116 -0.0054061175 0.009978471 -0.010058442 0.009624791 -0.010548924 0.0011641773 -0.0076987348
-0.010436833 7.948984e-05 0.0026564759 -0.0030828787 0.008831133 -0.013286927 -0.008843624 -0.0060297665
-0.012206533 -0.0009884307 -0.0028528501 0.0030050876 0.008458106 0.014854863 -0.0064766146 -0.0028791714
0.0053031244 0.019467875 -0.0019980234 0.0017395956 0.0026515261 -0.0020497395 0.011658355 -0.0066967434
-0.002954523 0.008113691 -0.0091145085 -0.006239963 0.013007991 0.0034925223 -0.004675164 0.0020143297
-0.0049539227 -0.0026266281 0.0027684846 -0.005311464 -0.0071139783 -0.004349069 -0.0074467445 0.0011775352
-0.0037293204 -0.002036125 -0.0005564637 -0.0017927758 0.0044335593 0.0039003242 0.0006884531 -6.343587e-05
-0.010085604 -0.0029844767 -0.0056817452 -0.0018706123 0.009411211 0.01277786 0.0037427635 -0.006776789
-0.0071804537 -0.009431797 0.0033364366 -0.005387867 -0.012543362 0.0031876757 -0.0028483642 -0.005840229
-0.00084141444 0.0046740724 0.0064123166 -0.007424772 0.003396724 -0.0023166053 -0.005786334 0.0028086256
0.00023369977 -0.0064737955 0.0054611373 0.004746567 0.012276785 -0.0037409614 0.013980782 -0.0088546565
-0.0102785835 -0.004034061 -0.001251007 0.0009969274 -0.014474562 0.00057371776 -0.010026978 0.0019259122
-0.0032476676 -0.007933746 -0.0015293848 0.0038171555 0.008295324 0.0022151214 0.010108512 0.003208243
0.00089710456 -0.0056532673 -0.010481101 -0.0075127482 -0.0017515689 -0.0060575074 0.0075527537 -0.004988095
0.00023756395 0.00021489445 0.002512888 -0.004858546 -0.006987831 -0.0042874175 -0.00268741 0.002335761
-0.003394742 0.004383074 -0.005106693 -0.007879312 -0.008936285 -0.003692455 0.0004000176 -0.010992026

network_body.observation_encoder.rsa.fc_out.bias f4 [128]
00000000: 3506 883c 048e 94ba f0b6 883c 3669 8c3a
00000010: 8982 bcbb 6295 4cbc 05c4 383c c7bb 55ba
00000020: 3470 2cbc ad31 173b 8adc 46ba 2d72 3fbc
00000030: 5a4a 993c e7e5 92ba 76ad 1b3b 6f2f ca3b
00000040: 2dcb 3cbb fa55 6a3c 85fe 4dbc 7ff1 9fbb
00000050: 3dbb 093b 06f2 febb 6a58 f33b 5e35 38bc
00000060: c6fa b33c 8fee eebb c041 13bc 6899 8f3b
00000070: 070a dcba 7c5c 6ebc 66a7 4f3c 5431 dd3b
00000080: edd4 9d3b 207f a33b dc6b 38bc aefd 1a3b
00000090: 9fd5 8cbc 4dae be39 03a3 973c d438 37bc
000000a0: 7522 8539 90ca 863b 1d8c b2bb 4dc9 1fbc
000000b0: 8fbb cebb be97 493c eb1b de3a 7234 ea3b
000000c0: dfc3 a33c 98d9 14bb f006 243c f183 52bc
000000d0: 4583 ccbb 7ef8 343c 1f1e a6bb 85a3 26bc
000000e0: 6d97 2fbc 1e9c dcbb 1b6a 36bb 6d65 51bc
000000f0: d5ac 853b f861 563c bf1c 3b3c 7ed3 913c
00000100: 98f4 4a3a e3bd 333b fad1 81ba 2b36 76bb
00000110: 5ccc a8bb 6806 963b 0160 65bc 4dbd 653b
00000120: 0121 23bc fa0d 703b 851c 4b3a b08e ac3b
00000130: fdc1 f6bb 7477 05bb 54d6 243c bcc5 943c
00000140: ed34 1bbb 9621 80bb 2779 b1ba 64b4 46bc
00000150: 2404 383b 1988 c53b 69d4 81bb 4e4e 523c
00000160: 60a3 bf3a 690c abba 8662 e2bb 7138 dd3b
00000170: c892 c33c 7c7f c93a df01 31bc 98b6 f1bb
00000180: 1827 4abb 225d 18bc 3f78 983b addc cd3b
00000190: 0347 66b9 5889 213c cb31 a6bc b26f 57bb
000001a0: f998 d83a 7126 193c aeda 3c3c 4ea7 20bb
000001b0: 36f7 3c3c 8231 b2b8 e58d 2739 5477 73bb
000001c0: f2d9 2bbb 78cf 88bb 0b84 4c3b 8535 1a3b
000001d0: aa0e 4d3c 3a56 43bb 0843 41bb 9a3a bfbb
000001e0: 20e6 f23b 0d0b c23b 7fdc 73bb e226 0cbc
000001f0: cfd9 d8bb 47c8 72bb 5b7d 643c 03e0 7c3c
0.016604522 -0.0011333828 0.016688794 0.0010712508 -0.0057528657 -0.0124867875 0.011277203 -0.0008153286
-0.010524798 0.002307038 -0.00075859635 -0.0116849365 0.018712211 -0.0011207432 0.0023754514 0.0061702053
-0.0028807626 0.014302725 -0.012572889 -0.0048810835 0.0021016144 -0.0077803163 0.0074263113 -0.0112431925
0.021970164 -0.007291622 -0.008987844 0.004382301 -0.0016787656 -0.014548417 0.012674188 0.006750265
0.0048166425 0.0049895197 -0.011256184 0.002364974 -0.017191706 0.00036369488 0.018510347 -0.0111829825
0.0002539341 0.004113503 -0.0054488317 -0.009752584 -0.00630898 0.012304245 0.0016945576 0.0071473652
0.01999086 -0.0022712704 0.01001142 -0.01284884 -0.0062412345 0.011045573 -0.0050695087 -0.010170822
-0.010717255 -0.006732478 -0.002783424 -0.012780529 0.004079441 0.013084881 0.011420428 0.017801043
0.0007742136 0.0027426414 -0.0009904497 -0.0037568908 -0.0051513147 0.0045784004 -0.01399994 0.003505546
-0.009956599 0.0036629424 0.0007748085 0.005266033 -0.0075304494 -0.002036539 0.010060865 0.018160693
-0.002368267 -0.0039102538 -0.0013540135 -0.012127969 0.002807864 0.006028187 -0.003962089 0.012836052
0.0014620833 -0.0013049963 -0.0069087176 0.006751113 0.023873702 0.0015373076 -0.010803669 -0.007376503
-0.0030846056 -0.009299548 0.0046530063 0.00628241 -0.00021960963 0.009859405 -0.020287415 -0.0032872972
0.0016525082 0.009347544 0.011526747 -0.0024513784 0.011533549 -8.496923e-05 0.00015979221 -0.0037149983
-0.0026222435 -0.004175123 0.0031206633 0.0023530435 0.012515703 -0.0029806034 -0.0029489417 -0.0058358433
0.007412687 0.0059217275 -0.0037210283 -0.008554192 -0.0066177617 -0.0037045644 0.013945903 0.015434268

network_body.observation_encoder.x_self_encoder.seq_layers.0.weight f4 [128, 3]
00000000: 04f9 193c fb8d 6b3b d83c d9bc 4d86 d9bb
00000010: c393 e13c 00c3 383d 3cfe 5f3d b288 87bb
00000020: cbae fc3b 8879 5f3d 7b74 aa3c e6cd a33c
00000030: 017b 8dbc 1705 6f3c 445a 1e3d 8f3a 0f3d
00000040: 9d62 023c f0fd 6c3b c029 b33b 813b ba3c
00000050: d8e0 1e3c e37c 20bd c68b 103d d0a1 823b
00000060: e156 1b3d 5f2d 7d3c 7a52 2c3c e809 39bd
00000070: f058 bebb 70cf 883c 9f8b d43c e8ab 913b
00000080: 343c ccbc 0aa5 d9bb 3ca9 a1bc a7ae 8bbb
00000090: 8f95 4cbd 3192 18bc c9d1 1f3d c737 1a3d
000000a0: 1cd6 ee3c 01b1 8e3c ef87 eeb8 a074 133b
000000b0: caad d93c 6f6b 84bc 6e23 c53c 4d9c 613b
000000c0: b981 47bd 8215 dc3b 1616 ef3c f256 ab3c
000000d0: c1a1 1a3d 7452 bf3a 66ff 12bd df9a 5f3c
000000e0: d946 6c3c 40c8 ee3c f341 1d3d 6d4a 79bd
000000f0: a328 13bd 0761 39bd 9834 22bc 9bc0 b8bc
00000100: b8fe 0ebc 97c2 c7bc 9a87 693d 5a79 b33c
00000110: 6c9f f23c a968 c23c dcc8 e23c 3873 9dbc
00000120: 0a40 c33c 311d b1bc 6d87 9bbc 31e7 033d
00000130: 4872 c7ba e625 143c 6e92 e63c d5b9 8f3b
00000140: ca71 ee3c 3473 1f3d db3c 333d c7f1 20bb
00000150: 6bc3 9b3c edf8 053c f314 a53c 08c1 a3bd
00000160: 7037 86b9 b6df 04bd 7ca3 003d aba8 683b
00000170: a243 7ebd 56b2 a63c 7b13 1cbc bb7e d2bb
00000180: 0e55 e3bc 38cc 2c3c fa62 103d 6db9 893d
00000190: 3aee 293d adc3 b4bc e028 76bb fa14 dd3a
000001a0: 9734 4ebd b145 a7bd aaa3 893c 4e3e 28bd
000001b0: 6ee5 f23c 057e f33c 4461 84bc cd6b abbd
000001c0: c41a 58bd 11b3 02bd 9846 cb3b ccb5 203c
000001d0: e676 9e3c 0457 9d39 afd6 6abc 6cde 93bc
000001e0: d512 423d a648 abbc 3f54 9dbc 590c 69bc
000001f0: e036 87bd d8bc 27bd c4f1 19bc 2a0e 303d
00000200: 3a05 d0bb 410b 6fbc 6251 f3bc f4a4 273c
00000210: c673 683d 33bc 263d ad55 98bc 8edb 3abd
00000220: be86 df3c 16c5 f13a 54f1 ffbc 9550 b5bb
00000230: 081d 97bb 8ac9 833b ae0e 063d 25b9 7e3c
00000240: 3e88 8abd 1948 2ebd 8226 693a 75f5 a6bc
00000250: 50e9 adb7 d2fe 1cbb 6a06 febc fb55 b6bc
00000260: 7fa7 4ebc 1ead 563d dcbc c1bc e3b4 953d
00000270: 3420 ca3c 6150 443b bdad 873b 1790 ea3c
00000280: 29b1 8c3d dbde db3c f0dd 123d 8886 8abd
00000290: 4639 863b 7b6b 2bbd 547a 573c da75 d6bb
000002a0: 46f8 b2bc d203 8d3d fb27 35bb 0452 5d3d
000002b0: 34c2 83bc 3337 933c f450 1dbd 277b 3bbd
000002c0: b490 04bc d9c9 a9bc a5de b8bc ed8a 0cbb
000002d0: cf3e 0ebd 7d1b 88bd a1fe 7c3c 2ca9 9d3c
000002e0: 73ae 3ebb 154a 05bd 9272 46bd dc97 bfbc
000002f0: bc9c de3c d5f5 b4bd 5253 33bd d615 873b
00000300: 674e 10bd 6877 043d b361 9cbc 3f28 a4bc
00000310: a347 7e3c 019e 24bc 0ced e8bc 756c 8037
00000320: f893 2a3c ded4 84bd 9186 ba3c 5296 143c
00000330: ae8d c7bc 4585 483c d9be 6bbc 131a 513d
00000340: b1f6 013c 6ccb 85bb 31bd e4bc 8f97 c1bc
00000350: 3ecd fdbc 8a72 8c3c 0977 233d 37f9 0abd
00000360: 8596 e23c 4cc0 2d3c b583 eaba 8efe 813c
00000370: b9b4 85bc 168c 9ebb b130 2f3d 3491 463d
00000380: 42ff a5bc 38f2 b4bb 8898 45bc e847 b93c
00000390: 9a85 d6bc de6f 213c d3d8 d93c 8f23 b5bc
000003a0: 7a3d a63c e6ad 35bc 5e47 0a3b bbc7 87bd
000003b0: 3a95 593c 129f 2fbd 8db7 b23d 4233 50bd
000003c0: 61ed dfbc 4563 643d 7e90 4aba bead b3bc
000003d0: c4c4 4d3c 455f 05bd d536 1bbd 8278 7b3d
000003e0: 384e 873b 29e1 363d cb1b fe3b e9fe 6ebd
000003f0: c734 5c3d 1c1b 81bc 6c49 94bc 5315 9a3d
0.009397749 0.0035942781 -0.02651827 -0.0066383244 0.027536279 0.04510784 0.054685816 -0.0041361684
0.0077112666 0.05455926 0.020807495 0.019995641 -0.017270567 0.014588616 0.038660303 0.034967955
0.007958082 0.00361621 0.0054676235 0.022733452 0.009697162 -0.0391816 0.03528955 0.0039865747
0.03792465 0.015452712 0.010517711 -0.045175463 -0.005808942 0.016700476 0.025945483 0.0044455417
-0.02493105 -0.0066419886 -0.019734018 -0.0042627635 -0.049947318 -0.0093121985 0.039018426 0.03765085
0.02915483 0.017418386 -0.00011374044 0.0022499934 0.026572127 -0.01616451 0.024064746 0.0034425438
-0.048707698 0.006716431 0.029185336 0.020915482 0.037751917 0.0014596717 -0.0358881 0.013647764
0.014421188 0.029148221 0.038392972 -0.060861994 -0.035927426 -0.045258548 -0.009900235 -0.022552779
-0.008727722 -0.02438478 0.057014085 0.02190845 0.029617034 0.023731546 0.027683668 -0.01921998
0.023834247 -0.021620365 -0.018985474 0.032202903 -0.0015216554 0.009042239 0.028145995 0.0043861666
0.029106993 0.038928226 0.04375921 -0.0024558173 0.019014081 0.008177024 0.02015159 -0.07995802
-0.00025599776 -0.03243991 0.03140591 0.0035500925 -0.06207622 0.02034871 -0.009526129 -0.006423799
-0.027750518 0.010546736 0.03525064 0.0672482 0.041486956 -0.022065962 -0.0037560984 0.0016867213
-0.050343122 -0.081675895 0.016801674 -0.041075043 0.029650416 0.029723177 -0.016159661 -0.08370171
-0.0527599 -0.031909052 0.006203484 0.009808969 0.019343805 0.00030010205 -0.014333411 -0.018050395
0.04738124 -0.020908665 -0.01920521 -0.014224135 -0.066022635 -0.04095158 -0.00939602 0.042982258
-0.0063482793 -0.0145900855 -0.029701892 0.010232199 0.056751035 0.040706825 -0.01859554 -0.04561954
0.02728593 0.0018445577 -0.031243004 -0.005533288 -0.004611615 0.004021828 0.032728843 0.015547072
-0.067642674 -0.042549226 0.0008893983 -0.020380715 -2.0731852e-05 -0.0023955596 -0.031008918 -0.022257796
-0.012613176 0.05241119 -0.023649625 0.07309892 0.024673559 0.0029955136 0.0041405843 0.02863316
0.06869728 0.026839664 0.035856187 -0.06763941 0.004096183 -0.04185055 0.013151724 -0.0065448107
-0.021846902 0.06885494 -0.0027642238 0.054033294 -0.016083814 0.017970657 -0.03840728 -0.045771744
-0.008091141 -0.020726131 -0.022567103 -0.002144511 -0.034727868 -0.06645868 0.015441568 0.019245706
-0.002909568 -0.032541353 -0.048449107 -0.023387842 0.027174346 -0.08835951 -0.043780632 0.004122476
-0.03523102 0.032340437 -0.019089555 -0.020038722 0.015520009 -0.010047437 -0.028433345 1.5309293e-05
0.010411255 -0.06485914 0.022769244 0.009069042 -0.02435955 0.012238805 -0.014388763 0.051050257
0.007932351 -0.0040830877 -0.027922245 -0.02363184 -0.030981656 0.01714446 0.039908443 -0.033929076
0.027659664 0.010604929 -0.0017892035 0.015868451 -0.016321527 -0.004838477 0.042771045 0.04847832
-0.020263318 -0.005522039 -0.012060292 0.022617295 -0.026186753 0.009853331 0.026592648 -0.022111682
0.020292986 -0.011088824 0.0021099667 -0.066298924 0.013280207 -0.04287631 0.08726416 -0.050830133
-0.02733487 0.055758733 -0.00077272195 -0.021933433 0.01255912 -0.03256156 -0.03789409 0.061394222
0.0041291974 0.044648323 0.007754778 -0.05834857 0.05376127 -0.015759997 -0.018101417 0.075235985

network_body.observation_encoder.x_self_encoder.seq_layers.0.bias f4 [128]
00000000: 4814 34bb 5883 123c a3c4 25ba e79b a63a
00000010: f7bc 55bc 4111 1bba db60 8eba 9935 9dba
00000020: 7e3f 0139 af6e 46bc 908d e2bb fe7c 0dbc
00000030: b00e d83b 0655 45bc 1b9e 723c e25b 843c
00000040: 70c8 ebbb 5657 3d3b 457e 423c 78b0 953a
00000050: 76f0 fa3b d6e7 333c 9241 5f3b 553b 423c
00000060: c2c5 9d3a 6abb d2bb 4bfa 4ebb 9033 85bc
00000070: 2097 1abc d86e 353c 6f99 f7bb 66c8 61bb
00000080: 635e 083c 1477 bcbc 38b2 43bc f994 383b
00000090: d75b 0cbc 6575 783c 1419 2fbc f736 92bb
000000a0: 3b37 813b 53e2 00bc eac9 08bb 3dd6 48bb
000000b0: 63f5 fdbb e130 013b f8b3 e2bb 325a e93a
000000c0: e3ba f83b 7469 4abc c8a3 96bb aff6 463c
000000d0: dca1 203a 454e 20ba febb b139 3c3e c73a
000000e0: 2401 0bb9 8387 3c3b ea92 203c 3e5b 353b
000000f0: 55ec 263b 5e9e 45bc c0e9 81bb d080 57bb
00000100: bb9f 3c3b 5a5a acbb 2a80 cd3a a0c8 c2ba
00000110: b501 7f39 fbda ca3a 0aeb 4dbb 82a6 f6bb
00000120: ee58 c5bb 9ca7 7ebb f374 c3bb 45e7 e2bb
00000130: b27b cc39 52ff 14bc 9365 4a3b 82ab 533c
00000140: 7358 5c3b cbb8 e0bb 91b8 0f3c de97 19bb
00000150: 1a9b bd3b 2865 283c af16 63bc c24f bcbb
00000160: 53d7 ea3b 5911 58bc 5e85 543c 2451 76bb
00000170: fa73 d8bb 1c2d 363c d394 b33b 3f02 ae3a
00000180: fc76 113c 1e0a 22bc 44bc f4bb d591 56bc
00000190: 4b0f 043c 286d acbb ba9d 32bc ae40 6a3b
000001a0: 0143 1bb9 cfe8 ed3b 22f2 303b 153a bf3b
000001b0: a77c 8eba 0ec9 293c 2eb5 0e3c 677b 01bc
000001c0: d319 d1ba ffc6 453b b5a1 893c e912 f53a
000001d0: 7082 b4ba 3722 21bc 6083 13bb 93eb 80bc
000001e0: fca1 043c 263f 733c 6084 81ba f752 8c3b
000001f0: 5900 32bb b61b 31bb 35ca 913a a199 e43a
-0.002747791 0.008942448 -0.00063235516 0.0012711257 -0.013045541 -0.0005915352 -0.0010862605 -0.0011994123
0.00012326051 -0.01211135 -0.006913848 -0.0086357575 0.0065935478 -0.012044197 0.014808203 0.016157094
-0.007195525 0.0028891168 0.011870925 0.001142039 0.0076580597 0.010980567 0.0034066183 0.011854966
0.0012037086 -0.006431033 -0.0031582292 -0.016259938 -0.009435445 0.0110737905 -0.0075561325 -0.0034451722
0.008323285 -0.023006 -0.011944346 0.0028164966 -0.008566818 0.015164708 -0.010687131 -0.0044621187
0.0039433516 -0.00786646 -0.0020872303 -0.0030645274 -0.0077501996 0.0019712972 -0.0069184266 0.001780337
0.007590638 -0.012354244 -0.004597161 0.012143775 0.00061276346 -0.00061151787 0.00033900136 0.0015201042
-0.00013256498 0.0028767295 0.009800652 0.0027672793 0.0025470455 -0.012061683 -0.0039646327 -0.0032883175
0.002878173 -0.005259794 0.0015678455 -0.0014860816 0.00024319331 0.0015476638 -0.0031420612 -0.0075271735
-0.006022564 -0.0038857227 -0.005964869 -0.006924542 0.00039002072 -0.009094076 0.0030883297 0.012919309
0.0033622056 -0.0068579665 0.008772031 -0.0023436467 0.005786312 0.010278024 -0.013860389 -0.0057468126
0.007166782 -0.01318773 0.01297125 -0.0037584985 -0.0066056224 0.011119153 0.0054803877 0.0013275816
0.008878466 -0.009890107 -0.007468732 -0.0130962925 0.008060287 -0.005262036 -0.010901863 0.0035744119
-0.00014806913 0.007260419 0.002699979 0.0058357813 -0.001087089 0.010362877 0.008710189 -0.007902957
-0.0015953131 0.0030178425 0.01680074 0.0018697652 -0.0013771784 -0.009834818 -0.0022508726 -0.01573733
0.008095261 0.014846599 -0.000988137 0.004282351 -0.0027160852 -0.0027024574 0.0011122884 0.0017440805

network_body._body_endoder.seq_layers.0.weight f4 [128, 131]
00000000: 870e 2dbd 8c0f 0bbd 800e 77bd 5f00 a4bd
00000010: bc65 8e3d 1f5a 50bd a98b a6bd 2584 4e3d
00000020: d21a 683d b06e 6f3c e498 43be c856 373e
00000030: 5417 0ebe 9fe1 babd bb34 393d e4a1 abbd
00000040: 1d4a 37bd 979b 2ebe 1907 a8bb d2ad 333e
00000050: 9da8 ec3a f8ba 2d3e c02d 37be 74ec 8bbc
00000060: b965 c6bc d68a a2bd 7d40 253e 2196 58bd
00000070: cbe6 213e d9dc ef3d 0270 8abe ffae a6bd
00000080: 0a87 05be a376 09be 66ba b53a 8cdf 003e
00000090: debd 9dbd 1939 bf3d bc2f aa3c 5645 c23d
000000a0: 45c8 163c 1177 5b3d 2261 a6bd cd06 213e
000000b0: 914f 0a3d 92bb f53d b80b 0fbe 0abb 183d
000000c0: edac d2bd c4f2 c8bb d97b 213d 1e66 fe3d
000000d0: 664d 0ebd 151e 373d f94e b9bc 38bc edbd
000000e0: bf9a 2b3d 3d05 3d3e 1281 ee3b b8fc 893d
000000f0: 417d 063c f0a3 733d 2ea9 1ebc 8aba f13d
00000100: dc8f 5b3c e7af 53bc 450b e4bd e546 e73d
00000110: 12d9 ba3d b4d8 403b df88 3b3d 5ef1 b4bd
00000120: 7f5b 423d 90f3 a73d bbce 08be 9a92 803d
00000130: 9abd e5bc 4cb4 85bd d59c 8aba ea5f 5bbd
00000140: afb2 9ebc dbda d0bd 7881 b73c 267e e7bd
00000150: 432a 2dbc cce2 1ebd 1f98 e2bc c92f 633d
00000160: b5bb e8bc f477 933c 7bf9 b53c 2c70 99bc
00000170: f1d4 a8bd f378 e2bd c0c4 0b3e 412a 19bd
00000180: 1f16 38bd 8968 a1bb 1470 3f3e 91b8 faba
00000190: 0125 d7bd d3ae 7b3d 67eb de3d 3b17 45be
000001a0: ad0f 1ebe 20f3 443c 0d05 933d 8162 59bd
000001b0: 2f5f 28bd 21a4 933d a00e 273c 2a99 60bd
000001c0: 75fe 943c 8540 4b3e 6a9e f6bb a6f5 233c
000001d0: fbb6 e03d be15 f7bc 8d92 08bd d914 f03d
000001e0: b878 92bd a2e4 133e 1499 a2bd b424 f53c
000001f0: c3b6 473d bbe7 063e 625d 2f3e c365 013e
00000200: f0d3 d03d c359 723e b576 833e a124 a73d
00000210: 2815 21be 5802 313e f2c5 43be 3457 82bd
00000220: 6e23 bdbd 9aab 403c 4dbc 84bc 04e2 61bd
00000230: edf2 2ebc 8bdc cebd 0a8f 4abb 8f57 fd3d
00000240: 69a3 adbc 3678 d13d d944 19bd 0a17 553e
00000250: 0670 2c3d 4a7e 97bb c0fc a83d 8c3b babc
00000260: 6b27 70bd 1c2d 583d 4d7c 8d3d 14f1 3f3d
00000270: d332 5ebd 5e81 f0bd 8153 b93d 8c65 853d
00000280: b424 08be 4dbe 96bd 793d ffbd 9ab9 a43c
00000290: 320f 333d 3d63 a7bd 3db3 6dbc bb97 12bc
000002a0: 02dd 963d 8c15 b8bd b225 143d a10f 87bc
000002b0: b175 1fbe b482 97bd 58ee 41bc f008 c1bd
000002c0: 1d2f 8ebd e627 69bd 3912 913d 2646 923c
000002d0: 56cd f23d a989 f13c b67c b7bd c531 363d
000002e0: eade bd3c a680 36bd 8146 75bd ddda 4e3d
000002f0: f0fc 533d d17b d13d 3e7f efbd 4ca4 9bbc
00000300: 27b8 9e3c 81c1 18be 51de 283d 2d58 3b39
00000310: 616d b6bd ab0e 51bc d765 cbbc 4222 8ebd
00000320: 9075 733c 5678 363c feaa bbbd b148 903b
00000330: e2cd 8bbd 91c7 ac3c 7496 8b3d c00c 2fbe
00000340: 30cd 923d cfd3 89bd 6a1a 3b3d 1b0b 423d
00000350: 6140 373e ab23 233d 251a 523d 8469 e03c
00000360: c1c0 7abd d76d 2c3d 66f3 2bbe d6d7 7e3d
00000370: 3e8d df3c 97b2 08be 2dab 36bc 5e21 9dbd
00000380: 72b4 3cbe a0b8 bf3d dea6 8bbd ab56 a4bd
00000390: 4ba0 8cbd d6b8 f2bc 9469 aabb 1e21 163e
000003a0: 27cc eabc d346 e4bc 0b7b f43d d1f0 d2bd
000003b0: 8ef1 ec3d c776 583d fc61 d83c 9c4c 38bd
000003c0: ea3e 17bd 7e80 1fbd c478 e3bd 119d 7d3d
000003d0: e237 92bc 791b a53d 6796 003e c44f eebd
000003e0: 482d 13be d7d2 85bd 45d1 c13d b031 763c
000003f0: e440 b83d f98b 92bd 53af 8fbc b03d 87bd
-0.042250182 -0.033950374 -0.060316563 -0.08007883 0.06952998 -0.050867196 -0.08132107 0.05041899
0.056666203 0.014613792 -0.19101292 0.17904198 -0.13876086 -0.09125065 0.045216303 -0.083804876
-0.044748414 -0.1705154 -0.005127799 0.17546776 0.0018055622 0.16965854 -0.17888546 -0.017080523
-0.024218427 -0.07936637 0.16137882 -0.05287755 0.15810697 0.11712045 -0.2703858 -0.081388466
-0.13039795 -0.13424163 0.0013864755 0.12585276 -0.0770223 0.093370624 0.020774715 0.09485881
0.009203021 0.053580347 -0.08123995 0.1572525 0.033767287 0.11998667 -0.13969314 0.03728775
-0.10286889 -0.0061324555 0.03942475 0.12421821 -0.03474178 0.044706423 -0.022620665 -0.116081655
0.041895624 0.1845903 0.00727857 0.067376554 0.008208574 0.059482515 -0.00968389 0.11803158
0.013400998 -0.012920356 -0.11134962 0.11292819 0.09123434 0.002942604 0.045784827 -0.088351
0.04745054 0.08200753 -0.13360111 0.06277962 -0.02804451 -0.065285295 -0.0010575304 -0.053558268
-0.019372312 -0.10197993 0.022400603 -0.11303358 -0.010569158 -0.03879051 -0.027660428 0.055465493
-0.028409818 0.018001534 0.022213688 -0.018730246 -0.0824374 -0.110582255 0.13649273 -0.037393812
-0.04494297 -0.0049257916 0.18695098 -0.0019128491 -0.10505105 0.061446022 0.10884743 -0.19247143
-0.15435667 0.012020856 0.07178698 -0.053072456 -0.0411064 0.072090395 0.010196358 -0.05483357
0.01818774 0.19848831 -0.0075262086 0.010007298 0.10972401 -0.030161735 -0.033342887 0.117227264
-0.071519315 0.14442685 -0.079393536 0.029924728 0.04875828 0.13174336 0.17125466 0.12636475
0.10196674 0.23667054 0.25676504 0.08161283 -0.15730727 0.1728605 -0.19118479 -0.06364289
-0.09235273 0.011759663 -0.01620307 -0.055147186 -0.010678035 -0.10100659 -0.0030908012 0.12370216
-0.021196084 0.102280065 -0.037419174 0.2080957 0.04209902 -0.004623209 0.08251333 -0.022733472
-0.058631342 0.052777395 0.06908474 0.04686077 -0.05424769 -0.11743425 0.0904913 0.06513509
-0.13295251 -0.07360516 -0.12462897 0.020108033 0.043715663 -0.08173225 -0.014508066 -0.008947308
0.07366373 -0.08988485 0.03616876 -0.016486945 -0.1557224 -0.073979765 -0.011836611 -0.09425533
-0.0694258 -0.056922816 0.07083554 0.017855715 0.11855571 0.029484587 -0.089593336 0.044481058
0.023177583 -0.044556282 -0.05988169 0.050501693 0.051754892 0.10228694 -0.116941914 -0.018999241
0.01937492 -0.14917566 0.041227642 0.00017866558 -0.08907581 -0.012759845 -0.024828834 -0.06940128
0.014859572 0.011137089 -0.091634735 0.0044031967 -0.068263784 0.021091254 0.06815806 -0.17094707
0.07168043 -0.067298524 0.045679487 0.047373872 0.17895652 0.039828938 0.051294465 0.027394064
-0.06121898 0.04209694 -0.16792068 0.062217556 0.02728903 -0.13349377 -0.01114921 -0.0767238
-0.1842821 0.09361386 -0.06818937 -0.08024343 -0.06866511 -0.029629152 -0.005200574 0.1466107
-0.0286618 -0.027865803 0.11937531 -0.10299838 0.115695104 0.05284765 0.02641391 -0.044994935
-0.036925234 -0.0389409 -0.111070186 0.06191737 -0.017848913 0.080618806 0.12557374 -0.11636308
-0.14372742 -0.06534355 0.09463743 0.015026495 0.08996752 -0.07155604 -0.017539656 -0.06603563

network_body._body_endoder.seq_layers.0.bias f4 [128]
00000000: 648c a83b 5d08 3139 2e7b 2f3c 6004 943c
00000010: e485 25bc fab5 083c 3295 b13c 9a2e 9e3c
00000020: 338a 2dbc d855 183d 5fd0 093c aebf 10bb
00000030: c3ea fc3b afdb 673c 6de7 8ebc f609 05bc
00000040: 0ec5 41bc 84a7 8cbb b31e ccbb 7899 c7bb
00000050: 208e 9a3a f6e1 e93c 90e8 3cbc 4cfa 083b
00000060: 37d9 aa3b f7e5 3e3c e64c 5e3c 87bd bf3b
00000070: 1826 0b3c 696b d03b 8163 5abb a326 e1bb
00000080: a18b 2d3c d44f 0e3c fb0b 07bc 566a f1bb
00000090: 405d 443b f5df 883c d1e1 963c 0fb6 4c3c
000000a0: fb14 92bc c426 63bc 1241 6ebc ef28 da3b
000000b0: f011 483b 01fe df3c 4f59 b83c 5531 10bc
000000c0: 53c1 803c 9905 103c 7099 14bc 11db 223c
000000d0: cc7b 653c a5d1 68bb ef7c b53c 36f9 16bc
000000e0: 62e9 89bc 9122 623c ef4c 02bb 999a d1bc
000000f0: 2e1e 403c c842 653b d590 2e3b 0988 193c
00000100: a869 8bbc a951 b23c ccad 683c 5c5c 1abb
00000110: 41b5 c3bb 6b47 73bc 45df 99bc fa7d 633c
00000120: 3a19 27bc dbef 0a3c 4379 313c 20a1 1b3c
00000130: 9338 e939 39c9 9b3c db14 35bb 938c ac3b
00000140: 45d3 e4bb 01e7 393b 7371 b63b 78de d83b
00000150: df71 b53c eb0d c9bb 0f72 adbc 81d2 0dbc
00000160: bd95 9939 2c04 973c 7fed 8a39 dcca 0e3c
00000170: 7cd7 a9bc e2a4 843c f48c 8abc bd37 33bc
00000180: dc32 84bc 090a 333c 2c5d c9bb 6865 b8bc
00000190: 9dec bb3b d2d8 27bc e619 2a3c 3b53 b83b
000001a0: 4a8f 913c 4f39 25bb 0c57 223c 94e9 dd3c
000001b0: 1377 52b9 e3a2 7e3b 022d 393c ae6d ab38
000001c0: 5b1b 6cbc 19a4 7b3c f7a4 0e3a 92dd 883c
000001d0: 44ea 5b3c e012 113c c26f fb3b 934a beba
000001e0: 0091 c23a caa2 51bc e1a6 9838 3a38 0e3c
000001f0: 5d5e 013c 5861 283c e83a 3b3b 3c4e f23b
0.005143689 0.00016883151 0.010710521 0.018068492 -0.010102723 0.008344168 0.021677587 0.01930933
-0.010592031 0.037191242 0.008411496 -0.0022086906 0.0077184155 0.014151498 -0.017444337 -0.008120051
-0.011826767 -0.0042924304 -0.0062292456 -0.006091293 0.0011791624 0.02855013 -0.011530057 0.0020901142
0.0052138823 0.011651508 0.013568139 0.005851451 0.008492969 0.0063604605 -0.003332347 -0.006871061
0.010592372 0.008686025 -0.008242602 -0.0073674126 0.0029962808 0.016708354 0.018418225 0.012494578
-0.01783227 -0.013864223 -0.014541881 0.0066577117 0.003052827 0.027342798 0.022503523 -0.008800824
0.015717184 0.008790397 -0.0090697855 0.009939925 0.014006566 -0.0035525349 0.0221543 -0.00921469
-0.016834918 0.013802187 -0.0019882282 -0.025586413 0.011725945 0.0034982432 0.002663662 0.009370812
-0.017018154 0.021767454 0.014201593 -0.0023553586 -0.005972535 -0.01484857 -0.018783221 0.013885016
-0.010198886 0.008480038 0.010832134 0.009498864 0.00044483374 0.019016849 -0.002763084 0.005265781
-0.006983193 0.0028366449 0.0055677234 0.006618317 0.022149025 -0.0061356924 -0.021172551 -0.008656145
0.00029293998 0.018434606 0.0002649836 0.008715358 -0.020732634 0.016191904 -0.016912915 -0.010938582
-0.016137533 0.010927686 -0.00614514 -0.022509292 0.0057349936 -0.010244565 0.010382151 0.005625156
0.01776852 -0.002521116 0.009908449 0.027088918 -0.00020071519 0.0038854412 0.011302235 8.174345e-05
-0.014410819 0.015358948 0.0005441452 0.016707215 0.0134225525 0.008854598 0.0076732347 -0.0014518074
0.0014844239 -0.01279516 7.2790084e-05 0.008680398 0.007896033 0.010277115 0.0028569046 0.00739458

network_body._body_endoder.seq_layers.2.weight f4 [128, 128]
00000000: 9e61 7ebd 1d49 a23d d6a3 4fbc c119 febd
00000010: 6f5b 8f3a 25b0 b93d cbdc 943c b726 5fbe
00000020: f59d d7bc f508 4e3d 6555 0ebe c437 883d
00000030: 3469 d93d 5cd1 1f3e 5205 8ebc 9812 e5bd
00000040: e7e6 fabd 3442 443d c689 163e a059 30bd
00000050: 49a4 b63d 3cd4 43bd 52e5 2c3d db87 c63d
00000060: 5391 8fbd ea71 27bc b282 083e e46e 1a3e
00000070: 1fdb 4dbc 5f19 e73d 63d7 05bc c651 c33d
00000080: 2881 cd3d 8cac eb3d 8a75 53bd 1e3a 773b
00000090: 07fe 6fbc 4bd5 b53d c981 aebd 8b73 f33d
000000a0: 8839 003e aebe 2dbe 0ffb acbd e6c3 e83b
000000b0: 90db aabd ce50 b7bd 182e 41bc 24a7 79bd
000000c0: a772 afbd ad12 7c3d d607 1abd ed85 91bc
000000d0: 9a7f b3bc dca4 e4bd da11 633d 65e4 383d
000000e0: c534 49bc 2589 173e 978e a33c c144 51bd
000000f0: 8567 2d3e 9e62 89bd 9069 893b 9bee 623d
00000100: 817b d1bc d675 c1bc 766e cdbb 44ba b8bd
00000110: 42a9 87be aefd 02bd 5b8b 10bd 36b2 01be
00000120: 7d15 9a3c ba92 153c 79b7 06bd e81e e23d
00000130: 2c84 ea3d 1ff8 8f3c 9b2b 87bc d8f3 d73d
00000140: 2a19 d9bd 1dcb 6e3d 1722 5f3c 69d8 68be
00000150: dcfa a7bd 920d 2cbc f467 8f3d be2f c6bc
00000160: 5815 6d3d 6d2a f13c dea4 9bbc efa7 c0bd
00000170: a687 abbd ceca 18bc be55 ebbd 7f71 ccbd
00000180: 9f41 b93c 90a6 29bd c58a 073d 47bf 263d
00000190: a26b 3a3d d16f 84bd 897c 863c 5b66 483d
000001a0: 6b5e ce3c 0cb0 b73d 0f75 8bbd 827c 94bd
000001b0: b718 46bd d511 ceba 8f5f 833a 2545 94bc
000001c0: 05a0 39be d440 f33d ef42 e83d 30af 2bbd
000001d0: 1636 15bc 4c16 eb3d 5435 4e3c 41fa 083d
000001e0: 0166 27be f371 20bd dff0 30bd 76fa 7abd
000001f0: 7eaf 5d3e 773a 023e b0f3 9e3d fcbc 013e
00000200: c11c 99bd 1823 b8bc b42b 973d 23e7 c9bd
00000210: 7adc 1bbe a943 363d 804d 293e 2c49 e43d
00000220: f35a 533d 71a4 0f3e 9d22 023e 25dd 94bc
00000230: 4b36 e43d 0d55 d33c 4361 ecbd dd78 8d3b
00000240: a92c 8ebd 3792 d63d 5024 f23d c4ea 6fbd
00000250: a3f1 f83d 4d60 003e 87fd 243e a000 033d
00000260: e92e 54bc faff 0b3e 9391 9b3d 8500 a6bd
00000270: 1bc9 5ebd 40fd 95bd 4f0d 86bd 6b5c 9bbd
00000280: 5a22 e03d d84f d1bc 9cee ddbd 4baa 16bd
00000290: 9701 1b3e f343 05bc fccd d9bc 4f2d 31bd
000002a0: cf7c 1ebd f2e3 4fbd 233f 94bd 449d 08be
000002b0: d126 15be 4485 1b3d ec09 313e c867 87bd
000002c0: 88fe 7abd 9155 163d a0aa fabd 4625 683d
000002d0: ecfc 0ebd d2bf 9a3c 8d09 a5bd 4af8 d3bd
000002e0: 3393 afbc fb00 903c 3da5 febc fd59 d73d
000002f0: 95d4 90bd f16b b63d 7aa4 c6bc 9694 cf3c
00000300: 9e03 5abc 91ea 73bd 7456 19bd f783 5c3d
00000310: e024 b0bd 393b c8bd 4494 27be b23c 743d
00000320: a5c4 693c 5c8e d5bb 22e9 e23d 9bbd 41be
00000330: bd8d 7abd d646 42bc 10e8 43bd 2c2d 643e
00000340: cf42 fe3b dc46 0e3d 509a 2b3c 45d6 a8b7
00000350: 21c2 d1bd 93d1 b93d cbfb 8cbc 782a 0cbc
00000360: 89f3 edbd 0bbc 9abd 77b3 89bc 707e b2bc
00000370: 785b fcbd 57d3 2fbe 337a b0bc e8ac 79bb
00000380: db9d a8bd d29f 6dbd adcd 9abc 613e 803d
00000390: b343 2fbe 427d e33c f62d 053e 54b6 b6bc
000003a0: 664f 8bbc a138 343d 98b2 9fbd bbcb a13d
000003b0: 5f59 313d 187e 8d3c 2a6e 223e 4557 473d
000003c0: 182c 223c aa51 033e 16f0 2fba 0d52 6fbd
000003d0: b9b6 f53d 8dcd 413e 19e6 dbbd 70c0 af3d
000003e0: e1fc c23d 6dd5 063d d2a7 a13d 33d7 32bd
000003f0: 4646 17bc f9be 803d 21ec b6bc a03b 8cbc
-0.062104814 0.079241015 -0.012673339 -0.12407256 0.0010937284 0.090668 0.018171689 -0.21792112
-0.026320437 0.05030151 -0.13899763 0.066512614 0.10615769 0.15607208 -0.017336521 -0.11185187
-0.122510724 0.0479147 0.14700994 -0.043054223 0.08918054 -0.047809824 0.042210884 0.09693881
-0.0701014 -0.01022003 0.13331106 0.15081364 -0.01256445 0.11284136 -0.008169028 0.095370814
0.100344 0.1150752 -0.051625766 0.003772385 -0.014647967 0.08878573 -0.08520848 0.118872724
0.12521946 -0.1696727 -0.08446323 0.007103431 -0.083426595 -0.08950959 -0.011790775 -0.060950413
-0.0856679 0.061541248 -0.03760513 -0.017764056 -0.021911431 -0.11164257 0.055436946 0.04513969
-0.012280648 0.1479841 0.019965453 -0.05109096 0.16934021 -0.06708263 0.0041934922 0.055403333
-0.025571587 -0.023615759 -0.0062692715 -0.09019902 -0.2649632 -0.03198021 -0.03528915 -0.12665638
0.018809075 0.009129221 -0.032889817 0.11041051 0.11450991 0.017574368 -0.016500285 0.105445564
-0.10600503 0.058299173 0.0136189675 -0.22738804 -0.082021445 -0.010501282 0.07002249 -0.024192687
0.057881683 0.029439176 -0.018999513 -0.09407031 -0.08375482 -0.009325696 -0.114909634 -0.09982585
0.022614298 -0.041418612 0.033091325 0.04070976 0.045512803 -0.0646664 0.016416805 0.04892574
0.025191506 0.08969125 -0.068094365 -0.072503105 -0.048363414 -0.0015721867 0.0010022986 -0.018099377
-0.18127449 0.11877599 0.113408916 -0.04191512 -0.009107133 0.11478862 0.012585957 0.033441786
-0.16347505 -0.03917117 -0.043198463 -0.061274014 0.21648976 0.12717615 0.077613235 0.12669748
-0.074761875 -0.022477672 0.073813826 -0.09858539 -0.15220824 0.04449812 0.1653347 0.11146769
0.051600408 0.14027573 0.12708516 -0.018171856 0.11143168 0.025797391 -0.11541989 0.0043173865
-0.06942112 0.10477107 0.11823332 -0.0585735 0.121554635 0.12536736 0.16112338 0.031983018
-0.012950637 0.13671866 0.075961255 -0.08105568 -0.054391008 -0.07323694 -0.06545507 -0.07585987
0.10944052 -0.025550768 -0.10836527 -0.036783498 0.15137325 -0.008133876 -0.026587479 -0.0432561
-0.038693246 -0.050754495 -0.07238605 -0.13341242 -0.14565589 0.03796889 0.17288941 -0.066115916
-0.061277896 0.036702696 -0.122395754 0.05667617 -0.034909174 0.018890295 -0.08058462 -0.10350092
-0.021432495 0.017578593 -0.031084651 0.10515211 -0.07071797 0.08907307 -0.02424835 0.025339406
-0.0133065265 -0.05954987 -0.037435964 0.05383679 -0.08600783 -0.09776921 -0.16365153 0.059628196
0.014268075 -0.0065172147 0.11079623 -0.18919985 -0.06117033 -0.011857709 -0.047828734 0.22282857
0.007759429 0.034735546 0.010473803 -2.0126938e-05 -0.10242105 0.09073176 -0.017209908 -0.008555047
-0.11618716 -0.075553976 -0.016809208 -0.021788806 -0.12322134 -0.17170464 -0.021542644 -0.0038097445
-0.082332335 -0.058013745 -0.018896902 0.06261898 -0.17115669 0.027769689 0.13005814 -0.022303738
-0.017005634 0.043999318 -0.07797736 0.07900187 0.04329812 0.01727204 0.15862337 0.04866721
0.009898208 0.12824121 -0.0006711496 -0.05842786 0.11997742 0.18926068 -0.10737247 0.085816264
0.09520889 0.032918382 0.07893337 -0.04366226 -0.009233063 0.06286425 -0.022329392 -0.017118275

network_body._body_endoder.seq_layers.2.bias f4 [128]
00000000: b25b 093c 7a1f 773c 8b7a e63c 5997 0ebb
00000010: 2493 9abc ce01 fc3b e3eb 8e3b 1eb3 463b
00000020: 708f f73c aea2 353c 7590 33bb c77a ea3c
00000030: a9b6 eebb 0d02 dc3b bcdd 183b eece 333c
00000040: 5fd6 1fbc c72a 7dbc 8cc4 a83b 0f98 cf3b
00000050: 68fb f73b 35c4 a63b 7232 183c b5cd 94bc
00000060: 4689 b8bb 2317 053c 03dd c9ba 1fb5 80ba
00000070: 7f88 a4b9 5df8 243c addc 31bb a437 14bc
00000080: d706 6c3c 6edd 493c 03b8 88bc b457 5c3b
00000090: e86c a23b 9ffb ff3b 1b54 5a3c 90a8 d5bb
000000a0: e797 adba d6be 883b 669a 203c 9fbb 0cbb
000000b0: 62d8 1e3b d884 0cbc 601f 38bb 30f3 24bc
000000c0: 732e 26bb 92f6 83bb ac2f fc3b 0f87 033b
000000d0: ce24 403c ae8b c73b 9475 b0ba c309 62bc
000000e0: 4c08 303c ac1b c5ba dacd bc39 b9ad 48bb
000000f0: 61c9 813b 81cd f13b 9d3d 8c3c 1b1c ed3a
00000100: f78c 583c 9cdb aa3a 90e4 653b a33b d43a
00000110: c573 14bc c2fa 04ba 9579 ba3c 1105 6e3c
00000120: 67e5 253c f14f 483c a961 c8bb 95b1 cc3a
00000130: 9f15 133c 604d 13bb f64c fc39 9f90 463a
00000140: e50a ec3b 3b1e 74bc e573 e03b 1e48 08bc
00000150: eac6 ec3a d98e e23b 530a 3abb 5e97 28bc
00000160: 5b77 edbb 8b4c 133c 8632 e63b f301 02bc
00000170: b709 a63c 834a 513c fa18 c2bb 9bf3 323c
00000180: 82f0 143c 2afa b939 b591 1d3c c85f febb
00000190: 5496 52bc e6bf 223c 3ac8 773c 1a0e 273c
000001a0: bcdf 4e3b 8fb1 21bc b1f5 883c 77d9 fdbb
000001b0: e56c 313c 4deb 6dbc f162 b7bb 133c 11bc
000001c0: 052d 9f3a f2d5 a43c b3a1 0b3c 33a4 913b
000001d0: 886a bb3c a152 27bc 2c22 183b 47b7 2d3c
000001e0: 7c95 f83b 64c7 d33b d8a4 75bb bcc5 c8bb
000001f0: 284c 203c 8e09 1eba 1ae4 f23b 23c3 063c
0.008383678 0.015083188 0.028134605 -0.002175769 -0.01886899 0.007690645 0.004361616 0.0030319165
0.030219764 0.011086149 -0.0027399336 0.028622998 -0.0072849584 0.0067141117 0.0023325523 0.010974629
-0.0097557 -0.015452093 0.0051503833 0.0063352655 0.0075678118 0.0050893077 0.009289371 -0.018164495
-0.0056315986 0.008123192 -0.001540095 -0.0009819603 -0.00031382215 0.01006898 -0.002713959 -0.009046469
0.014405928 0.012320859 -0.016689306 0.003362161 0.0049568303 0.007811978 0.013325716 -0.0065203384
-0.0013244123 0.00417314 0.009802436 -0.0021474136 0.002423786 -0.008576594 -0.0028094873 -0.010067746
-0.0025357276 -0.004027196 0.0076961126 0.0020069515 0.011727525 0.006089649 -0.0013462775 -0.013796273
0.010744166 -0.0015038154 0.00036011526 -0.0030621125 0.003960774 0.0073792343 0.017119223 0.0018090041
0.013217202 0.0013035419 0.003507886 0.001619209 -0.009060805 -0.0005072766 0.022763053 0.014527575
0.010125495 0.012226091 -0.0061151576 0.0015616888 0.008977323 -0.002247654 0.00048122526 0.0007574651
0.007203447 -0.014899786 0.006849753 -0.008317975 0.0018064652 0.0069140014 -0.0028387501 -0.010289995
-0.0072468943 0.008990417 0.007025066 -0.007935035 0.020268304 0.012774113 -0.0059233876 0.010922338
0.009090545 0.00035472336 0.009617259 -0.007762883 -0.012853224 0.009933447 0.015123421 0.010196233
0.0031566462 -0.009868993 0.016718717 -0.007746871 0.010829185 -0.014521432 -0.0055965115 -0.0088644205
0.0012144154 0.020121548 0.008522439 0.004444623 0.022877946 -0.010212571 0.0023213727 0.010602779
0.0075861793 0.006462978 -0.0037482288 -0.0061270874 0.009783782 -0.00060286454 0.0074124457 0.008225235
