Assets/results/ppo/My Behavior/My Behavior-999962.onnx (onnx, 578818 bytes, 21 tensors)

network_body.observation_encoder.processors.0.self_ent_encoder.seq_layers.0.bias f4 [128]
0	0xbc86f9d3	-0.016476547
1	0x3a9d0c40	0.00119818
2	0x3c562321	0.013069899
3	0x3c20ff87	0.0098265475
4	0x39710029	0.0002298361
5	0xbbe90cfc	-0.0071121436
6	0x3b699994	0.0035644518
7	0x3accdb6b	0.0015629356
8	0xbbb2a118	-0.005451333
9	0x3c03aebc	0.008037265
10	0x3b94e17d	0.004543482
11	0xbc028516	-0.0079663005
12	0x3c298c5e	0.010348408
13	0x3c7fb61a	0.015607381
14	0xbc58f14c	-0.013241123
15	0x3c17c877	0.009264103
16	0xbb6fc21f	-0.003658421
17	0x3b8fb29c	0.0043853056
18	0x3ab300f5	0.0013656901
19	0x3c36b743	0.011152091
20	0xbb8ffbde	-0.0043940386
21	0xbc6d5ec8	-0.01448793
22	0x3c97b4cc	0.018518828
23	0xb9a1bbc4	-0.0003084821
24	0xbb5c0b4c	-0.003357607
25	0x3c2cf59d	0.010556606
26	0xba6c3674	-0.00090107997
27	0xbb86d9b1	-0.0041153063
28	0x3c174d06	0.009234672
29	0x3b90c2df	0.0044177617
30	0x3c7b0ef5	0.01532339
31	0x3b08a354	0.0020849304
32	0xbbf10044	-0.007354768
33	0xbc6c2254	-0.014412481
34	0x3acee597	0.0015784976
35	0xbba13721	-0.004919902
36	0x3c27da4f	0.01024492
37	0xbb8031dc	-0.0039121937
38	0x3b2a7e98	0.0026015397
39	0x3bb8709b	0.005628658
40	0x3baa6024	0.005199449
41	0x3be0c56d	0.0068594725
42	0xbc112f45	-0.008861368
43	0x3c1ac2c2	0.009445848
44	0xb9b0b34b	-0.0003370292
45	0xbc1b491c	-0.00947788
46	0xbb8e61f4	-0.004345173
47	0xba42bf0f	-0.00074289826
48	0x39b6a2be	0.00034834997
49	0x3c221c5f	0.0098944595
50	0xbc651306	-0.013981586
51	0x3c1225d8	0.008920155
52	0xbc9b59bb	-0.018963685
53	0xbc0ba3b9	-0.008522921
54	0x3c05528a	0.008137355
55	0xba85d87f	-0.0010211616
56	0x3c8b8edd	0.017035896
57	0xbcb4e807	-0.022083296
58	0x3b8396f9	0.0040158
59	0xbc477681	-0.01217425
60	0x3b30f9c8	0.002700435
61	0x3a7b171e	0.0009578335
62	0xbb9f3fb4	-0.004859889
63	0x393a77fb	0.00017783038
64	0xbc1de01b	-0.00963595
65	0x3c1d8f83	0.009616735
66	0xba5d79fe	-0.0008448659
67	0x3c0a042f	0.008423849
68	0xbc270726	-0.010194575
69	0xbb3fb09b	-0.0029249552
70	0x3c06a182	0.008217217
71	0xbc97b507	-0.018518938
72	0xbcc63221	-0.024193825
73	0xbc0b047f	-0.008484959
74	0xbc8833f8	-0.016626343
75	0x3b975006	0.004617694
76	0x3bd347b8	0.0064477585
77	0x3b3f56d5	0.0029196043
78	0xbc44ce40	-0.012012064
79	0x3c071106	0.008243805
80	0xbc65154b	-0.013982127
81	0x3b9bdc9f	0.0047565247
82	0x3bfcc303	0.007713677
83	0x3c28cf2b	0.010303299
84	0xbbbced08	-0.005765561
85	0xbc74d81a	-0.014944101
86	0xbb9677f1	-0.004591935
87	0xbc8c015e	-0.017090496
88	0x3bfa5440	0.007639438
89	0xbc8a4b73	-0.01688168
90	0xbaaf2371	-0.0013362003
91	0x3c87ded4	0.016585745
92	0xbbfa012c	-0.007629534
93	0xbc1098a2	-0.008825453
94	0x3c1eb871	0.009687529
95	0x3c46a2ef	0.012123807
96	0xbaea7e05	-0.001789034
97	0x3b420d63	0.002961003
98	0xbc2f107f	-0.010685085
99	0x3be38b88	0.0069441237
100	0xbb2a3844	-0.0025973478
101	0xbb52d724	-0.003217169
102	0xbc1fcb69	-0.009753087
103	0xbb05c0d9	-0.0020409136
104	0xbbf9baa8	-0.007621128
105	0x3c5330e4	0.012890074
106	0xba713ba3	-0.0009202307
107	0xbc4c3e97	-0.012466094
108	0x3c110bb8	0.008852892
109	0xbc6b6e0a	-0.014369497
110	0xbc8075ba	-0.015681136
111	0xba64b202	-0.0008724035
112	0x3caa0009	0.02075197
113	0xbaf197ff	-0.0018432139
114	0x3c25d7a4	0.0101222135
115	0xbc64f0dd	-0.013973442
116	0xbc158bf3	-0.009127605
117	0xb9b1408d	-0.00033808165
118	0xbceeb00b	-0.029136678
119	0xbc20cd61	-0.009814591
120	0x3a020f3a	0.00049613754
121	0xbbe4eb7d	-0.00698608
122	0xb9e11a83	-0.00042935097
123	0x3ae224a1	0.0017253348
124	0x3c8e3fb0	0.017364353
125	0x3c718343	0.014740768
126	0xbca23a8f	-0.019803314
127	0x3bd57bbf	0.006514996

network_body.observation_encoder.processors.1.self_ent_encoder.seq_layers.0.bias f4 [128]
0	0x3c06c340	0.008225262
1	0x3c316920	0.010828286
2	0xbc791dbf	-0.015204846
3	0x3c3a9c69	0.01138983
4	0x3c34416a	0.011001924
5	0x3b781c6e	0.0037858742
6	0xbbe290af	-0.0069142203
7	0x3b52cb66	0.0032164692
8	0xb9b7261a	-0.00034932868
9	0xbc146f8f	-0.009059801
10	0x3b9bff1f	0.0047606374
11	0x3c8fdfed	0.01756283
12	0xbc91d4b8	-0.017801628
13	0xbb009b69	-0.0019623882
14	0x3c257757	0.010099254
15	0xbc338790	-0.010957614
16	0x3baba7a1	0.005238489
17	0xbb632495	-0.0034659256
18	0xbc3cf364	-0.011532638
19	0xbcbef076	-0.02330802
20	0x3c566a79	0.0130869085
21	0x3cad01a3	0.021118945
22	0x3bc3a0b0	0.005970083
23	0xbcd25cf6	-0.025679093
24	0xbc32dd88	-0.010917075
25	0x3b9c741f	0.004774585
26	0x3c2031aa	0.009777466
27	0xbc49623c	-0.012291487
28	0x3bd7f823	0.0065908595
29	0xbbe24a80	-0.0069058537
30	0xbc7d9a03	-0.015478614
31	0xbc6b2fd3	-0.014354664
32	0x3bf23486	0.007391515
33	0x3c904df4	0.017615296
34	0xbb3f53e2	-0.0029194285
35	0x3af8c5a5	0.0018979801
36	0x3c3332a9	0.010937371
37	0x3c010a65	0.007876013
38	0xbaf67a60	-0.0018804781
39	0xbafa2ce9	-0.0019086871
40	0x3aa566d1	0.0012619143
41	0xbc379f25	-0.011207377
42	0xbba06034	-0.004894281
43	0x3c02eab7	0.007990531
44	0x3aabe946	0.0013115786
45	0x3cc8724c	0.024468563
46	0x3c455e30	0.012046382
47	0xbbc37b00	-0.0059655905
48	0xbca8a4ae	-0.020586338
49	0xbc1a32e9	-0.009411552
50	0x3aa9ebe6	0.001296398
51	0x3c36187c	0.011114236
52	0xbc36c6d0	-0.011155799
53	0xbc1d5bfa	-0.009604448
54	0x3c02cbe9	0.007983186
55	0x3a89a06f	0.0010500083
56	0xbc2b3675	-0.010449995
57	0xbb895427	-0.00419094
58	0xba818c52	-0.0009883738
59	0xbb2620d6	-0.0025349162
60	0xbcdbb290	-0.026818544
61	0xbc20f0a8	-0.009823002
62	0x3c951f26	0.01820333
63	0xbbff91a4	-0.007799344
64	0x3a386eb6	0.000703554
65	0xbc1c1670	-0.009526834
66	0x3c255c00	0.010092735
67	0xbbb5952a	-0.0055414634
68	0x3c56af8d	0.013103378
69	0x3c95f3cd	0.01830473
70	0x3badf889	0.0053091687
71	0x3c5794da	0.013158048
72	0x3c43f31f	0.01195982
73	0x3b093b9a	0.0020940066
74	0xbbcf8d7a	-0.006334004
75	0xbce3d3ca	-0.02781095
76	0xbc0d351d	-0.00861862
77	0xbc7ad0d6	-0.015308579
78	0xbca61f59	-0.02027862
79	0xb9e50567	-0.0004368231
80	0x3cea149f	0.028574286
81	0x3bf724bb	0.0075422204
82	0x3c1c9131	0.009556101
83	0xbcb54ce3	-0.022131389
84	0x3ca03f2a	0.019561369
85	0xbb8c6fe1	-0.004285798
86	0xb7881f79	-1.6227119e-05
87	0xbccb60e5	-0.024826476
88	0xbc8fafc9	-0.017539876
89	0x3c8a4041	0.016876342
90	0xbb85709d	-0.0040722624
91	0x3be8d21b	0.0071051246
92	0x3bab204f	0.0052223573
93	0x3ca01bba	0.019544471
94	0xbb9579b5	-0.0045616277
95	0xbc976b2f	-0.018483726
96	0xbb08e558	-0.0020888653
97	0xbc8af541	-0.01696265
98	0xbc044d80	-0.008075118
99	0x3ba65579	0.005076107
100	0xbca548d8	-0.020176336
101	0xbc16cd8a	-0.009204278
102	0x3bc2738a	0.0059341835
103	0xbce36178	-0.027756438
104	0x3c6c0844	0.014406268
105	0x3b063492	0.0020478112
106	0xbc3482a6	-0.011017477
107	0x3b8e906f	0.004350714
108	0xbb0c68b8	-0.0021424722
109	0x38da018e	0.000103953396
110	0x3cc3f2b1	0.023919435
111	0xbc1335b7	-0.008984975
112	0xbba840d7	-0.0051346826
113	0xbbf93cc8	-0.0076061226
114	0xbbbe0016	-0.00579835
115	0x3bfd40d3	0.007728675
116	0xb99bb5ec	-0.00029699446
117	0x3ba25415	0.004953871
118	0xbc2e6b1f	-0.010645657
119	0x3c678b95	0.0141324
120	0x3b4b501a	0.0031023086
121	0x3c621532	0.013798999
122	0xba01ac26	-0.00049466116
123	0x3c3196ef	0.010839208
124	0xbb76dda2	-0.0037668725
125	0xbac85e45	-0.0015286884
126	0x3cbf24f5	0.023333052
127	0x3ca79087	0.020454658

network_body.observation_encoder.rsa.fc_q.bias f4 [128]
0	0xbd0e1e40	-0.034696817
1	0x3d4aa043	0.049469244
2	0xbc244a25	-0.010027443
3	0xbc16f4d8	-0.009213649
4	0x3c6b4685	0.014360075
5	0xbd961fca	-0.07330282
6	0x3d015725	0.031577248
7	0x3c15f71c	0.009153154
8	0xbd1bc64a	-0.0380309
9	0x3d2f8e03	0.042860042
10	0x3ceb6f9e	0.028739747
11	0xbd03683f	-0.03208184
12	0x3d805509	0.06266219
13	0xbc0a0dc8	-0.008426137
14	0x3d1a49e4	0.037668124
15	0xbcac9913	-0.021069085
16	0xbb86f9fb	-0.0041191555
17	0xbcf89d10	-0.03034833
18	0xbc70f8ec	-0.014707785
19	0xbbdfa170	-0.006824665
20	0x3a85b5d9	0.001020129
21	0xbd223090	-0.039597094
22	0x3d100255	0.035158474
23	0x3c3554be	0.011067567
24	0xbd8f0d5a	-0.069849685
25	0xbcce3180	-0.025170088
26	0x3c72c6fa	0.0148179475
27	0x3d2f9e52	0.042875595
28	0xbcf5bee1	-0.029998245
29	0xbd6e1df8	-0.05813405
30	0x3d88f90a	0.066881254
31	0x3d41a4a6	0.04727616
32	0x3d854777	0.065077715
33	0x3d18a88d	0.037270118
34	0xbd5dac10	-0.05411917
35	0x3d4450ab	0.047928493
36	0x3d7499e9	0.059717093
37	0xbd85a0a2	-0.06524779
38	0x3b801a88	0.003909413
39	0xbd19dd9c	-0.03756486
40	0xbd6dae84	-0.05802776
41	0xbcf6d737	-0.03013192
42	0xbd764c58	-0.0601314
43	0x3d1a0e18	0.037611097
44	0xbc37a441	-0.011208595
45	0x3d4a8683	0.049444687
46	0xbcd6b666	-0.026210021
47	0x3d390fc4	0.04518105
48	0x3c2b3532	0.0104496945
49	0x3c88efd6	0.016715925
50	0xbd555f94	-0.052093104
51	0xbd35f26a	-0.044420637
52	0x3d16cc03	0.036815654
53	0x3d3daefa	0.04630945
54	0x3c8ac889	0.016941326
55	0xbca97b9b	-0.020688822
56	0x3d0b9cba	0.034085013
57	0xbd40494e	-0.04694491
58	0x3b510c66	0.003189826
59	0xbd660155	-0.056153614
60	0x3d452945	0.04813506
61	0xbc9974c5	-0.018732438
62	0x3d0f5a0e	0.034997992
63	0xbc8b6c55	-0.01701943
64	0xbc2534f2	-0.010083424
65	0xbc925f41	-0.017867686
66	0x3ad83047	0.001649388
67	0x3b30aeed	0.0026959733
68	0xbc1ddfc6	-0.009635871
69	0xbca19c8c	-0.019727968
70	0x3c996545	0.018725047
71	0x3ca69b16	0.020337623
72	0x3c192f47	0.009349651
73	0x3cd1e25b	0.02562063
74	0x3bb99396	0.0056633456
75	0xbbc6310a	-0.0060483264
76	0xbc5f8eea	-0.013644913
77	0x3c01d075	0.007923235
78	0x3cfbe8e7	0.030750705
79	0xbb24978b	-0.002511474
80	0xbccdd7f6	-0.025127392
81	0x3c497b23	0.0122974245
82	0xbc2c878d	-0.010530365
83	0xbcad7cae	-0.021177616
84	0xbc845432	-0.016153429
85	0x3ca42270	0.020035952
86	0x3ba4b5ca	0.0050265538
87	0x3c7802db	0.0151374
88	0x3d04942e	0.032367878
89	0xbbdf3979	-0.006812271
90	0xbc71bf41	-0.014755071
91	0x3c026927	0.007959641
92	0x3bedd54a	0.007258092
93	0xbca0d53e	-0.019632932
94	0x398d0f2d	0.00026904923
95	0xbc57522a	-0.013142148
96	0x3cb955ef	0.022623984
97	0x3cb97534	0.022638895
98	0x3c158022	0.0091247875
99	0xbcf74d4e	-0.030188229
100	0xbce27409	-0.02764322
101	0xbbee3c22	-0.007270352
102	0xba9501a3	-0.0011368286
103	0x3c467062	0.012111755
104	0x3cd9ac8f	0.02657154
105	0x3cd3eff6	0.025871258
106	0xbc05b7be	-0.008161483
107	0x39d25b23	0.00040122223
108	0xbc96e41f	-0.018419323
109	0x3c8e28e1	0.017353477
110	0x3b8bfa3e	0.0042717746
111	0xbc4398f3	-0.011938321
112	0xbc04912f	-0.008091255
113	0x3cba4808	0.022739425
114	0xbcb004fc	-0.021486752
115	0xbc0b334d	-0.008496118
116	0x3b61cb0e	0.0034453305
117	0xbcfd2d85	-0.030905494
118	0xbd2e0c5b	-0.04249225
119	0xbca642f0	-0.02029559
120	0x3cd36ad7	0.025807781
121	0xbb474d8b	-0.003041121
122	0x3c1481a8	0.009064116
123	0xb96c8b8a	-0.00022558696
124	0xbcd3391f	-0.025784073
125	0xbd0810cb	-0.03321914
126	0xbc23597f	-0.009970068
127	0x3b980c0c	0.004640108

network_body.observation_encoder.rsa.fc_k.bias f4 [128]
0	0x365eb2ef	3.318473e-06
1	0xb61eda34	-2.3670846e-06
2	0x3697e10b	4.526349e-06
3	0x360f75d9	2.1377257e-06
4	0x362cec22	2.5767445e-06
5	0xb6166c2a	-2.2414702e-06
6	0x364b5868	3.0300816e-06
7	0xb637617c	-2.7325868e-06
8	0x3738dc97	1.1018615e-05
9	0xb6029aaa	-1.9461536e-06
10	0xb69793f8	-4.5173765e-06
11	0x36c6e741	5.9277813e-06
12	0xb623cdfe	-2.4408796e-06
13	0x3646ace2	2.960493e-06
14	0xb6f35cb7	-7.2527578e-06
15	0x36a0ea81	4.7956714e-06
16	0xb60a516c	-2.0610996e-06
17	0xb6939d1e	-4.3992322e-06
18	0xb6bc7b6e	-5.6172057e-06
19	0x357174bc	8.9949367e-07
20	0x368145a4	3.852607e-06
21	0xb656e40f	-3.2021233e-06
22	0xb48609cb	-2.496657e-07
23	0xb5c37525	-1.4562726e-06
24	0x366fd964	3.5740313e-06
25	0x3603aba4	1.962043e-06
26	0x34dbbb1a	4.0928063e-07
27	0xb72939bc	-1.0086627e-05
28	0x36276e3c	2.4949104e-06
29	0x36e5b6fa	6.846033e-06
30	0xb67b2841	-3.7425345e-06
31	0xb643abb3	-2.9157206e-06
32	0x37abcd02	2.0480253e-05
33	0x36f35b29	7.252577e-06
34	0xb77b93d6	-1.4995187e-05
35	0x34cc807d	3.8091449e-07
36	0x36a7c015	4.999349e-06
37	0xb7908e05	-1.723227e-05
38	0x3646c3f2	2.9618354e-06
39	0xb6119cc5	-2.1697936e-06
40	0xb732f254	-1.0666048e-05
41	0xb756cfee	-1.2803806e-05
42	0xb7792270	-1.4849575e-05
43	0x36ef1d7b	7.126187e-06
44	0xb73748a3	-1.0924562e-05
45	0x370832f9	8.1181e-06
46	0xb745d0dc	-1.1790744e-05
47	0x3773ec40	1.4538935e-05
48	0x36917fd6	4.336219e-06
49	0x35d35c91	1.5747665e-06
50	0xb76e39be	-1.419935e-05
51	0xb6ae3c80	-5.192647e-06
52	0x37a48eba	1.9616786e-05
53	0x3709fef6	8.225199e-06
54	0xb6c58d28	-5.8874903e-06
55	0xb6c9c1f7	-6.0128473e-06
56	0x378abb42	1.653808e-05
57	0xb72905b7	-1.0074516e-05
58	0xb6df1363	-6.648175e-06
59	0xb7994d54	-1.827503e-05
60	0x377a8c42	1.49338175e-05
61	0x36a5b8ad	4.9388823e-06
62	0x36516b88	3.1206018e-06
63	0x367e4c1f	3.7893258e-06
64	0x3703fecb	7.867532e-06
65	0x36a02ef5	4.773838e-06
66	0xb6c932e5	-5.9961917e-06
67	0xb6ae16aa	-5.1882425e-06
68	0x366a8a72	3.4949303e-06
69	0x35886f31	1.0165151e-06
70	0xb6f36d77	-7.2547077e-06
71	0x36645c23	3.4028278e-06
72	0xb688467b	-4.061321e-06
73	0xb51773da	-5.642047e-07
74	0xb6c38b1d	-5.827648e-06
75	0x36bd0596	5.633289e-06
76	0x361c4abc	2.3289313e-06
77	0xb653878c	-3.1520349e-06
78	0x370636a2	7.999743e-06
79	0xb634362a	-2.6853618e-06
80	0x371a7656	9.2066675e-06
81	0xb5f59141	-1.8296197e-06
82	0x3685b01f	3.984212e-06
83	0x36dcc7d6	6.579775e-06
84	0xb6a2e7e2	-4.854971e-06
85	0xb6a05a28	-4.778867e-06
86	0x36e9c323	6.966658e-06
87	0xb5965ff2	-1.1203795e-06
88	0x36aac990	5.0898598e-06
89	0xb62cc2dd	-2.5743423e-06
90	0xb6827ffd	-3.8892017e-06
91	0xb6b7af8a	-5.4742604e-06
92	0xb7059d77	-7.96408e-06
93	0xb58d3064	-1.0519402e-06
94	0x373558da	1.0809128e-05
95	0x36cad538	6.044891e-06
96	0x35b9ee7e	1.3852984e-06
97	0x358da6a8	1.0553822e-06
98	0x36a32924	4.862568e-06
99	0xb4c8d345	-3.7406622e-07
100	0xb497a1ac	-2.8243574e-07
101	0xb5226236	-6.049262e-07
102	0xb64fe1b0	-3.097677e-06
103	0x36aebe74	5.2077758e-06
104	0xb587585a	-1.0083997e-06
105	0xb5fd9ff3	-1.889652e-06
106	0x350d198f	5.2563786e-07
107	0x36554070	3.177698e-06
108	0xb59ca620	-1.1671254e-06
109	0xb6a2406c	-4.835476e-06
110	0xb56b54d7	-8.766778e-07
111	0x34cadbea	3.778544e-07
112	0x358f1544	1.0660519e-06
113	0x35f88e99	1.8518941e-06
114	0xb68409fa	-3.935068e-06
115	0x36ab8c3e	5.1125235e-06
116	0xb57b0589	-9.351284e-07
117	0xb57c5a1a	-9.400843e-07
118	0x362cbcd4	2.573991e-06
119	0x33a2c021	7.578661e-08
120	0xb68c0d97	-4.173907e-06
121	0xb6a1dc5d	-4.8238276e-06
122	0xb51a5cae	-5.750434e-07
123	0xb5b9f9cd	-1.3856276e-06
124	0xb724d1d7	-9.824019e-06
125	0x3609c4cb	2.052914e-06
126	0x363e68f1	2.837329e-06
127	0xb619c649	-2.2914194e-06

network_body.observation_encoder.rsa.fc_v.bias f4 [128]
0	0x3b996af9	0.0046819416
1	0xbc3c4553	-0.011491138
2	0xbb0de113	-0.0021649047
3	0xbbd7dec2	-0.006587834
4	0x3bd7f225	0.006590145
5	0x3b91dd60	0.004451439
6	0xbc3866ae	-0.0112549495
7	0xbab7f168	-0.0014033737
8	0x3ba17e9c	0.004928423
9	0xbc082181	-0.008308769
10	0x3abb49bc	0.0014288942
11	0x3c37fb3d	0.0112293335
12	0x3b684f7e	0.0035447772
13	0xbc4a4b0d	-0.012346995
14	0x3baff3e1	0.005369649
15	0xba612d98	-0.0008589863
16	0xbbba75d7	-0.005690317
17	0xbbce7c46	-0.0063014356
18	0x3bf62ef8	0.0075129233
19	0xba91cb41	-0.0011123196
20	0x3bcb5aae	0.006205878
21	0x3b2e27a5	0.0026573923
22	0xb92743f7	-0.0001595168
23	0xbbaacf6f	-0.0052127163
24	0xb92f02a6	-0.00016690287
25	0xb8e2a077	-0.00010806409
26	0xbb4c2736	-0.0031151301
27	0xbb325941	-0.0027213844
28	0xbb3b83f3	-0.0028612583
29	0x3bf7df37	0.007564451
30	0x3bf03208	0.007330183
31	0xbadddffb	-0.0016927713
32	0x3c10e4df	0.00884363
33	0xbc0d9cf6	-0.008643379
34	0xbacd436e	-0.0015660354
35	0x3ba36730	0.004986666
36	0xbbc888e9	-0.0061198366
37	0xbc344af4	-0.011004198
38	0xbb293a79	-0.0025822206
39	0xba5666c0	-0.0008178763
40	0xb9a9610d	-0.000323065
41	0x3b94cda8	0.0045411177
42	0x3ac1dc2b	0.0014790347
43	0xbb06ed81	-0.002058834
44	0x3a8e123f	0.0010839178
45	0xbbbe642b	-0.005810281
46	0x3c0016c9	0.007817932
47	0xbb1e7846	-0.0024180575
48	0xbc035802	-0.008016588
49	0x3af0d683	0.0018374476
50	0x3bb7699c	0.0055973064
51	0x3bcc7001	0.006238938
52	0x3ac2b394	0.0014854544
53	0xbb801fc1	-0.0039100354
54	0x3c314e3d	0.010821876
55	0x3b33537a	0.0027362988
56	0xbc0463c4	-0.008080427
57	0x3ba1d6f2	0.0049389536
58	0x3b813b89	0.0039438647
59	0xbb15219b	-0.0022755626
60	0xbb97191c	-0.0046111476
61	0xba9123c6	-0.0011073283
62	0xbb11955a	-0.0022214265
63	0x3bf96911	0.007611402
64	0x3bb55002	0.0055332193
65	0x3a2102a1	0.00061420543
66	0x3bb9ae7a	0.005666551
67	0x3baa4d51	0.005197205
68	0xbc0c8e0c	-0.0085787885
69	0x3c1ca91e	0.009561805
70	0xba85b478	-0.0010200879
71	0x3b424c15	0.00296474
72	0xbba7903a	-0.0051136287
73	0x3a20bd2f	0.0006131706
74	0xbbc79437	-0.0060906666
75	0x3c90e780	0.017688513
76	0xbb0ea06e	-0.0021763104
77	0xbbdda8f9	-0.006764528
78	0xbc0f73ee	-0.008755667
79	0x3b2bf5a9	0.0026238954
80	0xbc0b5656	-0.008504471
81	0x3b2f44c1	0.0026743861
82	0x3a85ec0d	0.0010217443
83	0xbbc4735a	-0.0059951963
84	0xbba18125	-0.0049287253
85	0x3ac5434d	0.0015049964
86	0x3bca8375	0.0061802217
87	0xbb276d1b	-0.002554721
88	0x3bb22918	0.0054370277
89	0x3a1d80bd	0.0006008258
90	0xbc0a41e8	-0.008438565
91	0x3b3f6a47	0.0029207633
92	0xbb6e3a05	-0.00363505
93	0x3b6b7a5b	0.0035931084
94	0x3aeb54f6	0.0017954397
95	0x3a5193e4	0.00079947547
96	0x39357ea5	0.00017308684
97	0x39669088	0.00021988351
98	0xbb882353	-0.0041546016
99	0x3bec06b8	0.0072029494
100	0xbb9dc319	-0.004814517
101	0x3b2308fb	0.002487718
102	0xbab39105	-0.0013699835
103	0xbc32d8e6	-0.01091597
104	0xbab0db98	-0.0013493178
105	0x3a353bcb	0.0006913512
106	0x3c128952	0.0089438725
107	0xbc24740d	-0.010037434
108	0x39c31c52	0.000372144
109	0x3bccebb8	0.006253686
110	0xbb1036c8	-0.0022005308
111	0x3b4f7e3c	0.0031660935
112	0xba81c764	-0.0009901342
113	0x36216a2b	2.4052667e-06
114	0xbb2ab993	-0.0026050552
115	0xba58416c	-0.0008249495
116	0xbbdbed14	-0.0067116115
117	0xbbaf211e	-0.005344524
118	0xbbe32bd2	-0.006932714
119	0xbc1cbdb2	-0.009566711
120	0x3bf91463	0.0076013072
121	0x3bdd18c3	0.0067473366
122	0xba76de9c	-0.00094173267
123	0xbb8c71dc	-0.004286034
124	0x3a10ed9e	0.0005528572
125	0x3b32640d	0.002722028
126	0x3b5d2276	0.0033742464
127	0x3a3649d8	0.00069537526

network_body.observation_encoder.rsa.fc_out.bias f4 [128]
0	0xbab35d3f	-0.0013684406
1	0x3bd6075c	0.006531639
2	0x3b569ee8	0.0032748524
3	0x3bbae551	0.005703606
4	0x394ee836	0.00019732196
5	0xbab491d4	-0.001377637
6	0xba456e45	-0.0007531385
7	0x3bfc3756	0.0076970262
8	0xbc92ee5b	-0.017935922
9	0x3b15c1b5	0.0022851054
10	0x3b39e739	0.002836658
11	0x3c22f036	0.009944966
12	0xbb492386	-0.003069134
13	0x3a668967	0.0008794278
14	0x3c3ce6b6	0.011529615
15	0xbc505514	-0.012715597
16	0x3c06aeb6	0.008220365
17	0xb929ebac	-0.0001620489
18	0x3b674a8c	0.0035292236
19	0xbc1ba9c1	-0.009500922
20	0x3cb0fb43	0.021604186
21	0xbc0ac5ca	-0.008470008
22	0x3b357de2	0.002769344
23	0x3b634761	0.0034679996
24	0xbc194d35	-0.0093567865
25	0x3ac61d73	0.0015114978
26	0x3c189c96	0.009314677
27	0x3c8261cf	0.01591578
28	0x3c354d72	0.011065828
29	0xbc118391	-0.0088814655
30	0xbbfcfce4	-0.0077205766
31	0xbb71b3f5	-0.0036880944
32	0xbc46541e	-0.012105016
33	0x3bfe767a	0.0077655884
34	0xbb2ce4d3	-0.0026381507
35	0xbc30eef2	-0.0107991565
36	0xbbd9b1a7	-0.0066434923
37	0xbc19e771	-0.009393559
38	0xbbfeab11	-0.0077718575
39	0x3a8bf024	0.0010676426
40	0x39a8c696	0.00032191415
41	0xbc354977	-0.011064879
42	0x3c37da92	0.011221545
43	0xbb801a8f	-0.003909416
44	0xbbfbec0d	-0.0076880516
45	0x3c1318b4	0.008978058
46	0x3b287ffc	0.002571105
47	0x39db5b7c	0.00041839096
48	0x3b9790d8	0.004625421
49	0xbb9d24b0	-0.0047956333
50	0x3b0fb3a5	0.0021927145
51	0xba83a4b3	-0.0010043591
52	0xb9aa3605	-0.00032465174
53	0xbb00da75	-0.001966146
54	0xbc05c2f4	-0.008164156
55	0xbc1c3ca5	-0.009535943
56	0x3b8bda41	0.0042679613
57	0xbbcefd17	-0.0063167918
58	0xbb88559f	-0.0041605975
59	0xbbe3c461	-0.0069509004
60	0x3bb1a30f	0.0054210494
61	0x3b0457ce	0.0020193937
62	0x3b986215	0.004650364
63	0x3c27e5ba	0.010247642
64	0xbbe01e11	-0.0068395217
65	0x3ba69771	0.005083971
66	0xbb5f063a	-0.003403081
67	0xba959a27	-0.0011413739
68	0xbc1cb178	-0.009563796
69	0xbaec844b	-0.0018044797
70	0xbc43cbe9	-0.011950471
71	0x3bba6431	0.0056882133
72	0x38261a2b	3.9601855e-05
73	0x3881983e	6.179557e-05
74	0xbc37542f	-0.0111895045
75	0xbb968ea3	-0.0045946403
76	0x3b322198	0.0027180668
77	0xbc356219	-0.011070752
78	0x3b2b700c	0.0026159314
79	0xbb90a26a	-0.0044138925
80	0x3b133e3b	0.0022467512
81	0x3bb5fc69	0.0055537713
82	0xbb6c9231	-0.003609788
83	0x3bcdc280	0.0062792897
84	0x3b15ffe5	0.002288812
85	0xbae20ff1	-0.0017247183
86	0xbb9c8b1c	-0.0047773253
87	0x3c294e97	0.010333679
88	0x3c4a100e	0.012332929
89	0x3c44b7ad	0.012006682
90	0xbb5f2c56	-0.0034053526
91	0x3b3bfb8c	0.002868387
92	0x3c5fd9e2	0.013662787
93	0x3c33d5b1	0.010976241
94	0xbb332598	-0.002733564
95	0xbc26f295	-0.010189672
96	0xbbb8bc46	-0.0056376783
97	0xbb9de1e0	-0.004818186
98	0x3b6e61e4	0.0036374265
99	0x3c7bc265	0.0153661715
100	0xbb7e7f26	-0.003883311
101	0xbc0e4f78	-0.008685939
102	0x3bcae70d	0.006192094
103	0x3af80a69	0.0018924001
104	0x3c59f0f2	0.013302075
105	0x3ae7c8b6	0.0017683718
106	0xbb25d10d	-0.0025301606
107	0xbc2632fd	-0.0101439925
108	0x3c7a3f8a	0.015273938
109	0xbb2050ce	-0.0024462226
110	0xbc507092	-0.012722151
111	0x3aa564f7	0.0012618591
112	0xb9b0382f	-0.00033611196
113	0xbba0a0c0	-0.0049019754
114	0x3b60f055	0.0034322937
115	0x3a68c25e	0.00088790606
116	0x3bb3f77d	0.0054921494
117	0xba436374	-0.00074534793
118	0xbb78a955	-0.0037942727
119	0xbb129bce	-0.00223707
120	0x3caf7f08	0.021422878
121	0x3ba298e4	0.0049620736
122	0x3c0d553a	0.008626277
123	0x3ca09611	0.019602807
124	0xbbfc0536	-0.007691051
125	0x3b683cf8	0.003543673
126	0x3c13fdef	0.00903271
127	0x3c6cc29d	0.014450696

network_body.observation_encoder.x_self_encoder.seq_layers.0.weight f4 [128, 3]
0	0x3d31a29a	0.04336796
1	0x3d72ed20	0.05930817
2	0xbca4f053	-0.020134127
3	0x3d4dab11	0.05021197
4	0x3b3989fd	0.0028311007
5	0x3cefbb21	0.029264035
6	0xbd0acb9a	-0.033885576
7	0xbd2ab716	-0.04167851
8	0xbcc51c96	-0.024061482
9	0xbd19e8ac	-0.03757541
10	0xbc90aef2	-0.017661545
11	0x3cb740d8	0.022369787
12	0xbc8386d6	-0.016055506
13	0x3d95bbe0	0.07311225
14	0xbca3c6a0	-0.019992173
15	0x3d40551b	0.046956163
16	0x3c6d97e0	0.014501542
17	0x3c1c2fb3	0.009532857
18	0x3b30b675	0.0026964222
19	0xbbbe86cf	-0.0058144103
20	0xbd277774	-0.040885404
21	0xbc95a7e1	-0.018268527
22	0xbc335fd0	-0.010948136
23	0xbca89b05	-0.020581732
24	0xbd0a5d13	-0.03378017
25	0x3cf1e3c6	0.029527556
26	0x3cd49055	0.02594773
27	0x3cbc4b32	0.022985075
28	0x3c528a3a	0.012850339
29	0x3c95b255	0.018273512
30	0xbc9640aa	-0.018341381
31	0xbb6852fa	-0.0035449849
32	0xbcc2dc42	-0.023786668
33	0xbb93ed13	-0.0045143454
34	0x3d370e9b	0.044691663
35	0x3cf94a54	0.03043095
36	0xbca2f6b6	-0.019893032
37	0x3d03874c	0.03211145
38	0x3c4bed5d	0.012446729
39	0xbcca89a3	-0.024723833
40	0x3d09e8ec	0.033669397
41	0x3c8e5dc3	0.017378693
42	0xbd8c1f92	-0.06841959
43	0x3d1d0ca3	0.03834213
44	0xbaf4693a	-0.0018647083
45	0x3d9ae8a1	0.07563902
46	0xbc792881	-0.015207411
47	0x3d4d74bf	0.050160166
48	0x3d4da6eb	0.050208014
49	0x3be4c5be	0.0069815805
50	0x3d2336c1	0.03984714
51	0xbd685c98	-0.05672893
52	0xbd16666a	-0.036718763
53	0x3c5d1be4	0.013495419
54	0xbd11ab1e	-0.03556358
55	0xbd285c0b	-0.041103404
56	0x3b73e8ee	0.0037217694
57	0xbd5b8736	-0.053595744
58	0xbc1b1706	-0.009465938
59	0x3d663eb3	0.05621214
60	0x3ca5d52d	0.020243252
61	0x3c41ef6d	0.011836869
62	0x3c4f7943	0.012663188
63	0x3d58608e	0.052826457
64	0xbca8ef7c	-0.020622008
65	0xba82fd05	-0.0009993619
66	0xbd065734	-0.032798007
67	0xbd323823	-0.043510567
68	0xbc8a7f1a	-0.01690631
69	0xbce5cf66	-0.028052997
70	0xbd215595	-0.039388258
71	0xbd230466	-0.039799117
72	0x3cb90829	0.022586899
73	0xbd050645	-0.032476682
74	0xbc163a10	-0.009169117
75	0xbc293e2a	-0.0103297625
76	0x3b3bbede	0.0028647701
77	0xbd1544b3	-0.03644247
78	0xbba69110	-0.0050832108
79	0xbb00f006	-0.0019674315
80	0x3c257c81	0.010100485
81	0x3c764b30	0.015032575
82	0xbcb753a1	-0.022378745
83	0x3a9e9637	0.0012099211
84	0x3ce57a2f	0.028012363
85	0x3d15d552	0.03658039
86	0xbc33e1a1	-0.010979087
87	0x3d6f0e08	0.05836299
88	0x3d4d68dd	0.050148834
89	0xbcffb70f	-0.031215219
90	0x3d0ca896	0.034340464
91	0x3b3c9e44	0.0028780857
92	0xbc0b44db	-0.008500303
93	0xbd2bb70b	-0.04192261
94	0xbca0c364	-0.01962442
95	0xbd2f5e79	-0.042814706
96	0x3d3a505e	0.0454868
97	0xbce6d4d5	-0.028177658
98	0x3c274ff0	0.01021193
99	0x3c4d7327	0.0125396615
100	0x3c7d0981	0.01544416
101	0x3cbc86c1	0.023013474
102	0xbb848faf	-0.0040454487
103	0xbd1bfe2d	-0.038084198
104	0xbdcf53fb	-0.1012344
105	0x3d848c54	0.06472078
106	0x3c81df56	0.015853565
107	0x3cab0bed	0.02087971
108	0x3b95a3e0	0.0045666546
109	0x3ce1c1ee	0.027558293
110	0xbd3190dc	-0.04335104
111	0x3ce763b2	0.02824578
112	0x3c9619db	0.018322876
113	0x3d142d61	0.03617609
114	0xbcc2ae13	-0.023764646
115	0x3cec4199	0.028839873
116	0xbc5fd100	-0.013660669
117	0xbce9e899	-0.028553294
118	0xbd0220db	-0.031769615
119	0x3c8f4257	0.017487688
120	0xbd18602c	-0.03720109
121	0x3b56a2ed	0.003275092
122	0x3c0e5ff5	0.00868987
123	0xbd1e0e1a	-0.038587667
124	0xbb2704ba	-0.0025484995
125	0x3d252d98	0.040326685
126	0xbd1cf6d2	-0.038321324
127	0x3d487c41	0.048946623
128	0xbd0f50b1	-0.034989063
129	0xbd38120c	-0.044939086
130	0xbd9d7342	-0.07687999
131	0xbce9c804	-0.028537758
132	0xbcb24a68	-0.021763995
133	0x3d387445	0.04503276
134	0x3c99dbec	0.018781625
135	0x3d3fd64e	0.046835236
136	0x3a400fd9	0.000732658
137	0xba3297e3	-0.0006812794
138	0x3d146517	0.03622922
139	0xbcfa69c2	-0.030568007
140	0x3c05fb38	0.008177571
141	0xb89bd974	-7.43148e-05
142	0x3b4ba82b	0.0031075578
143	0xbba46d2d	-0.0050178976
144	0x3ccf24d4	0.025286116
145	0x3c3168ba	0.010828191
146	0xbd0e2b1d	-0.034709085
147	0xbd73b9cc	-0.05950336
148	0xbc8df534	-0.017328836
149	0x3b16a0cf	0.0022984033
150	0xbccb836f	-0.024842946
151	0xbbb9fcb4	-0.0056758765
152	0xbaefb3e9	-0.001828787
153	0x3c8112fd	0.015756125
154	0x3b632e9b	0.003466523
155	0x3c6a3f30	0.014297292
156	0x3c9485ec	0.018130265
157	0xbb6be2e0	-0.0035993382
158	0x3bdc25e4	0.006718384
159	0x3d1584fe	0.036503784
160	0xbdac2196	-0.084048435
161	0xbc83be58	-0.016081974
162	0x3c95a27b	0.018265953
163	0xbcc13588	-0.023585096
164	0x3d1acff6	0.037795983
165	0xbb98f658	-0.0046680383
166	0x3c4015fd	0.011723992
167	0xbd82ee28	-0.06393081
168	0x3d087432	0.033313937
169	0x3c296826	0.010339772
170	0x3cae01c0	0.021241069
171	0xbd028132	-0.03186149
172	0xbc096332	-0.008385466
173	0xbcdbdcf4	-0.026838757
174	0x3d0f4651	0.03497917
175	0x3cae4144	0.021271355
176	0xbce7e29c	-0.028306298
177	0xbd339b7d	-0.043849457
178	0x3c84a637	0.016192539
179	0x3bf8851a	0.0075842263
180	0xbcb55b57	-0.02213828
181	0xbc1514f7	-0.009099237
182	0x3d809e60	0.06280208
183	0xbd527bf3	-0.05138774
184	0xbcc30dc6	-0.023810279
185	0xbcf8fb27	-0.030393196
186	0x3d2e005d	0.042480815
187	0x3ba3a5d1	0.004994132
188	0xbcb282d0	-0.021790892
189	0x3ccf69d5	0.02531902
190	0xbd218917	-0.03943738
191	0xbd206151	-0.03915531
192	0x3b282815	0.0025658656
193	0xbbae7785	-0.0053243064
194	0x3d182b69	0.037150774
195	0xbca0dfe2	-0.019638006
196	0xbc8167e1	-0.015796604
197	0x3a86622e	0.0010252648
198	0xbd5d3abd	-0.054011095
199	0x3c2bfdb2	0.010497497
200	0x3d53ff3b	0.05175708
201	0x3cf55d5f	0.02995175
202	0x3b4e76c2	0.003150389
203	0x3d1cff80	0.0383296
204	0x3a889ae5	0.0010422139
205	0xbaa33971	-0.0012453032
206	0x3b9ef9bf	0.0048515494
207	0xbd192f00	-0.03739834
208	0xbbed2917	-0.0072375643
209	0xbd207136	-0.039170466
210	0xbce37457	-0.027765436
211	0xbd233ba3	-0.039851796
212	0xbce77b3a	-0.028257001
213	0xba7bfa8d	-0.0009612225
214	0x3b80afbc	0.003927199
215	0x3d1ca93c	0.038247332
216	0xbce6847c	-0.028139345
217	0xbc804fcb	-0.015663048
218	0xbce1c6de	-0.027560648
219	0xbd60d038	-0.054886073
220	0xbbf69bc1	-0.0075258915
221	0xbb5c000e	-0.0033569369
222	0xbc4cbc18	-0.012496017
223	0xbcaab8de	-0.020840105
224	0xbd3abfe9	-0.045593176
225	0xbca5b578	-0.020228133
226	0xbc3dd6d5	-0.0115868645
227	0x3cd4baae	0.025967922
228	0x3cffc491	0.03122166
229	0xbca5ced7	-0.02024023
230	0xbda58ea0	-0.08083844
231	0x3cab7da2	0.02093393
232	0xbcf05d1d	-0.029341275
233	0xbcd1f688	-0.02563025
234	0x3d6cab19	0.05778036
235	0x3c941ece	0.018081095
236	0xbc13887c	-0.009004708
237	0x3d177880	0.036980152
238	0x39502174	0.00019848888
239	0xbb6e754b	-0.003638583
240	0xbc9e4cbb	-0.019323697
241	0xbc68ff35	-0.014221002
242	0xbcd026c1	-0.025409104
243	0xbce5d7b5	-0.028056959
244	0xbcde6f2a	-0.027152617
245	0xb90cf732	-0.00013443528
246	0x3c772f6d	0.015086991
247	0x3b320834	0.0027165534
248	0x3d759e3b	0.059965353
249	0x3ca9e05c	0.020736866
250	0x3cc71532	0.024302099
251	0x3ca1bc13	0.019743001
252	0x389247a7	6.975169e-05
253	0xbc93c017	-0.018035932
254	0x3c76da55	0.015066703
255	0xbc39107b	-0.011295433

network_body.observation_encoder.x_self_encoder.seq_layers.0.bias f4 [128]
0	0x3ba0406b	0.0048904917
1	0xbc4f7d9c	-0.012664225
2	0x3aa1016c	0.0012283749
3	0x3b946e18	0.0045297258
4	0x3bd07717	0.006361853
5	0x3b941291	0.004518815
6	0xbc28ed99	-0.010310554
7	0x3c427245	0.011868064
8	0x3c886d79	0.016653763
9	0xba51ea3a	-0.000800762
10	0xbb81e525	-0.0039640837
11	0x3b5ed0d5	0.0033998985
12	0x3bbcfdda	0.005767566
13	0xbb2a6845	-0.002600209
14	0xbc8c235c	-0.017106704
15	0xbb776023	-0.003774651
16	0xbc037083	-0.00802243
17	0x3c79de74	0.015250791
18	0x3c75c7fd	0.015001294
19	0x3b2fda01	0.0026832821
20	0xbbb87ba7	-0.005629975
21	0xbb89be08	-0.0042035617
22	0xbb5d6f62	-0.0033788313
23	0x3b3296a9	0.0027250445
24	0xbc39d4d9	-0.011342251
25	0x3b33e508	0.0027449746
26	0xbc8bca44	-0.017064221
27	0x3a037e99	0.0005016118
28	0x3bca0114	0.0061646793
29	0x3b9c039a	0.0047611715
30	0xbc219331	-0.009861753
31	0x3c8b6687	0.017016662
32	0xbb62b7e2	-0.0034594466
33	0x3c88a98e	0.016682412
34	0xbc50714c	-0.012722325
35	0x3a88a446	0.0010424934
36	0x3bc62163	0.0060464605
37	0xbb709b61	-0.0036713707
38	0xbc9bbe4b	-0.019011637
39	0x3bb70425	0.005585211
40	0xbba5a269	-0.005054761
41	0x3b439f3e	0.0029849554
42	0x3c78c8b6	0.015184572
43	0x3ade18af	0.0016944612
44	0x3c9225fc	0.017840378
45	0xbc39952b	-0.011327068
46	0xba50cb73	-0.00079648866
47	0x3c0756c6	0.0082604345
48	0xbb6af533	-0.0035851717
49	0xbb71ce40	-0.0036896616
50	0x3ba96d30	0.005170487
51	0xbb356a1e	-0.002768166
52	0x39bebd70	0.00036380766
53	0xbadc6adc	-0.0016816515
54	0xbc1e9862	-0.009679886
55	0x3bcd4043	0.006263764
56	0xbc1952fa	-0.009358162
57	0xbbab7c3e	-0.0052333167
58	0xbbb82a23	-0.0056202575
59	0x3c06b062	0.008220764
60	0x3c0685cb	0.00821061
61	0x3c4126b0	0.011789009
62	0x3c075a6b	0.008261303
63	0xbc192acb	-0.009348582
64	0xbc58a2e3	-0.013222429
65	0x3aec117b	0.0018010581
66	0x3c45efda	0.012081111
67	0xbb75f955	-0.0037532647
68	0xbbd5794f	-0.0065147053
69	0x3bd16cfd	0.0063911662
70	0x3c2c50d7	0.010517321
71	0xbc2a84ad	-0.010407609
72	0xbb030679	-0.0019992872
73	0x3bf436dd	0.0074528293
74	0xbcd84d18	-0.026403949
75	0x3c5fdfea	0.013664225
76	0xbb39a148	-0.002832489
77	0xbb29cb35	-0.0025908474
78	0xbb301f6f	-0.0026874205
79	0xbb820dd8	-0.0039689355
80	0x3c89bf97	0.01681499
81	0x3c00d1c5	0.007862513
82	0x3b98b117	0.0046597826
83	0x3b4448c7	0.0029950605
84	0xbbd37a91	-0.00645382
85	0x3c4e5c1b	0.012595202
86	0x3caa1249	0.020760672
87	0x3d0d6839	0.034523223
88	0x3ba3cf39	0.004999068
89	0xbc30943f	-0.010777532
90	0x3a67e852	0.0008846569
91	0xbbc6601d	-0.006053938
92	0xba426ceb	-0.0007416743
93	0xbc9f1269	-0.019417958
94	0xbc2e5c11	-0.0106420675
95	0x3beade96	0.0071676476
96	0x3c61b1e8	0.013775326
97	0x3c9906e6	0.018680047
98	0x3ba9f898	0.0051871054
99	0xbb89a75b	-0.0042008585
100	0x3bea3a73	0.007148081
101	0xbc296788	-0.010339625
102	0x3c00c738	0.007859997
103	0xba4b5ed8	-0.0007757968
104	0xbc29f55d	-0.010373441
105	0x3ba9f4f5	0.005186672
106	0xbc058f51	-0.008151845
107	0xbc039313	-0.008030671
108	0x3b4e675d	0.0031494715
109	0xbb610758	-0.0034336653
110	0x3c566a5a	0.01308688
111	0xbb094579	-0.002094595
112	0xbbb33afe	-0.005469679
113	0x3c2991ca	0.0103497
114	0xbb5c694d	-0.00336321
115	0x3b1d1bb2	0.0023972807
116	0xbb7b906e	-0.0038385647
117	0xbc1f555e	-0.009724943
118	0x3c0ef5b8	0.008725576
119	0x3cfe6a8c	0.031056665
120	0xbb605828	-0.0034232233
121	0xba0aedf3	-0.00052997394
122	0x3c0c769c	0.008573201
123	0x3b12bf2d	0.0022391782
124	0xba6fc0b0	-0.0009145839
125	0x3bd5e64f	0.006527699
126	0x3b60325e	0.0034209709
127	0x3c58aed6	0.013225278

network_body._body_endoder.seq_layers.0.weight f4 [128, 131]
0	0x3aef632d	0.001826381
1	0xbd787db9	-0.060666773
2	0x3d40c671	0.04706425
3	0xbe390e71	-0.18071915
4	0xbd50c913	-0.05097301
5	0xbc1590e3	-0.009128782
6	0x3d88e1b0	0.066836715
7	0xbdf4c79c	-0.11952135
8	0xbc54cee5	-0.012988781
9	0xbe2a8043	-0.1665049
10	0xbd03e2d9	-0.03219876
11	0x3cf9c79b	0.030490687
12	0x3dc0ca5c	0.09413597
13	0xbd57c9ad	-0.052682567
14	0x3d39c2c0	0.045351744
15	0x3cba93e4	0.022775598
16	0xbdb36149	-0.0875879
17	0x3d156f4e	0.0364831
18	0xbd911efb	-0.07085987
19	0xbda4e5c9	-0.080516405
20	0x3cdb6692	0.026782308
21	0x3dd22e6f	0.10262763
22	0xbd9d259a	-0.076731876
23	0x3c914b3c	0.01773607
24	0x3cace8c6	0.021107089
25	0x3d55f514	0.052235678
26	0xbd6c2760	-0.05765474
27	0xbd6ca0a9	-0.057770405
28	0x3decd4b7	0.1156401
29	0xbba54360	-0.005043432
30	0xbda7db0a	-0.08196075
31	0x3cf1f9d6	0.029538076
32	0xbdebec73	-0.115197085
33	0x3c6a8573	0.014314043
34	0xbb8e98e1	-0.0043517207
35	0x3c96025e	0.018311676
36	0xbdbd6e75	-0.09249584
37	0x3cc12617	0.023577733
38	0xbded52ad	-0.11588035
39	0x3e561e2c	0.20909947
40	0xbe00c9df	-0.12577008
41	0x3daa7126	0.083223626
42	0xbd75f968	-0.060052305
43	0xbd188299	-0.037233923
44	0xbca7e54d	-0.020495081
45	0x3dc3e836	0.09565775
46	0xbd173fec	-0.036926195
47	0xbd2b1bc2	-0.04177452
48	0x3da35cf5	0.079767145
49	0xbdc9090a	-0.09816177
50	0x3d9f25a2	0.0777085
51	0xbbdbdfc7	-0.006710026
52	0x3e07420c	0.13208789
53	0xbe116ed7	-0.14202438
54	0x3d5bde56	0.053678833
55	0xbdcdbb1f	-0.10045456
56	0xbdd4e713	-0.103956364
57	0x3d5f3475	0.054493386
58	0xbd5bc554	-0.053654984
59	0xbe532a15	-0.20621522
60	0x3cc9a6de	0.024615701
61	0xbd2261a3	-0.039643895
62	0x3d6788f1	0.056527082
63	0x3d843982	0.06456281
64	0x3c8bd9f7	0.017071707
65	0x3dd37c38	0.10326427
66	0xbc01429b	-0.007889415
67	0x3c8f822a	0.017518122
68	0xbca4a295	-0.020097056
69	0x3bf11750	0.0073575154
70	0x3d83a667	0.06428223
71	0xbd6b6037	-0.057464805
72	0x3d8a9a4d	0.06767712
73	0xbcd103b6	-0.025514465
74	0xbd6d371c	-0.057913885
75	0x3dc35247	0.095371775
76	0xbe311983	-0.17294888
77	0x3c71a859	0.01474961
78	0xbd18ff59	-0.037352894
79	0x3d9f2572	0.07770814
80	0xbdd272ec	-0.10275826
81	0x3abe4be0	0.0014518462
82	0xbbb8ed3e	-0.005643516
83	0xbc6a6578	-0.014306419
84	0xbe139a98	-0.14414442
85	0xbe2c74d5	-0.16841443
86	0xbd069d86	-0.03286507
87	0xbd9c8c58	-0.07643956
88	0x3dc7722f	0.09738576
89	0xbdab7863	-0.08372571
90	0x3b57b1d5	0.0032912393
91	0xbd157dd8	-0.036496967
92	0xbd176e00	-0.03697014
93	0xbe9abd28	-0.3022244
94	0x3e0cfee0	0.13769102
95	0xbd965363	-0.073401235
96	0x3bb8126d	0.005617431
97	0x3e0b7666	0.13619384
98	0x3e0679cb	0.13132398
99	0xbddb8ad6	-0.1071984
100	0x3d72998b	0.05922846
101	0xbd699163	-0.057023417
102	0xbd8cedb2	-0.06881274
103	0xbd7e5bd8	-0.062099308
104	0x3d2331d5	0.039842445
105	0xbd21b7cf	-0.039481934
106	0x3c2a26b2	0.010385202
107	0x3d197ef0	0.037474573
108	0xbd8f7f43	-0.07006695
109	0xbdbb6fa6	-0.091521546
110	0xbddd640d	-0.10810099
111	0x3c2f252f	0.010690018
112	0xbc4c9f38	-0.012489133
113	0x3ab9629a	0.0014143765
114	0xbd2b7b88	-0.041865855
115	0x3c3df3ae	0.011593742
116	0xbdc210a6	-0.09475832
117	0xbcf9c090	-0.030487329
118	0x3bdc486d	0.006722501
119	0x3d9a5868	0.075363934
120	0x3de86936	0.113481924
121	0x3d608041	0.054809812
122	0x3cb1af7a	0.021690119
123	0xbe0b4f0e	-0.13604376
124	0x3db7a7c3	0.08967545
125	0x3dd53656	0.104107544
126	0xbd5f9392	-0.054584093
127	0xbcbb58e0	-0.022869527
128	0x3bed40e6	0.0072404025
129	0x3cd7cb42	0.026342038
130	0x3c57094a	0.013124773
131	0xbccaade6	-0.024741124
132	0xbdd5eaf4	-0.104452044
133	0xbdcaa49c	-0.09894678
134	0xbe1d8bf8	-0.15385425
135	0x3e1180ef	0.1420934
136	0x3d91ce52	0.071194306
137	0x3d2ee899	0.04270229
138	0x3d06b1cc	0.032884404
139	0xbe0c8a37	-0.137246
140	0x3e4fe54d	0.20302315
141	0xbdf91f7c	-0.12164208
142	0xbdb2a692	-0.08723177
143	0xbd76e7c6	-0.06027963
144	0xbcdb911f	-0.026802598
145	0xbcb751c2	-0.022377852
146	0x3ddf5fb7	0.10906928
147	0x3e08768b	0.1332647
148	0xbc72ab2d	-0.014811319
149	0xbd0e9769	-0.034812365
150	0x3e2ae49f	0.16688775
151	0xbd9fd639	-0.078045316
152	0x3db64717	0.08900278
153	0x3d624791	0.055244032
154	0xbc8df633	-0.017329311
155	0xbd313c3b	-0.04327033
156	0xbdda05fa	-0.10645671
157	0x3dae8c13	0.08522811
158	0x3e36999f	0.1783204
159	0x3df471f1	0.11935795
160	0xbd70460e	-0.05866056
161	0xbe0731ef	-0.13202642
162	0xbcd900e6	-0.026489686
163	0x3d2f1029	0.04274002
164	0xbcf4cc5d	-0.029882604
165	0xbcedfe03	-0.029051786
166	0xbdb387d7	-0.08766144
167	0x3e212cef	0.15739797
168	0xbdaca564	-0.08429983
169	0x3c010104	0.007873777
170	0x3bf0fd83	0.0073544397
171	0x3e4c24c4	0.199359
172	0x3cafff0c	0.02148392
173	0x3d94ca0d	0.07265101
174	0xbd5e670c	-0.054297492
175	0xbdd1eb88	-0.10250002
176	0xbcac8222	-0.021058146
177	0x3da576c7	0.080792956
178	0xbc6b19c4	-0.014349405
179	0xbda58eb1	-0.08083857
180	0x3ae1949c	0.0017210427
181	0x3d6241d3	0.055238556
182	0xbe1b41a5	-0.1516176
183	0x3e49bb20	0.19700289
184	0xbdccd16e	-0.10000883
185	0xbe0cc5f3	-0.13747387
186	0xbd48c28a	-0.049013652
187	0xbca75e5a	-0.020430733
188	0xbdb1b7d4	-0.086776406
189	0x3cbc68c6	0.022999179
190	0x3e087cac	0.13328809
191	0x3d46230f	0.04837328
192	0xbdf4839d	-0.11939166
193	0xbdc88f23	-0.09792926
194	0xbd65a735	-0.056067664
195	0xbd8b2626	-0.067943856
196	0xbc2c8148	-0.01052887
197	0x3af5b5a0	0.0018746145
198	0x3d3196c7	0.043356683
199	0x3db4f6fb	0.0883617
200	0x3db306ca	0.08741529
201	0xbb86421e	-0.0040972373
202	0x3da436ce	0.08018266
203	0xbcb5ac47	-0.022176875
204	0x3d1822ca	0.037142552
205	0x3d2a5a52	0.041590042
206	0xbd85b429	-0.065285034
207	0x3dfe7d5a	0.12426253
208	0x3ca8531b	0.02054744
209	0x3dbc5db5	0.09197561
210	0xbc6f9852	-0.014623718
211	0xbd07287d	-0.032997597
212	0x3d5d2618	0.053991407
213	0xbd90d6f9	-0.07072253
214	0xbd1f222c	-0.03885095
215	0xbbc7830d	-0.0060886205
216	0xbd8bfd5c	-0.06835434
217	0x3ced35b0	0.028956264
218	0xbccc8be5	-0.02496905
219	0xbb21c643	-0.0024684824
220	0xbcd437a5	-0.02590544
221	0x3d4b175d	0.049582828
222	0xbc3b0513	-0.011414784
223	0xba210dfd	-0.0006143747
224	0x3d759d5f	0.059964534
225	0xbd2ee227	-0.042696144
226	0x3e02a80c	0.12759417
227	0x3d6cdab7	0.05782577
228	0x3d3c6049	0.045990262
229	0xbd8b3744	-0.067976505
230	0x3d1f4eea	0.038893618
231	0x3dac43f5	0.08411399
232	0x3d78a771	0.06070656
233	0x3dcebe6b	0.10094913
234	0x3e556b25	0.20841654
235	0xbce101c8	-0.02746667
236	0xbcda9507	-0.02668239
237	0x3c0a05bf	0.008424222
238	0xbe0f2a9f	-0.13981102
239	0xbdc06a40	-0.093952656
240	0x3d2be9fb	0.041971188
241	0xb6d45e56	-6.3290745e-06
242	0xbdcf30f3	-0.10116758
243	0xbdfe4f11	-0.124174245
244	0xbc988ed3	-0.018622791
245	0xbd6155d7	-0.055013504
246	0x3e0bf0dd	0.13666101
247	0x3dfc7673	0.1232728
248	0xbc1da189	-0.0096210325
249	0x3d0b0490	0.033939898
250	0xbe0cc703	-0.13747792
251	0xbcc8fb42	-0.024533872
252	0xbd7364be	-0.059422247
253	0x3c4a42e7	0.012345052
254	0xbd2d6175	-0.04232927
255	0x3e35bc75	0.17747672

network_body._body_endoder.seq_layers.0.bias f4 [128]
0	0x3b0d5476	0.0021565235
1	0x3b715801	0.0036826136
2	0xb91bb705	-0.00014850132
3	0xbc8a6fa6	-0.016898941
4	0xbb52239c	-0.0032064682
5	0x3bc4e1f7	0.0060083824
6	0x3a565718	0.000817643
7	0x3ba55290	0.0050452426
8	0xbbd18b50	-0.006394781
9	0xbb7617b3	-0.0037550747
10	0x3c7dacf5	0.015483131
11	0x3b8b540c	0.0042519625
12	0xbce82e6f	-0.028342454
13	0x3be3b059	0.0069485125
14	0x3c8a86cd	0.016909981
15	0x3b06d585	0.0020574045
16	0xbc23a2b7	-0.009987525
17	0xbb94d302	-0.0045417557
18	0x3c3f53fd	0.011677739
19	0x3b5cf31a	0.0033714236
20	0x3b875987	0.0041305455
21	0x3c59fb4a	0.013304541
22	0x3ba7ec0c	0.0051245745
23	0xbc47bdbf	-0.012191235
24	0x3c3d89fd	0.0115685435
25	0x3b69c6cf	0.0035671478
26	0xbc59a421	-0.01328376
27	0x3b8dd4ed	0.0043283612
28	0x3ccc8cfa	0.024969567
29	0xbadf384b	-0.0017030326
30	0x3c0ad3fe	0.008473394
31	0x3ba400aa	0.005004962
32	0x3c9068f9	0.01762818
33	0xbca396a2	-0.019969288
34	0xbb07c7f8	-0.0020718556
35	0x3bfce76c	0.0077180173
36	0xbae84a89	-0.0017722409
37	0x3c2c9b9f	0.01053515
38	0xb9f99ade	-0.00047608366
39	0x3cacf436	0.021112543
40	0x3c6a7ced	0.014312011
41	0x3bd7def0	0.0065878555
42	0x3bbcd7ef	0.005763046
43	0xbba9bd08	-0.005180005
44	0x3bb92537	0.0056501883
45	0xb9c9dcbd	-0.0003850217
46	0x3c9e8701	0.019351484
47	0x3c39e834	0.011346865
48	0xbacb4fff	-0.0015511512
49	0x3c695d2b	0.014243404
50	0x3c57dc72	0.013175117
51	0xbb27f091	-0.0025625566
52	0xbbc75589	-0.0060831946
53	0x3c029192	0.007969277
54	0x3d0e4fc3	0.034744035
55	0xbc868903	-0.016422754
56	0x3bae8958	0.0053264312
57	0x3b958bcf	0.0045637856
58	0x3b8e0168	0.0043336637
59	0x3bf3196c	0.007418802
60	0x3c32419c	0.0108799
61	0x3c8008fc	0.015629284
62	0x3bdbb654	0.006705085
63	0x3c3d09a9	0.011537948
64	0x3c022509	0.0079434
65	0xbb4d3141	-0.0031309875
66	0xba84348e	-0.0010086463
67	0x3ba3cede	0.0049990257
68	0x3c8ff06c	0.017570697
69	0x3b48ecc8	0.003065871
70	0x3c65267e	0.013986228
71	0xbc915f0e	-0.01774552
72	0xbcfc8f1a	-0.030829955
73	0x3b67a050	0.0035343356
74	0x3c8348b1	0.016025873
75	0x3b03cb73	0.002011028
76	0x3cf1cf81	0.02951789
77	0xba10a211	-0.0005517314
78	0x3a09f23f	0.0005262233
79	0xbb95c8c6	-0.004571053
80	0x3b4165cb	0.0029510136
81	0xbcb51c42	-0.022108201
82	0x3b71729f	0.0036842
83	0x3c91c639	0.017794715
84	0xba8b5349	-0.0010629679
85	0x3c6fa4ce	0.014626695
86	0xbc966161	-0.01835698
87	0x3cccd991	0.025006087
88	0xbcccfea2	-0.025023762
89	0xbc7d417b	-0.015457506
90	0x3c894570	0.016756743
91	0xbc1eb092	-0.009685652
92	0x3b05cdb2	0.0020416793
93	0xbb9cf6f9	-0.0047901836
94	0xbc40be36	-0.0117641
95	0x3ca76a69	0.020436483
96	0xbc5257e4	-0.012838338
97	0xb9640ba1	-0.00021748107
98	0x3b864bb1	0.0040983786
99	0x3bdda90e	0.0067645377
100	0xba4fe42a	-0.00079304224
101	0xbbfaf09a	-0.0076580765
102	0x3bcac809	0.006188397
103	0xbb8f5997	-0.0043746936
104	0xbc56499e	-0.013079075
105	0xbbdc136a	-0.0067161815
106	0xbb855f39	-0.0040701893
107	0xbc9af1fe	-0.018914219
108	0x3b36244f	0.0027792638
109	0xbbd9bcfe	-0.006644844
110	0xbc14aaba	-0.0090739075
111	0x3bc921cc	0.006138062
112	0xbca3e5ad	-0.020006979
113	0x3aba0b62	0.0014194066
114	0x3898bc14	7.282957e-05
115	0x3c60b1ad	0.013714236
116	0xbc1d50b2	-0.009601759
117	0xbab73af7	-0.0013979365
118	0xbc100aaf	-0.00879161
119	0xbb6ce02f	-0.0036144366
120	0xbc52171d	-0.012822893
121	0xbae8e889	-0.0017769496
122	0x3c59c3e8	0.013291337
123	0xbbbc0e9c	-0.0057390463
124	0x3b9daba0	0.004811719
125	0x3c06d1f1	0.008228765
126	0x3bfca219	0.0077097532
127	0x3c4263a6	0.011864578

network_body._body_endoder.seq_layers.2.weight f4 [128, 128]
0	0x3d7be916	0.061501585
1	0xbdd1960f	-0.102336995
2	0xb95acc9e	-0.00020866326
3	0x3e332399	0.17494048
4	0x3dd80b03	0.10548975
5	0x3da9b8e4	0.08287218
6	0xbe4aaeda	-0.19793263
7	0x3d546b29	0.05186001
8	0xbd836719	-0.06416149
9	0xbce9dd2c	-0.028547846
10	0xbde801e7	-0.11328488
11	0xbc6c9072	-0.014438735
12	0xbd012e67	-0.031538393
13	0x3d54120a	0.051775016
14	0x3c55f036	0.013057759
15	0x3e04b68c	0.12960261
16	0xbd55006d	-0.05200236
17	0xbbce0e7b	-0.0062883473
18	0xbc9e919f	-0.019356547
19	0x3ca909a5	0.020634482
20	0xbd56e1fc	-0.05246161
21	0x3c50b594	0.012738604
22	0xbde1770a	-0.11009033
23	0x3c07658f	0.00826396
24	0xbd80247e	-0.0625696
25	0xbdb93a7f	-0.0904436
26	0x3d55ac29	0.052166138
27	0x3d768b82	0.06019164
28	0x3d001113	0.031266283
29	0x3cc930ca	0.024559397
30	0x3b6bb863	0.0035968057
31	0x3e170f82	0.1475201
32	0xbd9bb5a1	-0.07603002
33	0xbdb82a06	-0.0899239
34	0x3d52eb62	0.05149401
35	0xbe08411a	-0.13306084
36	0x3e0eb178	0.13934886
37	0x3e0158ac	0.12631482
38	0xbdd6fd31	-0.10497511
39	0x3e129536	0.14314732
40	0x3c966467	0.018358422
41	0xbc0dd9c6	-0.008657878
42	0x3d7af7e7	0.061271574
43	0xbdeb2d90	-0.114833
44	0xbde44705	-0.111463584
45	0x3d92def0	0.07171428
46	0xbcc33997	-0.023831172
47	0xbd8629db	-0.06550952
48	0x3dadf3ea	0.084937885
49	0x3d41847d	0.04724549
50	0x3e0115a6	0.12605914
51	0x3d3b0f8d	0.045669127
52	0x3d82f111	0.06393636
53	0xbdbeb0d5	-0.09311072
54	0x3bb0f80e	0.005400664
55	0x3d359c84	0.044338718
56	0x3e334afd	0.17509075
57	0x3e651330	0.223706
58	0xbd10d759	-0.03536162
59	0xbdb5ff15	-0.08886544
60	0xbd69e377	-0.057101693
61	0x3e34f126	0.17670116
62	0xba2a18f7	-0.00064887054
63	0xbe16c09f	-0.14721917
64	0x3d8dccee	0.06923853
65	0xbd23261f	-0.039831277
66	0xbd774a7b	-0.060373764
67	0xbd9afd73	-0.07567873
68	0x3cc3e076	0.023910742
69	0xbdaaab2c	-0.0833343
70	0xbd681052	-0.05665619
71	0xbe03ad30	-0.12859035
72	0x3e3ca2b4	0.18421441
73	0x3e36d6e6	0.17855415
74	0xbdaba002	-0.083801284
75	0x3cb06d28	0.021536425
76	0xbd8390d3	-0.064241074
77	0xbdc6ccb2	-0.09707011
78	0xbce3ed92	-0.027823243
79	0xbe226848	-0.15860093
80	0x3c3ffd3f	0.011718093
81	0x3d8c03b5	0.068366446
82	0x3d531cef	0.051541265
83	0xbcb80e74	-0.02246783
84	0x3dc764ad	0.09735999
85	0xbe0a9ef6	-0.13537201
86	0xbd2146b3	-0.039374065
87	0xbe0ed79c	-0.13949436
88	0x3de71668	0.112835705
89	0x3b69c9cc	0.0035673259
90	0xbdd5f97a	-0.104479745
91	0x3ccb7223	0.024834698
92	0xbe0660c1	-0.13122846
93	0x3bcf6040	0.0063286126
94	0xbde9b074	-0.11410609
95	0x3d2edfe1	0.042693976
96	0x3d4446cc	0.04791908
97	0xbe15f2c7	-0.14643393
98	0x3da5f8f5	0.081041254
99	0x3d652fb1	0.055953685
100	0x3d2bd326	0.041949414
101	0xbe47c2e9	-0.19507946
102	0x3d9ea20c	0.07745752
103	0xbd9c0c6f	-0.07619559
104	0xbdab59ef	-0.08366763
105	0xbdf1d697	-0.11808508
106	0x3d9b09f9	0.075702615
107	0x3d427d0f	0.047482546
108	0xbd0a0c09	-0.033702884
109	0x3d36c442	0.04462076
110	0x3de274bc	0.110574216
111	0xbe26a009	-0.16271986
112	0xbdb3156b	-0.087443195
113	0x3db32ca8	0.08748752
114	0x3d0f6c90	0.035015643
115	0xbc0f116f	-0.008732184
116	0x3d60645f	0.05478322
117	0x3d72c878	0.059273213
118	0xbe11f0bd	-0.1425199
119	0xbdc65ee1	-0.096860655
120	0xbe146e2d	-0.14495154
121	0xbdee8e8e	-0.11648284
122	0x3b15f234	0.002287996
123	0xbbc89d15	-0.0061222413
124	0xbd6d3ebd	-0.05792116
125	0xbd96a378	-0.07355398
126	0xbe0457a1	-0.12924053
127	0xbdfb450c	-0.12269029
128	0xbd7a8250	-0.061159432
129	0xbd99ebb0	-0.07515657
130	0xbdeefb3d	-0.11669014
131	0x3e12c342	0.14332297
132	0xbc2688de	-0.010164468
133	0x3dc3130c	0.09525117
134	0xbda6f621	-0.08152414
135	0x3d9c3b43	0.07628491
136	0x3dbceef6	0.09225266
137	0x3c8223f0	0.015886277
138	0x3dd3119c	0.10306093
139	0x3dbe4406	0.09290318
140	0xbd792fc9	-0.060836587
141	0xbe21af37	-0.15789495
142	0xbd810438	-0.06299633
143	0xbcda5f73	-0.026656842
144	0x3d2162e0	0.039400935
145	0xbe027503	-0.12739949
146	0x3e0c1fe3	0.13684039
147	0x3d81b3c6	0.06333117
148	0xbd37f69d	-0.044912923
149	0xbe108054	-0.14111453
150	0xbd880e03	-0.066432975
151	0xbdd4a165	-0.10382346
152	0x3d9b530e	0.07584201
153	0xbdc837dc	-0.09776279
154	0x3ce1fd55	0.027586618
155	0xbde3e555	-0.11127726
156	0xbcbfc144	-0.023407586
157	0x3df91fba	0.121642545
158	0x3dd30e88	0.10305506
159	0x3da44917	0.08021753
160	0x3d820e05	0.0635033
161	0x3d565d30	0.052334964
162	0x3dcbe1b2	0.09955157
163	0x3def289e	0.11677669
164	0x3de805dc	0.113292426
165	0x3d5d5127	0.05403247
166	0xbd1c9802	-0.038230903
167	0x3e2aac3b	0.16667263
168	0x3d294403	0.041324627
169	0x3d537043	0.051620733
170	0xbc12e21e	-0.008965043
171	0xbd151534	-0.036397174
172	0xbd2a45a4	-0.04157032
173	0xbbb5d201	-0.005548716
174	0x3d25a227	0.040437844
175	0xbce72b3a	-0.028218854
176	0xbda98de7	-0.08279019
177	0x3d2eee0a	0.04270748
178	0x3dd9c788	0.10633761
179	0x3db86c4c	0.09005031
180	0x3e0586e9	0.13039745
181	0x3e196698	0.14980543
182	0xbdd02c71	-0.101647265
183	0x3e3291f3	0.17438488
184	0x3d0001b5	0.031251628
185	0xbd80dff9	-0.062927194
186	0xbdc23ca1	-0.0948422
187	0xbd407db0	-0.046994865
188	0xbd547379	-0.051867936
189	0xbdb8a7f2	-0.09016408
190	0x3dd331a4	0.103122026
191	0x3de8e5aa	0.1137193
192	0xbe232688	-0.15932667
193	0xbc4f82eb	-0.012665491
194	0xbd63fcdd	-0.05566107
195	0x3d436d2f	0.047711547
196	0x3e000bf2	0.12504557
197	0xbdaa11cf	-0.08304178
198	0xbe06c11a	-0.131596
199	0xbaa31d17	-0.0012444583
200	0x3e008e31	0.12554242
201	0xbcda2b6a	-0.02663203
202	0xbe457f54	-0.19286853
203	0x3de5a992	0.112139836
204	0xbcec05ce	-0.028811362
205	0xbd03a0ae	-0.032135658
206	0x3d6a879c	0.057258233
207	0x3d9c9548	0.07645661
208	0x3a8b7a42	0.0010641294
209	0xbe1da5d8	-0.15395296
210	0xbe30747a	-0.17231932
211	0xbe0e401a	-0.1389164
212	0xbd279e3a	-0.04092238
213	0x3db556da	0.08854456
214	0x3d750b66	0.059825324
215	0xbd58bec0	-0.05291629
216	0xbe1bdd0a	-0.15221038
217	0xbcd97ce5	-0.026548812
218	0xbe20a09e	-0.1568627
219	0x3dda200d	0.106506445
220	0xbcde4edf	-0.027137218
221	0x3e11d7a9	0.14242424
222	0xbca3aad8	-0.019978926
223	0xbc03bba3	-0.008040342
224	0xbd0ba158	-0.034089416
225	0x3da674a8	0.08127719
226	0x3d77a3f4	0.060459092
227	0x3dd7aced	0.1053103
228	0xbc49cdcd	-0.012317133
229	0x3c970cb5	0.018438676
230	0x3dd73a2e	0.10509144
231	0x3b8f93f4	0.004381651
232	0xbd92a3a4	-0.07160118
233	0xbb9493eb	-0.0045342348
234	0xbd776d4e	-0.060406975
235	0x3da83d3b	0.08214804
236	0x3d29245f	0.04129445
237	0xbc33b7eb	-0.010969142
238	0x3ddb7887	0.10716348
239	0x3e20e63a	0.15712824
240	0x3c8158b9	0.015789377
241	0x3c23d298	0.00999894
242	0xbdb3d1d1	-0.08780254
243	0xbd410cbe	-0.047131293
244	0xbd9dfeed	-0.07714639
245	0x3c8444b0	0.016146034
246	0x3959221e	0.00020707442
247	0x3d4636e9	0.04839221
248	0x3cb60da6	0.022223305
249	0x3dc5c13b	0.096559964
250	0xbc084f49	-0.008319684
251	0x3e228975	0.15872748
252	0xbd1ebc3b	-0.03875373
253	0xbd129c01	-0.03579331
254	0x3caee232	0.021348093
255	0xbd624b2a	-0.055247463
