Assets/results/ppo/My Behavior/My Behavior-1499947.onnx (onnx, 578818 bytes, 21 tensors)

network_body.observation_encoder.processors.0.self_ent_encoder.seq_layers.0.bias f4 [128]
00000000: 864e 31bc a9d5 483b adb2 413c 6c36 373c
00000010: 99d0 45bb 7636 e5bb 544f 303b 4466 eb39
00000020: be72 85bb f981 aa3b 5702 e33b ddb8 b8bb
00000030: 1b10 333c 48e3 103c b240 4abc 22e0 c33b
00000040: 08fe c9bb d982 483b 565c 0abb 34b6 ec3b
00000050: 1746 94bb 3778 85bc 94ca 9b3c e669 cbbb
00000060: 6773 e73a 7814 343c b8ba 933a 51c4 e5bb
00000070: 38cf e43b fad0 113b 9b1f 823c ed14 a5ba
00000080: 9a95 e1bb 1151 66bc f0b3 b3b9 6414 87bb
00000090: ab39 0d3c dfd5 1ebb 1714 a4bb fa8b 633b
000000a0: 8fdd 673b 8701 993b 6d1b f4bb b823 a23b
000000b0: 6ee2 853a 0253 16bc b277 94ba 62b6 bfbb
000000c0: ec8b eb39 ddae 203c b175 43bc b241 453c
000000d0: b178 81bc 9dac 14bc 6129 5a3b 32f0 833a
000000e0: d03e 8b3c 266c 9cbc 0e10 c43b dde7 99bb
000000f0: f8d3 013b e610 2a3a b5e6 6bbb bf9a b43a
00000100: bb54 25bc 6499 8139 e80c 43b8 88f2 403a
00000110: f29b dbbb 71d6 b1bb 2bc6 a33b fa2b 8cbc
00000120: cb18 99bc 9b84 5fbc b3ec 63bc 162e 78bb
00000130: ef5d 1e3c 98c0 c639 3de9 2ebc f969 203b
00000140: 8bc0 3dbc feae a53b 98eb 0d3c 41bb 243c
00000150: 4b6d e4bb 5575 35bc e951 5cbb eebd 7dbc
00000160: 8a40 2c3c 9658 42bc dbd4 3cbb 491c 883c
00000170: 5bfa b8bb 1990 04bc 4fc9 373c 96a8 7e3c
00000180: c26f 693a 949f b8ba 64c3 95bc 1de1 ab3b
00000190: 8e22 54bb 6a33 e0ba 476e fabb 5a13 e73a
000001a0: b21b b5bb 4b6a fb3b 57ec 2dba 767d a2bc
000001b0: 879e 183c db63 22bc edcd 90bc 8095 203a
000001c0: 6a4c 743c fd29 1dbc 7ff4 c13b 65ae 31bc
000001d0: 3eb8 23bc 0dc7 3e3b 045d d1bc c647 d5bb
000001e0: 30e6 bfba cf88 14bc 4c45 d0ba c16f a03b
000001f0: bc63 7b3c 603e 3c3c 31a8 a1bc e8c2 503b
-0.010821944 0.003064493 0.011822385 0.011182409 -0.0030184148 -0.0069950176 0.0026902752 0.00044898887
-0.004072516 0.005203482 0.006927769 -0.005637272 0.010929133 0.008843251 -0.012344526 0.0059776464
-0.006164316 0.003059557 -0.0021112165 0.0072238687 -0.004524957 -0.016292674 0.019017495 -0.0062076924
0.0017658294 0.010991208 0.0011270856 -0.007011928 0.00698271 0.0022249804 0.015884211 -0.0012594737
-0.006884289 -0.014057414 -0.00034275604 -0.004122304 0.008619706 -0.0024236364 -0.0050072777 0.0034720884
0.0035379862 0.0046693715 -0.0074495585 0.0049481057 0.0010214576 -0.009175064 -0.0011327176 -0.005850599
0.00044926943 0.009807316 -0.011929915 0.012039589 -0.01580462 -0.009074357 0.0033288824 0.0010066091
0.016997725 -0.019094538 0.005983359 -0.0046968297 0.001981018 0.00064875034 -0.0035995666 0.0013779028
-0.010091002 0.00024719082 -4.6503643e-05 0.0007360359 -0.0067019397 -0.0054271747 0.0049979887 -0.017110813
-0.01868858 -0.013642455 -0.013911414 -0.0037869266 0.00966595 0.00037908996 -0.0106757255 0.0024477227
-0.01158155 0.005056261 0.008662127 0.01005441 -0.0069710365 -0.011075337 -0.0033618158 -0.015487177
0.010513434 -0.011861941 -0.0028813395 0.01661505 -0.005645079 -0.008090996 0.011217429 0.015543124
0.0008904898 -0.0014085644 -0.018281646 0.0052453415 -0.003236923 -0.0017105166 -0.0076425406 0.0017629669
-0.005526983 0.007672583 -0.00066346437 -0.019835215 0.00931514 -0.009911503 -0.017676318 0.0006125793
0.014910797 -0.00959253 0.005919039 -0.010844802 -0.009992657 0.0029110343 -0.025557049 -0.0065088
-0.0014640745 -0.009065821 -0.0015889793 0.0048961346 0.015343603 0.011489481 -0.01973352 0.0031854454

network_body.observation_encoder.processors.1.self_ent_encoder.seq_layers.0.bias f4 [128]
00000000: 5f41 303c aeed 423c d6d4 a1bc 65e2 9c3b
00000010: cc77 ed3b 8e89 293c 3285 b9bb c4fd 1dbb
00000020: d0c2 a43a 34f1 30bc f157 ec3b ebc1 633c
00000030: 482a debc 1474 ec37 f109 3f3c db10 65bc
00000040: 3dca b83b 745b e1bb 2b4d f3bb 203f febc
00000050: 7fe6 9c3c bb0d e53c 8b73 8c3a c588 cbbc
00000060: d65e 8dbc 37f3 fc3a 8461 373c d4be 03bc
00000070: 1875 a33b ca48 88bb 0956 b3bc a24a 3dbc
00000080: 276a 173c 7579 b43c a3ed 7fbb 07c6 8c3b
00000090: 17cb 743c 94e1 4a3c db0b 8abb cc42 3ebb
000000a0: a121 a23a 35ba cdbb bc9c 33bc 4856 9c3b
000000b0: 4d4b c33b c176 e33c 2aa3 a83c e3ae aabb
000000c0: ad20 a0bc 2b74 3cbc bb67 f639 0de8 173c
000000d0: badc 65bc de1c 1abc a5e4 f53b 73d8 193c
000000e0: 74ad 3dbc 1c74 96ba 9ebe 82ba 28ac eebb
000000f0: 2e5f ffbc a32b bebb ba94 923c c1fd 7fbc
00000100: e4fe 913a 1f6b 06bc c0ef 4c3c 34ef 173a
00000110: b458 763c c4b6 e33c 7399 213c 09b8 bb3b
00000120: 43a8 6f3c 88cb 49bb 4b6b 67ba b429 dabc
00000130: cd2c 0bbc b2f6 9bbc 5179 7bbc b2f4 9f3a
00000140: 1fa3 e43c 3c38 253c d29d 033c df26 dcbc
00000150: d21a bd3c f2c0 acbb d492 abba 162e c0bc
00000160: 8ce5 8cbc 703e 763c e8ca 5cbb f784 6e3b
00000170: 1ac1 fa3a ca1e 9a3c 9bb5 edbb 9542 adbc
00000180: 7134 a4ba a4ff 40bc e7da 01bc 7358 293c
00000190: 8e6b d1bc f2e9 15bc 0a51 283c 3af8 dfbc
000001a0: 4494 bd3c ed49 ebb9 a499 1fbc c6ef 233c
000001b0: 8d92 1fbc 926d a33b 4411 c73c 0799 8bbb
000001c0: eb28 a4bb 1835 9abb ef75 1bbc 4210 5c3c
000001d0: 2e6b a939 2ff9 ad3b fa67 98bc 21ee 7b3c
000001e0: 106c 963b 1256 753c cef1 ad3b d18c 0d3c
000001f0: 7657 0dbc 1425 30bb 56a0 c33c 05ca 633c
0.010757773 0.011897488 -0.019754808 0.0047877305 0.007246947 0.010347737 -0.00566163 -0.0024107555
0.0012570266 -0.010799695 0.007212632 0.013901214 -0.02711977 2.8187445e-05 0.011660085 -0.013981069
0.005639343 -0.006877357 -0.0074249706 -0.03103596 0.019152878 0.027960649 0.0010715587 -0.02484549
-0.017257135 0.0019298558 0.011192683 -0.008041102 0.004988324 -0.0041590678 -0.02189161 -0.011553438
0.009241617 0.022030571 -0.0039051555 0.0042960676 0.0149409985 0.012382884 -0.004212839 -0.0029031513
0.0012369641 -0.006278301 -0.010962661 0.0047710277 0.0059599043 0.027766587 0.020585615 -0.0052088364
-0.019546831 -0.011502306 0.00046998062 0.009271634 -0.014029676 -0.009406297 0.007504063 0.009389984
-0.011576999 -0.0011478695 -0.0009975021 -0.007283706 -0.031173315 -0.0058035417 0.017893184 -0.0156244645
0.0011138585 -0.008204251 0.012508333 0.0005795837 0.015035797 0.02779711 0.009863245 0.005728726
0.014627519 -0.003079148 -0.00088279386 -0.026631214 -0.008494568 -0.019038532 -0.015348748 0.0012203662
0.027909813 0.010084208 0.008033233 -0.026874004 0.023084078 -0.0052720243 -0.0013090023 -0.023459475
-0.0171993 0.015029535 -0.0033690277 0.0036395171 0.0019131035 0.01881351 -0.007254315 -0.021149913
-0.0012527836 -0.0117796995 -0.007925726 0.010336029 -0.025563981 -0.009150015 0.0102732275 -0.027340043
0.023141988 -0.00044877772 -0.009741221 0.010005897 -0.00973953 0.004987427 0.024300225 -0.0042601856
-0.0050097606 -0.0047060363 -0.009488567 0.013431611 0.00032314047 0.005309246 -0.018604267 0.015376599
0.004590519 0.014974134 0.0053083664 0.00863953 -0.008626809 -0.002687757 0.023880165 0.013903146

network_body.observation_encoder.rsa.fc_q.bias f4 [128]
00000000: a5e1 02bd 8637 613d bc0a fabb 27a6 62bc
00000010: 15b0 333c fd0d 9ebd f41f f13c 07fe c33b
00000020: 5310 0ebd 6622 383d b8af d43c 3145 14bd
00000030: f067 893d da68 4dbc c4dd 083d 4ea1 cbbc
00000040: adda 03bc 04f5 f7bc 99bd a5bc 5a55 2ebc
00000050: b0ce 673b be45 1fbd cf71 1a3d 5327 de3b
00000060: 02e9 94bd c937 c0bc a4f2 993c 31aa 2b3d
00000070: 7031 efbc a717 7dbd 40c7 913d d622 383d
00000080: bac5 7a3d b84e 073d 0a90 4cbd 7a97 363d
00000090: be29 703d 0e9b 7fbd 37f1 b53b 2a47 35bd
000000a0: 205f 61bd ea3e 11bd 733f 76bd 93c2 ff3c
000000b0: 1db8 b7bb 1bc3 3f3d 39f2 c8bc b993 3d3d
000000c0: d05f 883c 80ea 5b3c 6690 46bd 7bd2 40bd
000000d0: 9c02 fa3c 83be 313d 77fb 5d3c dab0 eebc
000000e0: e0e4 f33c 550f 56bd 7ca4 963a ef63 54bd
000000f0: a9ce 4b3d 3cdf 77bc d2ef 153d e204 cfbc
00000100: f1df 54bc fa62 8cbc 966f 893b e0ed 183c
00000110: 2177 3fbc 38d7 94bc bb10 a53c 0d30 813c
00000120: 811e 2a3c e214 d63c 9dfc 083c 4d59 27bc
00000130: fa58 86bc 545d 103c 1abd ff3c 55b3 9dba
00000140: 8747 d4bc 5c32 873c f865 6ebc d260 aabc
00000150: fe16 50bc c09a ad3c fbc0 b23a fbed 843c
00000160: a064 033d f265 c6bb dbef 49bc fe08 173c
00000170: 7af2 0e3c 5bbb 98bc bd5b e2ba 5d17 73bc
00000180: 217a bf3c d738 e63c 48b7 203c 29ef f8bc
00000190: ede9 cdbc da7c fcbb 5172 d0b7 04fa 513c
000001a0: c4e4 c03c 1375 be3c dbff 30bc e752 52bb
000001b0: 3fbc 63bc 60a1 b23c 32ac cc3b 121a 40bc
000001c0: 322d d9bb a81c 993c 1bf6 d3bc 70bb b5bb
000001d0: 0ccf 4c39 df32 15bd 446e 29bd 13b6 97bc
000001e0: f264 a63c eb2e 13bb a1f5 433c 9b89 9c39
000001f0: d93b e8bc c220 1dbd 1aa4 04bc 6764 b23b
-0.031953473 0.054984592 -0.007630674 -0.013833559 0.010967274 -0.07717512 0.029434182 0.00598121
-0.034683537 0.04495468 0.025962695 -0.0361988 0.06709278 -0.012537206 0.033414617 -0.02485719
-0.008047742 -0.0302682 -0.020232009 -0.010640467 0.0035370998 -0.03888487 0.037706193 0.00677959
-0.07271005 -0.0234641 0.018792458 0.041910354 -0.029198378 -0.061790135 0.07118082 0.044955097
0.061223723 0.033034056 -0.049942054 0.044578053 0.05863356 -0.06240373 0.0055524367 -0.04425732
-0.05502236 -0.03546039 -0.060119104 0.03122071 -0.005606665 0.046816926 -0.024529563 0.046283457
0.01664725 0.013422608 -0.048477553 -0.04707573 0.030518822 0.043394577 0.013548723 -0.029137064
0.029772222 -0.052260716 0.0011493112 -0.051853117 0.049757633 -0.015128907 0.036605664 -0.025270883
-0.012992845 -0.01713704 0.0041942103 0.009334058 -0.011686117 -0.01816903 0.02014958 0.015769983
0.010383249 0.026133005 0.008361009 -0.010214162 -0.01639985 0.008811314 0.0312181 -0.0012031595
-0.025913013 0.016503505 -0.014550678 -0.02079812 -0.012700794 0.021191955 0.0013637835 0.01622676
0.032078385 -0.0060546333 -0.012325252 0.0092184525 0.008724803 -0.018644026 -0.0017269772 -0.014837113
0.023373665 0.028103275 0.009809323 -0.030387478 -0.025135959 -0.007705313 -2.4848765e-05 0.012815956
0.023546584 0.023249185 -0.010803188 -0.003209287 -0.013899862 0.021805465 0.006246113 -0.011724966
-0.006627702 0.018690422 -0.025874188 -0.005546026 0.00019532087 -0.036425468 -0.041364923 -0.018519437
0.020311806 -0.0022458385 0.011960418 0.00029857163 -0.02834885 -0.03836132 -0.0080957655 0.005444098

network_body.observation_encoder.rsa.fc_k.bias f4 [128]
00000000: 93f2 1537 0743 19b7 f183 ec36 4cd6 7136
00000010: bcb8 0636 4e06 f234 ab61 e935 1d64 beb5
00000020: 9845 7137 d92a a5b6 81a6 12b7 3183 0137
00000030: 4a28 c7b6 b8c4 5536 3b01 38b7 87db a136
00000040: 6e53 02b5 465e 05b6 dbf7 78b6 3149 6f36
00000050: 0d6e c936 376f 69b6 9433 b5b3 cd6f 3fb6
00000060: e8bd 8a37 a9d2 df36 ba3f 8e35 0a6d 80b7
00000070: e47e e436 ffec 6b37 45a8 1eb7 3c17 bcb6
00000080: 6ad2 d437 b45d 0237 9748 85b7 4eb7 01b5
00000090: a72d 0237 706b b2b7 17d4 0936 ef8f 17b6
000000a0: f7e8 61b7 4030 6eb7 5e77 93b7 b800 8e36
000000b0: fbab 1eb7 0f7a 3537 6271 71b7 84df 8937
000000c0: 808e 4336 ebf2 a9b5 e1ad 82b7 5582 17b7
000000d0: b1fc 9537 ecf9 0237 a031 feb6 a842 0fb7
000000e0: 8004 7737 7984 45b7 0449 a1b6 c8a4 9ab7
000000f0: d39b a837 d676 cb36 d7d3 9236 72b0 c4b4
00000100: 3267 3b37 9659 0037 73d5 92b6 7d3a b9b6
00000110: 19e5 8f36 5da5 2435 efde ccb6 013d 7936
00000120: c0dd aeb6 40d9 07b4 51b8 dcb6 a173 cc36
00000130: 9dfc 12b6 e89c c3b6 0ae6 2337 9f53 10b6
00000140: 8a94 e436 4300 9d35 fd33 d136 b24d e136
00000150: ecda a3b6 0ba0 f8b6 0c3c 1237 6915 0bb5
00000160: f6aa 7337 518d 8435 f20b a6b6 90fb c7b6
00000170: af9f 0bb7 675c 12b6 c149 0737 3ce4 0a37
00000180: 1646 0136 62d1 92b4 c05e 5c36 e3b4 66b6
00000190: f2cd 4235 7c97 d8b5 bb8b 9eb6 902a b436
000001a0: 7208 9935 f8ff 44b6 15ce 1d36 d925 0637
000001b0: 8582 b1b6 452f 07b7 a031 1db6 56f7 a6b4
000001c0: a10f dab4 3fb0 3f36 36b2 0fb6 d3ba 8335
000001d0: 4cdc ce35 d739 fb35 a818 d436 4461 94b5
000001e0: d85a 8635 0b12 dab6 7184 10b6 55db 7fb5
000001f0: 1124 0fb7 e0ed b936 09e3 d2b3 d324 8fb6
8.937571e-06 -9.135117e-06 7.048708e-06 3.6036536e-06 2.0075086e-06 4.50806e-07 1.7388278e-06 -1.418524e-06
1.4380923e-05 -4.9223713e-06 -8.741045e-06 7.719545e-06 -5.9353524e-06 3.1853979e-06 -1.0967541e-05 4.8237303e-06
-4.855018e-07 -1.9873419e-06 -3.709915e-06 3.5656378e-06 6.0030784e-06 -3.4784441e-06 -8.437851e-08 -2.8526294e-06
1.6539314e-05 6.670442e-06 1.0598371e-06 -1.5309564e-05 6.8097015e-06 1.40622715e-05 -9.456712e-06 -5.6055414e-06
2.5370351e-05 7.770421e-06 -1.5888638e-05 -4.832299e-07 7.759233e-06 -2.1269283e-05 2.0538043e-06 -2.2584534e-06
-1.3465286e-05 -1.41971395e-05 -1.757935e-05 4.2320135e-06 -9.457576e-06 1.081686e-05 -1.4391118e-05 1.6435755e-05
2.914021e-06 -1.266218e-06 -1.5578176e-05 -9.030647e-06 1.7879853e-05 7.806793e-06 -7.575567e-06 -8.538984e-06
1.4723395e-05 -1.1772959e-05 -4.806674e-06 -1.8434963e-05 2.0099722e-05 6.0637058e-06 4.3758005e-06 -3.6636226e-07
1.1170096e-05 7.650253e-06 -4.375988e-06 -5.5202386e-06 4.2884026e-06 6.1335396e-07 -6.1056267e-06 3.71394e-06
-5.211419e-06 -1.265189e-07 -6.577968e-06 6.0931347e-06 -2.1902736e-06 -5.829719e-06 9.769117e-06 -2.1506346e-06
6.8122217e-06 1.1697488e-06 6.2347376e-06 6.7145675e-06 -4.8832644e-06 -7.4096074e-06 8.716259e-06 -5.181269e-07
1.4523734e-05 9.875895e-07 -4.948576e-06 -5.959948e-06 -8.322225e-06 -2.180948e-06 8.063799e-06 8.278581e-06
1.9263293e-06 -2.7346965e-07 3.2837706e-06 -3.437796e-06 7.257032e-07 -1.6137342e-06 -4.7250337e-06 5.369373e-06
1.1401846e-06 -2.935527e-06 2.3514779e-06 7.9958345e-06 -5.2902055e-06 -8.057633e-06 -2.3423709e-06 -3.109987e-07
-4.0617036e-07 2.8563807e-06 -2.1412393e-06 9.814634e-07 1.5412311e-06 1.8717791e-06 6.3209627e-06 -1.1055167e-06
1.0010217e-06 -6.4990068e-06 -2.1534763e-06 -9.531407e-07 -8.531862e-06 5.541122e-06 -9.8201845e-08 -4.266019e-06

network_body.observation_encoder.rsa.fc_v.bias f4 [128]
00000000: 3044 b43b fd77 35bc 9cd1 46ba a926 0cbc
00000010: 47d5 f73b d490 43bb 8b5c 65bc 5f57 beba
00000020: 9739 db3b 28ea 73bc 1a16 be3a 910b 203c
00000030: 2a41 2eba c904 6ebc e19a d53b 83ee eeba
00000040: 6d90 cdbb 9854 34bc 7f46 1c3c f243 eb3b
00000050: f36b b23b 656f 833b 5290 aab8 5117 46bb
00000060: b010 19ba 6f1e 4538 dfe9 69bb 069b 98bb
00000070: bb27 0e38 1979 393c a7e3 f13b e849 22bb
00000080: 579e 673c 4530 05bc 425a b13b f29d a03b
00000090: 132a d3bb 2c9c 69bc 173e 4e3b 948e aabb
000000a0: a8a8 b6bb 974b 353c edb2 a5ba ffbe 56bb
000000b0: abaa 21b9 f47a c4bb 5897 f93b ed84 a8bb
000000c0: 4cfa bfbb d422 253b 772a 203c 687e e63b
000000d0: 379c a13b f881 d8bb 91a1 3f3c 85a3 a83b
000000e0: 5d4c a7bb 7dd6 be3b d6f9 873b be9b e3ba
000000f0: 6855 04bc 2c7c 7bbb 122d aa3b 19ac 9c3b
00000100: 99c6 b43b 8077 bd39 2e4f c33b d64a e73b
00000110: 92ca 73bc 321a 2e3c 09c4 b2b9 5bc4 063b
00000120: b22a 9fbb f4dc 213b 7198 07bc 4963 923c
00000130: 816a f3bb e30f bbbb 3389 54bc 0b82 793a
00000140: 1fd5 f2bb 024c b53a 26a4 21bb 4652 7fbb
00000150: bbb5 c8bb e2ff f03a 8549 8d3b bf86 9ebb
00000160: 9bcc 2b3c 4bc9 61ba 6814 34bc b839 ebba
00000170: e0ca 39bc 004a 3d3b b1ee 343b b51d cfb9
00000180: 87db 7fbb d427 813a bfd6 a1bb dcff 243b
00000190: 26cf debb 4a4a 99ba a543 12bb b0bc e7bb
000001a0: 0a16 0c3a 8278 723b fc90 0d3c eaa7 4dbc
000001b0: 0990 b53a ca93 7e3b b29a abbb ceb1 893b
000001c0: 0e80 72b8 c317 60bb b355 41bb d7f8 1dbb
000001d0: 4853 c0bb 8f9a 10bb 793c 1abc 37c7 5cbc
000001e0: 4363 c03b 5b5f 053c 222c e6ba 9ead b3bb
000001f0: 22d7 783a 71a7 d23b 8973 e63b a155 66ba
0.0055012926 -0.011075971 -0.0007584335 -0.008554139 0.0075632664 -0.0029840963 -0.013999115 -0.0014521888
0.006690215 -0.01488737 0.0014502436 0.009768383 -0.00066472834 -0.014527508 0.006518707 -0.0018229041
-0.0062733204 -0.011006497 0.009538292 0.0071797306 0.0054449975 0.004011082 -8.1331134e-05 -0.00302263
-0.00058389734 4.6996804e-05 -0.0035692377 -0.004657152 3.389244e-05 0.011320376 0.0073818746 -0.002476329
0.014136872 -0.008129184 0.005412371 0.004901641 -0.0064442246 -0.014258426 0.0031470114 -0.005204985
-0.0055743046 0.011065385 -0.0012641825 -0.003276765 -0.00015417735 -0.0059961025 0.0076169185 -0.005142799
-0.005858695 0.002519776 0.009775749 0.007034112 0.0049319523 -0.0066072904 0.011696235 0.005146446
-0.0051055388 0.005823909 0.004149656 -0.001736514 -0.008077003 -0.0038373573 0.005193361 0.004781258
0.0055168387 0.00036137924 0.0059603667 0.0070584817 -0.0148798395 0.010626363 -0.00034096863 0.0020563814
-0.0048573846 0.0024698349 -0.008276091 0.017869608 -0.0074284677 -0.005708681 -0.012972164 0.0009517974
-0.00741066 0.0013831856 -0.002466449 -0.003895895 -0.0061251796 0.0018386806 0.0043117427 -0.0048378403
0.010485793 -0.0008613064 -0.010991193 -0.0017946279 -0.011339873 0.0028883219 0.0027608091 -0.0003950425
-0.003904076 0.0009853789 -0.00493893 0.0025176918 -0.0067995964 -0.0011695113 -0.0022318151 -0.007072054
0.000534386 0.0036998098 0.008640524 -0.012552241 0.001385213 0.0038845413 -0.005236947 0.004202104
-5.7816556e-05 -0.003419385 -0.0029500544 -0.002410462 -0.005869303 -0.002206478 -0.009413832 -0.013475231
0.005871208 0.00814041 -0.001756076 -0.0054833433 0.00094925065 0.006428652 0.007032816 -0.00087865634

network_body.observation_encoder.rsa.fc_out.bias f4 [128]
00000000: f463 ad3b 8b10 de3b ef2a b4b9 d4c0 923b
00000010: d99a 7fbb 6dbf b73b 55b9 1c3a 9816 103c
00000020: 91ec 84bc 16db 1b3b 0899 a83b 19fd 203c
00000030: 506b c1bb 95f9 99bb 9833 7b3c 764d 5dbc
00000040: 034d b53b 4127 44b9 e0fa 4f3a 8d10 99bc
00000050: 951b ca3c fed1 fdbb 2555 cdba 82f8 45ba
00000060: 4229 f5bb ae71 4d3b 0977 2b3c 4a56 893c
00000070: 9247 4b3c 77b3 1fbc 2aae 26bc 5e24 a3bb
00000080: 9b90 00bc 8f76 3e3c 9cdd 74bb 646d f9bb
00000090: e87d f6bb 5c72 fabb 78cb 3bbc cddf de38
000000a0: 78b0 75ba 5239 38bc 8f08 2c3c 9c10 01bc
000000b0: e5da acbb 6388 213c 3cd2 923b aafa b7bb
000000c0: 01c3 033c c80c 0ebc 51ef f03b 3006 02bb
000000d0: fb9e f13a fa1b 7a39 4481 41bc 6cd9 81bb
000000e0: 6169 c83a 6d01 b8ba 9223 b0bb 29b9 aeba
000000f0: dddb 553b 4d36 6f3b 3c6f 203b d59b 663c
00000100: 93d0 aebb 3090 03bb 62f9 67bb 38a6 93bb
00000110: 89ff dabb ca52 a6bb 044f 82bc 7fbb 203c
00000120: 0dea fb3b 90b0 8cba 3538 22bc 4007 05bc
00000130: 0a58 303c ec22 8bbc 9a34 fb3b 6469 fcbb
00000140: d7df a33b 95e7 c93b b68c b5bb c65a 993b
00000150: 8dcf 2f3b 0ba7 1dba 185c 1cbb 84df 2c3c
00000160: 1305 5c3c 7027 873c d74c 0abb 8682 b73b
00000170: f5f0 903c a702 493c 2dc6 b4bb 7e87 3dbc
00000180: 2c7d e3ba 44a9 f8bb 071c 12bb 043e 863c
00000190: 7080 e3bb 7ea0 20bc 2b85 243c 0df8 623b
000001a0: c061 853c 51b3 41bb 8b49 5bba 92d9 4bbc
000001b0: d5e7 883c da9c 943a 4cb3 32bc e103 843b
000001c0: bde9 d7bb f665 1dbc 46c4 09ba 7e03 023b
000001d0: 13f6 153c f8cf 223b 8f25 cb3a 7534 8fba
000001e0: 8210 b43c 6cc4 ba3b 5498 3a3c f960 ba3c
000001f0: 4aac 1bbc c4bc e4ba 953f 0e3c 6c7d 463c
0.0052914564 0.0067768744 -0.00034364263 0.0044785533 -0.0039002209 0.0056075365 0.00059785444 0.008794449
-0.016226085 0.0023781708 0.005145196 0.009825968 -0.005902685 -0.004698942 0.015332125 -0.013507238
0.005532862 -0.0001870664 0.00079338066 -0.01868465 0.024671355 -0.0077459803 -0.0015665634 -0.0007551984
-0.007481725 0.0031348276 0.010465392 0.016764779 0.0124072 -0.009747378 -0.01017336 -0.0049787005
-0.007846977 0.011624946 -0.0037363535 -0.0076119173 -0.0075223334 -0.007643027 -0.011462085 0.00010627471
-0.0009372304 -0.011244135 0.010500087 -0.007877495 -0.0052751177 0.009859177 0.0044806283 -0.0056145983
0.008042098 -0.0086700395 0.0073527475 -0.0019840114 0.0018434221 0.0002385228 -0.0118106045 -0.0039626863
0.0015290194 -0.0014038511 -0.005375334 -0.0013330329 0.003263227 0.0036500872 0.0024480363 0.014075239
-0.0053349226 -0.0020074956 -0.0035396446 -0.004505899 -0.006683294 -0.005075787 -0.015906818 0.009810328
0.007687813 -0.0010733772 -0.009901096 -0.008119404 0.010763178 -0.016984425 0.0076661827 -0.007702993
0.005001049 0.00616164 -0.0055404557 0.0046800105 0.002682659 -0.0006013966 -0.0023858603 0.010551337
0.013428944 0.016498297 -0.002110293 0.0056002764 0.017693022 0.012268699 -0.0055167885 -0.011567948
-0.001735603 -0.0075885374 -0.0022294538 0.016386993 -0.006942801 -0.009803889 0.010041515 0.0034632713
0.016281962 -0.0029556344 -0.0008365146 -0.0124420095 0.016712109 0.0011338249 -0.0109070055 0.0040287827
-0.006589143 -0.009606829 -0.0005255382 0.0019838507 0.009152907 0.0024843197 0.0015498864 -0.0010925668
0.021980528 0.005699685 0.011388857 0.022751318 -0.009501526 -0.0017451276 0.008682151 0.012114864

network_body.observation_encoder.x_self_encoder.seq_layers.0.weight f4 [128, 3]
00000000: 8ba4 2e3d 7faa 683d 53f0 a4bc d41f 4e3d
00000010: 41f1 9639 21bb ef3c 5913 0cbd 2bb6 1fbd
00000020: 961c c5bc 8361 23bd bb95 89bc d840 b73c
00000030: af20 a1bc a814 953d a0c6 a3bc 70b4 3e3d
00000040: 4c35 533c b32f 1c3c be93 613b ce4a feba
00000050: 7477 27bd 948b 97bc 60b8 08bc 059b a8bc
00000060: 04e0 14bd 3fe7 f03c 5590 d43c 7170 c03c
00000070: 1344 2e3c 55b2 953c ce2e 92bc 81bc d3ba
00000080: 42dc c2bc bb8c 54bc d6f9 123d 544a f93c
00000090: 6ade c7bc fa7a ef3c 5ded 4b3c 20c8 e1bc
000000a0: d850 053d c35d 8e3c bdad 91bd 8408 1c3d
000000b0: 3a69 f4ba 8a1f 993d 1ed0 87bc bf74 4d3d
000000c0: f2eb 4c3d 2f60 cf3b c136 233d aada 6cbd
000000d0: ff57 0ebd e41b 5d3c b54e 13bd 6244 1dbd
000000e0: eee8 733b c396 62bd cd16 10bc b33e 663d
000000f0: 9024 a73c 8d9d 2e3c 4379 4f3c 45ba 563d
00000100: 7cf2 abbc 05fd 82ba 6455 02bd b9f8 24bd
00000110: 1a7f 8abc 93d7 edbc 7dc6 19bd 6604 23bd
00000120: 81c1 b73c 3b64 ecbc 103a 16bc 4797 27bc
00000130: 1e86 743b b344 15bd 1009 92bb 381d ab3a
00000140: 817c 253c c9ae 8c3c 2a10 b2bc 3796 9e3a
00000150: f5f9 e53c 8c5b 0a3d a1e1 33bc 40da 6b3d
00000160: 597a 443d 0fb7 ffbc c665 0e3d 65ed 9b3a
00000170: db44 0bbc a0cb 2fbd 2999 90bc 795e 2fbd
00000180: 2e4c 393d 560d edbc f04f 273c 3267 f23b
00000190: da8f 703c c186 bc3c 8e4f b9ba bfa6 02bd
000001a0: fb53 cfbd 383a 833d a360 6b3c ed0b ab3c
000001b0: 1ef9 c2ba ceb4 bf3c dc90 31bd f685 e63c
000001c0: 31bd 833c 612d 143d 83cd e1bc 03a1 d63c
000001d0: 00d1 5fbc 193a edbc 8088 f0bc 5742 8f3c
000001e0: 88f2 1fbd 0318 783b f55f 0e3c ae9c 20bd
000001f0: c8c9 cfba 982d 253d 8c5d 23bd c94b 493d
00000200: b150 0fbd 3b53 3abd c3da 98bd 04c8 e9bc
00000210: 9b1e c4bc b2f3 393d ecdb 993c 2f40 3e3d
00000220: dbc1 62b8 e397 32ba 1e48 183d d8c2 febc
00000230: 38fb 053c cf56 6abb 7476 3a3b 2d6d a4bb
00000240: 5524 d23c d2d3 0b3c 1d2b 0ebd cde4 77bd
00000250: 3757 7dbc cfa0 163b 36a6 d2bc f94e 7abb
00000260: e9b3 efba a23b 813c be21 3d3b 303f 6a3c
00000270: 0818 9c3c ab1f 5abb e425 dc3b 255d 193d
00000280: 1821 acbd 58be 83bc 8237 a73c b326 bdbc
00000290: f6cf 1a3d 338c 04bc faa4 023c 28ee 82bd
000002a0: b665 0a3d 15b2 103c c001 ae3c 7884 05bd
000002b0: 0ce4 f7bb f4dc dbbc af2d 0f3d a8f7 9a3c
000002c0: 9ce2 e7bc a08c 37bd 99a8 8c3c 1a85 f83b
000002d0: d490 b4bc 9c24 f7bb 609e 803d 0a04 56bd
000002e0: c102 b3bc 27fb f8bc 75e9 2e3d c170 5e3b
000002f0: d082 b2bc d1a1 e03c 1abb 18bd 5161 20bd
00000300: f9ea 643b da6b a1bb 692b 183d 73e3 9dbc
00000310: 9942 58bc 2e62 863a 04f9 69bd a77d 2c3c
00000320: 3bff 533d d677 fa3c 361f c13a 80ff 1c3d
00000330: 9e67 59bb ff8a f4ba bff9 9e3b de14 1fbd
00000340: 915a dfbb 3671 20bd 4e9b e3bc 1353 18bd
00000350: 3a7b e7bc e8f2 7b3b 49a0 c93a 3ca9 1c3d
00000360: cf92 e8bc 4eef 52bc dec6 e1bc c0e5 64bd
00000370: aae0 d5bb 0e00 5cbb 15c1 15bc ca0c 84bc
00000380: e9bf 3abd b5fc a6bc 11ae 18bc aeba d43c
00000390: b426 023d 00af a7bc a08e a5bd 21c9 b33c
000003a0: 2585 ecbc 88f6 d1bc eec2 693d 4ac9 8d3c
000003b0: 7c88 13bc 57ea 183d 6ac1 1cba 4b75 6ebb
000003c0: d825 9ebc 400c 35bc c126 d0bc b816 edbc
000003d0: 2273 cbbc 32f7 0cb9 eedd 693c 0d7b ad39
000003e0: 3b9e 753d 9c48 a73c dba8 af3c 13bc a13c
000003f0: a2a5 383b b92d 52bc 55da 763c f814 5ebc
0.04263739 0.056803223 -0.020134127 0.050323322 0.00028789978 0.029264035 -0.03419814 -0.03899209
-0.024061482 -0.039887916 -0.01679503 0.022369787 -0.019668905 0.072793305 -0.019992173 0.046558797
0.012891125 0.009532857 0.0034420337 -0.0019400956 -0.040885404 -0.018499173 -0.00834474 -0.020581732
-0.03634645 0.029407142 0.02594773 0.023491116 0.010636347 0.018273512 -0.017844584 -0.0016154201
-0.023786668 -0.012973006 0.035882793 0.03043095 -0.024398047 0.029233444 0.012446729 -0.027561247
0.0325478 0.017378693 -0.07113216 0.03809406 -0.0018647083 0.07476719 -0.01657873 0.050160166
0.050029702 0.0063286046 0.03984714 -0.05782572 -0.03475189 0.013495419 -0.035963733 -0.038395293
0.0037217694 -0.05531956 -0.008794499 0.05621214 0.020403177 0.01065768 0.012663188 0.052423734
-0.020989649 -0.0009993619 -0.031819716 -0.040276263 -0.01690631 -0.029033458 -0.03754281 -0.039799117
0.022431137 -0.028856387 -0.009169117 -0.010228938 0.0037311385 -0.03644247 -0.0044566467 0.0013054973
0.010100485 0.017173188 -0.021736223 0.0012099211 0.02807329 0.033778712 -0.010979087 0.057581186
0.047968242 -0.031215219 0.034765027 0.0011896311 -0.008500303 -0.0429188 -0.017651157 -0.042814706
0.045238666 -0.028937023 0.01021193 0.0073975557 0.014682734 0.023013474 -0.0014138089 -0.031897303
-0.1012344 0.06407589 0.014366302 0.02087971 -0.0014875268 0.023401644 -0.04335104 0.02814005
0.016081424 0.03617609 -0.027563816 0.026199823 -0.013660669 -0.028958367 -0.029361963 0.017487688
-0.039049655 0.003785611 0.00868987 -0.03921192 -0.0015852982 0.040326685 -0.039884135 0.04914454
-0.034989063 -0.04548953 -0.074636005 -0.028537758 -0.023940375 0.04539842 0.018781625 0.04644793
-5.406314e-05 -0.0006812794 0.03717815 -0.031098768 0.008177571 -0.0035757308 0.0028451951 -0.0050178976
0.02565209 0.008534389 -0.034709085 -0.060520936 -0.015462688 0.0022984033 -0.025714021 -0.0038194044
-0.001828787 0.015775505 0.0028859223 0.014297292 0.019054428 -0.0033283036 0.006718384 0.037442345
-0.0840475 -0.016081974 0.02041221 -0.023089742 0.037795983 -0.008090067 0.007973904 -0.06393081
0.033788405 0.008831521 0.021241069 -0.032597035 -0.007565027 -0.026838757 0.034955677 0.01891692
-0.028306298 -0.044811845 0.017170237 0.0075842263 -0.022041716 -0.007542206 0.06280208 -0.052249946
-0.0218519 -0.030393196 0.04270311 0.0033941718 -0.021790892 0.02742091 -0.03728781 -0.03915531
0.0034930094 -0.004926187 0.037150774 -0.019273495 -0.013199472 0.0010252648 -0.057122245 0.010528005
0.05175708 0.03057472 0.0014734033 0.0383296 -0.0033173333 -0.0018657147 0.0048515494 -0.03883826
-0.0068162163 -0.039170466 -0.027784016 -0.0371886 -0.028257001 0.0038444344 0.0015382852 0.038247332
-0.028390316 -0.0128744375 -0.027560648 -0.05588317 -0.006527026 -0.0033569369 -0.009140273 -0.01611938
-0.045593176 -0.020384172 -0.009318844 0.025967922 0.03177519 -0.020469189 -0.08083844 0.021946492
-0.028872082 -0.02563025 0.057070665 0.017307896 -0.009004708 0.03733286 -0.00059797487 -0.003638583
-0.019305155 -0.011050284 -0.025409104 -0.028941497 -0.024835173 -0.00013443528 0.014274104 0.0003308881
0.059965353 0.020420365 0.021442821 0.019743001 0.0028174897 -0.012828284 0.015066703 -0.013554804

network_body.observation_encoder.x_self_encoder.seq_layers.0.bias f4 [128]
00000000: a159 f23b 26d1 25bc af33 bfba ec01 703b
00000010: e4df da3b cdda c83b 6362 68bc c7c8 173c
00000020: 5967 893c 6049 b93a c821 c1bb 37fc 473c
00000030: 6da0 0d3c 4f01 c2ba f01d 8abc 287b 1dbb
00000040: d975 f1bb 06a3 593c 7467 493c 3bcd 033b
00000050: 29d2 91bb ca55 7bbb 78b1 d8bb 7747 663a
00000060: 9a20 75bc 4d20 f63a b999 a6bc b96b 12b9
00000070: 94e7 123c 367a e33b 3ae7 05bc 2f75 763c
00000080: 32e3 30bb 38e2 8e3c 87e6 9abc 86d4 253b
00000090: 8b2a 273c 8554 bbba da20 86bc 4935 503b
000000a0: 7465 b6bb 3680 043b 9384 753c 1624 10ba
000000b0: eb24 8f3c e9af 2cbc d907 8bb9 b69d 0b3c
000000c0: 5f31 a9ba 9311 b6bb a025 593b 1953 0fbb
000000d0: 5e9f c438 dc6f dcba 0fb4 26bc 6f08 243c
000000e0: 9f9a 00bc c860 c6bb 4001 56bb d24f ed3b
000000f0: c703 da3b ec0d 213c ab93 213c 8c5d 3cbc
00000100: 1a28 5fbc a4bc 50ba cc69 453c 9709 08bb
00000110: 973e c1bb 3798 c33b d3ac 003c b65a 03bc
00000120: bde5 9cbb f475 d33b 8ef6 febc bdb5 3a3c
00000130: 908e 2abb 9c7c 48bb 74d7 faba 63df 4fbb
00000140: d08b 5f3c 14b0 b53b 3adc e63b d9d4 bf3b
00000150: f306 3fbc 2c58 903c 269d a53c cd38 033d
00000160: 1515 9f3a 468f 06bc f7f0 8abb 778c 20bc
00000170: d9fc 033a 1910 c1bc fafb 0cbc c604 1d3c
00000180: 65e3 403c cbc3 793c 8459 843b 2874 51bb
00000190: ed9a 813b 3373 1abc 093f f63b 2201 11ba
000001a0: 1ac7 25bc 53be ea3b cff0 50bc d339 6bbc
000001b0: a36f 993b 4bf4 32bb 1ebd 563c 892e b9b9
000001c0: 5908 84bb 3705 693c ba0f 98bb a58f dd3b
000001d0: 7720 1fbb 1211 64bc 1a52 a73b 9b6d ec3c
000001e0: f612 5dbb f883 803a 053b c43b 1009 8d3b
000001f0: 003e a43a 3eb3 0d3c bb3e 303b e01d 423c
0.0073959385 -0.010120666 -0.0014587546 0.003662224 0.006679522 0.0061295987 -0.0141836135 0.009264178
0.016772913 0.0014136247 -0.0058939196 0.012206129 0.0086442055 -0.0014801415 -0.016859978 -0.0024029706
-0.007368785 0.013283497 0.012292732 0.002011134 -0.004450102 -0.0038350695 -0.006612953 0.0008784453
-0.014961386 0.0018777937 -0.020336973 -0.00013963775 0.008966345 0.006942059 -0.0081728045 0.015042587
-0.0026990888 0.017441854 -0.018908752 0.0025303676 0.010203014 -0.0014292157 -0.016373087 0.0031770042
-0.0055662934 0.0020218021 0.014985221 -0.0005498541 0.017473659 -0.010539987 -0.00026517993 0.008521488
-0.001290839 -0.005556294 0.0033133999 -0.0021869598 9.375693e-05 -0.0016818005 -0.010174765 0.010011776
-0.007849365 -0.0060540177 -0.0032654554 0.0072421813 0.0066532823 0.009829979 0.009861867 -0.011496913
-0.013620401 -0.000796268 0.01204915 -0.002075767 -0.005897354 0.005969073 0.0078537045 -0.008017233
-0.004788129 0.00645327 -0.031123426 0.011395869 -0.0026024915 -0.003059185 -0.0019137696 -0.0031718842
0.013644174 0.005544672 0.007045296 0.005854231 -0.011659372 0.017620169 0.020216536 0.03203659
0.001213702 -0.00821287 -0.004240151 -0.009799114 0.00050349307 -0.023567246 -0.008604998 0.009583658
0.011772965 0.015244435 0.0040389914 -0.0031960104 0.003955236 -0.00942688 0.0075148386 -0.000553148
-0.01011827 0.0071638017 -0.012752726 -0.014357048 0.0046824976 -0.0027306254 0.0131066125 -0.0003532062
-0.0040293154 0.014222435 -0.0046405466 0.0067615085 -0.0024280825 -0.0139200855 0.005106223 0.028860858
-0.0033733225 0.0009804955 0.005988481 0.004304059 0.0012530684 0.008648692 0.002689286 0.011847943

network_body._body_endoder.seq_layers.0.weight f4 [128, 131]
00000000: f455 c03b 4881 7bbd 71c6 403d 0391 3abe
00000010: 5764 4fbd 712b 24bb 069e 923d eb6b f9bd
00000020: ca5f 91bc 2632 2fbe 47b6 efbc a3fb f83c
00000030: 7abe b93d 6c66 61bd 8f25 493d 135e c33c
00000040: f370 b3bd 4c11 0d3d 0d4e 8fbd 168f a2bd
00000050: 470d e43c e5e4 d23d cf8d 94bd 2d6d 613c
00000060: 1232 873c 4d37 683d 2920 7fbd aff9 6cbd
00000070: ff7a e83d 8271 c1bb cf0a b3bd 8eab f83c
00000080: cbcb ecbd bb1e 873c c50f c9bb dcd6 8c3c
00000090: 5b59 bbbd 7dfc d63c f5a9 f0bd 57dd 533e
000000a0: 13be 02be 8158 aa3d 2aca 76bd 7457 0bbd
000000b0: dd5d d2bc 7191 d03d c18c 03bd 22a9 2ebd
000000c0: 156f a23d b4b0 cebd c8dc a23d e7be f1bb
000000d0: 11a0 0c3e 8da2 11be d9ad 683d dcc4 cfbd
000000e0: fff5 ddbd ca09 673d 909f 6dbd 7aaf 50be
000000f0: d638 d53c 3e11 15bd b6a8 613d e287 8f3d
00000100: 3200 4e3c 9624 d93d bc42 d9bb a734 953c
00000110: a8f4 a9bc ac37 d13b 349a 7f3d 885b 73bd
00000120: 38f6 853d 902e e8bc 1f0d 64bd 2aa0 c33d
00000130: bff3 2ebe 26ec 5e3c 4f0c 2bbd 5fdc 9c3d
00000140: ac1c c7bd ee91 ac3b b493 abbb ed76 4abc
00000150: df4a 17be 12ca 2bbe 5357 f1bc dda2 97bd
00000160: afe9 d23d 8795 b7bd 3b12 f73b 7f98 0ebd
00000170: 5467 36bd f038 9dbe bbe7 083e 3f07 96bd
00000180: 7046 4939 4bb7 123e a917 0b3e 30b8 dfbd
00000190: 2f92 673d acbe 74bd 4f29 8abd c0b3 7abd
000001a0: cbc5 2e3d 01a0 10bd 58b2 a83b ed48 063d
000001b0: 8100 87bd 4f5f c2bd 6459 e6bd 953d 153c
000001c0: 9b9b 3dbc 2413 5cba 88c5 27bd 9f26 583c
000001d0: 5a1e b8bd b378 d8bc 9745 bc3b 1f1f 993d
000001e0: c592 e73d 8fb7 4f3d 8fe4 b73c 4dfa 0fbe
000001f0: b010 bd3d 36ef ce3d eaf5 58bd 21b9 c3bc
00000200: 4cb2 253c 855b ac3c 55f7 813c a7ee a8bc
00000210: 3385 cfbd 9ca4 cabd 4481 1fbe f003 103e
00000220: ad53 a03d 310d 3a3d 6389 083d edae 11be
00000230: 78eb 453e fb7a fabd b6b7 b5bd 3c92 80bd
00000240: efb3 dcbc f735 9dbc a8d9 df3d ab43 0a3e
00000250: 2067 9cbc 6214 15bd 54cc 2b3e 0274 a9bd
00000260: ced1 b93d 3aca 803d 60b2 98bc a7d0 33bd
00000270: 118c cfbd 7492 ac3d 17e6 323e a8b6 e83d
00000280: 40a8 75bd cae6 0abe 9d5d e5bc 24bb 243d
00000290: 24c8 edbc 2077 f4bc 6b65 b7bd d2fd 1c3e
000002a0: 12ba abbd f931 dd3b 6a46 fd3b 3173 4c3e
000002b0: 67d7 c23c 820c 8e3d cb0b 69bd 5bc7 dcbd
000002c0: 669f 4dbc 193e ab3d bd19 65bc dd3c a4bd
000002d0: 163a 8a3a 3b06 6c3d d866 20be 9242 503e
000002e0: 6117 d3bd 79a3 0cbe 0d03 3abd 56f2 dcbc
000002f0: 5f5c afbd a6e9 af3c 450b 0b3e c493 4b3d
00000300: 9992 eabd 8ea6 d4bd 1186 3ebd 7f3b 99bd
00000310: 5ae3 f7bb c890 ef3a 600e 1f3d 66d4 b43d
00000320: ea90 b23d 339c 23bb dbb0 a03d b313 bbbc
00000330: fae3 033d 117b 2e3d 4f3d 85bd 9209 033e
00000340: e7b6 8a3c ba94 b63d 85a2 9fbc f6b4 b4bc
00000350: b3c7 6e3d 3731 97bd cc61 1dbd 3817 ecbb
00000360: a0eb 81bd 398b 063d f4aa cabc 1b1d bc3b
00000370: 5d9b 03bd 64f3 653d 815b 4cbc 7344 babb
00000380: ab86 533d 0835 36bd bf4e 023e f44e 653d
00000390: 6fb6 5d3d 713c 83bd e3ae 1c3d ccf0 a73d
000003a0: 3d58 7a3d bb9c cc3d e679 563e d6ce b5bc
000003b0: 6cec c3bc 5ca6 a63b 5eea 11be e6ac b3bd
000003c0: 6c1b 1e3d cbc3 aeba 704c d7bd a6ae fbbd
000003d0: ffcd 87bc 3b9b 62bd 6005 0f3e 03b3 063e
000003e0: 185d 0cbc 400a 0e3d f404 0cbe e927 dfbc
000003f0: 10b6 85bd 06cd 583c 5115 55bd 49c4 383e
0.0058696214 -0.06140259 0.04706425 -0.1821938 -0.0506328 -0.0025050307 0.07159047 -0.12178787
-0.017745871 -0.17108974 -0.029261721 0.030393427 0.09069534 -0.055029318 0.049108084 0.023848569
-0.08761778 0.034440324 -0.06997309 -0.07937448 0.027838362 0.102975644 -0.0725361 0.01375894
0.016503368 0.056693364 -0.06228653 -0.057855304 0.11351585 -0.0059034238 -0.08742296 0.030355241
-0.11562308 0.016494146 -0.006135913 0.017192297 -0.091479026 0.026243443 -0.11751167 0.20689903
-0.1276782 0.08317662 -0.060251392 -0.03401895 -0.025679523 0.10183991 -0.032116655 -0.042641766
0.079313435 -0.10092297 0.07952267 -0.0073774937 0.13732935 -0.14222164 0.05680642 -0.1014497
-0.10837936 0.05640582 -0.0580135 -0.20379439 0.026028078 -0.036393397 0.055092536 0.070083395
0.012573289 0.10602681 -0.00663027 0.018213583 -0.020746544 0.0063848104 0.06240292 -0.059413463
0.06541103 -0.028342515 -0.055676576 0.09552033 -0.1708517 0.013606107 -0.041759785 0.0765922
-0.097222656 0.0052664196 -0.0052361134 -0.012357456 -0.14774655 -0.16776302 -0.029460585 -0.074041106
0.10298478 -0.08964067 0.007540015 -0.0348134 -0.044532135 -0.30707502 0.13369648 -0.07325601
0.00019195094 0.14327733 0.13583244 -0.10923803 0.056535896 -0.05975215 -0.0674616 -0.06120658
0.0426691 -0.03530884 0.0051482134 0.03278439 -0.06591893 -0.09490835 -0.11247519 0.009108921
-0.011572744 -0.0008395186 -0.040959865 0.013192802 -0.08990164 -0.026424741 0.0057456004 0.07476639
0.11307291 0.050712164 0.022447852 -0.14060326 0.092316985 0.101042196 -0.052968897 -0.023891987
0.01011331 0.021039734 0.015865007 -0.02062161 -0.101328276 -0.09894678 -0.15576655 0.14064002
0.0782846 0.045422737 0.033334147 -0.14226885 0.19328105 -0.12230488 -0.08872931 -0.06277892
-0.026941268 -0.019190772 0.109301865 0.13502376 -0.019092143 -0.03639639 0.16777164 -0.0827408
0.0907322 0.06288572 -0.018639743 -0.04390016 -0.101341374 0.08426371 0.17470585 0.11362964
-0.05997491 -0.13564602 -0.02799874 0.040217534 -0.029026099 -0.02984196 -0.08954891 0.153312
-0.083850995 0.006750342 0.0077293413 0.19965817 0.023784352 0.069359794 -0.056896012 -0.107802115
-0.012550211 0.083614536 -0.013983187 -0.08019421 0.0010545875 0.05762313 -0.15664232 0.20337895
-0.103071935 -0.13734235 -0.045413066 -0.026971024 -0.0856254 0.021473717 0.13578518 0.049701467
-0.114537425 -0.1038333 -0.046514574 -0.07482051 -0.007564944 0.0018277401 0.03883207 0.08829574
0.087190464 -0.0024964928 0.078462325 -0.022836542 0.032199837 0.042597834 -0.06505834 0.1279662
0.016932918 0.08915086 -0.019486675 -0.022058945 0.058295917 -0.07382434 -0.038423344 -0.0072049163
-0.0634377 0.032847617 -0.02473972 0.0057407743 -0.032130588 0.05614032 -0.012472988 -0.0056844293
0.0516421 -0.04448417 0.12725352 0.0559835 0.05412906 -0.06408013 0.038252722 0.08200225
0.061119307 0.099908315 0.20944938 -0.022193354 -0.023916446 0.0050857496 -0.1424956 -0.08773212
0.03860037 -0.0013333497 -0.10512626 -0.12289171 -0.016577719 -0.05532382 0.13966894 0.13154225
-0.008567117 0.034677744 -0.13673764 -0.02724071 -0.06528866 0.013232475 -0.052022282 0.18043627

network_body._body_endoder.seq_layers.0.bias f4 [128]
00000000: bda7 3d3b 64ca 123a 673c b8bb a7d2 2cbc
00000010: 5927 48bb 4acd 733b eb06 fbba af04 173b
00000020: 4814 24bc 2d87 37bb 4934 853c 5665 ad3a
00000030: 5088 fbbc b610 f33a 4fc2 a23c 1ff5 913a
00000040: b1f4 37bc 2012 0ebc 6dbb 373c 49fa b53b
00000050: 1bc2 e53b 80ad 663c 5266 2b3b 4850 7dbc
00000060: d840 8e3c c31e 1c3b 654b 81bc 0b3f cf3b
00000070: b2ab b33c 4aab e1bb e201 1d3c ce4b b13b
00000080: 81a6 a03c 4111 9bbc 21d7 5d3a 0917 ac3b
00000090: ba6a 3bbb 9a6a 073c ccbc b4bb 20ad cc3c
000000a0: 9215 343c 3758 413c cb0b 2e3b 8c13 d2bb
000000b0: b81d 073c 3236 8e3b 5658 bd3c 59da 193c
000000c0: e241 98ba 8c25 903c 4166 713c 4418 5ebb
000000d0: 3513 18bc e47e 1e3c d1c9 1c3d 05a4 70bc
000000e0: a740 e93b a774 f53b ca98 8e3b 39d9 053c
000000f0: 1870 113c 2deb 6e3c 9208 033c 3a59 383c
00000100: d67a f03b 3017 52bb eefc 83ba 4b5c a63b
00000110: eca6 9a3c acad 313b da24 653c a76c 9bbc
00000120: f352 f3bc 370f 823b 5dfa 773c 541e a83b
00000130: cb27 dd3c 9b39 8abb b0f0 acba 003b 17bb
00000140: aaf0 3abb 3050 ccbc 79a0 d337 13f1 813c
00000150: b750 203b 22cf 8a3c 862d 85bc 4a10 d93c
00000160: bc1f ecbc dd08 84bc 8ee1 773c 81a4 30bc
00000170: a825 273b 49d2 82bb 9e4c 5cbc 4bb5 c23c
00000180: 7cb4 82bc 7ebd aeba 579b 9eba 994c 043c
00000190: deb4 7ab9 d4fc d8bb 3aaf 043c b21d a7bb
000001a0: 8093 31bc f63e 00bc 92eb dfbb 56da a9bc
000001b0: 7437 8e3b ce3f 0bbc 4a10 3bbc 62c7 4a3c
000001c0: 4908 aebc 9531 8bbb 084f 8abb ba27 823c
000001d0: 1c63 c1bb 21a0 f5ba b476 e2bb bedd bcbb
000001e0: d002 36bc 72bf c8ba 8409 603c 17a9 ecbb
000001f0: 9fcb a43b 3868 f33b e754 483c 0ff8 603c
0.002893909 0.00055996166 -0.005622435 -0.01054827 -0.003054103 0.003720122 -0.0019151842 0.0023043563
-0.010014601 -0.0028004155 0.016260283 0.0013229053 -0.030704647 0.0018544409 0.019868044 0.0011135674
-0.011227773 -0.0086713135 0.011214119 0.005553518 0.0070116646 0.014079452 0.0026153517 -0.015461035
0.017364904 0.0023822046 -0.015783021 0.006324654 0.021932457 -0.0068868743 0.009582968 0.005410648
0.019610645 -0.018929126 0.00084625377 0.0052517694 -0.002859755 0.008265162 -0.0055156704 0.024984896
0.010991471 0.011800817 0.0026557322 -0.0064110216 0.008246832 0.0043399567 0.02311341 0.009390437
-0.0011616314 0.017596029 0.014733852 -0.0033888975 -0.009281923 0.009673808 0.038278405 -0.014687543
0.007118303 0.0074907127 0.00435171 0.008169466 0.008876823 0.014582437 0.007997649 0.011251742
0.007338862 -0.0032057278 -0.0010069886 0.00507692 0.018878423 0.0027111573 0.013985837 -0.018972708
-0.02970264 0.003969099 0.015135375 0.0051305685 0.026996514 -0.004218293 -0.0013194289 -0.0023075938
-0.0028524795 -0.02494058 2.5227886e-05 0.015862023 0.0024462172 0.016944472 -0.016257059 0.026497025
-0.028823726 -0.016117508 0.01512946 -0.010781408 0.0025504623 -0.003992353 -0.013446001 0.023768088
-0.015955202 -0.001333162 -0.0012100738 0.008074903 -0.00023909236 -0.0066219363 0.008098418 -0.0050999755
-0.010838389 -0.007827511 -0.006833502 -0.020733994 0.0043401066 -0.008499099 -0.011417458 0.012376638
-0.021244185 -0.004247854 -0.004220847 0.015888084 -0.0059017073 -0.0018739739 -0.006911123 -0.0057637384
-0.011109069 -0.0015315844 0.013674144 -0.0072223055 0.0050291563 0.0074281953 0.012227274 0.013731017

network_body._body_endoder.seq_layers.2.weight f4 [128, 128]
00000000: b4ce 8a3d dba6 c0bd f580 ac3b a80d 393e
00000010: f10c d13d ab03 ad3d f345 4abe 3c9e 5b3d
00000020: ead2 83bd 4f47 cfbc 9b40 cebd 3bd0 52bc
00000030: 2594 06bd ea9f 5c3d 55e9 4b3c dab1 043e
00000040: d85f 4dbd 77f6 22bb 5a2d 80bc 2353 e73c
00000050: 4c87 4cbd 90e2 9f3c e385 e8bd d86c 0c3c
00000060: ebd9 85bd 8414 adbd c3f1 613d cd3e 6f3d
00000070: 1369 033d ea65 da3c 60ae 813a 5bcb 1c3e
00000080: 9ce4 a7bd d225 b8bd 61c0 2d3d a044 07be
00000090: 9017 0e3e 52c3 003e ced0 d6bd 122f 0f3e
000000a0: 0985 c73c 3ac9 34bc c5fb 863d 1c8c ecbd
000000b0: c173 e7bd b000 8c3d 10db b6bc 8388 77bd
000000c0: 1950 b53d a80a 403d bbb6 003e 92a2 343d
000000d0: eb21 843d b275 c5bd 5cfe eb3b 8a41 343d
000000e0: 2dfd 313e 5c4b 633e 3df1 0ebd e7e7 afbd
000000f0: e9f6 5bbd 21ac 363e 4bfd 0dbb ddd2 17be
00000100: 8980 863d c4ac 2cbd 97e5 70bd c3c1 a1bd
00000110: d802 0a3d ce43 a9bd ee95 5fbd 6329 00be
00000120: b117 3a3e 9def 323e 6d0a a8bd b749 ac3c
00000130: 91d2 71bd 0ee5 bbbd 5f25 acbc 2a96 27be
00000140: a162 9e3c 9e0b 9c3d 7045 603d b7b9 c7bc
00000150: 5e45 c33d 0a77 0cbe 2d55 17bd 8285 0bbe
00000160: f3bc eb3d debb 213b f826 c5bd 22c8 cb3c
00000170: 504c 08be 494e 1a3c 8ed2 d8bd 937e 2d3d
00000180: bb8c 603d 8adf 18be c46c ad3d 4b04 5e3d
00000190: fe4d 2d3d e8d9 43be 625f 9d3d 5386 99bd
000001a0: 3b9e a6bd f769 e8bd d8b4 9f3d fdb8 3b3d
000001b0: f4b6 15bd 124f 4a3d fbfd df3d 8eed 2abe
000001c0: d09b b5bd f259 b73d 16bc 1f3d ef20 34ba
000001d0: 3a3a 653d c5f2 873d e45d 10be b8a6 c7bd
000001e0: d378 09be 54c3 edbd 692c 5a3b 5a6b 9f3b
000001f0: cec4 47bd f802 89bd 248c 03be 4130 01be
00000200: 9b3f 7bbd 08ee 92bd dbd4 e5bd 906f 173e
00000210: 1a88 61bc d522 ca3d be9a a7bd 9bf8 9c3d
00000220: e79a ba3d dff0 883c 50c0 de3d f345 bf3d
00000230: c851 7fbd 4b27 21be 024d 80bd dfd6 e3bc
00000240: d969 203d af4f febd 03c3 0f3e 7a3d 843d
00000250: 3794 40bd 38f9 0dbe 50e3 8dbd 0aa5 c9bd
00000260: 4c27 983d 1688 bfbd 7b34 f13c 3532 e7bd
00000270: a8f4 bfbc 8187 f63d db7f d63d 72b1 aa3d
00000280: 5023 7b3d 57e9 593d 5499 c53d 1016 f43d
00000290: fe94 ea3d 8908 573d 7bdd 23bd 8180 253e
000002a0: 22b2 3b3d d42c 593d b98a 9bbb 6937 0ebd
000002b0: 2979 22bd f236 0bbc 9c5b 213d 5c78 c4bc
000002c0: 8cc2 aabd 0842 283d 68b1 da3d df93 b43d
000002d0: b1b0 043e abd4 173e 2883 d1bd abe7 323e
000002e0: 51ed fe3c a3a3 8abd d8b6 c0bd 573d 49bd
000002f0: f356 48bd 7465 b8bd a4ad d43d 7a2c e83d
00000300: 4d1b 25be 9373 3cbc b4f8 5fbd 03ec 363d
00000310: 16dc 033e 907f 9dbd 0593 04be 07c7 793b
00000320: d135 fc3d ecbc fbbc b54e 46be 3d29 ea3d
00000330: bc3a d7bc 5020 e8bc dd90 7b3d cac7 9d3d
00000340: 8571 f73b e108 1abe cdb4 2cbe fbaa 11be
00000350: 2cd3 31bd ac12 b13d a739 783d 3d0e 54bd
00000360: 04f3 1bbe dfaa e9bc 3f24 1dbe 6466 db3d
00000370: b6cf e9bc 3820 123e c077 8ebc 112b 42bc
00000380: 32f1 eebc 1333 a23d c539 843d 6d03 d43d
00000390: 51e3 22bc 5b52 b13c 0016 d73d 1e67 893b
000003a0: 9065 8dbd 66b9 d9b9 b11b 6bbd ff17 a73d
000003b0: 6d11 1f3d 7c0e 1bbc cdcc d73d e310 1d3e
000003c0: f8d0 523c 8dc7 203c cf1a aebd 3993 2fbd
000003d0: 0479 a4bd eca8 a73c 6bb3 9dba ee77 413d
000003e0: bcc2 d13c d787 c83d a84e 74bb e3ce 283e
000003f0: b8bf 22bd 0faf f6bc 77a0 b53c 3d24 64bd
0.06777707 -0.09406825 0.0052643963 0.18071616 0.102075465 0.08447965 -0.19753246 0.0536177
-0.06436713 -0.025302557 -0.10070916 -0.012867029 -0.032856125 0.053863443 0.012445767 0.1295847
-0.05014023 -0.0024866143 -0.015646625 0.028237885 -0.049933717 0.019517213 -0.11353662 0.008570872
-0.06535705 -0.08451179 0.055162203 0.0584095 0.03208263 0.026659925 0.0009893887 0.15311949
-0.08197901 -0.08991589 0.042419795 -0.13209772 0.13876176 0.12574509 -0.10489045 0.139828
0.024355428 -0.011034304 0.0659099 -0.11550161 -0.11301375 0.06836069 -0.022321254 -0.060432922
0.08853168 0.046885163 0.12569706 0.04410035 0.06451782 -0.09641589 0.007201953 0.044007815
0.17381735 0.22196716 -0.03489803 -0.08589154 -0.05370227 0.178391 -0.0021665867 -0.14826532
0.06567485 -0.04215695 -0.058812704 -0.07898285 0.03369412 -0.08264886 -0.054586343 -0.12515788
0.181731 0.17474218 -0.082051136 0.021031244 -0.059038702 -0.09174548 -0.021013914 -0.16365877
0.01933414 0.07619403 0.05475372 -0.024380548 0.09534715 -0.13717285 -0.036946464 -0.13625148
0.115106486 0.0024678628 -0.09626573 0.024875704 -0.13310361 0.009418079 -0.10587035 0.04235704
0.05482171 -0.14929023 0.08468011 0.054203313 0.042310707 -0.19126093 0.076842085 -0.074963234
-0.08135649 -0.11348336 0.07798165 0.045830715 -0.03655143 0.049391814 0.10937115 -0.16692182
-0.088676095 0.089527026 0.038997732 -0.00068713626 0.055963732 0.066381015 -0.14098316 -0.09748596
-0.13424997 -0.116095215 0.003329063 0.004865092 -0.048771672 -0.06690019 -0.12846428 -0.12616064
-0.061339956 -0.07174307 -0.112222396 0.14788651 -0.013765359 0.09869925 -0.081838116 0.07664605
0.091115765 0.016716419 0.108765244 0.09339514 -0.062333852 -0.15737645 -0.06264688 -0.02781242
0.039163444 -0.12417542 0.14039235 0.06457038 -0.04701635 -0.138646 -0.06928122 -0.09845932
0.0742937 -0.09352128 0.02944397 -0.11288873 -0.02343209 0.12037564 0.10473605 0.08334626
0.061312973 0.053201046 0.09648386 0.119182706 0.11454199 0.052498374 -0.040006142 0.16162302
0.045824178 0.053021267 -0.0047467616 -0.034720812 -0.03966633 -0.008496987 0.039394006 -0.023983173
-0.08337888 0.041078597 0.10678369 0.08817267 0.12958027 0.1482722 -0.10230094 0.17471187
0.03111902 -0.067694925 -0.09409875 -0.049130764 -0.048911046 -0.09003726 0.10384682 0.11336608
-0.16123696 -0.011502164 -0.05468054 0.044658672 0.12876925 -0.07690346 -0.12946709 0.0038113014
0.12314952 -0.030729733 -0.19365962 0.11433647 -0.026273124 -0.02833572 0.06141745 0.07704122
0.0075513744 -0.1504245 -0.16865845 -0.1422538 -0.04341428 0.086461395 0.060601857 -0.05177139
-0.15229422 -0.02852386 -0.15345858 0.10712889 -0.028541427 0.14270103 -0.017391086 -0.011851088
-0.029167745 0.07919898 0.06456331 0.10352216 -0.009941892 0.021645715 0.10502243 0.0041932007
-0.06904137 -0.00041527598 -0.057399455 0.08158874 0.038834978 -0.009463903 0.105371095 0.15338473
0.012867205 0.009813202 -0.08501207 -0.04286501 -0.080308944 0.02046629 -0.001203162 0.047233514
0.025605552 0.097915344 -0.0037278328 0.16485171 -0.03973362 -0.030112771 0.022171242 -0.055698622

network_body._body_endoder.seq_layers.2.bias f4 [128]
00000000: ec23 a73b cd9c 293b 099b 273b db3b 9cbb
00000010: 43af 1ebc 0c5b 82ba d8bb 39bc e8e2 8cb9
00000020: 6af2 75bc d342 20bc 0cc1 38ba 5131 dc3a
00000030: 217e 613c 71c3 813b dd26 583c 02fa 043c
00000040: 2a00 ad3b bb01 e63b e3ce 7f3c 60ed ee3b
00000050: 35b5 5abc 4d66 00bb f88b c0b9 9575 5bbc
00000060: c8f8 c7bb ac80 ddbc 1900 afba c429 1c3b
00000070: 5e8f d83b 7b33 783c 9053 6ebc f72e eb3c
00000080: ee1e 27bc 87d3 d53c 6855 4cbc b153 a83c
00000090: 853e 17bc 81cb a4bc 63dc 84b8 ef9d a9ba
000000a0: 40de b2bb 79a1 543c c4b3 f6bb 5ad8 fd3b
000000b0: 4c37 a53c 4f85 a83b 2179 39bc 6fc7 703b
000000c0: 385d bf3c 9306 613c 0fdf c13a 5b80 64bc
000000d0: f82e 153c 3864 8eba 521c 92bc 9811 eebb
000000e0: d7df c53a 6b03 0a3a 0fb8 99bc 8c18 3d3c
000000f0: f982 4dba 304e d1bc d71a 34bc 0463 903b
00000100: 0696 9cbc e226 8e3c 55f0 7fba b2af 8cbb
00000110: bc53 0b3c d48f 8fbb 5c78 5abb bd26 763c
00000120: 531c 823b 2dd3 02bc f941 10bc 50c4 e9bb
00000130: 223f ac3b fe31 e63c 0082 ba3b 2bff c03b
00000140: f366 b33a 585d eabb 8718 1abc ad3a 4f3c
00000150: d823 07bc ee14 3dbb 8cff 1bbb 775d f63b
00000160: cf66 4abc e12f 15bc 9f8e 9a3c 3a5a bb3b
00000170: d2be 263c 8655 59bc 29a6 833c 0d93 cabb
00000180: 1361 4b3c aee2 e9bb 5b1a 913b 4584 5b3c
00000190: a09f 5c3b 1ec2 863b 5d82 a838 e45d 023c
000001a0: e376 663c cb56 a53c 1a46 98bb c9a0 633b
000001b0: c1d4 553b 152a 8bbc bc7e 80bb ef1a e13b
000001c0: 692c 8d3b 45c9 89bc a5af 16bc a9a5 1abb
000001d0: 108f 223c ceb9 46bb fc93 78bc 657a e33a
000001e0: 6084 b53c 2dac 883c f849 0ebc abe2 ecba
000001f0: 803b 723c dec3 3f3b 3192 a2bb 0ed4 133c
0.005100718 0.0025880814 0.0025574586 -0.0047678775 -0.00968534 -0.0009945347 -0.011336289 -0.0002687194
-0.015011409 -0.009781557 -0.0007047809 0.0016799365 0.013762982 0.003960066 0.0131928595 0.008116247
0.0052795606 0.0070192493 0.0156132905 0.007291481 -0.013348867 -0.0019592226 -0.0003672538 -0.013394733
-0.006102655 -0.027038895 -0.001335147 0.0023828605 0.0066088876 0.015148993 -0.01454629 0.028708918
-0.010200245 0.02610184 -0.012471534 0.02054772 -0.009231214 -0.02011657 -6.335301e-05 -0.0012940745
-0.005458623 0.012977951 -0.007528754 0.0077467384 0.02016797 0.0051428447 -0.011320383 0.0036739965
0.02335988 0.013734478 0.0014791208 -0.013946618 0.0091054365 -0.0010863608 -0.01783577 -0.007265281
0.0015096617 0.00052647915 -0.018764524 0.011541497 -0.0007839646 -0.025549978 -0.010992727 0.004406335
-0.019114505 0.017352525 -0.000976329 -0.0042934055 0.008503851 -0.0043811593 -0.00333359 0.015023884
0.0039706617 -0.007984919 -0.008804792 -0.007133998 0.0052565495 0.02810001 0.0056917667 0.0058897934
0.0013687297 -0.0071522407 -0.009405262 0.012648267 -0.008248292 -0.0028851586 -0.002380344 0.007518466
-0.012353613 -0.0091056535 0.018866835 0.005717543 0.010177331 -0.013265019 0.016070442 -0.0061820806
0.012413281 -0.007137618 0.0044281906 0.013398235 0.003366448 0.004112496 8.035146e-05 0.007956956
0.014066431 0.020182988 -0.0046470286 0.0034733287 0.0032628032 -0.01698784 -0.003921358 0.006869666
0.0043082726 -0.016819606 -0.00919715 -0.0023597276 0.009921804 -0.003032315 -0.015172001 0.0017355202
0.022157848 0.016683662 -0.008684628 -0.0018072923 0.014784694 0.0029261033 -0.004961275 0.009022726
