Assets/results/ppo/My Behavior/My Behavior-499954.onnx (onnx, 578818 bytes, 21 tensors)

network_body.observation_encoder.processors.0.self_ent_encoder.seq_layers.0.bias f4 [128]
00000000: 4954 94bc 4e19 48ba 759d 503c 6ffc 263c
00000010: 6322 e0ba a630 eabb a69e 403b 3f39 5d3b
00000020: 835b a6bb e64d 053c ee28 633b c84d 03bc
00000030: f1dd 433c d269 773c f349 86bc eea7 183c
00000040: 506e d5bb 5ad7 d43b cbfe 08ba c617 2d3c
00000050: 747b a3bb 7c80 92bc de20 953c 718e 5b3b
00000060: ecec 74bb 0c75 1a3c 96c2 0b3b a3fe b8bb
00000070: e1e0 d83b 2f0d aa3b 7409 853c d136 913b
00000080: 0d3e 00bc bea1 1cbc 51cf 443a a415 b9bb
00000090: fa19 cf3b 9773 44bb a808 663b ae63 b03b
000000a0: 0698 b23b 1c7e 383c 25f5 22bc 32c6 6b3c
000000b0: 13ec 8d3a e5af 2cbc f1ba 8cbb 0606 35bb
000000c0: b50d a6ba 0adb 4a3c 0b5f 65bc 61ba 163c
000000d0: 5697 b5bc 61d1 903a c536 5d3c 1f72 d8ba
000000e0: d19b 8a3c ec53 b5bc 0f2b 6b3b 1bcd 1ebc
000000f0: ee92 87ba 6929 ae3b 70c7 82bb 04ed fcba
00000100: a003 03bc 7ab5 d43a 42c5 fcb7 94a6 f13b
00000110: 8e28 38bc f9ec fdbb 7acb 2b3c 5497 89bc
00000120: 0862 c3bc 542b c0bb 00f5 bbbc 6579 f33b
00000130: 5719 593b 01da 883b d75f 71bc eceb 063c
00000140: 6309 6ebc 016f a23b 65e2 033c 7b1f 353c
00000150: 35be b1bb 7fbf 55bc 350a 77ba 10df 9abc
00000160: abb9 c03b 25ca 83bc 1e3d f9ba 6ac2 973c
00000170: 3a74 2cbc bb46 f5bb 6b71 373c 74ca 3e3c
00000180: 14fb 3fbb 5b2a 873b c38e 38bb cd9a e93b
00000190: bba1 963a 1faa 46bb 336d 14bc 8c56 1a3b
000001a0: 5869 3bbc e727 5e3c a00a 4eba 3d46 66bc
000001b0: 167c a93b 074c 96bc 2462 38bc eb1f 3c3a
000001c0: e1ef b33c 5799 6fba 3b98 d83b 0dd2 92bc
000001d0: da47 50bc acd9 18bb 4e02 afbc c8f1 1fbc
000001e0: 921a c23a 44ff 2dbc 0b63 59bb e468 b0ba
000001f0: be6d a03c 0d67 5f3c 75a8 16bc fda2 503a
-0.018106597 -0.0007633165 0.012732853 0.010192021 -0.0017100092 -0.0071469126 0.0029391437 0.0033756045
-0.005076827 0.008136248 0.0034661847 -0.00801415 0.01195477 0.015100913 -0.016392684 0.009317381
-0.0065133944 0.0064953985 -0.00052259554 0.01056475 -0.004989082 -0.017883532 0.018204149 0.003350165
-0.0037372662 0.00942732 0.00213257 -0.0056455894 0.0066186045 0.00518956 0.01623986 0.0044315835
-0.007827294 -0.009560047 0.0007507699 -0.0056483317 0.0063202353 -0.0029976123 0.0035100374 0.0053829765
0.0054502515 0.011260536 -0.009946142 0.014390515 0.0010827802 -0.010539983 -0.004294746 -0.0027621998
-0.001266888 0.012381325 -0.013999711 0.00919971 -0.02216689 0.0011048728 0.013501828 -0.0016513503
0.016920002 -0.022134744 0.003588382 -0.009692456 -0.0010343471 0.005314995 -0.00399106 -0.001929671
-0.00799647 0.0016228401 -3.0132596e-05 0.007374594 -0.011240138 -0.0077491966 0.010485524 -0.016795792
-0.023850456 -0.00586454 -0.022943974 0.007430243 0.0033126676 0.0041763787 -0.014732323 0.008234959
-0.014528605 0.0049570804 0.008049582 0.011054869 -0.005424286 -0.0130461445 -0.0009423823 -0.018905193
0.0058815083 -0.016087601 -0.0019015407 0.018525321 -0.010525757 -0.0074852384 0.011196475 0.011644948
-0.0029293941 0.004124922 -0.0028161264 0.0071290494 0.0011492291 -0.0030313802 -0.009059238 0.002355012
-0.01143869 0.013559318 -0.00078598596 -0.014054832 0.005172263 -0.0183468 -0.011253867 0.0007176387
0.02196497 -0.0009139976 0.006609944 -0.017922426 -0.012712443 -0.0023323102 -0.021363404 -0.009762235
0.0014808944 -0.010619942 -0.0033170606 -0.0013458994 0.01958358 0.013635409 -0.009195437 0.00079588575

network_body.observation_encoder.processors.1.self_ent_encoder.seq_layers.0.bias f4 [128]
00000000: 26c0 4c3c 0c5c ce3b 49c9 bcbc f29b 4a3c
00000010: 6b4e 6abb 936f b03b 7ec2 f1ba 5425 fd3b
00000020: 112f 4a3b 7566 b8bb a13b 6a39 723f 003c
00000030: cb5e 8fbc c1ac 91ba a01a 1a3c 0577 0bbc
00000040: 5dc1 ae3b 5a8d f039 93c9 5fbc b9db bcbc
00000050: c569 8d3b 2b1a 373c 1a18 c13b 2fd1 c2bc
00000060: ea9f 1ebc 31cf 6c3c c87b ce3b bcd7 21bc
00000070: e359 1f3c b842 9dbb 86b5 19bc fa66 5bbc
00000080: 2e27 043c f08c a83c 2356 8cba 4641 093c
00000090: b139 073c 4e9e 153c dc58 d23a 9435 573b
000000a0: f1f5 043b 87c6 39bc 4da1 b3bb e772 4e3c
000000b0: e77e 15bb 4486 423c 1d4f 713c 9faa e9bb
000000c0: 3246 9cbc 16be 60bc b897 d83b c0d6 373c
000000d0: 1a30 2cbc 9d87 50bc 5d05 513c 86d0 bb3b
000000e0: 2404 78bc 22fd 76bb 9fd5 70bb 3394 dc3b
000000f0: 08fd 99bc f831 05bc 3d93 4f3c 0784 77bb
00000100: d6ee 9a3b d4e3 84bb 46e8 e03b 65bd 3cbc
00000110: 762c 1f3c 9efc 7b3c e7ae 053c eb15 823c
00000120: a873 383c e58c ab3b 740d 47bc ad7f b1bc
00000130: 41a7 30bc a943 9abc 6d61 8fbc 43be e03b
00000140: d2bb 9d3c bd50 b13b 286b dd3b f258 b1bc
00000150: eb21 9e3c a09a 87bb 056a 8a3b 2b8d babc
00000160: 3ee1 b7bc 7f02 a43c 58b5 64ba 8b50 423c
00000170: c853 db3a 1c49 a53c ab29 efbb 611f b1bc
00000180: c008 0f3b a7e1 3dbc 96da 83bb 4240 a13c
00000190: a929 74bc 1f07 44bc 399c ba3b 2f2d d0bc
000001a0: e472 2e3b 748c c03b b9df c3bb b51c 0e3b
000001b0: 8900 8a3a c8fb 2dbb 7309 043d 3564 6138
000001c0: 1fcc 2cbc d857 eebb 2048 b6ba 5309 9d3a
000001d0: a156 993a 4e42 123b 140f 25bc 1b8e cc3b
000001e0: c8b0 313b 34d0 8f3c da27 59bb 3082 2c3c
000001f0: da0a 613b 9022 08bc ce83 a73c 1692 be3b
0.012496984 0.006297594 -0.023045199 0.012366282 -0.0035752307 0.0053843944 -0.0018444804 0.007725397
0.0030850808 -0.005627448 0.00022338193 0.007827627 -0.017501255 -0.0011114107 0.009405762 -0.008512263
0.0053331093 0.00045881682 -0.013658899 -0.02305399 0.004315587 0.0111756725 0.0058927657 -0.023781387
-0.009681681 0.014453695 0.006301377 -0.009878095 0.0097260205 -0.0047992133 -0.0093816575 -0.013391251
0.008065982 0.020575017 -0.0010706823 0.008377379 0.008253501 0.009131981 0.0016048211 0.0032838332
0.0020288194 -0.0113388365 -0.005481875 0.012600637 -0.0022811235 0.011872832 0.014728335 -0.0071309353
-0.01907644 -0.013717195 0.006609883 0.011220634 -0.010509515 -0.012727645 0.012757626 0.005731645
-0.015137706 -0.00376875 -0.0036748422 0.006731534 -0.018797413 -0.008129589 0.012669382 -0.0037767903
0.0047281785 -0.0040554795 0.0068636267 -0.011519765 0.00971519 0.015380053 0.008159376 0.015879592
0.011258043 0.005235302 -0.012149204 -0.021667326 -0.010782064 -0.018831091 -0.01750251 0.0068586185
0.019254599 0.005411236 0.006757159 -0.021648858 0.019303283 -0.004138306 0.0042240643 -0.022772392
-0.022446271 0.020020721 -0.0008724532 0.011860023 0.0016733343 0.020176463 -0.0072986684 -0.021621408
0.0021825284 -0.011589444 -0.00402386 0.01968396 -0.014902511 -0.011964588 0.0056948927 -0.02541217
0.0026618773 0.0058761183 -0.0059775976 0.0021684591 0.0010528724 -0.0026547778 0.032235574 5.3737505e-05
-0.010546713 -0.0072736554 -0.0013906993 0.0011980928 0.0011698791 0.0022317353 -0.010074396 0.006242526
0.0027113426 0.017555334 -0.0033135326 0.010529086 0.0034338743 -0.008309022 0.020448592 0.0058157546

network_body.observation_encoder.rsa.fc_q.bias f4 [128]
00000000: ef5b 01bd 902c 173d b5bb 2cbc eea2 00bc
00000010: 1c3a 3b3c d962 62bd 31a4 fa3c a873 1c3c
00000020: f443 fcbc 2ddf 0a3d cf2a da3c c216 cbbc
00000030: 75f9 453d 8581 72bb 2b12 e63c 3052 81bc
00000040: d2a8 4a3b bace b4bc e9db 9dbb 089d c1ba
00000050: d343 27bb a012 e8bc 16c0 b83c 6719 613c
00000060: 7634 5bbd 2acc 93bc c802 383c 9d42 133d
00000070: 126a dcbc db6b 29bd 9908 543d 7431 1f3d
00000080: aa37 603d 17c5 fa3c 3db3 47bd 6153 1b3d
00000090: 3d95 4d3d f613 69bd 9071 8d3a 0474 f4bc
000000a0: e45a 4dbd a5ac c5bc 6484 56bd 8f75 053d
000000b0: 56f0 20bc 05b5 2d3d 8b0e bcbc da5c 173d
000000c0: 05ce cf3b 95f6 523c 1314 38bd 4980 07bd
000000d0: 2669 103d 495e 1f3d d570 173c 9e76 8bbc
000000e0: ddf1 003d 1a3d 25bd 2934 e23a 45e3 4cbd
000000f0: 0ff9 233d d8e7 60bc 3af0 e03c 4fca 81bc
00000100: e2ce 0cbc 8720 8cbc 8faf 0dbb cf7b 81bb
00000110: 7ae6 913b 3700 cabb dd5b 8a3c dbbc c83c
00000120: 561c 403c 7b4f 883c e89c ac3b 8099 efbb
00000130: 45a3 1abc 9540 ea3b 7dbd ae3c 3e3d eaba
00000140: fa1d 63bc 7fe4 da3b 9187 0bbc ff54 6ebc
00000150: d73b cabb be8f 863c 89fb d63b 993d 6f3c
00000160: ce03 943c 82b4 b53a 327b 29bc 25b7 8aba
00000170: 6394 f13b e618 70bc e9fe 47bb c632 87bb
00000180: bc88 b93c e704 473c 5457 6f3c 72a5 a2bc
00000190: ff66 5dbc 690b a2ba 2afc 88bb e579 103c
000001a0: 6b39 c53c cdf0 b43c 2906 dfba 791f b4b9
000001b0: 013a 85bc 6e98 ab3b ad87 bbbb 8479 02bc
000001c0: 6a4a 03bc 7f45 c63c 9f06 37bc eb0b 79bc
000001d0: f1c5 d43b e7f7 59bc dc84 e6bc ee47 cabc
000001e0: 6b06 d83c 6efa acbb 74d6 793b 03b4 abba
000001f0: 3205 83bc cf32 7bbc ead0 00bc df7f 6bbb
-0.031581815 0.036907732 -0.0105428 -0.007851345 0.011427429 -0.05527005 0.03059587 0.009549059
-0.030794121 0.033904243 0.02663174 -0.024791125 0.048333604 -0.003700347 0.028084835 -0.01578626
0.0030923379 -0.022071231 -0.004817475 -0.001477153 -0.0025522604 -0.028329194 0.022552531 0.013738967
-0.053516828 -0.018041689 0.011231132 0.0359522 -0.026906047 -0.041362625 0.051766012 0.03886552
0.054740585 0.030611558 -0.04875492 0.037921313 0.050191153 -0.0569038 0.001079129 -0.029840477
-0.05013551 -0.024130175 -0.05237235 0.032582816 -0.009822926 0.04240896 -0.022956153 0.036953785
0.006341698 0.012876173 -0.04494102 -0.033081327 0.035256527 0.038908277 0.00924321 -0.017024335
0.03148066 -0.040341474 0.0017257977 -0.05002143 0.040032443 -0.013727151 0.027458299 -0.015843539
-0.008594247 -0.017105354 -0.0021619534 -0.0039515267 0.004452524 -0.0061645764 0.016889507 0.024504116
0.011725506 0.016639462 0.005267728 -0.007312 -0.009438341 0.007148812 0.02133059 -0.0017871035
-0.013862127 0.006680071 -0.008516208 -0.014546632 -0.0061716842 0.016425963 0.006560747 0.014602088
0.01806822 0.0013863 -0.010344313 -0.0010583146 0.0073724254 -0.014654374 -0.0030516929 -0.0041259257
0.022648208 0.012147165 0.014608223 -0.019854281 -0.013513326 -0.001236302 -0.004180451 0.008818124
0.02407523 0.022087479 -0.0017015386 -0.00034355724 -0.01626301 0.005236677 -0.005722961 -0.007963542
-0.008013347 0.02420306 -0.011171012 -0.015200595 0.006493323 -0.013303733 -0.028139524 -0.024692502
0.026370248 -0.005278877 0.0038122209 -0.0013099912 -0.015993688 -0.015331938 -0.007862309 -0.0035934371

network_body.observation_encoder.rsa.fc_k.bias f4 [128]
00000000: 1fb1 e735 1ab0 0535 5d5a 6836 b565 18b5
00000010: 8c0a 07b5 1674 5db4 d72c bfb5 130e 3cb6
00000020: 24c8 8836 3829 e6b5 e7b3 bfb5 0f8f 3535
00000030: 0a94 0936 d603 8bb4 a0bd c7b5 a768 a734
00000040: 44a7 d6b5 1312 4bb5 842b 6fb5 b7cd 0eb6
00000050: 37c8 0936 7f85 4e35 f5d6 96b5 233e 27b6
00000060: 2127 cf35 158b a535 af17 efb4 5e05 8ab6
00000070: 4760 fb35 c998 7f35 500c 22b5 d072 a0b6
00000080: 7398 0737 372f b436 bc24 14b7 b2c0 9335
00000090: 5f7b 6736 a39b c1b6 2f1a 3935 fe6e 8231
000000a0: 7047 cdb6 8a47 e7b6 7c33 cdb6 1dae e036
000000b0: 1704 49b6 d554 8236 6dd8 35b6 bc1b d236
000000c0: 1422 4934 efbb 0fb4 a475 f8b6 ae37 9eb6
000000d0: 3c0d 1737 8e64 bf36 53eb 22b6 3c27 5eb6
000000e0: a7ef 9c36 b0e2 81b6 a4fb ecb5 c730 fbb6
000000f0: fa8c fe36 a912 9d35 b61c 0e36 1b0d d835
00000100: 8d38 4136 4124 4c36 b871 7bb6 284a 05b6
00000110: db9d da35 ad9e 9134 733e 38b6 ad61 a635
00000120: 6a71 bcb5 77e0 e035 00bb 30b6 6ec7 5c36
00000130: 235d 0b36 d5a6 a5b5 8b38 2a36 d9b6 20b6
00000140: 9dd4 8336 d6a1 39b6 e190 8236 8f7a ad35
00000150: fd4f 19b6 ee0f 75b6 5fed 4336 e846 90b5
00000160: 38ef 8335 3ea3 1db5 b040 02b6 701f 86b5
00000170: 4438 e8b5 d2eb d9b4 5061 f736 4ada 5f36
00000180: f4b7 7c36 dc18 4bb5 3491 47b4 f5ce 8435
00000190: 9d73 31b5 072a 90b5 b2e4 93b6 241c 1cb6
000001a0: d2e9 9bb6 87f3 8bb6 4fed 4936 45cf ee35
000001b0: b225 2136 fade 99b6 790e 8535 2310 0ab6
000001c0: c417 e535 7c3b a2b5 cef9 99b5 3849 2fb5
000001d0: d5f9 06b4 52f2 04b5 6b47 e534 6afd 1636
000001e0: bf71 18b6 d108 be35 32cd 1cb6 9525 b1b6
000001f0: c3e2 b6b5 dc2c 6836 dd09 f435 92a2 2db6
1.726239e-06 4.980262e-07 3.4623292e-06 -5.6772416e-07 -5.0306767e-07 -2.0624461e-07 -1.4243659e-06 -2.8022375e-06
4.0764153e-06 -1.7148332e-06 -1.4282967e-06 6.763593e-07 2.050076e-06 -2.589356e-07 -1.4881844e-06 3.118232e-07
-1.5992923e-06 -7.5649695e-07 -8.909776e-07 -2.127939e-06 2.0531131e-06 7.693524e-07 -1.1238432e-06 -2.4921108e-06
1.543409e-06 1.2333936e-06 -4.453445e-07 -4.1133453e-06 1.8728978e-06 9.5217234e-07 -6.036762e-07 -4.7817375e-06
8.082122e-06 5.3699146e-06 -8.83004e-06 1.1008435e-06 3.4493494e-06 -5.7699667e-06 6.895597e-07 3.7961163e-09
-6.1177925e-06 -6.8926647e-06 -6.1154697e-06 6.6959897e-06 -2.9953715e-06 3.8841777e-06 -2.7097078e-06 6.2617164e-06
1.8731981e-07 -1.3386283e-07 -7.404671e-06 -4.715249e-06 9.003383e-06 5.7039497e-06 -2.4276858e-06 -3.3103415e-06
4.6770615e-06 -3.8708895e-06 -1.7656607e-06 -7.4860613e-06 7.5862017e-06 1.1702842e-06 2.117636e-06 1.6097068e-06
2.8792158e-06 3.0419471e-06 -3.7468108e-06 -1.986171e-06 1.6288208e-06 2.7123806e-07 -2.7454487e-06 1.2396391e-06
-1.4040099e-06 1.6754628e-06 -2.6334892e-06 3.2898638e-06 2.0766827e-06 -1.2342012e-06 2.5364886e-06 -2.394829e-06
3.9288557e-06 -2.766135e-06 3.891168e-06 1.2925174e-06 -2.2845336e-06 -3.6517117e-06 2.9195432e-06 -1.0749472e-06
9.829882e-07 -5.8724606e-07 -1.9409163e-06 -9.992928e-07 -1.7301722e-06 -4.0590982e-07 7.3725023e-06 3.335665e-06
3.7658e-06 -7.565957e-07 -1.8586144e-07 9.894999e-07 -6.610588e-07 -1.0741068e-06 -4.407565e-06 -2.3262191e-06
-4.6465802e-06 -4.170873e-06 3.0089466e-06 1.7792705e-06 2.401281e-06 -4.585713e-06 9.913484e-07 -2.0572995e-06
1.7068746e-06 -1.2087253e-06 -1.1472091e-06 -6.529913e-07 -1.2570611e-07 -4.9526454e-07 4.2706537e-07 2.2499248e-06
-2.2715974e-06 1.4158669e-06 -2.336525e-06 -5.279386e-06 -1.3626053e-06 3.4596806e-06 1.8182287e-06 -2.5873637e-06

network_body.observation_encoder.rsa.fc_v.bias f4 [128]
00000000: 147d 9a3b 5819 39bc cd90 60bb 4ba4 78b8
00000010: d61f 143c 1dc2 fc3b c076 17bc 2c8e b5ba
00000020: a343 ad3b b3ba cdbb c792 a3ba 3410 303c
00000030: 1cec 93ba b611 39bc dd06 443a b838 41bb
00000040: 55a3 9fbb e724 0cbc c777 083c 5d8d 3aba
00000050: a676 2f3c 1564 193b 0d2d f9b9 25ea bcbb
00000060: 9d7c f2ba 2934 2439 dd18 d0ba 036f 36bb
00000070: e26a 12bb 2cec dd3b 15bc 8d3b a79b 343a
00000080: c9e6 e03b 5e73 0abc 437a b93b 850d 6b3b
00000090: 4c5e 7bbb a82d 09bc 6edd e8ba 1313 33ba
000000a0: 2d48 b6ba 9f9b b03a ffba c9b9 a09a 10bb
000000b0: d8bc 573a 7316 72bb d644 e33b e418 4dbb
000000c0: 0097 86bb cd6d 453b 4ab2 ff3b dd60 f23b
000000d0: e2bf 953b 53c5 f2b8 e696 293c c567 4a3b
000000e0: efc6 7abb 51aa 933a 85c9 5f3b fb27 bcba
000000f0: 7f8a 59ba c8c7 0a3b 94e6 f1b9 4b18 ec3b
00000100: ebbf 923b 025d 9ab8 9856 643b d22c 993b
00000110: bfe1 e1bb 3bf6 2e3c 591d 4739 02ba 003b
00000120: c18c e1bb d438 143a 5962 75bb ade2 ae3c
00000130: d29e cab9 5c9f e3bb d450 9dbb b971 413b
00000140: f614 fcbb d052 d43a 9dea 9b3a dd43 58bb
00000150: 1737 06bb 5123 2aba ace5 9d3b d87c 82bb
00000160: 2235 873b 27a2 b6b9 b21e efbb 4801 8d3b
00000170: f74d 6ebb 876b 933b fd4d b03b fa1c b93a
00000180: 6b5a ceb9 dad6 f7b8 9295 66ba b092 973b
00000190: c806 80bb cc92 1b3b 3ba6 c7ba d618 7bbc
000001a0: 5cc1 4ebb 3207 853b 564b 363c 495c 2dbc
000001b0: 7d49 293a 5528 503b 5cd9 95b9 32cf 29bb
000001c0: 43d5 043b 5bba 20bb a802 213a a5e1 173b
000001d0: 045f 8ebb f99b d0bb 6bec bcbb 8b19 18bc
000001e0: 37c9 c23b 5cea d53b 16ca 8339 5458 373b
000001f0: 2eef 92b9 c580 183a a779 483b 7bdf 513b
0.0047146175 -0.011297546 -0.0034265995 -5.9280817e-05 0.009040793 0.00771357 -0.009244621 -0.0013851575
0.005287604 -0.00627836 -0.0012479656 0.010746051 -0.0011285576 -0.0112957265 0.00074778293 -0.002948327
-0.0048717656 -0.00855372 0.008329338 -0.00071164017 0.01070944 0.00234056 -0.00047526546 -0.005765217
-0.0018500272 0.0001565969 -0.001587655 -0.0027837164 -0.002234154 0.0067725386 0.0043253996 0.0006889649
0.0068634492 -0.008450357 0.0056603267 0.0035866213 -0.0038355766 -0.008372702 -0.0017766187 -0.00068311504
-0.0013907008 0.0013474113 -0.0003847703 -0.002206482 0.0008229739 -0.003693965 0.006935696 -0.0031295354
-0.004107356 0.003012526 0.007803236 0.007396801 0.0045699934 -0.00011576214 0.010350918 0.0030884605
-0.0038265546 0.0011265968 0.0034147215 -0.0014355177 -0.00082985306 0.0021176208 -0.00046138896 0.0072050444
0.004478445 -7.360616e-05 0.0034841653 0.0046745325 -0.006893366 0.010678823 0.00018989052 0.001964212
-0.0068832343 0.000565422 -0.0037442653 0.021348322 -0.00038646773 -0.0069464874 -0.004800895 0.0029517247
-0.0076929284 0.0016198996 0.0011895482 -0.0032999434 -0.0020479613 -0.0006490248 0.004818639 -0.0039821677
0.004126207 -0.00034834558 -0.0072973603 0.0043031313 -0.0036362389 0.0044989022 0.0053803907 0.0014123016
-0.00039358748 -0.00011817897 -0.00087960914 0.004625641 -0.0039070584 0.002373862 -0.0015232036 -0.015325746
-0.0031548357 0.0040596956 0.01112636 -0.0105810845 0.0006457789 0.003176232 -0.0002858144 -0.0025910852
0.0020268715 -0.002452514 0.00061420584 0.0023175266 -0.004344823 -0.0063662496 -0.005765488 -0.009283434
0.005944397 0.006528182 0.00025136833 0.0027976232 -0.00028025493 0.0005817528 0.0030590089 0.0032024074

network_body.observation_encoder.rsa.fc_out.bias f4 [128]
00000000: 508b f03a 7b3c ba3b 5419 99ba 9a46 c83b
00000010: 858b 0ebc ddc9 88bb 11ab 56bb eb24 133c
00000020: 690f 69bc 4665 323b 66d5 8e3b 2794 213c
00000030: 2074 15bb fbba 9239 13aa 313c 6c48 64bc
00000040: ec7e 473b 5feb cb3a e109 69b9 64cd 2abc
00000050: ef0d 973c ff23 6dbc 0b1b 553b cdd2 423b
00000060: 360e afbb aad2 f8b8 5bed f53b bf33 8f3c
00000070: add4 3c3c b3de 2cbc a137 abbb 4243 d0bb
00000080: 3119 41bc 0a57 d63b 368b 7cbb e8a2 32bc
00000090: 8dbe 15bc 38dc f6bb 1293 fabb 50db 34ba
000000a0: 437c 41bb 48c9 0ebc 1230 113c 4e1b aaba
000000b0: 13e7 d8bb 0be1 de3b 3b08 6d3b c263 abbb
000000c0: 704a 9f3b ed1d 24bb 81ea 3c3b 78b2 8e3b
000000d0: 4f9f 9eba 4af6 063b 5a03 dcbb 157d c2bb
000000e0: b579 ac3b 0048 a7bb c15b 12bb 6c4e 97bb
000000f0: 5555 113b 3c6b edb8 ff79 163b 8094 3e3c
00000100: deca e7bb 0f0e e33b a9c8 09bb 2c4e 10bb
00000110: 32e1 1abc cee1 11bc ec1f 6cbc f793 723b
00000120: dea6 25b9 4fae 6d39 4620 65bc 44cd 1bbb
00000130: 1aba 733b b847 08bc bc51 283b 17fb 71bb
00000140: 666a 2f39 e685 873b ab3b d5ba d10b 123c
00000150: 3283 623a 6eca 3239 fc7f 4fbb 4890 033c
00000160: 5776 523c 4866 423c fee7 56bb 0503 ce3b
00000170: 4470 2e3c 496c 353c ecce 93ba 5bc3 0dbc
00000180: 69bc 5bba 0b1a d4bb dd71 973b 3951 8c3c
00000190: 6554 b83a ee38 0cbc b530 2b3c 7280 313c
000001a0: 5df7 403c 4271 b63a cd2a 25bb 4917 40bc
000001b0: f82e 663c 7da2 64bb 2e6f cdbb 57bd f03a
000001c0: fa25 a1ba 2335 87bb 7e8c 58b9 4511 b13a
000001d0: 9b9d 3f3b 4170 f03a 4425 793a 3745 0fbb
000001e0: be73 8e3c 5cd8 d3b9 0963 aa3b 4f95 7c3c
000001f0: 7320 8bbb 2d4e 743b a3bb 373c 4139 e73b
0.0018352065 0.0056834794 -0.0011680522 0.006111932 -0.008700256 -0.0041744546 -0.0032755772 0.00898097
-0.0142248655 0.0027221008 0.004358935 0.009861982 -0.0022804812 0.000279866 0.0108437715 -0.013933282
0.0030440642 0.0015557817 -0.00022224292 -0.0104249455 0.018439261 -0.014473914 0.003251734 0.0029727698
-0.0053422702 -0.00011864801 0.0075051016 0.01748073 0.011525315 -0.0105511425 -0.0052251373 -0.006355674
-0.011785791 0.0065411376 -0.0038535125 -0.010903098 -0.009139669 -0.0075335763 -0.0076469267 -0.0006899135
-0.0029523529 -0.008714981 0.0088615585 -0.0012978108 -0.006619343 0.0068017296 0.0036168236 -0.005230398
0.0048611686 -0.0025042251 0.0028826299 0.004354771 -0.0012101921 0.0020593577 -0.0067142667 -0.005935321
0.005263532 -0.0051050186 -0.0022332522 -0.004617503 0.0022176106 -0.000113210146 0.00229609 0.011632085
-0.007073744 0.006929166 -0.0021024144 -0.002201925 -0.009453105 -0.008903934 -0.014411908 0.0037014463
-0.00015797789 0.00022667016 -0.013984745 -0.002377347 0.0037189783 -0.00831788 0.0025683483 -0.0036923343
0.00016728937 0.004135835 -0.0016268393 0.00891395 0.00086407654 0.00017050814 -0.0031661978 0.008030005
0.012845597 0.011865206 -0.0032792087 0.006286981 0.010646883 0.0110731805 -0.0011276877 -0.008652533
-0.00083822623 -0.006472831 0.004621728 0.017128574 0.0014063237 -0.008558495 0.010448624 0.010833846
0.011777726 0.0013919252 -0.0025202513 -0.011724302 0.014049284 -0.003488689 -0.006269357 0.0018366975
-0.0012294643 -0.0041262074 -0.00020651703 0.0013509175 0.0029238227 0.0018344001 0.0009504149 -0.0021861324
0.017389175 -0.00040406256 0.005199794 0.015416457 -0.0042458116 0.0037278042 0.01121417 0.0070563857

network_body.observation_encoder.x_self_encoder.seq_layers.0.weight f4 [128, 3]
00000000: d401 333d 8147 783d 53f0 a4bc ea94 503d
00000010: 5f54 323b 21bb ef3c 4fb0 03bd 4365 33bd
00000020: 961c c5bc 9203 10bd 235e 95bc d840 b73c
00000030: dd7c 7ebc 05d4 993d a0c6 a3bc ae7c 443d
00000040: fd1c 693c b32f 1c3c 1400 ea3b a15e 20bc
00000050: 7477 27bd 53ad 8cbc e1c2 5fbc 059b a8bc
00000060: 837c 0dbd 2963 023d 5590 d43c d25e a93c
00000070: 2cff 763c 55b2 953c a5c6 82bc 428a 3ebb
00000080: 42dc c2bc 23af 0abc ff45 563d 544a f93c
00000090: cea7 9bbc d757 183d 5ded 4b3c b35e d3bc
000000a0: 87fa 143d c35d 8e3c 9312 8ebd d0dc 193d
000000b0: 3a69 f4ba d9f3 9c3d a35b 7bbc bf74 4d3d
000000c0: b543 573d b827 d63b c136 233d 709b 61bd
000000d0: 3924 18bd e41b 5d3c 058b 0dbd 5476 31bd
000000e0: eee8 733b 5619 52bd 1aea 1dbc b33e 663d
000000f0: ccb9 a63c 673c 543c 4379 4f3c 8003 603d
00000100: e2a0 b3bc 05fd 82ba 380e f9bc fbf2 3bbd
00000110: 1a7f 8abc d808 efbc 59a2 2bbd 6604 23bd
00000120: 89e3 c63c f858 14bd 103a 16bc c439 39bc
00000130: 8938 1f3b b344 15bd 34b6 34bb 1f54 95bb
00000140: 817c 253c eb49 513c 1934 c6bc 3796 9e3a
00000150: 9fa8 d03c 7734 223d a1e1 33bc 66dc 6f3d
00000160: 765a 543d 0fb7 ffbc 57df 0e3d 18fc 4e3b
00000170: db44 0bbc 7cbb 28bd 305e a7bc 795e 2fbd
00000180: 9732 413d b29e f5bc f04f 273c 7709 b93b
00000190: 2064 d53c c186 bc3c 6886 3eba e54e 32bd
000001a0: fb53 cfbd b7fd 873d 21f1 773c ed0b ab3c
000001b0: b291 0c3b 54b4 183d dc90 31bd 08c2 e43c
000001c0: 8751 9b3c 612d 143d 386f bfbc 1c3f fe3c
000001d0: 00d1 5fbc 5c90 d8bc eedc 06bd 5742 8f3c
000001e0: 8b53 11bd b38a 773b f55f 0e3c 3c08 0abd
000001f0: c156 f0ba 982d 253d ee91 12bd c273 4c3d
00000200: b150 0fbd 944d 2fbd 5268 a2bd 04c8 e9bc
00000210: c225 b3bc 3554 433d ecdb 993c 9146 493d
00000220: 4f37 96ba e397 32ba e5cf 163d 57df 02bd
00000230: 38fb 053c e782 eabb ad55 043c 2d6d a4bb
00000240: bbe9 c43c e135 443c 1d2b 0ebd 0799 6cbd
00000250: ebe4 94bc cfa0 163b 7aba babc ac54 b9bb
00000260: e9b3 efba eecf 813c 37a0 263b 303f 6a3c
00000270: b16b a33c c93d 89bb e425 dc3b 6de7 193d
00000280: 5ab3 afbd 58be 83bc 9cb7 9a3c e990 e6bc
00000290: f6cf 1a3d 36dc c0bb 735f 433c 28ee 82bd
000002a0: 9b87 093d d280 273c c001 ae3c 7fb0 e8bc
000002b0: d88c 1bbc f4dc dbbc 478b 0d3d 5c0e be3c
000002c0: 9ce2 e7bc 3657 2fbd 271e 893c 1a85 f83b
000002d0: db87 a3bc 0091 2fbc 609e 803d a19c 4abd
000002e0: 4eb1 c8bc 27fb f8bc ef8d 2f3d 5f81 963b
000002f0: d082 b2bc a9da f63c 9fe9 37bd 5161 20bd
00000300: 00fe 603b fa4e 3fbc 692b 183d 7d72 87bc
00000310: b1bc 9abc 2e62 863a 4914 58bd fcb7 273c
00000320: 3bff 533d 62ab f03c 7849 783b 80ff 1c3d
00000330: 1c29 643a 62d5 4639 bff9 9e3b d14e 0ebd
00000340: c11b 06bc 3671 20bd cfe6 dbbc c45e 2fbd
00000350: 3a7b e7bc 529a af3a ff7d ebba 3ca9 1c3d
00000360: fa66 cdbc 61e0 86bc dec6 e1bc cead 55bd
00000370: 42ec febb 0e00 5cbb b7ca 08bc db44 e3bc
00000380: e9bf 3abd daca 96bc 9218 5dbc aeba d43c
00000390: 0929 ff3c 32c2 b7bc a08e a5bd 1b8c b93c
000003a0: 7970 03bd 88f6 d1bc cd4a 753d df22 9a3c
000003b0: 7c88 13bc f25f 163d c059 8e3a 4b75 6ebb
000003c0: ff86 8dbc b11f 89bc c126 d0bc ab3e d1bc
000003d0: 077a edbc 32f7 0cb9 f995 523c 86d5 773b
000003e0: 3b9e 753d 537f a43c cd97 e53c 13bc a13c
000003f0: cc4d b43a 6781 ebbc 55da 763c 5311 8abc
0.043702915 0.060615066 -0.020134127 0.050923266 0.0027210934 0.029264035 -0.032150563 -0.043797743
-0.024061482 -0.035159655 -0.018233364 0.022369787 -0.015532699 0.07511143 -0.019992173 0.047970466
0.014228103 0.009532857 0.0071411226 -0.009788186 -0.040885404 -0.017172491 -0.013657303 -0.020581732
-0.03454257 0.031832848 0.02594773 0.020675097 0.015075486 0.018273512 -0.015963862 -0.0029074107
-0.023786668 -0.008464607 0.052312847 0.03043095 -0.019000914 0.037193146 0.012446729 -0.025801992
0.036371734 0.017378693 -0.069371365 0.0375641 -0.0018647083 0.07663698 -0.015341672 0.050160166
0.052554805 0.0065354966 0.03984714 -0.055079877 -0.03714392 0.013495419 -0.034556407 -0.043325737
0.0037217694 -0.051293693 -0.009638334 0.05621214 0.020352267 0.012953854 0.012663188 0.054690838
-0.0219273 -0.0009993619 -0.030402288 -0.04588602 -0.01690631 -0.029179022 -0.041902874 -0.039799117
0.02427842 -0.03621766 -0.009169117 -0.011305276 0.0024295172 -0.03644247 -0.0027574422 -0.004557147
0.010100485 0.012773971 -0.024194764 0.0012099211 0.02547103 0.039600816 -0.010979087 0.058559798
0.051844083 -0.031215219 0.034880962 0.0031583365 -0.008500303 -0.041194424 -0.020430654 -0.042814706
0.047167387 -0.029982898 0.01021193 0.0056468803 0.02604872 0.023013474 -0.0007267953 -0.04353227
-0.1012344 0.06640189 0.015133173 0.02087971 0.0021449146 0.03728135 -0.04335104 0.027924553
0.018959774 0.03617609 -0.023368463 0.031035952 -0.013660669 -0.026436023 -0.03292554 0.017487688
-0.035480063 0.003777188 0.00868987 -0.03369926 -0.0018336402 0.040326685 -0.0357837 0.049915083
-0.034989063 -0.042798594 -0.07930054 -0.028537758 -0.02186859 0.047687728 0.018781625 0.049139563
-0.0011460575 -0.0006812794 0.036819357 -0.031951275 0.008177571 -0.007156718 0.008077067 -0.0050178976
0.024037233 0.011975736 -0.034709085 -0.057763126 -0.018175563 0.0022984033 -0.022793997 -0.0056558456
-0.001828787 0.015846219 0.0025425085 0.014297292 0.019948812 -0.0041882736 0.006718384 0.03757422
-0.085791305 -0.016081974 0.01888638 -0.02814527 0.037795983 -0.005885626 0.011924612 -0.06393081
0.03357659 0.010223584 0.021241069 -0.028404472 -0.009494029 -0.026838757 0.034556653 0.023200206
-0.028306298 -0.04280778 0.01673801 0.0075842263 -0.019962242 -0.010715723 0.06280208 -0.04946578
-0.024498608 -0.030393196 0.042859968 0.004593059 -0.021790892 0.030133562 -0.044900533 -0.03915531
0.0034331083 -0.011676544 0.037150774 -0.016534084 -0.018888803 0.0010252648 -0.05275372 0.010236736
0.05175708 0.029378597 0.0037885588 0.0383296 0.00087036355 0.00018962243 0.0048515494 -0.034743134
-0.008185328 -0.039170466 -0.026843457 -0.042814985 -0.028257001 0.0013397431 -0.0017966627 0.038247332
-0.025073517 -0.016464414 -0.027560648 -0.052167706 -0.007779629 -0.0033569369 -0.008349112 -0.027742794
-0.045593176 -0.018407274 -0.013494628 0.025967922 0.031147497 -0.022431467 -0.08083844 0.022649815
-0.032089684 -0.02563025 0.05988579 0.018815456 -0.009004708 0.036712594 0.0010860488 -0.003638583
-0.017276285 -0.016738744 -0.025409104 -0.025542578 -0.028988851 -0.00013443528 0.012853139 0.003781648
0.059965353 0.020080244 0.028026486 0.019743001 0.0013756095 -0.028748227 0.015066703 -0.016853964

network_body.observation_encoder.x_self_encoder.seq_layers.0.bias f4 [128]
00000000: 57e4 6a3b ffad 4dbc e173 5b3b 6d31 a73b
00000010: 1ffd 8e3b ce0c 9d3b a29f cfbb 46d7 6e3c
00000020: 4918 6b3c 6e49 46bb 94c8 96bb e456 8abb
00000030: 65c7 333a 80ba adbb abc0 85bc 8285 6ebb
00000040: 473d f8bb 806c 803c 111b 8d3c 5832 3b3b
00000050: 6913 ddbb f5eb 3dbb 5c72 83ba 27ba ab3b
00000060: e90f f9bb fe76 503b 9e25 6dbc 72dd 173b
00000070: 5316 4e3b 3efc 483b 0e29 26bc b203 923c
00000080: 91c7 d8ba 5131 c73b c855 eebb b32d e73a
00000090: e4e2 70bb 1a2b 8dbb 8eba adbc 0eed dc3b
000000a0: 020d b6bb 70c9 143b 78f0 683c 50df 863b
000000b0: 01d2 783c 22cb 1abc f2e3 193a b4ad 573b
000000c0: 0514 9bbb a345 3abb d1ca a83b ccb3 f1ba
000000d0: f1d5 793a 4bd9 8038 95c4 a7bb 63b3 c63b
000000e0: 7969 17bc 4f27 87bb 4a5a f7bb 9289 fb3b
000000f0: 7702 213c 9671 4c3c f9ee 0d3c cba0 7ebb
00000100: 2a24 e1bb e95c a03b 6c3c 4a3c bce2 8fbb
00000110: 7e36 02bc 7c81 f03b 23e1 5c3c eb85 99bb
00000120: bbf5 9cba eb90 fc3b 99c1 9fbc 0e24 7f3c
00000130: 7831 28ba f29f 2539 5a32 60bb b01e 9fbb
00000140: 4460 9e3c 5eea 1e3c ba98 6b3b 190c 3fba
00000150: 267e 8b3b d3f1 e63a bc61 b43c 92ee 113d
00000160: e49a 2a3b c89a 2cbc 9493 c63b 63c4 d8ba
00000170: 0fb8 06b9 b9af 75bc 0953 0fbc d9f3 013c
00000180: 80e2 7a3c 15e9 a83c e393 df3b c984 85bb
00000190: e5f2 103c 7c6e 2ebc bcd0 0c3c 8fa6 6ebb
000001a0: 1718 dcbb 63f3 963b 0c27 9abb cd75 19bb
000001b0: d1bc c13a 6c86 56bb ea37 6c3c 2394 e2ba
000001c0: 5221 b8bb 2347 103b cd95 80bb 251f f8bb
000001d0: 39ca 0dbb 30dc 18bb 887b 343c f8db 013d
000001e0: e386 0dbb 0c3e 0eba 5659 333c 3e0d 8d3a
000001f0: 9560 3fbb 9d6a aa3b 74ff c73b e7fc 593c
0.0035841668 -0.012553691 0.0033485817 0.0051023276 0.0043636705 0.004792786 -0.0063361684 0.014577692
0.014349052 -0.003025617 -0.0046015475 -0.004221784 0.000685802 -0.0053017735 -0.016327223 -0.0036395495
-0.007575664 0.015676737 0.01722482 0.0028563943 -0.0067466986 -0.0028979753 -0.0010028589 0.005240697
-0.0076007736 0.0031809206 -0.014474301 0.0023172763 0.0031446412 0.0030667926 -0.010141624 0.017824028
-0.0016538968 0.006078877 -0.0072734095 0.0017637521 -0.003675633 -0.0043081166 -0.02120712 0.0067421263
-0.00555575 0.0022703074 0.0142174885 0.0041159764 0.015186788 -0.009447845 0.00058704533 0.0032909932
-0.004732611 -0.0028422854 0.0051511307 -0.0018440424 0.0009530476 6.1439896e-05 -0.00511987 0.006063865
-0.009241455 -0.004124559 -0.007548605 0.007676312 0.009827248 0.012478253 0.008662933 -0.0038853164
-0.006870766 0.0048938883 0.012343507 -0.0043910425 -0.007947562 0.0073396545 0.013481411 -0.0046851537
-0.0011975089 0.0077077053 -0.019501494 0.015572561 -0.0006416063 0.0001579521 -0.00342097 -0.004855953
0.019333012 0.009699432 0.0035949186 -0.00072878745 0.0042569814 0.0017619677 0.02201926 0.03562791
0.0026032263 -0.01053495 0.006060073 -0.001653802 -0.00012847803 -0.014995509 -0.0087478245 0.007931673
0.015312791 0.020618955 0.0068230494 -0.004074667 0.008846973 -0.010646459 0.008594688 -0.0036415195
-0.006716739 0.0046066507 -0.004704362 -0.0023416162 0.0014781003 -0.003273393 0.014417628 -0.001728658
-0.0056192065 0.0022015057 -0.0039241076 -0.007572072 -0.0021635427 -0.0023324601 0.01101578 0.03170392
-0.0021595291 -0.0005426116 0.010946592 0.0010761393 -0.0029201854 0.0052006976 0.0061034504 0.0133049255

network_body._body_endoder.seq_layers.0.weight f4 [128, 131]
00000000: c0d0 213b af64 62bd 71c6 403d 8d8e 37be
00000010: 30ab 48bd 8a2c 55bc 67f4 9b3d be25 f7bd
00000020: 4427 ecbb 3c1b 20be 6df5 d9bc 279e 133d
00000030: 409e c23d 8c70 4abd 6a36 353d dad2 9b3c
00000040: db3d b9bd 2633 233d 77bf 88bd 40a4 a3bd
00000050: a47e 0c3d 222f d23d 5726 a4bd 1900 333c
00000060: dcb1 a13c 343e 573d 6709 76bd 5588 60bd
00000070: eacd f23d a671 19bc 95f3 aebd d5dd 073d
00000080: 3535 e6bd f36d c73b e051 01bc 3fbb b13c
00000090: 5d9c a5bd f581 dc3c 656a e3bd f939 553e
000000a0: 0281 ffbd 6332 a73d a6c8 62bd 6da5 f2bc
000000b0: 8381 b1bc 8465 c13d b2e7 0fbd 7e44 20bd
000000c0: b49b a03d 1f20 c7bd f24e 9b3d bf97 433b
000000d0: f9df fb3d 5e6b 0abe 2976 613d 239b ccbd
000000e0: 127e d8bd ecd4 663d 4780 4cbd ca55 56be
000000f0: e39c e23c 8b69 30bd ad27 613d 8fff 823d
00000100: 89fa 9f3c 7ba9 cb3d f6eb 48bc 722f e03c
00000110: 9aa8 abbc f874 3f3c 19a5 803d bdaa 60bd
00000120: 2947 953d 1d4f a2bc eb26 69bd 534c c33d
00000130: 1742 31be fbb9 8d3c 7095 37bd a46e a53d
00000140: 4075 d7bd 1c24 293b d6cc e239 9f9e a5bc
00000150: 7f86 0ebe c14c 2cbe a9d1 f5bc 379a 99bd
00000160: b6b5 c43d f87b abbd 2a24 c33b f90c 0fbd
00000170: 933a 0fbd 772f 96be 5cb1 093e b212 89bd
00000180: 9b1d 883b 4113 053e 4b97 003e 3546 ddbd
00000190: cbed 7a3d e525 82bd f31c 81bd b128 8bbd
000001a0: 8d3a 1b3d 7d14 2cbd 61b5 a43b 4bed 1d3d
000001b0: fe00 8cbd 162a b0bd 4507 edbd 5958 223c
000001c0: f101 24bc 1b54 783b 2756 16bd dbbb 903b
000001d0: 55bf c2bd d86c eebc bac0 293c e7b2 a43d
000001e0: 31ff ee3d 0e57 483d 76c1 b83c a6bb 0abe
000001f0: 73da b93d 1de5 d83d 7819 47bd ece0 a1bc
00000200: 24c4 b33b 6b7f 8c3c d7e8 423c 45c6 a9bc
00000210: 9f08 d2bd 9ca4 cabd 05ae 22be 9953 123e
00000220: daa1 8c3d 6061 423d 1616 c93c 3f89 05be
00000230: 2148 5f3e 1966 e9bd 4d90 adbd f7e9 5fbd
00000240: 479b e8bc cfef 00bd 1d22 e63d 7bd7 033e
00000250: bef5 14bc 9596 cdbc ee90 2c3e a96d 88bd
00000260: 9e97 ba3d 9199 473d 21d8 87bc 606f 49bd
00000270: edce dabd a920 bc3d 3c2f 3f3e 9505 013e
00000280: b9fc 7dbd 17e9 07be 0219 e9bc 9148 503d
00000290: d7b7 0dbd d51c f1bc f45e a1bd 0770 2e3e
000002a0: 98ab a1bd d988 603c 74bc cf3b 206f 483e
000002b0: 923f a43c 3fc1 a63d 549f 36bd 546e c2bd
000002c0: 5ff5 eebc 7b2d a63d 3b3c 63bc acb5 b5bd
000002d0: b843 d93b e146 603d ed2c 0ebe d194 3e3e
000002e0: 6afb b8bd a9c0 0fbe 8197 57bd 6b93 78bc
000002f0: 43b3 a4bd d89d ca3c 6719 053e b655 473d
00000300: 4c73 03be 64fb bebd 479b 84bd 91cc 59bd
00000310: 078b 80bc 14c1 103c 476f 683d 2db3 b23d
00000320: 8e52 b33d 082b cbbb e099 983d f444 81bc
00000330: 7df6 4e3d e6a5 453d cf9f 91bd 7c3d ea3d
00000340: ee29 aa3c 250d aa3d fbab 13bc 4ce5 2abd
00000350: 0af5 473d 267e 8bbd 9c31 4dbd e645 f6ba
00000360: 9f8a 91bd 43a1 bc3c f4a0 dbbc 702b 1dbc
00000370: 387f 89bc 12fb 4e3d 1b12 2bbb 1a86 373b
00000380: 025a 8b3d a2c6 3fbd c47a 033e f687 683d
00000390: 6e16 163d 8ccf 9abd 2394 0c3d 9c42 be3d
000003a0: c90c 633d e7ab d63d 32e8 523e b2bd 0ebd
000003b0: 9a48 f5bc 5260 ee3a 83b3 0fbe 50a4 bdbd
000003c0: edb4 6b3d ff40 e7bb ed0c d4bd fbf4 01be
000003d0: c41e adbc 52f6 34bd 72e9 023e d657 f53d
000003e0: e88d 28bc 77da 063d 085f 08be 32df bdbc
000003f0: e523 86bd e3bf 263c 8d67 10bd 0b07 2e3e
0.0024691075 -0.0552718 0.04706425 -0.17925473 -0.048991382 -0.013011107 0.076149754 -0.120677456
-0.0072068293 -0.15635389 -0.026606286 0.036039498 0.0950284 -0.04942374 0.044241346 0.01902144
-0.09045001 0.0398437 -0.06677144 -0.079903126 0.03430046 0.10262896 -0.08015125 0.010925316
0.01973813 0.052549556 -0.06006756 -0.054817516 0.11855681 -0.009365475 -0.08542553 0.03317054
-0.11240617 0.006086105 -0.007893056 0.021695731 -0.080864646 0.026917437 -0.111042775 0.20822896
-0.12475778 0.081639074 -0.055367135 -0.029619897 -0.021668201 0.09443191 -0.03513307 -0.03912782
0.07842198 -0.097229235 0.07583417 0.0029845086 0.12298579 -0.1351752 0.055044327 -0.099905275
-0.10570921 0.056355402 -0.049927022 -0.20931163 0.0276627 -0.043069404 0.05496948 0.063964
0.019528644 0.09944435 -0.012263289 0.027366374 -0.020954419 0.011685602 0.0628149 -0.05485033
0.07288963 -0.019813115 -0.05692188 0.09536042 -0.17310368 0.017300596 -0.04482025 0.08077744
-0.105204105 0.0025808876 0.00043258694 -0.020217238 -0.13918494 -0.16826154 -0.0300072 -0.07500117
0.09604971 -0.083732545 0.005955239 -0.03492448 -0.03496797 -0.29333088 0.13446563 -0.06693019
0.00415392 0.12995626 0.12557714 -0.108044066 0.061261933 -0.06354884 -0.0630435 -0.06794871
0.037897635 -0.042011727 0.005026505 0.03855638 -0.06836127 -0.08601777 -0.11573652 0.009908759
-0.0100102285 0.0037891928 -0.036703255 0.0044169254 -0.0950915 -0.029104635 0.010360891 0.080419354
0.11669768 0.048911147 0.022553187 -0.13548145 0.09074869 0.10590575 -0.048608273 -0.019760571
0.0054860283 0.017150601 0.011896334 -0.020724425 -0.102555506 -0.09894678 -0.15886696 0.14289702
0.06866808 0.047456145 0.024546664 -0.13040636 0.21804859 -0.11396427 -0.08474789 -0.054666486
-0.028394355 -0.0314787 0.11236975 0.12875168 -0.009091793 -0.025096217 0.16852161 -0.06661541
0.0911095 0.048730437 -0.01658255 -0.04917848 -0.10683999 0.09185917 0.18670362 0.12599786
-0.062008593 -0.1327251 -0.028454307 0.050850455 -0.03459915 -0.029432693 -0.07879439 0.17034923
-0.07894057 0.013704502 0.006339604 0.19573641 0.020049844 0.081423275 -0.04458554 -0.094937
-0.029169736 0.081141435 -0.0138693405 -0.08872542 0.006630387 0.054755095 -0.13884325 0.18611456
-0.090323284 -0.14038338 -0.05263472 -0.015171866 -0.08042004 0.024733469 0.12997971 0.048665725
-0.12836951 -0.09325293 -0.06474929 -0.053173605 -0.015691293 0.008835096 0.056746747 0.08725581
0.087559804 -0.006200198 0.07451224 -0.01577995 0.05052804 0.048253916 -0.07110559 0.114375085
0.020771947 0.08303288 -0.009013171 -0.04172258 0.04881767 -0.0681117 -0.05009614 -0.0018789142
-0.07106518 0.023026114 -0.026810147 -0.009592876 -0.016784295 0.050532408 -0.002610332 0.0028003515
0.06804277 -0.04682029 0.128398 0.056770287 0.036642484 -0.07559118 0.03432096 0.092900485
0.055432115 0.104820065 0.20596388 -0.034848876 -0.029941846 0.0018186665 -0.14033322 -0.09259856
0.05754559 -0.0070573087 -0.10354028 -0.12691109 -0.021132834 -0.04418022 0.12784365 0.11979644
-0.010287739 0.032923188 -0.13317502 -0.023177717 -0.06549815 0.010177585 -0.035255004 0.16994874

network_body._body_endoder.seq_layers.0.bias f4 [128]
00000000: d343 54bb 710c ea3a 202a 28bb 3d0d 7ebc
00000010: 5455 bebb ec9c e23b 0a86 603a 0b3d 783b
00000020: 0238 bcbb 7bba 86ba f574 913c d9c6 133c
00000030: df07 c6bc 18ad 213c b2bb 693c 6e7f fe3a
00000040: 74da 17bc da9e adbb 0961 563c 21db b03b
00000050: d8c1 0f3c 9f0c 183c 5bf3 893b 0f0e d3bb
00000060: 364d 3d3c 21e4 563b 08f1 dfbb 6519 953b
00000070: 65c8 bb3c df6a 453b 73f3 2b3c 1d5c 16b8
00000080: 50db 993c ac15 92bc c676 bcbb ceb2 5d3c
00000090: 8890 3e3a 9c68 483b 12a1 d5ba fcd6 8c3c
000000a0: b952 f63b 3a7e 833b 0786 9c3b 8734 63bb
000000b0: c6b2 023c b954 103b 41f7 a03c 1d0d 3c3c
000000c0: b429 4f3b 1865 823c 4ca9 333c 8ae6 a2bb
000000d0: 4a9b fbbb 43ba 003c 8166 0f3d 83c0 ddbb
000000e0: fc08 593b 24d6 803b b30e 053c 9a14 583c
000000f0: 0550 f83b 1e99 293c 35ec df3b f662 403c
00000100: 1713 043c 7143 ccba bdb0 6d3b 8a2f 8c3b
00000110: f637 933c f161 18bb b898 1b3c 91d7 9abc
00000120: 2b19 f6bc d94e d63b 6d36 3b3c 3285 7a39
00000130: 0059 c43c 8b23 2e3a d6cc ceba f2e5 62bb
00000140: a137 f7ba f31f 93bc 34ce d83a d008 b13c
00000150: 09e0 a138 8084 863c 69b7 6abc a95a c83c
00000160: 7ab7 b9bc 97e9 55bc 76ea 663c a233 06bc
00000170: bbae 593b f7e2 8b3b 1d4c 66bc 501c 913c
00000180: 7fe5 50bc 2478 ae3a 10ec 36b9 646c 0c3c
00000190: 39dc ecba 9920 a4bb 9a78 fb3b b6c2 a5ba
000001a0: 039d 06bc 4de4 95bb c162 adba bc2a 94bc
000001b0: a2a9 a93b 33c3 89ba 36f7 b3bb 4f3a 3739
000001c0: 820a 6fbc 8e51 db3a 5fcf 33b9 0f73 063c
000001d0: 5b04 1fbb 6fe4 adbb 8ad6 bdbb 1e48 03bc
000001e0: ec92 22bc f574 41bb 65da 323c d898 3cbb
000001f0: 040e 653b 39e6 e63b 1184 333c cf2c 4d3c
-0.003238906 0.0017856491 -0.0025659874 -0.015506086 -0.0058085117 0.006915679 0.0008564895 0.0037878181
-0.0057439813 -0.0010278964 0.017755965 0.009019577 -0.024173675 0.009867929 0.014265941 0.0019416639
-0.009268392 -0.0052984776 0.013084658 0.005397216 0.008774243 0.009280353 0.0042099184 -0.006440885
0.011554053 0.0032789784 -0.006834153 0.0045501464 0.022922704 0.0030123515 0.010495055 -3.5848574e-05
0.018781334 -0.0178326 -0.0057514636 0.0135314 0.00072694616 0.003057993 -0.0016298613 0.017192356
0.0075171855 0.00401285 0.0047767195 -0.003466876 0.007977193 0.0022023155 0.01964915 0.011477736
0.003161055 0.015917346 0.0109656565 -0.00497133 -0.007678424 0.007856908 0.035009865 -0.006767334
0.0033116927 0.0039317776 0.00812118 0.013188506 0.0075778984 0.010351447 0.006833578 0.011742344
0.008061192 -0.0015584064 0.0036268674 0.004278128 0.01797102 -0.0023251737 0.00949686 -0.018901618
-0.030041298 0.006540161 0.01142655 0.00023891477 0.02396822 0.00066428696 -0.0015777599 -0.0034621921
-0.0018861183 -0.01795957 0.0016540946 0.021610647 7.718808e-05 0.016420603 -0.014325955 0.024457293
-0.022670496 -0.01305618 0.014093986 -0.008191021 0.003321572 0.0042689997 -0.014056233 0.017713696
-0.012750029 0.0013310951 -0.00017444813 0.008570764 -0.0018071003 -0.0050087688 0.007674289 -0.0012646529
-0.008216145 -0.0045743347 -0.0013228283 -0.018086784 0.0051776925 -0.0010510444 -0.0054921163 0.00017473962
-0.014589908 0.0016732679 -0.00017148022 0.008206143 -0.002426407 -0.0053067724 -0.0057933973 -0.0080128
-0.009922724 -0.0029519175 0.010916327 -0.0028777625 0.003495098 0.0070464876 0.01095678 0.01252289

network_body._body_endoder.seq_layers.2.weight f4 [128, 128]
00000000: b23c 7f3d 8793 d3bd 3234 4bbb 19da 303e
00000010: fcde dd3d 740a a73d d54c 4fbe d58d 453d
00000020: 6559 81bd 32e1 25bd bdcb f8bd c199 66bc
00000030: 2a68 d2bc 1433 2e3d d2f9 143c 359c 033e
00000040: f6ee 67bd 29d1 cfbb 5282 66bc d6b9 a73c
00000050: 10ab 8dbd dc1c e33c 74ca e4bd a4f5 cc3a
00000060: 2e69 82bd d40b b3bd 7e35 683d a493 6f3d
00000070: 4c61 f93c de25 cd3c 57a8 d9bb e733 0c3e
00000080: 4caa 95bd ff92 b4bd 551a 413d d604 07be
00000090: 7d8f 0b3e 0426 f23d a67b e1bd 2ac9 113e
000000a0: 7ce1 923c ba59 55bc f697 763d bb77 ffbd
000000b0: 2ee1 e9bd 9c9a 8e3d 0f4c c6bc 8e6f 8bbd
000000c0: 7b10 ad3d 1dad 4a3d bb80 fb3d 15a6 3f3d
000000d0: 42ae 7c3d 18f4 bbbd 6777 b13b d815 463d
000000e0: 45be 2f3e f294 5e3e a393 10bd db07 9fbd
000000f0: 1d54 6fbd 245a 373e e6ab 86bb a422 17be
00000100: 0d2e 8a3d f4e8 34bd fbfb 90bd 6971 a0bd
00000110: 5816 de3c 4baa a9bd 7eda 5ebd afc4 00be
00000120: 88c5 3d3e 7417 313e 15da a9bd 0987 c83c
00000130: 95fd 6abd 0157 c1bd bbeb 03bd 3809 25be
00000140: b066 853c 31a6 753d a09b 4c3d 9ec5 b3bc
00000150: 2e1a cc3d e9d9 0bbe beb7 31bd 8392 0dbe
00000160: 4355 da3d 7fe3 bb3b a15a cdbd b325 be3c
00000170: fccc 06be 33c7 e33a 43df e0bd 5bf5 233d
00000180: 93b9 493d 3b8b 1abe 9007 a73d 013c 5d3d
00000190: 6cca 233d b675 4bbe b0c5 983d a887 adbd
000001a0: 3f3f 9ebd 318a 04be f212 923d c496 3f3d
000001b0: 4a35 16bd 05ec 1a3d e2d4 cc3d 1b4b 24be
000001c0: ac81 bfbd 8aae b73d 8b26 0c3d 9a13 393b
000001d0: 90f4 6b3d f0e3 6b3d 0892 13be c4ba cabd
000001e0: 1f3d 28be 39bd f6bd 9e85 d0ba 093f a1bc
000001f0: 9c75 74bd 87c9 a0bd f01f 05be f80e 00be
00000200: 46a3 6dbd 335e a1bd 9ba1 febd 25c1 0f3e
00000210: c1c4 e539 e91c cf3d ff8b b1bd 9ce4 8d3d
00000220: 2c1f bb3d 6a63 393c 7021 d63d bf99 b73d
00000230: d485 67bd 6361 2bbe b073 7bbd 3b11 e4bc
00000240: a042 103d 5ed1 0abe 8eb6 0c3e 1b04 913d
00000250: 8ab3 5bbd 1888 04be f93f 6cbd 3a1f cfbd
00000260: 687f 9c3d 9249 babd 2192 033d 6d52 d9bd
00000270: d489 e3bc 621e f43d 3d73 cd3d 28a2 9d3d
00000280: d0cc 823d 1ebe 5a3d 1e30 ce3d 2d53 e73d
00000290: 439e e63d 1579 533d 705b 3ebd 58a4 293e
000002a0: 5e9a 333d 5793 513d 2925 c1bb f44f 2cbd
000002b0: 5570 29bd 1e62 ebbb b64d 2d3d 78a7 b5bc
000002c0: dbbb a5bd 8c9a 3b3d bc01 d23d 995b b03d
000002d0: 74ac ff3d 3b43 173e 0139 cabd c8ec 373e
000002e0: fc2a d83c 9247 81bd c93e c4bd deee 12bd
000002f0: 1cdf 36bd 6d4a b0bd c425 ca3d 9109 e93d
00000300: 7719 1ebe b464 5dbc 7eef 65bd 197c 553d
00000310: a28f 043e 0eff a1bd 4d34 f6bd 603a 3d3b
00000320: 87e8 023e f5e9 e0bc e00b 46be 54a2 e83d
00000330: 7550 8cbc 8278 ffbc 1660 5c3d 6b43 953d
00000340: 54ad d53b cf94 1dbe 1213 33be ebdf 09be
00000350: a710 efbc 6bb0 c33d a131 6d3d 69d3 27bd
00000360: 6c33 21be c2e5 cebc 2271 1abe 0012 d03d
00000370: 3673 ffbc 0c2c 0f3e 73fe 7fbc 6a96 24bc
00000380: cd16 1bbd c93c 953d a255 523d 7356 d83d
00000390: 9e3a 68bc 6d3a ad3c c09a d03d 6360 25bb
000003a0: a58a 5fbd 7417 b1bb 2f7d 76bd 2c80 a53d
000003b0: b9b7 453d bb1c 98bc 0065 cc3d e360 1f3e
000003c0: b986 073c a1a0 ac3b 6a8d c4bd 24bb 27bd
000003d0: 277e 90bd 07a4 8c3c 3437 3cba 77c9 323d
000003e0: 013d 333c ddb4 c23d b305 f1ba e7dd 193e
000003f0: 346e 02bd 8603 24bd 4869 b63c 099d 57bd
0.062313743 -0.10330873 -0.0031006453 0.17270698 0.108335465 0.08156291 -0.20244153 0.048230965
-0.06315879 -0.040497966 -0.12148235 -0.014074744 -0.025684435 0.04252918 0.009092765 0.12852557
-0.056624375 -0.0063420725 -0.014069157 0.020474356 -0.06917393 0.027723722 -0.11171427 0.0015637171
-0.06367718 -0.087424904 0.05669164 0.05849041 0.030441903 0.02504247 -0.006642382 0.13691674
-0.07307872 -0.088171 0.047144253 -0.13185439 0.13628955 0.11823657 -0.11009912 0.14236894
0.017929785 -0.013021881 0.060203515 -0.12474009 -0.11419903 0.06963083 -0.02420619 -0.06808387
0.08450409 0.0494815 0.12280413 0.046789248 0.061689623 -0.091774166 0.005415845 0.048360676
0.17162426 0.21736506 -0.035297047 -0.0776517 -0.058429826 0.1790548 -0.0041098474 -0.14759308
0.06747065 -0.044167474 -0.070793115 -0.07834131 0.027110264 -0.08284434 -0.05440759 -0.12575029
0.18532383 0.17294103 -0.08293549 0.024478452 -0.05737074 -0.09440423 -0.032207232 -0.16116798
0.016284317 0.059972946 0.049953103 -0.021944817 0.09965931 -0.13657345 -0.04338812 -0.13825421
0.10660794 0.0057339068 -0.10027052 0.023211336 -0.13164133 0.0017378092 -0.10980084 0.04002891
0.049249243 -0.15092175 0.08155739 0.054012302 0.039987966 -0.19869122 0.07459581 -0.0847314
-0.07726907 -0.12943341 0.0713252 0.04677464 -0.036671914 0.037822742 0.10001542 -0.16044275
-0.09350905 0.089688376 0.034216445 0.0028240443 0.05760628 0.057590425 -0.14411175 -0.09898904
-0.16429566 -0.1204781 -0.0015908962 -0.019683378 -0.059682474 -0.07850938 -0.13000464 -0.1250571
-0.058017038 -0.07879295 -0.124331675 0.14038523 0.00043824877 0.10112936 -0.0866928 0.069283694
0.09136805 0.011315206 0.104555964 0.089648716 -0.056524113 -0.16736369 -0.061389625 -0.027840247
0.03521979 -0.1355643 0.13741514 0.07080861 -0.05363802 -0.1294254 -0.057678197 -0.10113378
0.07641488 -0.09096064 0.03212178 -0.106114246 -0.027775683 0.119198576 0.100317456 0.076969445
0.06386721 0.053403966 0.100677714 0.112951614 0.11260655 0.051629145 -0.04647392 0.16566598
0.043848388 0.051165905 -0.0058943224 -0.042068437 -0.041366894 -0.0071833273 0.04231044 -0.022174582
-0.08092471 0.045801684 0.10254237 0.08611221 0.12484065 0.1477174 -0.09874154 0.17961419
0.026387684 -0.06312479 -0.09582288 -0.035872333 -0.044646367 -0.086079456 0.098704845 0.11378778
-0.15439402 -0.013512779 -0.0561366 0.052120302 0.12945417 -0.07909976 -0.12021694 0.0028873906
0.12784015 -0.02745531 -0.19340467 0.11359087 -0.017128209 -0.031185392 0.053802572 0.072882496
0.0065209065 -0.15388797 -0.17487743 -0.13464324 -0.029182745 0.095551334 0.057908658 -0.0409731
-0.15742272 -0.025256041 -0.15082219 0.10159683 -0.031182867 0.13981646 -0.01562463 -0.010045627
-0.03786354 0.072869845 0.051351197 0.10563364 -0.014174132 0.021146024 0.10185766 -0.0025234453
-0.05457558 -0.005404407 -0.060177978 0.080810875 0.048270915 -0.018568387 0.09980202 0.15564303
0.0082718665 0.005268172 -0.09597285 -0.040949956 -0.07055312 0.017168058 -0.0007179857 0.043649163
0.010939837 0.09507153 -0.0018388539 0.15026055 -0.03184338 -0.040042423 0.022266999 -0.052639995

network_body._body_endoder.seq_layers.2.bias f4 [128]
00000000: 5672 5d3a 7b47 7239 bcd0 753b edae 5fbb
00000010: 431e 5dbc ab26 d9b9 6304 3ebc b478 ff3b
00000020: b377 55bc daaa d2ba 662e adba 3c5e ffba
00000030: cf88 923c ba02 613b 9c25 7c3c 081a c43b
00000040: b722 103c 458e c3ba 2582 573c 62f0 893b
00000050: 731f 37bc 74e3 023a 6be6 fe3b b8ed 38bc
00000060: 511a 72ba b227 acbc f7ef 1d3b 7893 b53b
00000070: 8e37 c13b 7e56 1b3c 0813 08bc 9db0 f53c
00000080: 682c aabb 6b61 a53c f4dd d1bb 5bb4 8f3c
00000090: 2978 b9bb 7e67 3bbc 9c50 4ab9 d4c1 9abb
000000a0: e60b a5bb 4d62 3c3c 0a41 a4ba d361 7e3b
000000b0: 8b39 953c 9a91 1b3b 01fd d1bb eb47 473b
000000c0: 76bf c03c a5c8 2d3c 7b59 04bc 9223 2fbc
000000d0: f153 6c3b c810 28ba b797 1abc 960b 30bc
000000e0: b9cb e83a c960 153b 07c1 0ebc 17f9 dd3b
000000f0: f588 493b a5d3 81bc dd41 03bc 263d e63b
00000100: 67a1 6fbc 0214 483c cc9e 793b d193 7bbb
00000110: d323 b83b e0c1 b0bb 18d7 16bb a587 7b3c
00000120: 647d 263c a31f e8bb 8ae9 1abc c8da 113b
00000130: d400 bf3a 4a97 cc3c 4820 3d3c 7ef7 153c
00000140: c6c1 c93b 0b22 eebb c608 03bc 5361 623c
00000150: c795 24bb e42d ddbb 0460 63bb bd5f dd3b
00000160: 8407 06bc 32d5 9abb 0cc8 833c 007a ef3b
00000170: bb55 ee3b 922e 13bc b803 a93c 98ba b8bb
00000180: 1bcc 393c 6104 14bc d877 d83a 5968 553c
00000190: a5b3 f73b b864 dc3b 4d91 1fba 89a4 a93b
000001a0: 88d5 463c d009 8b3c 3db9 6ebb 51a7 813b
000001b0: 535d e83b 67e7 77bc e9e7 deba daf1 2a3c
000001c0: e6bc bf3a 28f7 2abc cf3e 37bc 6df7 63ba
000001d0: 0a1c f03b 326d 75bb f9d5 39bc 334d ad3a
000001e0: b98f a83c 91d5 7e3c 6c56 64bb 8799 d53a
000001f0: 1295 603c c913 723a 1c6b a4bb a5c4 963b
0.00084475183 0.00023105547 0.0037508449 -0.0034131363 -0.0134959845 -0.00041418275 -0.011597726 0.0077963714
-0.013029027 -0.0016072646 -0.001321268 -0.001948304 0.017887501 0.00343339 0.015389826 0.0059845485
0.008797339 -0.0014919719 0.0131535875 0.004209564 -0.011176932 0.00049929996 0.007778933 -0.011287145
-0.0009235489 -0.021015022 0.002409933 0.0055412613 0.005896515 0.009481071 -0.008305319 0.029991442
-0.005193282 0.020188054 -0.0064046327 0.017542055 -0.005660076 -0.011438249 -0.0001929425 -0.004722813
-0.005036819 0.011498046 -0.001253159 0.0038815632 0.018215915 0.0023737908 -0.0064083342 0.0030407857
0.023528796 0.010606919 -0.008077974 -0.010689633 0.0036060775 -0.0006411192 -0.009435586 -0.01074495
0.0017760909 0.0022793284 -0.0087130135 0.0067740786 0.0030751799 -0.01584799 -0.0080113085 0.0070263324
-0.014625884 0.0122118015 0.0038089035 -0.0038387666 0.005619505 -0.0053942055 -0.002301639 0.015352164
0.010161731 -0.0070838495 -0.009455094 0.0022255648 0.001457239 0.024974484 0.011543341 0.009153245
0.006157133 -0.007267242 -0.007997697 0.013817149 -0.0025113688 -0.0067498554 -0.003469468 0.0067557977
-0.008180503 -0.004725122 0.0160866 0.0073082447 0.0072734035 -0.008983271 0.020631656 -0.005637478
0.011340166 -0.009034247 0.0016515208 0.013025367 0.007559257 0.006725874 -0.000608702 0.005177085
0.012135871 0.016972452 -0.0036426329 0.0039567132 0.0070912032 -0.015130854 -0.001700637 0.0104336385
0.001462844 -0.010434903 -0.011184408 -0.0008696232 0.0073275613 -0.0037449119 -0.011342519 0.001322186
0.020576345 0.015553848 -0.003484155 0.0016296365 0.013707416 0.00092345156 -0.0050176512 0.0046010786
