Assets/results/ppo/My Behavior/My Behavior-499955.onnx (onnx, 578818 bytes, 21 tensors)

network_body.observation_encoder.processors.0.self_ent_encoder.seq_layers.0.bias f4 [128]
00000000: 8b10 8f3b 63e0 143c ba70 563b fb83 cabb
00000010: e3df e5bb 1fa7 443c c0f5 843c 7648 c63c
00000020: e57e e13a c9f7 3a3b 16bb 3dbb 3653 24bc
00000030: 0838 d8b8 1b93 ecbb 4fef 13bc 5746 11bc
00000040: 9123 12bc c222 5abc c3d0 f43b a471 d1bb
00000050: 1a84 22bc c3f6 013c f132 f93b 28a5 3e3c
00000060: 6d9e 533b fcee aabb 470f e7bb cee6 403c
00000070: 340a ed3c 2175 37bc bb7f 0a3c d8fb dabb
00000080: afcb 3f3a da3e dbbb 1c72 b3bc 2aa5 7f3c
00000090: f76c 1bbc 0919 f9ba 7e14 6dbc 3c33 ab3b
000000a0: 6e09 a53c 75df 083b 8428 4fbc a0a4 a13b
000000b0: eb77 ea3b 94fc 913b 57cc 91bc 4fa2 cf3b
000000c0: 2ae0 c53b 0939 5c3c 314c 21bc 204a 4ebc
000000d0: 606d 95bc df26 f7bb 80fe 7d3a 642c 21bc
000000e0: edee f9bb 48ae d93b 0a49 4fbc e4f4 babb
000000f0: aa59 3d3a 9a1f 6539 0ec6 a43b 7c87 83bc
00000100: 4b29 db3b e0c1 333c 5d55 0f3c 43bb 023c
00000110: 8f99 1e3c 0a83 12bb 688f 2b3c e12f b8bb
00000120: 48fa b9bb f8e5 203b d583 36bb 7df5 393a
00000130: c835 55bc 1cf0 1c3a ffc9 80b9 ba25 41bc
00000140: d1b4 d1bb 2bc9 20bc 3b73 e1bb 9051 a93b
00000150: 43c0 aaba 8c3f d63a 2a0a 66bc f197 0b3c
00000160: b634 33bc f4cb 2439 3829 19bc 0659 f13c
00000170: e975 8a3c aedb bc3c 8cc5 a2bc f91e 293c
00000180: ba42 783c 289d e0bb c68c 34bc 3160 9e3b
00000190: 0d2b d1bb 1a1c 1f3a 9fe3 65bc ad11 013b
000001a0: f8b4 b63b 53fe 24ba 7488 1abb c9b8 7aba
000001b0: dc02 02bb dd61 4c3b df0a 2fbc 8ae2 1abc
000001c0: 0cf9 18bb 2b2a 303c 4158 94bc 646f b13b
000001d0: 9929 353b be0f ab3b ee94 1d3b 18a5 07bc
000001e0: aa8b 02bc b9f3 f8bb 55cf a8bc f23f d33b
000001f0: c12f dd3b 3fe2 7f3a 110a 5f3b fcaa ddbb
0.0043659857 0.009086701 0.0032721 -0.006180284 -0.007015215 0.012002735 0.016230464 0.024204474
0.0017203955 0.002852904 -0.0028950623 -0.010029605 -0.00010310119 -0.007219685 -0.009029224 -0.008866868
-0.0089196125 -0.013313951 0.0074711754 -0.006391721 -0.009919191 0.007932368 0.0076049496 0.011636056
0.0032290474 -0.0052164774 -0.0070513817 0.011773778 0.02893553 -0.011197359 0.008453305 -0.006682854
0.0007316423 -0.006690842 -0.021904998 0.015603343 -0.009486428 -0.0019004653 -0.014470218 0.0052246135
0.020146098 0.0020885144 -0.012643937 0.004932955 0.0071554086 0.0044551585 -0.017797632 0.0063364874
0.0060386853 0.013441333 -0.009844826 -0.012590915 -0.01824063 -0.0075424756 0.00096891075 -0.009837244
-0.007627359 0.0066430904 -0.012651691 -0.005705463 0.0007223139 0.00021850914 0.005028493 -0.016055815
0.006688272 0.010971516 0.00874838 0.007979217 0.009680166 -0.0022355937 0.010471202 -0.005620942
-0.005675588 0.0024551135 -0.0027849574 0.00070937705 -0.013013311 0.0005986707 -0.0002456456 -0.01178878
-0.006399729 -0.009813587 -0.0068801916 0.0051671937 -0.0013027269 0.0016345843 -0.014040509 0.008520112
-0.01093786 0.00015716237 -0.009348206 0.029461395 0.016901927 0.02305397 -0.019869588 0.010322326
0.015152628 -0.006854672 -0.011019891 0.0048332443 -0.006383306 0.0006069556 -0.01403132 0.0019694373
0.0055757724 -0.0006294001 -0.0023579868 -0.00095642783 -0.001983813 0.003118626 -0.010683744 -0.009453425
-0.0023341803 0.010752241 -0.018108489 0.00541489 0.0027643202 0.0052203825 0.0024045068 -0.0082791075
-0.007967869 -0.0075974134 -0.020606676 0.006446832 0.0067500775 0.00097611913 0.00340331 -0.0067647677

network_body.observation_encoder.processors.1.self_ent_encoder.seq_layers.0.bias f4 [128]
00000000: d4cf 72bb 69f5 3b3c bf18 5c3c adf8 60bc
00000010: addf 653b f97c c13c 4fa7 783c 9896 0bbc
00000020: 6ab4 18bc 7ad4 313c d18c d2bb 22cb e5ba
00000030: 2028 febb 884e ed3c 685c 473c 8130 b0bb
00000040: 195b eab8 db9c 4ebc 6b5e 03bd 4a06 58bc
00000050: 7155 e3bc 41d1 1abc 18b8 a6bc 8e8b 6fbc
00000060: 3c48 823c 4742 96ba bb8c bc3b b21e 8fbc
00000070: 318e afbc 0277 6d3a ea9e 81bb 18db 4c3a
00000080: 88e2 503c 6a28 863b abaf 453d fca1 903c
00000090: ab11 83bc 579a 13bc b349 aabb e457 fb3a
000000a0: 2b5c a1bc 25fd 64bb 5f46 1f3c b428 52bc
000000b0: d340 0138 98e4 2e39 cb6b b33c f396 883c
000000c0: 9831 6dbc 23cf 8d39 02b2 af3c 6248 433c
000000d0: 302f 183d 80c8 a93c 9cd2 983b 88b6 aabb
000000e0: b99b aa3c 442f 95bc 6cc6 e0bc 711d bcbc
000000f0: e9d8 643c 373e 6b3b 26dc cdba 1cc1 f4bb
00000100: 2d35 d23c e697 47bc 70fd 6e3c bd21 92bc
00000110: f466 d2bb c831 053c af97 2d3c ed89 5cbb
00000120: 13ac 603b cfd1 29bb 52f1 bdbc 801b 2c3c
00000130: 27b0 103b 4b78 1f3c e60d edb9 5f18 7ebb
00000140: a558 803c c3d4 633b 819a e9bb 119a b73c
00000150: 57ef 1bbc 403c 63bb ede1 6f3c f6f6 8cbb
00000160: 406e 9e3c 4c20 bbbc dde1 8cbb 9ce6 17bc
00000170: 9dce 923c a16c dd3b afdb 423c c160 b2bc
00000180: dfa9 d7bc 8cef 973b 55db b33c 9eed 77bc
00000190: ba7b 67bc 0260 fd3b 0356 e73c b302 8f3c
000001a0: 7a0a faba 1e3e 6e3c b1fc 85bc 0a1a 8cbc
000001b0: 3fac f43a d4ab 1abc fb27 923c 35d8 ad3c
000001c0: 47f6 c8bb 818c acbc f48f 97bc c6f2 39bb
000001d0: caa4 8cbb 3c0a 1cbc a5d0 ccbc b820 8939
000001e0: 1e45 f5bb 684a a83c 7367 423c 7305 70bc
000001f0: 6ef8 5b3c a30b 283b 06f0 76b8 f1ee fa38
-0.0037050145 0.011472085 0.013433634 -0.013731164 0.0035075948 0.023619162 0.015176608 -0.008519791
-0.009320358 0.010853881 -0.006425478 -0.0017531852 -0.007756248 0.02896811 0.012168027 -0.005376876
-0.00011174958 -0.012610639 -0.032072466 -0.013185093 -0.027750703 -0.009449304 -0.020351455 -0.014620675
0.015903585 -0.0011463844 0.005754081 -0.017470691 -0.021430107 0.0009058566 -0.0039557116 0.000781463
0.012749322 0.004094173 0.048263233 0.017655365 -0.015999636 -0.009008965 -0.005196774 0.0019175974
-0.01969727 -0.0034940925 0.009721368 -0.012827087 3.081637e-05 0.00016679091 0.021901986 0.01667354
-0.014477156 0.00027047945 0.021447185 0.011919113 0.037154377 0.020725489 0.0046637785 -0.0052097477
0.020826207 -0.018211015 -0.027438365 -0.022963258 0.013967731 0.0035895237 -0.0015705868 -0.0074693095
0.025660122 -0.0121822115 0.014586791 -0.017838353 -0.0064209644 0.008129545 0.010595246 -0.0033651546
0.0034282252 -0.002591241 -0.02318636 0.010504603 0.0022077651 0.00973327 -0.00045214518 -0.003877185
0.015667269 0.0034764267 -0.007129014 0.022412332 -0.009517512 -0.0034673363 0.014641267 -0.004301901
0.01933968 -0.022842549 -0.004299386 -0.00927129 0.017920787 0.0067573343 0.011893197 -0.021774651
-0.026326118 0.0046367105 0.021955172 -0.015132336 -0.01412862 0.0077323923 0.028239256 0.017457342
-0.0019076609 0.014541177 -0.016355844 -0.01710226 0.0018667056 -0.009440381 0.01784133 0.02122126
-0.006132874 -0.021063091 -0.01850126 -0.0028373464 -0.0042921053 -0.009523924 -0.025001833 0.00026155054
-0.007485046 0.020543292 0.0118654845 -0.014649737 0.0134259295 0.0025641702 -5.887451e-05 0.00011965435

network_body.observation_encoder.rsa.fc_q.bias f4 [128]
00000000: 935d 0c3d fb23 85bd 61a1 15bc 05b4 483d
00000010: fd1d 1fbc 2153 50bd 8d24 96bc 2fe8 bebc
00000020: 983a 16bd 42ac 173d c918 00bd 99bf 083d
00000030: b42e 873c 9b33 063d 1f9a 433c 8e82 9bbc
00000040: 3862 c93c d7f4 183d a570 ed3c c61a c3bc
00000050: d27c c2bc f9b5 4f3b f1da 2b3d 092d 86bc
00000060: 391f 9b3c efb0 3e3d afc9 f03c ffea ddbc
00000070: fc58 7abc d8ea 48bd 61c8 093c 2922 abbb
00000080: 68a4 05bd 5638 f43c 02cc 363d b455 6b3c
00000090: 061f 233c e209 c83c 5a48 b83b 6ec2 2dbd
000000a0: 9292 23bd e96e 0bbc 752a df3c e9e8 033d
000000b0: 98ad 06bd e2e9 b0bc 3e60 10bd 2ab9 5d3d
000000c0: d232 453d f275 21bd 69bf aabc 6923 593d
000000d0: b892 d8ba 4eb1 b9bc c94c cfbc 7501 31bc
000000e0: 325b 05bd 5334 b3bc 49ff 1d3b 6ada 7a3c
000000f0: efb0 14bd 2f3b 06bd d20f a33c 5c50 e4bb
00000100: aed6 ac3c 983e dbbc 9b83 d2bc 5c3e 163b
00000110: 5fca 393c 312b 023c 5b3d e7bc e75d d0bb
00000120: cf57 333c 3608 103d a32e 213d 0a62 16bc
00000130: b957 f0ba aec9 923c 6983 c5bc 960b f438
00000140: f388 513c bbac 6cbb 42a7 d7bb d11c 47bb
00000150: 319a 173d 9890 e83b 9001 6b3c 1155 e33c
00000160: f682 0ebc 20e6 743c 2868 f2bc fc25 10bd
00000170: 83b3 0fbb e91d 6d3a cfee 2c3d 3c9c ce3b
00000180: d9ac d8bc 926e 98ba ba3c 59bb 8ab3 2ebd
00000190: 8297 873b 8921 69bc 6db8 01bd ee5b 363c
000001a0: c3ff 04bb 4efe 81bc c3c4 353c 54b7 a63c
000001b0: 2a57 1fbc 950e a33c 85cf 593d 2cb9 c83c
000001c0: cf15 153c 351d 323c 0cb4 30bd f3dd 0abc
000001d0: 0b86 af3c 76af 35bc bb55 a2bb 6f2c f3bc
000001e0: 59c2 b9bc d14e 4abc eb31 93bc aa6a 2dba
000001f0: 2c16 9e3c 388d 8f3c 3dba 1dbc d338 8bbb
0.034268927 -0.06501003 -0.009132714 0.048999805 -0.00971174 -0.050860528 -0.018327976 -0.023304073
-0.036676973 0.037029512 -0.031273637 0.033385847 0.016501762 0.03276406 0.011938601 -0.018983152
0.024582967 0.037342872 0.028984377 -0.023816478 -0.02374116 0.0031694158 0.041956846 -0.016378896
0.018935787 0.046555456 0.029393045 -0.027089594 -0.015280005 -0.04905209 0.00840959 -0.005222578
-0.032627493 0.02981202 0.04462815 0.014363695 0.009956127 0.024418775 0.0056238594 -0.04242175
-0.039934702 -0.00851033 0.027241925 0.032204542 -0.032880396 -0.021595899 -0.035248034 0.054131664
0.04814417 -0.039419122 -0.020843225 0.053012285 -0.0016523218 -0.022667553 -0.025305169 -0.01080357
-0.032557674 -0.021875536 0.002410846 0.015310863 -0.03630155 -0.032771286 0.019905005 -0.0069675874
0.021098461 -0.026763245 -0.02569752 0.0022925353 0.011339753 0.007944868 -0.028227499 -0.0063588503
0.010946228 0.03516408 0.039351117 -0.009178648 -0.001833669 0.017918434 -0.024110513 0.00011636985
0.012788999 -0.0036113698 -0.006581218 -0.0030382166 0.037012283 0.007097315 0.014343634 0.027750524
-0.008698216 0.014947444 -0.029590681 -0.035192475 -0.0021927066 0.00090452895 0.042219933 0.0063052457
-0.026449608 -0.0011629632 -0.0033147768 -0.04265169 0.004137934 -0.014229187 -0.031670023 0.011130316
-0.0020294047 -0.015868332 0.011094275 0.02035109 -0.009725371 0.019904414 0.05317642 0.02450236
0.009099438 0.010871221 -0.043140456 -0.008475768 0.021426221 -0.011089196 -0.0049540675 -0.029684274
-0.02267568 -0.012347893 -0.017968139 -0.00066153205 0.019297682 0.017523393 -0.009626922 -0.0042487173

network_body.observation_encoder.rsa.fc_k.bias f4 [128]
00000000: 2489 fb33 6e27 2fb6 dc09 18b6 2b6c 9f34
00000010: accc 40b6 2e66 98b6 5441 4136 ba60 0bb6
00000020: 4016 3134 536c ad36 0f2f 30b5 8806 3536
00000030: 3611 8eb5 003b 8336 e524 7e35 ab8e 2535
00000040: f848 16b5 52b3 0d36 b140 a9b5 f6bd 1db6
00000050: e550 0836 1562 26b6 2d37 f535 8eb3 3336
00000060: 839b 11b6 9c0b 98b5 6f49 a636 94cc a6b5
00000070: bbb6 1136 98cf 93b5 e07a 24b6 0dc9 62b6
00000080: b1b6 d334 6cd7 5ab5 c74c 35b3 fba2 14b4
00000090: ce88 45b5 e5b8 18b5 7343 12b5 1e76 0936
000000a0: 00ff 7235 85d3 00b5 bd7a 7134 c9a1 ecb5
000000b0: 71bb 24b5 4bda 5c34 468a 0235 6238 13b6
000000c0: ebe4 1836 7d36 d5b4 8882 2536 5b04 4034
000000d0: 8239 1ab5 eded 8434 fd65 a335 37e5 93b2
000000e0: 1360 3935 0832 ccb5 08fc 8f34 a86c 6a34
000000f0: 5cc9 9535 055f d4b3 8a53 4b35 ec5d 9735
00000100: 7b6c fc35 e7ac 05b6 a28c b8b5 910f 3d36
00000110: f457 6035 540d c2b5 890c 94b5 36f9 1e35
00000120: e73f 1135 35c9 0636 908f 6236 e860 2a35
00000130: 6425 b5b5 fc3a 2536 b779 2ab6 0977 ff35
00000140: f843 0936 b72e 01b5 ce02 0835 0923 ca35
00000150: 14e7 d635 4f08 5836 7271 b934 5c75 ed35
00000160: ae19 d1b5 afe0 3236 a7b0 7db6 a833 ccb5
00000170: 75f9 40b4 f86c 0cb6 de16 c935 bc35 87b5
00000180: 08ba 97b5 e7c6 2f36 8309 c6b6 bcfe fcb5
00000190: 3b1d 2fb6 9b85 95b5 66bd c6b5 088f ec34
000001a0: da59 1d36 4e55 3a35 f9ea 2e35 9a9d 57b4
000001b0: 7a23 0536 ed85 c034 ec5c 19b5 dfe1 76b6
000001c0: 4233 e036 356d 80b4 9e03 ceb5 e1ba c935
000001d0: f621 2a36 76f6 0f36 aba6 1fb6 9f84 e6b5
000001e0: 153a 90b1 b56b c9b4 bc7e f733 df74 9c36
000001f0: 98a1 94b4 8a35 82b5 4a06 6a36 aea6 8b35
1.1713044e-07 -2.6099983e-06 -2.2655504e-06 2.969476e-07 -2.8729364e-06 -4.5418483e-06 2.8797267e-06 -2.0768916e-06
1.6492504e-07 5.1684124e-06 -6.563359e-07 2.6974903e-06 -1.0584833e-06 3.9109727e-06 9.467606e-07 6.16749e-07
-5.598554e-07 2.1115015e-06 -1.2610309e-06 -2.3505395e-06 2.0312666e-06 -2.4793019e-06 1.8269981e-06 2.6777593e-06
-2.1697203e-06 -1.1328261e-06 4.9557343e-06 -1.2427504e-06 2.1713047e-06 -1.1012771e-06 -2.4509427e-06 -3.3793651e-06
3.9434738e-07 -8.152481e-07 -4.2212175e-08 -1.3842866e-07 -7.3587296e-07 -5.689347e-07 -5.448739e-07 2.0483344e-06
9.05231e-07 -4.799152e-07 2.2489526e-07 -1.7630456e-06 -6.1367524e-07 2.0568511e-07 4.862999e-07 -2.1937526e-06
2.2783013e-06 -3.9713987e-07 2.4662895e-06 1.7882978e-07 -5.7453155e-07 2.476003e-07 1.2174129e-06 -1.7217287e-08
6.9057677e-07 -1.5213745e-06 2.6819203e-07 2.1832477e-07 1.1159968e-06 -9.889303e-08 7.574496e-07 1.1277712e-06
1.8807035e-06 -1.9919187e-06 -1.3749998e-06 2.8172255e-06 8.357449e-07 -1.4458005e-06 -1.1030507e-06 5.9222236e-07
5.41097e-07 2.0084674e-06 3.3760189e-06 6.347095e-07 -1.3496433e-06 2.462125e-06 -2.5402821e-06 1.9033624e-06
2.0454154e-06 -4.8124224e-07 5.066803e-07 1.5060369e-06 1.6011495e-06 3.2191344e-06 3.4541478e-07 1.7692032e-06
-1.5579187e-06 2.665485e-06 -3.7802763e-06 -1.5214218e-06 -1.7972145e-07 -2.0925054e-06 1.4982322e-06 -1.0073923e-06
-1.1304519e-06 2.6192808e-06 -5.901967e-06 -1.88496e-06 -2.6094046e-06 -1.1140249e-06 -1.4807272e-06 4.4062494e-07
2.3447124e-06 6.9414534e-07 6.516198e-07 -2.008077e-07 1.9839194e-06 3.586023e-07 -5.713216e-07 -3.678833e-06
6.6816874e-06 -2.3921316e-07 -1.5349249e-06 1.5030056e-06 2.5351742e-06 2.145212e-06 -2.378986e-06 -1.7174933e-06
-4.1975547e-09 -3.7517535e-07 1.1524887e-07 4.662768e-06 -2.7684723e-07 -9.701337e-07 3.4872378e-06 1.0404817e-06

network_body.observation_encoder.rsa.fc_v.bias f4 [128]
00000000: 21ba 01bc 8f79 1abc 3562 8d3b bee6 abba
00000010: 95be 2c3c d2b0 aaba a0bc 093c 133c 813b
00000020: 85a6 edbb e4c5 cc3c cbc1 d5b9 6d6e 84bb
00000030: 5d1d 0dbb dd33 5cbc 989a 61bc 29ec b83c
00000040: e591 14bc 4bbf a2bb 6a7d 58bc 2be1 393c
00000050: f077 d43c a4b9 a3bb abfd bdbc d150 47ba
00000060: af48 24bc 8447 c83a dd22 97bc f705 083b
00000070: d5b6 65bc 332b 9dba f635 25ba 0b74 0abc
00000080: 6b7d da3c 6274 94bc b308 d7bc fa79 0b3c
00000090: ce2b 29bc 2668 0dbc 8250 57bb 5657 4abc
000000a0: 3e29 c6bb e9c8 bd3c f7e5 99bc f95f a4bb
000000b0: a4f8 b53c f62a 28bc 1153 0c3c de48 35bc
000000c0: 1223 84bb 9566 e63b 8540 673b 8fc5 50bc
000000d0: 6fc7 0abc 2d69 65ba 35fb eabb 6ab7 8b3b
000000e0: 51f8 043c 3d65 4e3c 8260 823c 17a9 dd3b
000000f0: 8fc5 25ba 9e8d 1e3c d4fd a4bb 20b7 f53b
00000100: 675d 853b faee 47bb 1986 d63b 1420 82ba
00000110: 110d d33b 1adc a6bc 15d5 a2bc be48 453b
00000120: 0d7d 163c bdce 323b 87ba 49bc 384c 2bbc
00000130: fc90 c3ba ead7 b33a 03cf 893b a44d 673c
00000140: c0b3 c3bb d0da c43b aa63 6f3c 5f3a ee3b
00000150: 6ec4 30bb 558e a93a 16ad 17bc e9e6 cd3b
00000160: b2c7 bc3b 6bff 513b 84a0 303c 1bf5 b73c
00000170: 452b b6bb 9e3a a93a 6e31 c33b 6541 6ebc
00000180: 3062 7ebb 3492 a83b beaa ed3a 5f78 7c3c
00000190: 84b7 0c3c 6f3b ecba e404 a4bb 37cd 01bc
000001a0: c053 be3c 72fb 2a3b abef e0b8 6fe1 adbb
000001b0: a09d 333c e5e7 0ebc df43 9fba fc66 4ebc
000001c0: 4387 263c 91f3 6d39 f8cb a9bb 4fef 64bb
000001d0: 0785 5dbb 19a6 f3bb 8ded ccbb c3d1 6f3c
000001e0: 9c41 08bc a45e eb3b 7478 8ebb db2f 433b
000001f0: a162 20bc 542f 5c3c 2374 1bbc d383 99bc
-0.007917912 -0.009428396 0.0043146857 -0.0013115031 0.010543485 -0.0013022667 0.008406788 0.003943929
-0.0072525167 0.024996705 -0.00040770913 -0.004041484 -0.0021532394 -0.0134401 -0.013769768 0.022573547
-0.009067987 -0.0049666516 -0.013213495 0.011345188 0.025936097 -0.0049964953 -0.023192247 -0.000760329
-0.010027095 0.0015280102 -0.018449241 0.0020755508 -0.014020641 -0.0011991024 -0.00063022913 -0.008450518
0.026671132 -0.018121902 -0.026249265 0.008512968 -0.010325385 -0.008630788 -0.0032854383 -0.012349924
-0.006047397 0.02316709 -0.018786414 -0.0050163236 0.022213288 -0.010264149 0.008564726 -0.011064736
-0.004032501 0.0070312717 0.003528626 -0.012742414 -0.0084704 -0.0008751329 -0.0071710595 0.004263808
0.008115844 0.012597379 0.01591516 0.006764542 -0.0006323689 0.009677319 -0.0050351415 0.007498637
0.0040699723 -0.0030507431 0.0065467474 -0.0009927773 0.0064407666 -0.020368624 -0.019876996 0.0030103172
0.009185088 0.002728387 -0.012312538 -0.010455184 -0.0014920528 0.0013720964 0.004205586 0.014117632
-0.0059723556 0.00600753 0.014611164 0.007270142 -0.002697255 0.0012936095 -0.0092575755 0.00628363
0.00576111 0.003204311 0.010780457 0.022455743 -0.0055593573 0.0012911146 0.00595682 -0.014541958
-0.0038815849 0.005144382 0.001813255 0.015409558 0.008588675 -0.0018023084 -0.005005466 -0.007922462
0.023233294 0.0026089814 -0.00010725794 -0.005306415 0.010962874 -0.00872228 -0.0012150964 -0.012597796
0.010164085 0.00022692817 -0.0051817857 -0.0034932678 -0.0033801214 -0.007435572 -0.006253904 0.014637413
-0.008316424 0.007182913 -0.004347855 0.0029783163 -0.00978914 0.013439018 -0.009488138 -0.018739616

network_body.observation_encoder.rsa.fc_out.bias f4 [128]
00000000: 6f7b a3bc fa59 983b 30e7 0ebc 7e5b dcbb
00000010: ca1c 733a 89fc 8f3c 55b4 743c eb66 103c
00000020: 2120 26bc 155f 3cbb 53df 483c 404c 463c
00000030: 4b32 d93b 723e 5b3c 59dd 1dbb 3acd 84bb
00000040: 784c 403a 0b11 94bc 3997 94bc 94d1 1cbc
00000050: 8dd8 99bc 3d71 bb3c 544e 5c3c 0c61 063c
00000060: 7a1b 2a3b 3d4b 0c3c e1b7 98ba 1aa9 0b3c
00000070: d4ef 443c d10c 943b b079 453b 4dc6 e7bb
00000080: f106 cebb b93a 0fbc 985f 39bb 908a f43b
00000090: 76a4 3b3b f79c ea3b b84a dabb e5e8 f83b
000000a0: bb88 d63b b085 c4bb 2b26 efbb e039 63ba
000000b0: a277 e2ba 71f6 fdbb 64f9 073b 2eee 0bbc
000000c0: 19e8 b8b9 5072 493b 1f22 e7bc 7b5a d2ba
000000d0: 8d47 acb9 50f7 fe3b 269e a33c 9b73 193c
000000e0: 5235 d43b 9460 e23b 841c 5ebc 9dec a1bc
000000f0: 6e47 843b 91d5 ccbb b38e 253c 85c0 2d3b
00000100: cb42 b83b 8a0d 4bba d161 7abb 013e 1139
00000110: f79e 8f38 20d8 9a3c a156 a43b 3b82 ec3b
00000120: adf9 8aba 5d41 52bc 931b 27bc 6138 ffbb
00000130: 959a 8d3b 4769 4bbb e23f 6fbc 1bec b03b
00000140: aef3 7bbc 287f 583b 5c2a cebb af89 fc3b
00000150: 6bfd 7fbc 6ad6 5939 b8cc 2a3c a39f 763c
00000160: 75e3 71bb 21ef 863b 98f0 acbc 7ee5 5f39
00000170: 8566 663c 17f7 303c 23cc 4f3b 0727 ba3c
00000180: 7308 693c 7098 613c 5075 603c 1873 1fbc
00000190: 6626 a7bb ac72 04bb 87b0 093c 6fc0 4c3b
000001a0: 3d9f 4cbc b873 bf3b f3a2 4ebc 6868 06bc
000001b0: 730e b6bc 12fe 58bc c4b0 193c c39e 9e3b
000001c0: 8acb e3b8 7c38 543c c08b 05bc 0749 64bb
000001d0: 8d08 893c e716 453c 266b 0fbb dfc3 75bb
000001e0: 32ec f53a a075 57bc 19a4 ea3b 44b1 cbbb
000001f0: 5b06 e43a 3268 cd3b 1876 0839 5e26 09bc
-0.019956319 0.004649398 -0.008722112 -0.006724774 0.0009274004 0.017576473 0.014935573 0.0088136
-0.010139496 -0.0028743197 0.012260276 0.01210314 0.00662831 0.013381587 -0.0024088232 -0.004052785
0.00073356135 -0.018074533 -0.018138515 -0.009571452 -0.018780017 0.022881145 0.013446409 0.008201849
0.0025956319 0.00856286 -0.001165148 0.008524204 0.01202007 0.0045181294 0.0030132346 -0.0070732
-0.0062874486 -0.008742028 -0.0028285738 0.007462807 0.0028631962 0.007159825 -0.006661739 0.0075961226
0.0065470613 -0.005997382 -0.007298251 -0.0008667987 -0.0017278085 -0.0077503254 0.0020748014 -0.008540673
-0.0003526814 0.0030738302 -0.028214512 -0.0016048694 -0.00032859706 0.007780947 0.019972872 0.009365941
0.006476083 0.0069084857 -0.013556603 -0.019766146 0.0040368354 -0.006251045 0.010104823 0.0026512456
0.0056231967 -0.0007745853 -0.0038205276 0.00013851376 6.848381e-05 0.018901885 0.00501521 0.007217673
-0.0010602974 -0.012832967 -0.010199445 -0.0077887033 0.004321406 -0.0031038092 -0.014602633 0.0053992397
-0.015377922 0.0033034775 -0.0062916707 0.007706843 -0.015624384 0.00020774608 0.010424785 0.015052709
-0.0036909257 0.004117862 -0.021110818 0.0002135243 0.0140625285 0.010801098 0.0031707368 0.022723688
0.014223206 0.013769254 0.0136998445 -0.00973203 -0.005101013 -0.0020209951 0.008403904 0.003124263
-0.012489137 0.005842652 -0.012612092 -0.008203603 -0.022223687 -0.013244169 0.009380523 0.004840703
-0.000108621156 0.01295292 -0.008150995 -0.0034833567 0.01672771 0.012029386 -0.0021883934 -0.0037500781
0.0018762408 -0.013150603 0.0071606752 -0.0062162 0.0017396914 0.0062685246 0.00013013964 -0.008370964

network_body.observation_encoder.x_self_encoder.seq_layers.0.weight f4 [128, 3]
00000000: 8c5b 7cbd c0fb 03bc 58cb ec3c 7039 aaba
00000010: 7081 e4bc d22b a9bb 1ef2 92bd 650d 073d
00000020: 2fa2 e8ba 663e 533d c8da 03bd a086 533c
00000030: 4059 7dbc 7170 d03c be5c ac3b e812 81bd
00000040: 5417 48bc ddc8 913d 2253 eebc 309f 74bd
00000050: eafc 8e3c f05b 2ebd 1a4b f43c 37e5 bb3c
00000060: 3bd1 c03c 87a5 d33a c037 6abc 4c94 283c
00000070: 5e21 0cbd 8142 2dbd 9359 603a d033 c73b
00000080: 523c 2a3b c0ef 3fbd a706 793c a708 383d
00000090: e771 ac3a 3f30 8b3d 113d 09bc ac2e 2cbd
000000a0: a1b4 803c 2ea1 a53c d8b4 34bd 79ef ce3c
000000b0: 1cd2 80bc d97d 16bd 1476 fbbc 7d94 3ebc
000000c0: f618 683c 2f81 c73c 28e6 24bc f3cc 2d3c
000000d0: bd10 aa3c 2237 c23c 3360 d33c 0165 67ba
000000e0: cecb 573b 8588 2abd ffb7 25bd 1501 27bd
000000f0: 501e 07bd ad26 613d a8ee 99ba d0be 823d
00000100: 15e2 aabb 57e9 773d 270a 4c3d cb24 893c
00000110: d43b 9cbd 76b6 db3c f9e5 09bc ddf6 173d
00000120: 20e3 0a3d f8bf 3cbd 4cdb ffbc 2ad1 bb3b
00000130: e0e3 56bd 7fa8 93bc 0060 423d 6cd0 a1ba
00000140: d718 80bc 2b7a 123d 38f7 123d 933c 71bd
00000150: f40b 4c3d 7b82 b83b 3a20 96bc 5966 363d
00000160: 8d2c 3cbc 4f94 0e3d aca0 53bd 90e8 683c
00000170: 3a9c d43c fbe6 ba3c 1fe4 a93a fe16 9ebc
00000180: 4ee2 2b3d 6bd0 0cbb 0962 0cbd 9da0 423d
00000190: 2f6b c9bc 48c5 073d 47a2 353d 22f1 0b3d
000001a0: 6dbb 3fbc 9fa5 8e3c f715 0cbc e984 13bd
000001b0: 97cb 8cbc 3197 70bd 8077 2abd 4cd0 f0bc
000001c0: f1bb d8bc 0843 423c 7b85 d93c 8226 263d
000001d0: 4856 683c 2683 9fbc 72cb 6b3c 7281 393c
000001e0: 165b 713c b4a4 513c 8d01 a43c aca0 083d
000001f0: 177c c43b 5e66 783a 92d7 913d bb63 15bc
00000200: 2bf7 4cbd 0478 343d 1a1c 27bc 45fe 713c
00000210: abfe 4a3c 476d d2bc 6849 82bb a725 4a3b
00000220: ab4c 4e3c a581 d239 723d 043d 4dc0 523b
00000230: b5aa 48bc 5339 14bd 13b8 40bc f498 cdbb
00000240: dc63 223b 3dee 4ebb 8458 b43c be39 7abd
00000250: 4796 003c 4b07 633a 64b7 a73c 8f9a d7bc
00000260: fd20 29bc 399a f7ba 43d2 8bb8 d28a 16bb
00000270: f6ff 9e3c e054 6cbd c162 cd3c 928e c93d
00000280: cad1 66bc 8a6d d03c 2fe9 063d 1976 47bc
00000290: c2b2 e4bc 348a 8cbd 9fba 28bd 7508 2ebd
000002a0: f56f 3d3d 007a 293c bbe0 36b8 d3d9 4d3d
000002b0: 6c7a 743c ee33 38bd b8f1 253d 3114 8dbb
000002c0: 45bc 7e3c 2024 663d c66d 203d d14f a2bc
000002d0: f2d2 29bc 9134 0b3d 481c 063b 5ccd 43bd
000002e0: e9f4 423c 0a8b 41bd 9203 8cbd 7984 5fbd
000002f0: c800 ccbc 556b 413d 3c2d eebb 51bb cb3b
00000300: 3c40 3bbd 1172 383c 37b7 453b e1d4 09bd
00000310: 5800 debc fb00 bfba f7da 08bd 4580 5b3c
00000320: a8ef 2a3c 2474 57bd 370c 463c 45de 80ba
00000330: ea1d 9f3c 5c3b 323c d066 86bc 3abf 3e3d
00000340: 5f1a 34bc 58b0 293d 8ac5 06bd 3d0e 913c
00000350: 2b26 003d 2f3d 833c f4d6 e23c 6d7b 183d
00000360: 403a 2dbd e7e5 973c b929 833c a10b 3fbb
00000370: 8e63 debd 24cc 0cbc 01a2 96bc 1c69 bf3c
00000380: 8884 0a3d ee3f d83c 589c 573c 6aad 3f3c
00000390: 2cd5 e7bc b21b 653b 3360 103a edc3 2c3d
000003a0: 9a03 aebc d559 f7bb 2592 80bc 7661 203d
000003b0: 99f0 663c 1528 92bd acd2 81bd 8055 573d
000003c0: 72bb b1bc cd02 8d3c c228 203c 0c49 c43c
000003d0: d9c8 c3bc a249 003d d08c 4bbd 3680 54bc
000003e0: a530 3e3c edab 03bd 1604 b5ba 1546 3ebd
000003f0: 343f c83c 443e 973c 9bc9 b03b 23ec 6bbc
-0.061610743 -0.008055627 0.028905556 -0.0012987088 -0.027893752 -0.0051626945 -0.071750864 0.03297176
-0.001774853 0.05157318 -0.032191068 0.012910515 -0.015463173 0.025444241 0.005260079 -0.06302434
-0.012212593 0.0711839 -0.029092375 -0.059722126 0.017454583 -0.042568147 0.029820967 0.022936447
0.023537269 0.0016147353 -0.014295518 0.010289263 -0.03421151 -0.04229975 0.00085582695 0.0060791746
0.0025975895 -0.046859503 0.01519934 0.044930127 0.0013156504 0.067963116 -0.008376376 -0.042036697
0.01571113 0.020218458 -0.04411778 0.025260674 -0.015725188 -0.03674111 -0.030695952 -0.011632082
0.014166107 0.024353592 -0.010064639 0.010607946 0.020759935 0.02370793 0.025802707 -0.00088270014
0.0032927874 -0.0416341 -0.040458675 -0.040772516 -0.032987893 0.054968525 -0.0011744099 0.06384051
-0.0052149394 0.060525265 0.04981437 0.016741177 -0.07628599 0.026820403 -0.008416646 0.03710066
0.03390801 -0.046081513 -0.031232499 0.0057317214 -0.052463412 -0.018024681 0.047454834 -0.001234544
-0.015636845 0.03576104 0.035880297 -0.05889566 0.049816087 0.005630789 -0.018325914 0.0445312
-0.011485231 0.034809407 -0.0516669 0.0142156035 0.0259534 0.022815218 0.0012961662 -0.019298073
0.041963868 -0.0021486531 -0.03427318 0.047516454 -0.024587242 0.033147126 0.044344213 0.03416551
-0.011702401 0.017412959 -0.008550159 -0.036015425 -0.017186923 -0.058737937 -0.04161787 -0.029396199
-0.026456805 0.011856802 0.026552906 0.040564068 0.014180727 -0.019471716 0.014391767 0.011322366
0.014731189 0.012795616 0.02002027 0.033356354 0.005996238 0.0009475703 0.07121195 -0.009118016
-0.050040405 0.04405977 -0.010199571 0.014770095 0.012389819 -0.025686873 -0.003976036 0.0030845196
0.012591521 0.00040150914 0.03228516 0.0032158077 -0.012247731 -0.03618748 -0.011762637 -0.006274337
0.002477876 -0.0031575107 0.022014864 -0.061090223 0.007848329 0.00086604495 0.02047319 -0.026318816
-0.010322806 -0.0018890566 -6.667201e-05 -0.0022970927 0.019409161 -0.05769813 0.025071504 0.09841646
-0.014088104 0.025442857 0.032937225 -0.012174153 -0.02791727 -0.06862298 -0.0411936 -0.042488534
0.04624935 0.0103440285 -4.3601478e-05 0.05025656 0.014921766 -0.0449714 0.040513724 -0.0043053855
0.015547817 0.056186795 0.039167188 -0.01981345 -0.010365235 0.033985678 0.0020463634 -0.047803268
0.011899211 -0.04725174 -0.068366185 -0.054569695 -0.024902716 0.0472215 -0.007268576 0.006217398
-0.045715556 0.011257664 0.003016902 -0.033650283 -0.027099773 -0.0014572436 -0.033411946 0.013397281
0.010433115 -0.052600995 0.012087873 -0.0009831866 0.019423444 0.01087841 -0.016406447 0.046569087
-0.0109926155 0.04142794 -0.03290323 0.017706985 0.0312864 0.016020386 0.027690388 0.037227083
-0.04229188 0.018542243 0.016011106 -0.0029151218 -0.10858832 -0.008593593 -0.018387796 0.02336555
0.033817798 0.026397672 0.013159834 0.01169906 -0.02829989 0.0034959135 0.0005507499 0.042179037
-0.021241952 -0.0075485506 -0.015694687 0.039155446 0.014095449 -0.07136551 -0.063390106 0.052571774
-0.021695826 0.01721325 0.009775342 0.023960613 -0.023899483 0.03132022 -0.049694836 -0.012970021
0.011608277 -0.032146383 -0.0013810422 -0.046453554 0.0244442 0.018462308 0.005395127 -0.014399561

network_body.observation_encoder.x_self_encoder.seq_layers.0.bias f4 [128]
00000000: fa18 1c3b 9e71 4f3b 6f04 ce3c 6353 0d3c
00000010: ab7c 153c e4ee c23c d3c2 61ba 5a26 613b
00000020: 63e8 2cbc 5dce 48bc a22b b53b 119e 1bbb
00000030: 62f3 39bc e96d c93a 59e9 253c 5038 2d3c
00000040: 7e5d 3ebc 8a05 fdbb b28c 47bb cb08 763b
00000050: 90db 6dbb 7046 2f3c 9308 64bb 2cfb 7dbc
00000060: dc72 4e3c 764e 6c3a 6581 843b cc47 a939
00000070: 01be 523b ec1f b73b 5b29 113c f49e 12bc
00000080: 1f11 1d3c a0ce 333c fbd8 3d3c 046e e5bb
00000090: 9dd4 8dbc 7cc3 3f3c d305 1dbc 6eb5 b83b
000000a0: 6dbc 8abb 98f9 2cbb 642e d63b 7670 57bc
000000b0: 9a03 8ebb d9c6 203c 5d71 963b e68f bcbb
000000c0: 5506 82bc 7fcf 513c 6fdb 80bc d010 8fbc
000000d0: 7f96 033b f767 2b3c b449 38ba 9df7 de3b
000000e0: 5690 013c 894f 2f3c 7776 383a 6269 093c
000000f0: c107 3fbc c350 61bb e64a 5b3c 4f90 a039
00000100: 2104 00bc d954 2a3c 47e7 cd3b a94e 34bc
00000110: b610 50bb 082d 733b 2da8 1fbc 697c f73b
00000120: bc41 3b3b 72c8 2e3c 661c 3abc 3b4c be3b
00000130: fdf4 0eba 153a 043c c00f fc3a 1e61 313c
00000140: 5145 753b 5da0 a13a 9f26 803c 930a 533b
00000150: c671 c9bb 1de0 45bc 345d a33b b99f 8ab9
00000160: ad48 5d3a 3d5a 593c a257 b1bc 3c1c 1c3c
00000170: 14bf 15bc 52b7 c43c 7f9c 2bbb c157 59bb
00000180: b8fa 5e3c f372 34ba b29b 7ab9 0ce1 d63b
00000190: 92ad 6c3c fdee 843c 019a 21bc ddb5 5cba
000001a0: 8e68 bbbb fd70 463c d6ad 01bd 0a40 b93b
000001b0: 7adc 94b9 181b 90bb 5089 673c cd71 9d3a
000001c0: 4148 0b3c 5f37 08bb 4d7e 06bb ea33 01bc
000001d0: 25c4 55bb 5dea cebb 2fb9 a23b 346b c83b
000001e0: cc93 913b 5af3 acbb b801 3ebb 2ab8 eebb
000001f0: 0ef0 47bc c09d 743c 41fe 113b 7f5c 023b
0.0023818598 0.0031653414 0.025148598 0.008625838 0.009123961 0.023795553 -0.00086121 0.0034355135
-0.010553452 -0.012256232 0.005528883 -0.0023745338 -0.011349531 0.0015367839 0.010126435 0.010572508
-0.01161897 -0.0077216076 -0.0030448851 0.0037541862 -0.00362942 0.010697946 -0.003479515 -0.015501779
0.012600627 0.0009014377 0.0040437453 0.00032287685 0.0032156708 0.005588522 0.008859958 -0.00894903
0.0095866015 0.010974556 0.011587377 -0.0070016403 -0.017313296 0.011704322 -0.009583908 0.0056368625
-0.004233888 -0.0026393887 0.006536292 -0.013149371 -0.0043339254 0.009813034 0.0045911507 -0.0057544587
-0.01587216 0.012805819 -0.015729634 -0.017464072 0.0020078716 0.010461799 -0.00070300256 0.00680442
0.0079079475 0.010700115 0.00070366956 0.008386942 -0.0116595635 -0.0034380413 0.013384556 0.00030625096
-0.007813484 0.010396206 0.006283674 -0.011005082 -0.0031748242 0.0037105698 -0.009744686 0.0075526726
0.0028573116 0.010667907 -0.01135931 0.005807427 -0.0005453376 0.008070488 0.0019230768 0.010826377
0.003742535 0.0012331117 0.015643416 0.0032202348 -0.006147596 -0.012077359 0.004985476 -0.00026440414
0.00084413105 0.013266143 -0.021648232 0.009528216 -0.009139795 0.024013195 -0.0026185808 -0.0033163878
0.013609581 -0.0006883584 -0.00023899859 0.0065575894 0.014445679 0.01622724 -0.009863378 -0.0008419434
-0.005719251 0.012111899 -0.031659923 0.005653386 -0.00028393028 -0.004397761 0.014131859 0.0012012065
0.008501113 -0.0020784957 -0.0020522058 -0.007885912 -0.0032618132 -0.0063145594 0.0049659233 0.0061162952
0.0044426676 -0.005278033 -0.0028992724 -0.0072851377 -0.01220323 0.014930189 0.0022276791 0.0019891558

network_body._body_endoder.seq_layers.0.weight f4 [128, 131]
00000000: 93a5 ca3d 1d36 3c3d 44f8 623d 22b8 7cbd
00000010: 6c8a 8f3c ce3a d0bd 1951 febb 9d49 2c3d
00000020: 499c 633d 21cd 2d3e dc57 39be e421 e7bd
00000030: 0511 74bc faa4 483d 548c 98bd 2afa 57bd
00000040: d7e6 2f3c 339a 53bd ef0c ff3b 29b2 b53d
00000050: a0c1 f0bc bfe6 9fbd 3788 96bc a450 8cbc
00000060: 1f83 843c 3d8a a8bd 2a64 87bd 28ee b83c
00000070: d918 c33d 807e 20bd 642e c43d 3d54 4ebd
00000080: 196b a83d 00c6 a73d fe15 4e3d 62c0 bfbc
00000090: e433 80bd 29b0 a0bb 2cf0 36be 264a 913d
000000a0: e967 343d eb60 bd3d 104c efbd 3357 8b3d
000000b0: fddc 85bd 4321 ae3c de7e 8c3c 9190 153e
000000c0: 9703 21bd cd08 e2bd 7437 4e3d b138 0f3e
000000d0: c2e0 eabd 356d 353d 5781 9abd 648c 6f3d
000000e0: 470c 2b3e 9314 043c df72 903d 8bcd 1d3d
000000f0: b43a 533b 856e b7bd ec84 433d 0f55 373d
00000100: 8bc2 1bbe ec09 2e3b eb2c 91bd d12c 4dbd
00000110: 56f6 ebbd c477 fa3d d406 153d a251 babd
00000120: 8c71 6bbd 022e 79bd b5ef 91bd 0c7a 71bd
00000130: 210d b5bd 6c23 e73c 2c56 f83d bf61 9fbd
00000140: 8d9c 18be b860 6f3b da06 903d ff41 1c3e
00000150: e0dd 963b f9f4 acbd 97e9 4a3d aab7 99bd
00000160: 54c7 11be 0ae7 dc3d 72e1 743c 48d6 943d
00000170: c372 4b3d f4c8 3cbe 6697 b9bc 1123 8e3d
00000180: 656b a83c 21ed db3d 09cc 253e 8277 4d3d
00000190: 2856 663d 55cd a33d 7dd0 613d 35ce 1b3e
000001a0: b70e 8abd 4de5 c93d bc73 733b db97 56be
000001b0: 1fee f83d 1e9c 25ba d4fb 76bd e731 d43d
000001c0: a234 5c3d 8a0f ab3d a580 4e3d f018 02be
000001d0: 6f7d 4fbd d48b 3e3d 25e0 f1bd 5012 1a3d
000001e0: a97c cfbd 718c 073d bb81 b73a bb7a 1d3e
000001f0: 0679 a4bc c54c bd3d 3bd4 0f3d 9674 15bd
00000200: 0b3e 64bc 5e22 b4bb dd8f 223e a827 2d3d
00000210: 6ab2 863d 48ae 463e cc06 8c3d 98dd d73c
00000220: 3847 d53c 4e24 443d fb98 f73c ba64 07be
00000230: f311 1ebc 6620 84bd 7c25 463e 5cef 2cbd
00000240: fa15 31bd edf4 75bd 6385 983d d710 efbd
00000250: 0fcd 88bd 1e8b 60bc 2cc2 ed3d 56fc c43c
00000260: 41b2 823d d198 c33d b25c babc 5c46 493d
00000270: 3fed 4dbd 7b35 863b 8ed9 693d a67a d33b
00000280: 0578 063b 7ee5 bf3d 354e b63d 1eeb 243d
00000290: 6aea d2bd 1cb4 b8bc ce8f 75bc 93ad 7abd
000002a0: b678 b23d b940 dbbd 088f c53c 4956 07bd
000002b0: bd0a 33bd 799f 433d 02d0 233c f426 50bb
000002c0: f30c 5ebd 33bc 16bb d238 3f3c cca0 4d3d
000002d0: f5e7 5ebc cb13 25bc f24e 49bc 647a 0b3e
000002e0: 4d98 abbc 2e7d ca3d 37af 6bbb 8cad 9a3c
000002f0: 428c 7dbd 03b6 95bc 5789 073d 3495 443e
00000300: 88d3 54bd c0a5 343e c7e5 063e 1f79 883d
00000310: 3468 6cbc 8fa6 4fbb 681d ba3d 00ff cbbd
00000320: b35f 573c 35c7 1cba 46e0 fdbb d8e0 68be
00000330: 9e5e 29be a225 07be f287 2c3b 03b0 693e
00000340: ba75 c9bd e076 13be 2d36 e3bd ec48 0abc
00000350: df0f 04ba 1415 9d3d dcd1 113d 8270 cabb
00000360: 95d7 2f3d 326a 9dbd f9ff c03d 502c 1abd
00000370: 8a22 033d bae3 473b 766c 1fbe 6091 c9bd
00000380: b36c 0a3d 9d5f 79bd aef4 33be 8a6b f0bd
00000390: 9a2e d3bd 4ddf 683d 9f19 7abd 8bd8 143d
000003a0: a324 1ebb 0b74 453d 0e57 0abd 9276 f83c
000003b0: af71 ac3d 5255 95bc e36c cb3d 9bad 04bd
000003c0: 5902 04be 8a6a 5ebd dd19 fe3d b7ca 8dbd
000003d0: e8f7 0e3c bac5 813d bd27 9abd 7482 c83a
000003e0: 01af 4b3d f27c 203e 1eaf 88bd aab8 0bbe
000003f0: 9d63 293c 585f cfbc 3f88 6fbd 9bb0 52bd
0.09894862 0.045950044 0.055412546 -0.06169904 0.01752206 -0.10167466 -0.0077611324 0.04206239
0.055568967 0.16972782 -0.18099922 -0.11285761 -0.014896636 0.04898546 -0.074486405 -0.05272881
0.010736189 -0.051660728 0.007783524 0.08871872 -0.029389203 -0.07807683 -0.0183755 -0.017128296
0.016175805 -0.08229492 -0.06610902 0.0225745 0.09526224 -0.03918314 0.09579161 -0.050373305
0.08223552 0.081920624 0.050313942 -0.023407165 -0.06259897 -0.0049038124 -0.17865056 0.07094221
0.04404441 0.09247001 -0.1168443 0.06803741 -0.06536291 0.021256095 0.017150339 0.14605929
-0.039310064 -0.11036835 0.050345853 0.1398647 -0.114686504 0.0442936 -0.07544201 0.058483496
0.16703902 0.008061546 0.0705316 0.0385261 0.0032231035 -0.08956627 0.047734186 0.044758853
-0.15210931 0.0026556207 -0.070886455 -0.05009157 -0.11521594 0.12229875 0.036383465 -0.090976015
-0.057481334 -0.060834892 -0.071257986 -0.058954284 -0.08840395 0.028215133 0.12125811 -0.077823155
-0.1490347 0.0036526155 0.07032557 0.1525955 0.0046040863 -0.08445162 0.049539175 -0.07505734
-0.14236194 0.10786255 0.0149463285 0.072674334 0.049669992 -0.18436033 -0.0226552 0.06940282
0.020559022 0.10738588 0.16191114 0.0501628 0.05623451 0.07998148 0.05513047 0.1521538
-0.06741088 0.09858189 0.003714784 -0.20956366 0.12154793 -0.0006317514 -0.060298756 0.103610806
0.053761132 0.08352573 0.050415654 -0.12704825 -0.050656732 0.04652007 -0.1181033 0.03761512
-0.10131199 0.03309292 0.0014000455 0.15378849 -0.02007724 0.09243158 0.035114508 -0.03648814
-0.013930808 -0.005497261 0.15875192 0.042274147 0.065769985 0.1940242 0.06837234 0.026350781
0.026034936 0.047886185 0.030224314 -0.13222018 -0.009647834 -0.06451492 0.19350237 -0.04222046
-0.04323385 -0.060048033 0.074473165 -0.11673134 -0.06679737 -0.013705043 0.11609301 0.024046104
0.063816555 0.09550632 -0.022749279 0.049139366 -0.050275084 0.004095731 0.057092242 0.00645383
0.0020518315 0.09369944 0.089016356 0.040263288 -0.10298617 -0.02254682 -0.014987899 -0.06120069
0.0871443 -0.10705704 0.024116054 -0.033041272 -0.043711413 0.047759507 0.009998323 -0.00317615
-0.054211568 -0.002300036 0.011671262 0.050202176 -0.013605108 -0.01007552 -0.012286888 0.13620907
-0.020946646 0.098871574 -0.003596259 0.018881582 -0.06190134 -0.018275267 0.03308996 0.19197541
-0.051959544 0.17641354 0.1317359 0.06663727 -0.014429141 -0.003168497 0.0908764 -0.09960747
0.013145375 -0.0005980612 -0.0077476827 -0.22742021 -0.1654 -0.1319795 0.0026326147 0.2282105
-0.09836908 -0.14400816 -0.110943176 -0.0084402375 -0.00050377654 0.07670036 0.035600528 -0.0061779628
0.042930204 -0.07686271 0.09423823 -0.037639916 0.03201536 0.0030500726 -0.15568718 -0.09842181
0.03379507 -0.0608822 -0.17573807 -0.117392614 -0.10311623 0.05685358 -0.06105959 0.036339324
-0.0024130724 0.04820637 -0.033774428 0.030329976 0.08420121 -0.01822916 0.09932878 -0.032392126
-0.1289152 -0.054300822 0.12407277 -0.069234304 0.008726098 0.063365415 -0.07527111 0.0015297667
0.049727444 0.15672663 -0.06674026 -0.13644662 0.010338691 -0.025314018 -0.058479544 -0.051437955

network_body._body_endoder.seq_layers.0.bias f4 [128]
00000000: cadb 5c3c d767 03bc fe59 1c3b a0f3 a83c
00000010: ff10 14bc ce7e 6e3c 51d8 933b ef22 f5bb
00000020: b649 d7bb eb94 0a3c 7c31 7e3b 0f88 5e3c
00000030: 1225 94bc 3e33 333b e8b6 173b 5dee 8fbb
00000040: 1549 5abc 350a 7c3b efbc bdbb f916 853b
00000050: 1f58 ce3b 4f76 513c 5d4c 2ebc 053c 993c
00000060: 06f8 9c3b ae8e 83bb 73c5 76b9 21c5 983c
00000070: fa80 5d3b b1c9 9f3c 58a0 4a3c 9f10 4b3c
00000080: 8875 233c 5420 ad3b e7b5 b53b fdd8 d13a
00000090: 7f08 323c 6cf3 76bb 7601 de3a 99de a6ba
000000a0: ec6f 323c 37fe 85ba b09f 833b 72ba 8dba
000000b0: 1c80 6b3c 45ad 8a3c b7e5 753c afac a83b
000000c0: 04f9 433b 8391 b83c 3bfb a03b 3a79 023c
000000d0: c3b0 ed3b 81b8 273c 032b 0abc 78ad fbbb
000000e0: 6e08 c03b e072 79bc f6e5 c63c 3151 163b
000000f0: 23d7 6f3c ca7a 813b a1a4 12bb 7c9f 153c
00000100: 3e84 a83b 127a f3ba 5d18 b6bb 1a31 fc39
00000110: c126 8b3c 5432 2fbc 0149 3c3c 4659 813c
00000120: d51b a6bc af3b 8ebc bab1 783a a657 49bb
00000130: fc5f 763a ca76 bbb8 1eff dbbb aa4a 643b
00000140: ba49 493c c584 f53b 7ed0 d93a 865c eebb
00000150: 17bc 963c a031 fa3b 4d27 b73b 256a ca3c
00000160: c442 803c 93c3 1f3c edf6 1abb 1efb b63c
00000170: 8e03 253c 6ec8 35bb bf59 883a 7045 d03b
00000180: 54aa f6bb b25f 103c 55aa f73b 112e 4f3c
00000190: 6f7a 893b 0c13 ad3b eeda 8c3c 87c8 a3bb
000001a0: 94bd 303c 2f35 39bc 0e97 7b3b 4a4d 9b39
000001b0: 413c 65bb 8958 0abc 0a2d 94bc 62d5 5ebb
000001c0: 33a6 023b 6dc1 97bb a6de d43b d40f 7e3c
000001d0: 8023 823c 6fcb 41bb bb2d 683b 8ce5 e03b
000001e0: 7267 3d3c 01c1 c739 8c6c 1dbb 3354 53bc
000001f0: 25f6 4f3b a01b 96bc 3b05 993c 268d a6ba
0.013480136 -0.008020363 0.002385735 0.020623982 -0.009037255 0.0145566 0.004511871 -0.007480971
-0.0065700663 0.008458356 0.003878682 0.013582244 -0.018084083 0.0027343775 0.0023149792 -0.004392429
-0.013323088 0.0038458232 -0.005790345 0.0040615764 0.006297126 0.012784555 -0.010638324 0.018705377
0.004790309 -0.0040148115 -0.00023533944 0.018648686 0.00337988 0.019505354 0.0123673305 0.0123940995
0.009976752 0.005283395 0.005545366 0.0016010102 0.010866283 -0.0037681712 0.0016937691 -0.0012731134
0.010890942 -0.0010222857 0.004016839 -0.0010813011 0.014373805 0.016928324 0.015008382 0.0051475386
0.0029903064 0.022530323 0.0049127615 0.007963473 0.0072537377 0.01023686 -0.008433106 -0.007680591
0.00586038 -0.015225142 0.024279576 0.0022936577 0.014638695 0.003951405 -0.0022375959 0.009132262
0.0051427176 -0.0018575808 -0.0055571035 0.0004810177 0.016986253 -0.0106931515 0.011492015 0.01578964
-0.020276943 -0.017362444 0.00094869325 -0.0030722409 0.0009398458 -8.938981e-05 -0.006713762 0.0034834542
0.012285644 0.007492634 0.0016617922 -0.0072742132 0.018400235 0.0076353103 0.005589402 0.024708817
0.015656836 0.009751218 -0.0023645714 0.022336539 0.010071648 -0.0027737874 0.0010402723 0.006355934
-0.007527629 0.008811878 0.007558147 0.01264526 0.0041955034 0.0052818116 0.017194238 -0.00499827
0.010787386 -0.011304184 0.0038389596 0.0002962149 -0.003497854 -0.00844396 -0.018087883 -0.0034001698
0.0019935488 -0.0046312124 0.0064962683 0.015506703 0.015886068 -0.0029570719 0.0035427648 0.0068633016
0.011560308 0.00038100037 -0.0024020998 -0.012898493 0.0031732407 -0.01832372 0.018679252 -0.001270686

network_body._body_endoder.seq_layers.2.weight f4 [128, 128]
00000000: 6df5 50be 5e9e 103d f351 8f3d ebf8 46bd
00000010: 05ea 143c f226 fcbd 5627 e0bd 9d4d 83bd
00000020: f276 23bd 57b1 c9bc 07af 52be 4d28 41bc
00000030: d1e8 35be 6528 19bd 0e11 733c 3bc3 df3d
00000040: 2702 05be bc49 883d b67f 1c3e 0460 e8bd
00000050: 5d67 81bc 52e9 9b3c 691b a7bc d3ee ae3c
00000060: 32a4 dcbd 3e8e aabd 70d6 093d ab77 153d
00000070: ff31 053e 3239 f5bc edd1 d03d 0f4e 1abe
00000080: 9094 85bd 58fb 38bd 827e 40bb 4628 dabd
00000090: b4fe 6dbd 9cbc 81be 893d 413c 2bfc 33bd
000000a0: 4aa0 bd3d b90e 9ebd b191 c03d 02fe de3c
000000b0: 6b6d 893d e7e1 c03d 0aaa 7d3e 83c1 5d3c
000000c0: 18b6 4f3d a04a 0b3d c7ba eabd bc02 ad3d
000000d0: a4a2 8d3d 426e a43d 16d0 09be b577 fabd
000000e0: efc1 423d 1d57 8dbb 9a6b 60bc 5b04 263e
000000f0: 2f72 213d 4afe ed3d 847e ce3d 04cd 473d
00000100: e031 8f3d db1d 683b 29f4 b1bd d63a e93c
00000110: 6faa 28be 904c 2f3c 9ada 0b3d 0a92 1d3d
00000120: 0538 72bd 5c1d 7abb c51b 973d 24c4 023d
00000130: ae6b 4b3e 1296 ad3d 3771 143d c8f5 57bd
00000140: 4aac 8c3c 0a9c e43d 40be 97bc 3b27 c83d
00000150: 6c95 bd3d c304 29be e796 24bd e961 413d
00000160: c184 16bc 9f2a 083e d278 21bb 4a2d b6bd
00000170: a4fc 2bbd 1fb3 b43d 84ee 35bd 0768 903c
00000180: 96b8 853d 6c77 913d 049f 7dbd f1ed a83c
00000190: 5103 2cbd 0a29 5fbd a1bf b7bc b3ac 673d
000001a0: a48d 463d 3463 9bbd 409c f4bd a755 c13d
000001b0: 72bb a3bc fc23 abbd 0d80 89bc cd3b c2bc
000001c0: 3d5a 073e 576f 653b 7124 533d edee 1dbe
000001d0: 9ad8 9d3d 02e0 f3bc 1c30 30be 1fb6 103d
000001e0: 00dd 803d 4662 02be 3202 cebd 1a96 68be
000001f0: b195 f93d 1bf3 be3d cdaa 053e 3e8b 493e
00000200: 3e53 61bc 95fe e73c 4feb 97bd c06b 4fbc
00000210: f46a 313d 6b1d 06be da50 073d 7824 84bd
00000220: 2dd1 803d 1f64 653d e090 59bd 4850 7ebd
00000230: 528b 493d 895b 57bd 4360 d1bb 1533 873d
00000240: 6808 493e 09ed e9bc a497 83bd b220 41be
00000250: d108 6b3e fd3a acbc bacc 433d f66b 39bb
00000260: 5d5c e23b 6a58 363b f9d6 933c 4b58 babd
00000270: 8186 01be ae17 62bd c1e6 453d bada 21be
00000280: f6d8 1a3d f94c 05be 8199 c23d 1511 6c3d
00000290: 26b0 ce3d ff0f 3bbe 4418 cebc 25ed d13d
000002a0: 4fff ce3b 2a45 283d cf80 563d 6c41 d73d
000002b0: a97c 363d d613 893d 1406 9abd a9b0 a7bd
000002c0: e7b4 c03d 765f 983c acfa 1cbd 7c81 443d
000002d0: 04e6 85bd 151a bbbb 54ed 67bd 4de4 10bd
000002e0: c51d 5bbd 04ea b6bd a503 cf39 a253 f8ba
000002f0: cf86 9abd 69a0 dbbd c1c0 b53c 8bbc d1bc
00000300: 23c8 5dbd 4b19 dc3d f1e6 633d c536 ccbd
00000310: 5236 1f3e 417e f23c d266 9b3c c9ea 793b
00000320: 9fab e5bd e890 0b3e 0f65 183d 2d71 3e3d
00000330: 8a85 afba df19 d83d 2bf5 bcbb 2fea 443e
00000340: 830c 8bbd 432c 48be 7571 bfbd c4d2 103e
00000350: df6c 463e b2f3 273e eabc 533e f516 0fbd
00000360: 1476 ac3c 60c8 dc3d a210 be3c f5bb 6abd
00000370: 147f 6dbd aa84 733d 90e5 8fbd 6441 ca3c
00000380: 2b79 b63d 70e5 74bd 0b4d f83d a3ae 0d3e
00000390: a8fc b13c 93cd cdbd 8927 95bc 7b23 2ebd
000003a0: b0a7 5abd e879 e23d 4a4c 063e a973 493d
000003b0: a399 8a3d 99d9 033e d74d 4ebe 075e 3c3d
000003c0: 0494 1d3c 9c3c 03be 7fb4 eabc 630a 213d
000003d0: 8170 723e bd8b 98bd 4177 03bd 6f6d 813e
000003e0: 3c74 4bbe 23ac 10bc daf8 50be 201a c23d
000003f0: b2f8 bb3d 2e8b 16be e091 b2bb be55 f03c
-0.20406123 0.03530728 0.069980524 -0.04857723 0.009088998 -0.12312116 -0.10945003 -0.06411288
-0.039908357 -0.024620695 -0.2057458 -0.011789394 -0.17764594 -0.03739204 0.014835609 0.10925909
-0.12989102 0.06654689 0.15283093 -0.113464385 -0.015796358 0.019032154 -0.020398812 0.021354115
-0.10773505 -0.08327912 0.03365177 0.036491077 0.13007353 -0.0299345 0.1019629 -0.1506884
-0.06522477 -0.045161575 -0.002937228 -0.10652213 -0.058104232 -0.2533921 0.011794456 -0.043941658
0.09259088 -0.07717652 0.094027884 0.02722073 0.06710323 0.094180875 0.24771896 0.013534906
0.050710768 0.034006715 -0.11461406 0.08447787 0.06915787 0.080288425 -0.13458285 -0.122298636
0.04754823 -0.004313363 -0.013697529 0.16212599 0.039415535 0.116207674 0.10082725 0.048779503
0.06991935 0.0035418186 -0.08689148 0.028470438 -0.16471265 0.010699406 0.03414402 0.03846935
-0.059135456 -0.0038164472 0.073783435 0.031925336 0.19865295 0.08475889 0.036240783 -0.05272463
0.017171998 0.111625746 -0.018523335 0.097731076 0.092570156 -0.16505723 -0.040182974 0.047212515
-0.009186924 0.13297509 -0.0024638665 -0.08895357 -0.041988984 0.08823227 -0.04441692 0.01762773
0.065293476 0.07102856 -0.061919227 0.020621272 -0.04199535 -0.054482497 -0.022430243 0.056561183
0.048474923 -0.07587281 -0.11943865 0.09440165 -0.019986842 -0.08356473 -0.016784692 -0.023710156
0.13218017 0.003500899 0.051548425 -0.15423174 0.07707329 -0.029769901 -0.17205852 0.035329934
0.062921524 -0.12732801 -0.100590125 -0.22713509 0.121867545 0.093237124 0.13053437 0.19682023
-0.013752757 0.028319636 -0.074179284 -0.012659967 0.04331489 -0.1309716 0.03303609 -0.06452268
0.06289897 0.056003686 -0.05311668 -0.06208828 0.04920513 -0.05257753 -0.006389649 0.0660154
0.19632113 -0.02855541 -0.064254075 -0.18860129 0.22952582 -0.021024222 0.047802664 -0.002829311
0.006907983 0.0027823695 0.018046843 -0.09098872 -0.12648965 -0.055198364 0.048315767 -0.15806094
0.037804566 -0.13017644 0.09501935 0.05763348 0.100921914 -0.18267821 -0.025158055 0.1025031
0.0063170562 0.041081585 0.052368935 0.10510525 0.04455248 0.066932365 -0.075206906 -0.08187992
0.094095044 0.018600207 -0.038324997 0.04797505 -0.065380126 -0.0057098963 -0.056622818 -0.035373975
-0.053495187 -0.08931354 0.00039484832 -0.0018945823 -0.07545244 -0.10723955 0.022186639 -0.0256026
-0.054145943 0.10747012 0.055640165 -0.09971384 0.15548065 0.029601218 0.018969927 0.0038134328
-0.11214375 0.13629496 0.037205752 0.04649465 -0.0013391238 0.105518095 -0.005766531 0.19229959
-0.06789496 -0.19548135 -0.09347812 0.141429 0.19377469 0.16401556 0.20677534 -0.034934003
0.021052398 0.10780406 0.02320129 -0.057308156 -0.05798252 0.05945269 -0.070262074 0.024689384
0.0890983 -0.05978912 0.1212407 0.1383615 0.021726921 -0.10048976 -0.018207328 -0.042514306
-0.053382576 0.11058408 0.1311504 0.049182568 0.06767585 0.12875976 -0.20146881 0.04598811
0.009617809 -0.1281609 -0.02865052 0.039316546 0.2367573 -0.07448528 -0.03209615 0.25278804
-0.19868559 -0.008830103 -0.2040743 0.09477639 0.09178294 -0.1470153 -0.0054495186 0.02933776

network_body._body_endoder.seq_layers.2.bias f4 [128]
00000000: 336e 843b 35e7 923b bbc1 7dbc 6d02 96bb
00000010: d809 c3bb 99a9 5d3b 6f61 8cbb 0c13 593c
00000020: d741 923b e53b 29ba 95c2 243c 8ce8 67ba
00000030: 8cfb 5d3c 51f0 abbb f2fc b3bb eb84 523c
00000040: e2ef 843c 467f 8bbb 6723 8c3c c56e bbbb
00000050: 4be0 873b 388b 99bb d83b c537 7925 393c
00000060: 4e37 393c 4a40 1abc 8cc4 a83a 62cc cebc
00000070: 387e 943c dd04 e6b9 2a61 403c ff01 a83b
00000080: a8ec 283b 7ac5 a6ba bd94 90bb d388 4f3b
00000090: 8aa3 83bc 23ac 183c 695f 59ba 89b8 bebb
000000a0: 07c0 573a 0968 4dbb 6b04 b43b 0f79 9b3a
000000b0: 5478 4dbc a9b3 353c 8c3d 83bb 1c2e d33b
000000c0: 1fc0 1e3b bb69 45bb e5b5 54bc 88b0 d7bb
000000d0: 3877 363c 9781 1cbb 1f6f 1a3c 7536 efbb
000000e0: af8d afbb 3986 d6bb 0880 8cbb 1a86 ffba
000000f0: 6cb7 e73b 85c5 8b3b 5a23 9ebc 6292 8cbb
00000100: 277e 973b d5b5 c4bb 55a2 c9bb cdff 43bc
00000110: 6d12 0e3c 5e0e 60bc e277 943b efc7 dd3b
00000120: ce8e e43b 4313 c93b d074 2ebb 0fc0 a8bb
00000130: 8abb 403c aa2f 503c 1cd5 d53b e75b aa3b
00000140: 5a38 c33b 0755 08bb 855a 243c 5543 1a3c
00000150: 0af0 633b 2582 97bb 9aa5 aa3c 1963 4e3c
00000160: 64fa 813b df26 043c 62a8 08bc f11b 55ba
00000170: cad8 963b cf44 483c d007 e6bb ccb6 2dba
00000180: ec6e 01bc 7ac4 ac3b 76b5 003c 7311 9cbb
00000190: bfeb 593c dac8 1f3c e1ca 7dbb 6533 c93b
000001a0: dfc1 08bc 1d8c 0e3b a2a4 a13b 4a3b 983c
000001b0: 4d03 e43b f97f d43b b029 243c 510f 6d3b
000001c0: 9957 5c3b 72db 9b3c 7788 1dbc 8ce9 c139
000001d0: ff87 cdbb 0ae3 35ba af48 b5bb 1d8d 98b8
000001e0: 4adc 96bb 2068 c2bb fcbd 7e3b 48a2 a4bb
000001f0: d510 48bc 0699 773b 66ec 313c 6dac f0bb
0.004041457 0.0044831284 -0.0154880835 -0.004577926 -0.005952101 0.0033823012 -0.004284076 0.01324917
0.004463415 -0.00064557634 0.010056158 -0.0008846603 0.013548743 -0.005247154 -0.0054928 0.012849073
0.016227666 -0.0042571155 0.017106725 -0.005719992 0.004146611 -0.0046857856 2.3512097e-05 0.011300438
0.01130469 -0.009414742 0.0012875958 -0.025243942 0.018126592 -0.00043872642 0.011741916 0.005127191
0.0025775824 -0.0012723648 -0.0044122622 0.0031667247 -0.016069192 0.009318384 -0.000829211 -0.005820338
0.00082302134 -0.0031342527 0.0054936907 0.001186164 -0.0125408955 0.011090198 -0.0040051397 0.0064447057
0.00242234 -0.0030122835 -0.01298282 -0.0065823235 0.011136822 -0.0023880953 0.009425907 -0.007300193
-0.005357466 -0.0065467623 -0.0042877235 -0.0019494921 0.007071426 0.0042654895 -0.019303966 -0.004289911
0.004623193 -0.0060031214 -0.0061533847 -0.011962843 0.008671385 -0.0136753 0.0045308927 0.0067682187
0.0069750315 0.0061363294 -0.0026619919 -0.0051498483 0.011763463 0.0127066765 0.0065256488 0.005198944
0.0059576454 -0.0020802633 0.010031347 0.009415467 0.0034780526 -0.0046236687 0.020830918 0.012596869
0.0039666165 0.008065908 -0.008340927 -0.0008129469 0.00460348 0.0122234365 -0.0070199743 -0.0006626665
-0.007899981 0.0052724453 0.007855764 -0.0047628223 0.013300835 0.009752477 -0.0038725662 0.00614016
-0.008347004 0.0021750994 0.004932956 0.018582959 0.0069584013 0.006484982 0.010019705 0.003617246
0.0033621548 0.019025538 -0.009615055 0.00036985835 -0.0062723155 -0.00069384335 -0.005532346 -7.274209e-05
-0.004603897 -0.005932823 0.0038870564 -0.0050242282 -0.012211044 0.0037780418 0.010859584 -0.0073447735
