Assets/results/ppo/My Behavior/My Behavior-928629.onnx (onnx, 578818 bytes, 21 tensors)

network_body.observation_encoder.processors.0.self_ent_encoder.seq_layers.0.bias f4 [128]
00000000: 9f33 a93b 2933 263c 28fd 403b 9b62 7dbb
00000010: 95f5 00bc b807 d83b b26f 823c 3265 c93c
00000020: 2087 d23a 4743 873b d26e 01bb e2d9 10ba
00000030: 0bdd 013b b1f6 a8bb cd31 88bc eb5e 26bc
00000040: 8777 3bbc 2785 7dbc 8c8c 0e3c 1f0d 05bb
00000050: 2534 f5bb 019e 2e3c a0d1 683b 9573 293c
00000060: 9dab 163b 78f7 0fbc f8c1 b7bb 12fa 5f3c
00000070: 0741 043d 7d2d 87bc 60ca 2d3c 1faf 04bc
00000080: c6e4 173b 78a4 fcbb c226 cebc 5283 943c
00000090: ab85 0bbc bc3d 193b 65bb 9abc 0c0d e73a
000000a0: 805d cd3c fe15 80bb c502 7bbc 9503 7e3b
000000b0: 29fe 063a 8b7a 1a3c 3f72 c1bc 5bf1 433b
000000c0: 991d 153c e65a 633c ce96 48bc 4cd9 5cbc
000000d0: 3f24 64bc 5d27 25bc 6f14 8138 5d05 3abc
000000e0: 7a8a 2abc 54cb e03b c9bb 2ebc f84c 0fbc
000000f0: b52f eaba e558 eeb9 e9e1 ea3b ac0d bbbc
00000100: 7696 713b 894b 0a3c 5175 3e3c bf99 193c
00000110: 931e ba3b 7553 88ba 883d 3d3c 397d 2aba
00000120: c08b edba 05e3 6a3b f4d4 5dbb 15e5 c83a
00000130: 45ae c0bb 4cc2 e93a a108 b3bb 0b77 2bbc
00000140: d856 51bc 1a50 0dbc 3ce7 1bbc 4731 073b
00000150: 547c e1ba 63c5 ad3b b87e 68bc fd35 7b3c
00000160: d32f 37bc 5be3 343a 3972 3ebc 3cae 043d
00000170: aca3 a83c 0b9a c13c 6d98 9cbc a5d1 393c
00000180: 26ef bf3c 42f2 883a 9c14 e2bb 460e 813b
00000190: 9b1b dabb 94f5 52bb 5bf4 53bc 1364 9dbb
000001a0: d4a4 dc3b 8fae 993b 9137 2cbb 73d7 2538
000001b0: e9bc fdba 05a6 163b 7f81 a9bb 2eb0 10bc
000001c0: abc4 4dba 29f4 bb3b 54d8 a0bc 4e74 da3b
000001d0: c043 153b 988f 3f3c 3a33 203b 29f0 14bc
000001e0: 00db 0cbc 689f fabb 72b9 b8bc bfc7 da3b
000001f0: bbae 153c 84b5 093c 8878 3c3b 4d97 c5bb
0.0051636244 0.0101440335 0.0029447768 -0.003866351 -0.007871051 0.006592717 0.015922401 0.024584386
0.0016061999 0.004127893 -0.0019749892 -0.0005525631 0.001981559 -0.005156361 -0.01662531 -0.010154466
-0.011442072 -0.0154736405 0.008700501 -0.002030201 -0.0074830228 0.010657788 0.0035525337 0.010342498
0.0022990473 -0.0087870285 -0.0056078397 0.013670461 0.032288577 -0.016501183 0.010607332 -0.008098393
0.002317713 -0.007710036 -0.025164966 0.018129025 -0.008515756 0.0023382744 -0.018888185 0.001762779
0.025068998 -0.0039088717 -0.0153204845 0.003875946 0.0005149567 0.009428631 -0.023614047 0.0029898498
0.009101295 0.013876652 -0.012242986 -0.013479542 -0.013924657 -0.010080186 6.1550054e-05 -0.011353818
-0.010408992 0.006860176 -0.010664889 -0.008746378 -0.0017867001 -0.0004546113 0.007168044 -0.022833668
0.0036863363 0.008440861 0.01162465 0.009375035 0.0056799143 -0.0010400849 0.011550315 -0.0006503645
-0.0018123314 0.003584088 -0.0033848854 0.0015327061 -0.0058801495 0.0017834394 -0.005463675 -0.010465394
-0.012777053 -0.008625055 -0.00951558 0.0020628737 -0.001720319 0.0053030713 -0.014190368 0.015332696
-0.011180836 0.00069003337 -0.0116239125 0.032392725 0.020585857 0.023633024 -0.019115651 0.011341487
0.023429465 0.0010448175 -0.0068994295 0.003938469 -0.006656123 -0.0032189833 -0.012936677 -0.0048031895
0.006733516 0.0046899985 -0.0026278237 3.953972e-05 -0.0019358668 0.002298714 -0.005172908 -0.008831067
-0.0007849435 0.0057358933 -0.019634403 0.0066666966 0.0022775978 0.01169195 0.0024444596 -0.009090462
-0.008597136 -0.0076483972 -0.022549365 0.0066766436 0.009135897 0.008405093 0.0028758366 -0.0060299993

network_body.observation_encoder.processors.1.self_ent_encoder.seq_layers.0.bias f4 [128]
00000000: ff88 81bb a7ee 623c 03ab 5d3c 3297 20bc
00000010: 6ba1 c7b9 80a1 203d 8752 593c a6d3 51bb
00000020: 3476 a1bb a759 2f3c b2c0 98bb 63e2 fc3a
00000030: 4e74 bcbb c781 bd3c 6ffc 5c3b 917b f13a
00000040: d547 f33a c9a2 3cbc 882e f2bc 3eb1 4fbc
00000050: 6a4c debc 398c 36bc 8e89 ccbc 5845 2c3a
00000060: bcb1 7d3c 4aa5 fcba bce4 8a3b 5e82 98bc
00000070: 9679 87bc c5af 683a e744 17bb 849f 0b3c
00000080: 035d 4d3c a8d4 b839 10e0 313d 98f7 a83c
00000090: e61f 80bc 2732 f7bb e875 83bb 5bbd 06bb
000000a0: c93c bdbc 27f7 e3bb e961 e83b ba54 1bbc
000000b0: 4071 e23a 9064 f63a f6b0 5f3c 17b7 7a3c
000000c0: 1110 46bc da71 41bb f4aa d63c 2900 083c
000000d0: ae30 223d 0623 8c3c a42b e73b 31e3 debb
000000e0: fadd 823c 486f 91bc 5301 fabc b38d 95bc
000000f0: 93a6 623c 9b3a bbba bea2 9539 19ac 13bc
00000100: fde8 e63c 4cf3 edbb 5ec3 063c be62 69bc
00000110: 3d6a 62bb eb7a 2d3c e3c7 0d3c 6eb0 14bb
00000120: 3af6 b13b 2937 8ebb 16ef dcbc b013 603c
00000130: b739 4d3a 7e1b 323c d65e 6bbb 3b59 31bb
00000140: 4835 3b3c 140a 043a c3d2 16bc c1ec c03c
00000150: 35d5 43bc 579a 84bb 2672 513c c00e 17bc
00000160: b93b a93c de5f c8bc 2161 b1bb 2838 b1bb
00000170: c0e9 533c 6c1b a13b 1ce6 533c 4887 92bc
00000180: c11b e0bc d584 153c cc76 ac3c c254 98bc
00000190: 8c46 8ebc 80de 073c ad07 f83c b2f6 563c
000001a0: aaa2 67bb bf80 773c a8ed 8bbc 247b 72bc
000001b0: 94cb b13a 5c5c 3bbc 7866 ba3c 46c6 863c
000001c0: d251 d8bb 0109 b4bc e724 90bc 4c64 5e3b
000001d0: 0ea1 8c3b 3c25 c3bb 8edf c6bc e4fb 08bb
000001e0: 4a52 1dbc 1ac6 8f3c 8ddd d43b 292c 5bbc
000001f0: 10fb 263c 7d4f f9ba 3e39 01bb 7a48 44bb
-0.003953099 0.013850844 0.013529542 -0.009801673 -0.00038076504 0.03921652 0.013264305 -0.0032017021
-0.004927421 0.010702527 -0.004661643 0.0019293543 -0.0057511693 0.023133172 0.0033719798 0.0018423666
0.0018560836 -0.01151342 -0.029563203 -0.012676535 -0.027136046 -0.01114183 -0.024967935 0.00065716123
0.01548427 -0.0019275334 0.004238693 -0.018616851 -0.016537469 0.00088762894 -0.002308184 0.008521918
0.012534383 0.00035253656 0.043426573 0.020625874 -0.01564021 -0.0075438204 -0.0040118583 -0.0020559642
-0.023100274 -0.006956953 0.00709175 -0.00948065 0.0017276183 0.001879828 0.013653031 0.015302441
-0.0120887915 -0.0029517324 0.026204564 0.008300819 0.039597206 0.017106544 0.007054763 -0.0068019857
0.015974987 -0.017753258 -0.03051821 -0.018256044 0.01383366 -0.0014284434 0.00028540747 -0.009013199
0.02818727 -0.0072616693 0.00822529 -0.014244733 -0.0034548186 0.010588388 0.008653614 -0.0022688168
0.005430964 -0.0043400717 -0.026969474 0.013676569 0.00078287296 0.010870812 -0.003591468 -0.0027061242
0.011426277 0.0005036902 -0.009205523 0.023550393 -0.011952688 -0.004046719 0.012783563 -0.009219825
0.02065836 -0.024459776 -0.00541319 -0.0054083057 0.012934148 0.004916599 0.01293328 -0.017886773
-0.027356984 0.009125908 0.02105274 -0.018595103 -0.017367624 0.008292794 0.030277098 0.01312034
-0.0035344758 0.015106379 -0.017081097 -0.014799867 0.0013564699 -0.011435594 0.022753939 0.016451966
-0.0066015506 -0.02197695 -0.017595721 0.0033934293 0.00429166 -0.0059553664 -0.024276521 -0.0020902092
-0.009602139 0.017550517 0.0064961375 -0.013377228 0.010191694 -0.0019020882 -0.0019717957 -0.0029950426

network_body.observation_encoder.rsa.fc_q.bias f4 [128]
00000000: 6834 e13c 9d2d 72bd e791 40bc a8f3 263d
00000010: d3cd 8dbc 31f6 3ebd 0aa7 19bc f811 e1bc
00000020: 3da8 0bbd 8e55 1a3d be40 d9bc 8466 d83c
00000030: efdd b23c cb4c 0e3d eb49 813c f422 26bc
00000040: 1904 913c ef26 f93c 2fac a83c 43e8 bcbc
00000050: b14d 74bc fd37 84bb 47c6 083d e1cd 45bc
00000060: 0d6b 433c 14f7 2f3d 0b92 fa3c 5c08 8bbc
00000070: 8cf4 d5bb 2024 38bd 25df 963b 9495 2ebc
00000080: 2e05 12bd 49f2 bb3c 9421 5c3d 6827 bc3c
00000090: e157 7c3c fcfc a13c e368 003c 1767 1cbd
000000a0: e657 59bd b7dc 56bb b4d8 923c 6559 e83c
000000b0: 05b2 0abd 253d ebbc 9a35 e7bc 646e 6a3d
000000c0: 2638 553d 93b1 12bd 26fa 5fbc 4494 4e3d
000000d0: d3de 233b b018 6dbc 5f51 67bc 0928 6fba
000000e0: d49a 29bd 0e6b 97bc 7b5c 703c f3dd 7c3c
000000f0: 5aee d2bc 967f b7bc 6d1b 743c d966 f13b
00000100: c6aa 823c fea1 c1bc d8db c2bc f1f5 113c
00000110: a1fb 913c 80f3 0a3c 1ac9 d2bc 9e05 8eba
00000120: 88bb 083c d0ba 033d 5849 213d 3a01 e6bb
00000130: 71cd eabb 7c3c 503c d4bf a7bc c8c2 fc3b
00000140: 557d 363c 2e6a b1bb fc11 aebb d629 bdbb
00000150: 56a8 133d bb9d 513c a31a 353c e941 d83c
00000160: e7dc 33bc 82dd 683c 6b9f cfbc 5fc4 15bd
00000170: 2494 cabb 3d63 963a c4f4 1e3d 2e28 a13a
00000180: 1d4b c1bc 6ac4 33bb 3856 01bb 0c50 22bd
00000190: 8359 3f3b 53c1 4ebc 0f0c dfbc 5512 ed3b
000001a0: 99e1 adba 1206 71bc a0e7 ff3b a237 9f3c
000001b0: 2302 28bc ffdb 883c c919 503d efcf b03c
000001c0: 32cd e13b f4ab 403c 6975 24bd e59f b9bb
000001d0: 9a24 9e3c cddd f1bb 5ad1 c0bb d665 dfbc
000001e0: bc24 a2bc c64e 5bbc c9fb 89bc 79c9 3d39
000001f0: 5b18 863c 42b2 843c f390 12bc 2fb8 15ba
0.02749081 -0.05912553 -0.011753536 0.040759712 -0.017310059 -0.046621505 -0.009378204 -0.027474388
-0.03409599 0.037679248 -0.02652013 0.02641607 0.021834342 0.034741204 0.015782317 -0.010140169
0.01770215 0.030414073 0.020589916 -0.02305997 -0.014911101 -0.0040349946 0.033392217 -0.012073011
0.011927378 0.04296024 0.030587217 -0.01697176 -0.0065293964 -0.044956326 0.0046042376 -0.010655779
-0.03564947 0.022942679 0.05374296 0.02296801 0.015401811 0.019773953 0.007837507 -0.03818425
-0.053062342 -0.0032785365 0.017925598 0.02836294 -0.03386118 -0.02871568 -0.028223801 0.057234183
0.0520555 -0.03581388 -0.01367048 0.050434366 0.002500464 -0.014471218 -0.0141185215 -0.0009123092
-0.04140742 -0.018483665 0.014670487 0.015433776 -0.02574842 -0.022399705 0.014899117 0.0073669967
0.015950572 -0.023636814 -0.02378647 0.008908735 0.017820181 0.0084809065 -0.025730658 -0.0010835414
0.008345492 0.03216058 0.039376587 -0.007019189 -0.007165604 0.012709733 -0.020477213 0.0077136494
0.01113828 -0.005414269 -0.0053122025 -0.0057728095 0.03604921 0.0127939535 0.011053714 0.026398616
-0.01097796 0.014212968 -0.025344571 -0.036564227 -0.0061822105 0.0011473667 0.038807645 0.00122953
-0.023595387 -0.0027430304 -0.0019735228 -0.03962712 0.002919764 -0.012619334 -0.02722743 0.0072348514
-0.0013266086 -0.01471092 0.0078095943 0.019435707 -0.010254416 0.016706465 0.05080584 0.021583525
0.0068909163 0.011759747 -0.040151034 -0.005664813 0.019304562 -0.007381177 -0.0058843317 -0.027270239
-0.019792907 -0.01338548 -0.016843693 0.00018099499 0.016369035 0.016198281 -0.008945691 -0.00057113444

network_body.observation_encoder.rsa.fc_k.bias f4 [128]
00000000: c725 8c35 9000 7ab6 340d 1bb6 afa7 3935
00000010: bad3 63b6 cee3 a8b6 4508 5e36 0103 16b6
00000020: 04d5 a435 b50a e536 69bf e4b5 abf2 3836
00000030: c164 7db5 571e 8136 f0f0 5735 8a1c b634
00000040: d8b3 12b5 5dc7 1536 2605 16b5 fdfa 55b6
00000050: d698 e535 3add 30b6 5833 7936 95fa 2236
00000060: 379a ffb5 85ca 83b5 c0f0 a836 17a8 01b6
00000070: 33a0 e435 7782 a2b5 9b5c 28b6 79d1 5db6
00000080: 332c f6b4 8b68 52b5 98e1 c4b5 dbec a2b4
00000090: cff4 0ab6 b129 99b5 fbd5 93b5 dc30 7636
000000a0: 5357 a035 974a b435 163e 35b5 b0ef d9b5
000000b0: 7571 9d34 8014 3ab4 0908 6d35 7a08 30b5
000000c0: 5820 96b5 6d30 b635 1ad4 7736 cb33 dc34
000000d0: 474b a533 fae8 d133 3167 4d36 0ea1 d4b5
000000e0: c9fa a134 2ded ef35 ff86 15b4 0419 91b5
000000f0: cd4f aa35 d1d8 6db4 2db8 4835 259e 8435
00000100: 9b29 0536 f57c 9ab5 09ca 7bb4 a0f5 3c36
00000110: 07ff 8d35 743f e0b5 a927 1bb5 59fa 4e35
00000120: 7577 c9b3 2b30 d634 1567 2f36 ec0b 0034
00000130: fc28 84b5 4530 f635 ed93 dcb5 f077 0836
00000140: 3c7a 5535 d45a c9b4 6bed 2035 749b 0036
00000150: 4a06 f334 3d8d 4b36 ef5b d1b5 f924 8c35
00000160: dcbb 1ab5 6801 be35 d533 0eb6 c43f 2fb5
00000170: 0d3f 95b4 e1b4 7db5 2a7e 9934 6dd1 37b5
00000180: 4998 75b6 960c 4936 c541 d8b6 1681 8ab6
00000190: e78e 0fb6 c529 c0b5 6597 47b6 4c2c 9734
000001a0: 14d1 3236 63e4 95b5 fafe 1935 33e5 aa35
000001b0: cbd8 9635 1ff4 b435 8529 2c36 56c0 44b6
000001c0: c34a 1237 24a2 b235 d2a1 69b6 955a adb4
000001d0: db3e 8836 07d9 1f36 8d3d 25b6 a24c 72b6
000001e0: 299a 9eb5 724b d9b5 55e0 90b3 fad0 b636
000001f0: 2375 0b35 9345 afb5 ca6d 4d36 8015 ac35
1.0441807e-06 -3.725323e-06 -2.3104485e-06 6.916188e-07 -3.3948877e-06 -5.03331e-06 3.3085391e-06 -2.235349e-06
1.2280948e-06 6.8259783e-06 -1.7043031e-06 2.7559388e-06 -9.439646e-07 3.8480316e-06 8.044435e-07 3.3920907e-07
-5.4650945e-07 2.2318775e-06 -5.5886846e-07 -3.1885568e-06 1.7106311e-06 -2.6354815e-06 3.7133777e-06 2.428574e-06
-1.9043863e-06 -9.819202e-07 5.034817e-06 -1.932034e-06 1.7033948e-06 -1.2107911e-06 -2.5087854e-06 -3.3053495e-06
-4.585323e-07 -7.8383226e-07 -1.4668794e-06 -3.0347186e-07 -2.07061e-06 -1.1411522e-06 -1.101463e-06 3.6685296e-06
1.1946344e-06 1.3432754e-06 -6.75181e-07 -1.6237518e-06 2.932608e-07 -1.7330058e-07 8.830107e-07 -6.5577444e-07
-1.1185284e-06 1.357415e-06 3.6929328e-06 4.1015878e-07 7.697104e-08 9.774699e-08 3.0607446e-06 -1.5842104e-06
3.0171057e-07 1.7875915e-06 -1.3925818e-07 -1.0810622e-06 1.2689212e-06 -2.2151222e-07 7.4773817e-07 9.880793e-07
1.9842762e-06 -1.1510261e-06 -2.3449697e-07 2.8157156e-06 1.0579541e-06 -1.6707768e-06 -5.779971e-07 7.7105284e-07
-9.381521e-08 3.9895653e-07 2.6137034e-06 1.1925266e-07 -9.846694e-07 1.8342477e-06 -1.6434329e-06 2.0335392e-06
7.952656e-07 -3.7505254e-07 5.9950133e-07 1.9163972e-06 4.5266853e-07 3.0331569e-06 -1.559847e-06 1.0441573e-06
-5.764284e-07 1.4156512e-06 -2.118982e-06 -6.528537e-07 -2.7799288e-07 -9.451306e-07 2.8590267e-07 -6.8477567e-07
-3.6596487e-06 2.995866e-06 -6.444958e-06 -4.127748e-06 -2.139184e-06 -1.4317271e-06 -2.9741434e-06 2.8158172e-07
2.6645766e-06 -1.1167834e-06 5.736798e-07 1.2732693e-06 1.1238966e-06 1.3482094e-06 2.5654165e-06 -2.931823e-06
8.719685e-06 1.3309223e-06 -3.4813897e-06 -3.2289668e-07 4.060433e-06 2.3819173e-06 -2.4622743e-06 -3.6105416e-06
-1.1816784e-06 -1.6189717e-06 -6.746328e-08 5.4483507e-06 5.195199e-07 -1.3058765e-06 3.0611286e-06 1.2821256e-06

network_body.observation_encoder.rsa.fc_v.bias f4 [128]
00000000: 0b4d 3fbb 6aa8 26bc 4d3b d63b e83d e2ba
00000010: a958 213c dce6 6eba 3aa4 823c d856 5b3b
00000020: 1bbf d4bb f826 cf3c ec88 e1ba 6dc4 00bc
00000030: 93d0 99bb 6a67 52bc 96eb 8dbc 243a ba3c
00000040: 82cb 42bc 129e dfbb 0878 4abc 37f0 0d3c
00000050: 198c e63c c46d debb 85d3 bfbc 2168 72bb
00000060: 6ba1 30bc 337d 743b f6a2 c7bc 4f7b 433b
00000070: 4e7c 60bc 3013 34bb 58ce 30b9 3258 e5bb
00000080: 4530 e93c 9823 afbc e45a eebc 8f9f 863c
00000090: ced8 3abc 2852 81bc de62 2f3a d0c9 18bc
000000a0: bdc0 82b9 1391 cf3c 691c 98bc 0639 25bc
000000b0: ed1c b63c 1560 4fbc 56ef 1b3c 57ea 2bbc
000000c0: 1852 1cbb 686a 1d3c cae0 bd3b b4b2 5dbc
000000d0: 8eea bfbb c870 a7ba 5bf4 79bb b601 eb3b
000000e0: 00c6 243c 022d 0f3c f527 5a3c 9077 d43b
000000f0: 8f0e 01bb a28b 233c 1368 5abc 1846 ec3b
00000100: a379 c338 bc7a 5b3b 576a b03b b1cc 8f38
00000110: 2605 c43b f572 d0bc 17d6 acbc 3626 423b
00000120: 45fe 443c b525 733b 0190 32bc e331 34bc
00000130: 7bc2 9fba f0fa 873a fef8 cc3b e8ab 7e3c
00000140: 75b5 1fbc 130b e83b a703 883c 6868 523c
00000150: 5f45 d3bb 12c7 6b3b bf18 2bbc 460b b23b
00000160: d655 263c 8718 df3b 3259 083c e06b c33c
00000170: 6030 1abc ad85 8539 3b0d 403c 747c adbc
00000180: eb15 17bb 96c6 833b 3a6e 9d3a 3ed6 4c3c
00000190: 6f90 fe3b 2002 c5ba 0f0c 1ebc ff26 06bc
000001a0: 9f1c ee3c d9e9 903b 4c8d 2c3a 4127 a5bb
000001b0: 620a 443c 6dfa 0cbc aff2 8239 8c30 4ebc
000001c0: 469c 7f3c b170 d43b 304a bdbb 0596 7ebb
000001d0: 1715 ffbb 0c4f 01bc 1649 35bc 8147 763c
000001e0: d43a 8abc 61a4 ff3b 17f7 8cbb f071 053b
000001f0: 1928 08bc eb42 6b3c e51a 71bb 1726 9cbc
-0.0029190208 -0.010171989 0.006537831 -0.0017260881 0.009847798 -0.000911338 0.01594745 0.003346851
-0.006492508 0.025287136 -0.0017206944 -0.007859332 -0.0046940534 -0.012842039 -0.01732425 0.022732802
-0.01188934 -0.0068242634 -0.012357719 0.008663229 0.028142976 -0.0067879874 -0.02341629 -0.0036988335
-0.010780673 0.003730607 -0.024369698 0.0029828136 -0.013701512 -0.0027477257 -0.00016861537 -0.006999039
0.0284654 -0.021379277 -0.029096074 0.016433505 -0.011404229 -0.015786245 0.00066904526 -0.00932546
-0.00024939133 0.025337731 -0.018568235 -0.010084396 0.02223059 -0.012657185 0.009517511 -0.010492883
-0.0023852643 0.009607889 0.005794619 -0.013531376 -0.0058568185 -0.00127747 -0.0038140032 0.007171835
0.0100569725 0.008738758 0.013315191 0.0064839795 -0.0019692515 0.0099820215 -0.013330477 0.0072105043
9.320981e-05 0.0033489903 0.0053837704 6.856898e-05 0.005982059 -0.02544544 -0.02109818 0.0029624826
0.012023513 0.0037101333 -0.010898591 -0.010998222 -0.0012188697 0.0010374468 0.006255268 0.015543915
-0.009747853 0.0070813983 0.016603304 0.012842275 -0.0064474787 0.003597681 -0.010442912 0.005433473
0.010152301 0.006808344 0.008322047 0.02385515 -0.009410948 0.00025467333 0.011721904 -0.021177508
-0.0023053836 0.004021476 0.0012011 0.012502251 0.0077686827 -0.001503054 -0.00964643 -0.008188008
0.029066382 0.004422408 0.0006582334 -0.00504008 0.011965366 -0.008604628 0.00024976346 -0.012584817
0.015601223 0.0064831604 -0.005776666 -0.0038846743 -0.0077844965 -0.007892381 -0.011064788 0.015031696
-0.016873755 0.007801578 -0.0043019163 0.0020362101 -0.008310341 0.014359216 -0.0036789712 -0.019061131

network_body.observation_encoder.rsa.fc_out.bias f4 [128]
00000000: 6a1d a7bc 7276 9e3b b65d 28bc 0f9c ccbb
00000010: f1fc 24bb 52d0 a03c 6cc0 753c 5993 2f3c
00000020: e49c 04bc f9c9 8e3b 0b2e 4b3c 6057 9b3c
00000030: c021 f63b 363b 613c b741 1cbc c81f 96bb
00000040: c3e7 f4b7 d70a c9bc 16f8 50bc 7f9e b5bb
00000050: 1b94 2cbc e584 e43c 542b 003c a461 2b3c
00000060: ec7e f3b8 ae30 3f3b 8743 2db9 70c1 413c
00000070: 2387 7c3c c650 5fbb a28e 763b 99bc 2cbc
00000080: f600 94bb d4a1 20bc c355 04bc ca09 513c
00000090: 5e28 9b3b f280 353c dd76 30bc 34d0 563b
000000a0: 8a78 663c cc4b 39bc 878e 27bc 62a2 26bb
000000b0: 69f1 07bc 7ab8 e0b7 17dc 0639 b32d 31bc
000000c0: f236 313b abcc 8d3b a656 f6bc fbbf 00ba
000000d0: 2e80 e73b c626 f43a 0fea 983c 8980 1b3c
000000e0: 965f 43bb aeed d23b bc27 0dbc 2dd7 b5bc
000000f0: cfd2 de3a fddb d1bb 66d3 543c d2dd df3b
00000100: 8e40 6b3b 8785 9c3b 19b9 17bb 235c 163b
00000110: de7a c8bb de56 aa3c eef7 b93b 7462 803c
00000120: 08e2 423b 4442 4abc c49f 30bc ae24 0fbc
00000130: 11da 213c fb92 33bb 44ff adbc 5640 913b
00000140: eb20 b7bc 3fcf 793b 9e3c 1abc bb8a 863b
00000150: 58ce 83bc 3957 143b c229 e03b 4f0d b83c
00000160: 6963 2bbc b174 bc3b 5385 b2bc 3ede 0f3b
00000170: 471f 773c e6fd 643c df49 553b ce6a 063d
00000180: d77e c73c a09b bd3c fab2 583c 8a11 38bc
00000190: 3d60 b7bb 8f37 15bc e726 143c 9b08 b3ba
000001a0: d79d 3bbc f1db 033c ecf7 5fbc e4db dabb
000001b0: c11e c7bc 3de1 7cbc 2a0a 373c 5811 2c3b
000001c0: 851e bcba ee58 103c e6fc 53bc 606c 1bbb
000001d0: 0843 873c 9a43 da3c fde3 29ba b8c5 00bc
000001e0: bd41 b139 d446 71bc ff53 dc3a a5ef aebb
000001f0: f272 0b3b bbc9 0b3c cb42 29bb 8f51 efbb
-0.020399768 0.004835897 -0.010276249 -0.0062441896 -0.002517518 0.019630585 0.01499949 0.010716283
-0.008094046 0.004357573 0.012401114 0.018962562 0.0075113475 0.013747027 -0.009537152 -0.0045814253
-2.919499e-05 -0.024541302 -0.012754461 -0.005542576 -0.010533358 0.0278954 0.00782283 0.010460291
-0.00011610784 0.0029173302 -0.00016523722 0.011825904 0.0154130785 -0.0034075244 0.0037621637 -0.010543012
-0.004516716 -0.009804208 -0.008077088 0.012758682 0.0047350368 0.011078106 -0.010770527 0.0032777907
0.014066825 -0.011309575 -0.010226852 -0.0025426378 -0.008297303 -2.6788784e-05 0.00012861226 -0.010814118
0.0027040807 0.004327377 -0.030070614 -0.000491142 0.0070648408 0.0018627278 0.018666295 0.009491094
-0.0029811612 0.006437025 -0.00861543 -0.02219733 0.0017000082 -0.0064043985 0.012989854 0.006831863
0.0035896632 0.00477666 -0.0023151098 0.0022943101 -0.0061181625 0.020793375 0.0056753075 0.015671946
0.0029736776 -0.0123449005 -0.010780279 -0.008736772 0.009878651 -0.002740084 -0.021239884 0.0044327183
-0.022354564 0.0038117913 -0.009413866 0.0041058934 -0.016089603 0.0022634997 0.0068409154 0.022467284
-0.010460713 0.0057512154 -0.02179209 0.0021952535 0.015083141 0.01397655 0.0032545251 0.0328167
0.024352474 0.023145497 0.013226265 -0.01123465 -0.0055961893 -0.0091074845 0.009042478 -0.0013659181
-0.011451206 0.008048044 -0.013669949 -0.006679045 -0.024306657 -0.01543456 0.011171857 0.0026255455
-0.0014352357 0.008810265 -0.012938714 -0.002371572 0.016511455 0.026643563 -0.0006480811 -0.00785964
0.0003380905 -0.014726359 0.0016809701 -0.0053386264 0.002127823 0.008531983 -0.0025827165 -0.0073034237

network_body.observation_encoder.x_self_encoder.seq_layers.0.weight f4 [128, 3]
00000000: e1ff 74bd 3f9f eebb 58cb ec3c 82d4 4e3b
00000010: a275 bebc d22b a9bb 062e 91bd e3bb 093d
00000020: 2fa2 e8ba 549f 5c3d 1afe 06bd a086 533c
00000030: 45c6 6fbc 755c ca3c be5c ac3b daf7 7fbd
00000040: bcb4 43bc ddc8 913d 7077 dcbc 0cac 71bd
00000050: eafc 8e3c 9279 2cbd 1f67 f23c 37e5 bb3c
00000060: 0c74 cc3c 3302 5c3a c037 6abc a50f 293c
00000070: 8a0e f2bc 8142 2dbd 7560 d83a b937 043a
00000080: 523c 2a3b 636c 3ebd 07f5 733c a708 383d
00000090: 3dcb d039 476c 803d 113d 09bc 02f3 25bd
000000a0: 563e 883c 2ea1 a53c 3f7e 32bd 9f02 d13c
000000b0: 1cd2 80bc 6a67 14bd d06b f5bc 7d94 3ebc
000000c0: 7a07 653c ce66 b23c 28e6 24bc 58ec 1f3c
000000d0: 5b46 a33c 2237 c23c 01e4 cd3c 4636 d8b9
000000e0: cecb 573b 7fe8 2abd 2022 23bd 1501 27bd
000000f0: bae2 05bd 2891 5c3d a8ee 99ba b07e 863d
00000100: a13a a4bb 57e9 773d f2cb 573d 37c3 793c
00000110: d43b 9cbd d569 dd3c 5056 02bc ddf6 173d
00000120: d066 093d 53b5 39bd 4cdb ffbc dbe8 ff3b
00000130: ecba 4dbd 7fa8 93bc 588e 463d 5b14 94ba
00000140: d718 80bc 5d83 0f3d 642d 133d 933c 71bd
00000150: cf2b 523d 3011 c73b 3a20 96bc f869 3a3d
00000160: 5769 34bc 4f94 0e3d e65f 52bd 0917 6b3c
00000170: 3a9c d43c 4702 bd3c ce9c b73a fe16 9ebc
00000180: 57f5 303d c2b5 ffba 0962 0cbd a109 483d
00000190: 0e42 cabc 48c5 073d b20a 393d 4f3f 0a3d
000001a0: 6dbb 3fbc 59d6 813c 2a3c e6bb e984 13bd
000001b0: e385 69bc cd91 60bd 8077 2abd e1a4 ecbc
000001c0: 1141 d0bc 0843 423c 4f0c d13c a623 223d
000001d0: 4856 683c 1fd5 97bc d41f 5c3c 7281 393c
000001e0: cc59 753c 7368 493c 8d01 a43c 7986 0f3d
000001f0: 37a8 c33b 5e66 783a daeb 913d bcab 0bbc
00000200: 2bf7 4cbd a9fa 3d3d 3ed6 30bc 45fe 713c
00000210: 8b5c 853c 0d7a ccbc 6849 82bb 975a c23a
00000220: 1187 043c a581 d239 2cb0 013d 5980 383b
00000230: b5aa 48bc 6668 0ebd 85f0 34bc f498 cdbb
00000240: a069 c03a 4166 14bb 8458 b43c 8289 76bd
00000250: 38a5 0c3c 4b07 633a e253 a43c fcab c6bc
00000260: fd20 29bc 0fe2 623a f86b d4ba d28a 16bb
00000270: 0f72 a93c 3b26 64bd c162 cd3c 622a ce3d
00000280: 6e64 73bc 8a6d d03c 80a2 073d 80df 3dbc
00000290: c2b2 e4bc 7f3b 8abd 31c7 24bd 7508 2ebd
000002a0: 01ee 3c3d 0526 313c bbe0 36b8 a66c 543d
000002b0: ce92 6c3c ee33 38bd b23e 2b3d 275c 83bb
000002c0: 45bc 7e3c 4fd2 6f3d e0f8 1c3d d14f a2bc
000002d0: 7166 20bc 3710 f43c 481c 063b 31a9 42bd
000002e0: a4ae 483c 0a8b 41bd ce8c 8abd 0d65 5dbd
000002f0: c800 ccbc 3354 483d b61c f3bb 51bb cb3b
00000300: cc8a 35bd 25ae 3e3c 37b7 453b e9c4 05bd
00000310: 51f8 d6bc fb00 bfba 1dd4 05bd 9e60 583c
00000320: a8ef 2a3c 866c 54bd 460c 513c 45de 80ba
00000330: ce30 983c 39f0 383c d066 86bc 508f 433d
00000340: 7762 3dbc 58b0 293d b1ed 04bd 35f5 913c
00000350: 2b26 003d 7f85 8e3c 0706 cb3c 6d7b 183d
00000360: ee0e 2ebd 9f65 903c b929 833c f01b 8339
00000370: daaa dcbd 24cc 0cbc 013a 9dbc 6b7e bb3c
00000380: 8884 0a3d 3ad0 e03c 4fe1 543c 6aad 3f3c
00000390: 7860 e4bc d2c0 793b 3360 103a dd7e 313d
000003a0: ee44 a9bc d559 f7bb 1557 7ebc 44ca 183d
000003b0: 99f0 663c e6b7 8fbd 6c0b 81bd 8055 573d
000003c0: f289 acbc 81e0 873c c228 203c 59c7 d73c
000003d0: 623e c3bc a249 003d 0320 48bd 1832 53bc
000003e0: a530 3e3c 9cf2 ffbc 46ac 83ba 1546 3ebd
000003f0: 49f7 d73c 0c8d 913c 9bc9 b03b 38f1 31bc
-0.059814338 -0.007282167 0.028905556 0.003155977 -0.023249451 -0.0051626945 -0.070888564 0.03362645
-0.001774853 0.053862885 -0.032957174 0.012910515 -0.0146346735 0.02470229 0.005260079 -0.06249223
-0.011944946 0.0711839 -0.026912421 -0.059001967 0.017454583 -0.042108126 0.029590188 0.022936447
0.02495768 0.00083926617 -0.014295518 0.010318671 -0.029547948 -0.04229975 0.0016508239 0.0005043704
0.0025975895 -0.046490084 0.014889962 0.044930127 0.00039824276 0.06270652 -0.008376376 -0.040514953
0.016631287 0.020218458 -0.04357743 0.025513945 -0.015725188 -0.036231436 -0.029958636 -0.011632082
0.013978833 0.021777537 -0.010064639 0.009760939 0.019931009 0.02370793 0.025133135 -0.00041239167
0.0032927874 -0.04172563 -0.039827466 -0.040772516 -0.032686926 0.05384937 -0.0011744099 0.065671325
-0.005011872 0.060525265 0.05268473 0.015244297 -0.07628599 0.027028004 -0.007955149 0.03710066
0.033545315 -0.04533894 -0.031232499 0.007809741 -0.05022709 -0.018024681 0.048475593 -0.001129757
-0.015636845 0.035037387 0.03593196 -0.05889566 0.05131131 0.006075047 -0.018325914 0.045511216
-0.011011443 0.034809407 -0.051360987 0.014348754 0.0259534 0.023072375 0.0014008523 -0.019298073
0.043202724 -0.0019509124 -0.03427318 0.048837308 -0.0246897 0.033147126 0.045176215 0.033751782
-0.011702401 0.01584928 -0.007026215 -0.036015425 -0.0142531125 -0.054826546 -0.04161787 -0.028887214
-0.025421651 0.011856802 0.025518565 0.03958478 0.014180727 -0.018534241 0.013435323 0.011322366
0.0149750225 0.012292969 0.02002027 0.035040352 0.0059709805 0.0009475703 0.07125063 -0.008524831
-0.050040405 0.046381626 -0.010793267 0.014770095 0.01627948 -0.024960542 -0.003976036 0.0014828023
0.008088843 0.00040150914 0.03166215 0.0028152673 -0.012247731 -0.03476753 -0.011043672 -0.006274337
0.0014679916 -0.0022643956 0.022014864 -0.06018973 0.008584313 0.00086604495 0.02005953 -0.02425193
-0.010322806 0.0008654901 -0.0016206494 -0.0022970927 0.02068427 -0.055700522 0.025071504 0.10066678
-0.014855487 0.025442857 0.033113956 -0.011588931 -0.02791727 -0.06749629 -0.040229026 -0.042488534
0.046125416 0.010812287 -4.3601478e-05 0.051861428 0.014439298 -0.0449714 0.041807838 -0.004008788
0.015547817 0.058550175 0.038323283 -0.01981345 -0.009790049 0.029792888 0.0020463634 -0.047524635
0.012248669 -0.04725174 -0.067651376 -0.054051448 -0.024902716 0.048908424 -0.007419194 0.006217398
-0.04432182 0.011638199 0.003016902 -0.03265849 -0.026241453 -0.0014572436 -0.03267299 0.013206629
0.010433115 -0.05186131 0.012759274 -0.0009831866 0.01857796 0.011287742 -0.016406447 0.047744095
-0.01155912 0.04142794 -0.032453243 0.01781712 0.0312864 0.01739764 0.024783147 0.037227083
-0.042494707 0.017626582 0.016011106 0.00025007082 -0.10774775 -0.008593593 -0.019192697 0.02288743
0.033817798 0.02744304 0.012993171 0.01169906 -0.027878031 0.0038109315 0.0005507499 0.043333877
-0.020662751 -0.0075485506 -0.015523692 0.03730227 0.014095449 -0.07017498 -0.06301007 0.052571774
-0.021061871 0.016586544 0.009775342 0.026340174 -0.023833457 0.03132022 -0.048858654 -0.012890361
0.011608277 -0.031243615 -0.0010045848 -0.046453554 0.026363032 0.017767452 0.005395127 -0.010860734

network_body.observation_encoder.x_self_encoder.seq_layers.0.bias f4 [128]
00000000: ede1 d23a 17dc c1ba caa7 c83c b6dd 193c
00000010: 0ca7 213c 6bbe c03c 9b38 cfba 134f 703b
00000020: 3337 20bc d99c 8abc 4be7 353c f250 07bb
00000030: 3ea7 c7bb 6cc9 213a 2ac5 213c 6d25 213c
00000040: 032b 14bc 12df e1bb c968 66bb e8b1 4c3b
00000050: a777 24bb e8ef 2b3c 51fa 01bb cfc6 82bc
00000060: 4d45 423c 8b0c afba 3f0c 813b 2ad2 8d39
00000070: d194 353b e193 a73b d3fc 0e3c 9458 14bc
00000080: eed0 193c 8a79 353c 529d 443c 1eb1 0bbc
00000090: c3dd adbc cccf 2e3c 96fd 0cbc 7d12 d83b
000000a0: 9d92 74bb ec5c 2bbb 3db9 c23b 02b9 4dbc
000000b0: 05d7 a5bb e98b 6a3c 0f8c a33b 361b d4bb
000000c0: 5e57 89bc e3c2 453c b9cb 91bc 5055 82bc
000000d0: 08e8 2237 97f7 373c bcee a8ba 655f bf3b
000000e0: 32c3 f33b 1634 373c 0f0f d539 633a 173c
000000f0: a6a7 f4bb 5d30 78bb f9ce 523c 3531 ef39
00000100: c33e 06bc cc46 1c3c 1a2b d43b bf4c 3fbc
00000110: aeee 6abb b020 8c3b a073 21bc 385c 2b3c
00000120: 044b 773b 1c02 213c e743 32bc 34bc c33b
00000130: 3d6b 61ba a674 f53b a486 773b a828 2b3c
00000140: d430 8f3b a3e0 983a b800 7f3c fb66 3a3b
00000150: 27b3 b2bb 1f06 51bc 9e0a 913b 89d3 0c39
00000160: 1a43 c03a 0d13 3d3c ef21 06bd c6bd 213c
00000170: f658 a9bb f973 c03c d234 3dbb 19aa 2ebb
00000180: fc8a 5d3c 97c6 0db9 7042 29ba 592e d03b
00000190: 4fbf 6e3c 6f4e 7d3c 951c 4abc 3f77 0cb9
000001a0: e664 f9bb 23ff 433c 8a8c 30bd 6b32 bb3b
000001b0: f2c5 6538 4dd3 a0bb 0f35 673c ed5b bcba
000001c0: d171 be3b e55f 25bb 2be2 7cba f1e1 d3bb
000001d0: 9036 b2ba f00d d3bb 04f1 9f3b d96c c23b
000001e0: 2f8e 8b3b 67e4 19bc a27a 12bc 764e e6bb
000001f0: 60cc 5bbc 6862 7e3c 1453 e63a 8d2e cf3a
0.001608906 -0.0014790323 0.02449407 0.009391239 0.009866487 0.023528298 -0.0015809716 0.0036668226
-0.0097787855 -0.016920494 0.011102508 -0.0020647612 -0.006092935 0.0006171677 0.009873668 0.009835583
-0.009043458 -0.006893047 -0.0035157672 0.003123397 -0.0025095732 0.01049421 -0.0019833038 -0.01596394
0.011857343 -0.0013355179 0.0039382274 0.000270502 0.002770711 0.005114064 0.00872727 -0.009054322
0.009388192 0.01107634 0.012000399 -0.008526115 -0.021223908 0.01066966 -0.0086053815 0.006594001
-0.0037318834 -0.0026147915 0.0059424923 -0.012556316 -0.0050610327 0.014315584 0.0049910615 -0.0064729704
-0.016765293 0.01207039 -0.017797338 -0.01590982 9.709976e-06 0.011228464 -0.0012888531 0.0058402293
0.0074390406 0.011181852 0.00040637745 0.009230229 -0.0074662743 -0.0037870624 0.012866729 0.00045622294
-0.0081936745 0.009538364 0.0064748647 -0.011676013 -0.003584783 0.0042763576 -0.009854227 0.010458998
0.0037733922 0.009827163 -0.010880447 0.0059733633 -0.00085990486 0.007490712 0.003776946 0.010446705
0.0043698344 0.0011663627 0.015564136 0.0028442729 -0.0054534855 -0.012757807 0.0044263145 0.00013430243
0.0014668435 0.011540187 -0.032747205 0.009871906 -0.0051680757 0.0234928 -0.0028870595 -0.002665168
0.013521906 -0.00013520788 -0.00064567383 0.0063531813 0.014571979 0.015460595 -0.012335916 -0.00013395863
-0.007610905 0.011962685 -0.04310278 0.0057127974 5.4782206e-05 -0.0049080015 0.014111771 -0.0014370658
0.005811908 -0.002523416 -0.0009646739 -0.0064661433 -0.0013596583 -0.0064408705 0.004881026 0.005933386
0.004258893 -0.009392834 -0.008940371 -0.0070283962 -0.013415426 0.015526392 0.0017572367 0.001580672

network_body._body_endoder.seq_layers.0.weight f4 [128, 131]
00000000: ecc3 c43d e59e 3a3d 44f8 623d 216e 84bd
00000010: dde6 a83c 9afd cebd c9f7 d23a 691c 1e3d
00000020: b873 7c3d ac71 313e f2b5 36be b37a f0bd
00000030: 1a39 8cbc c8ef 5a3d 9978 97bd 99bf 50bd
00000040: 88ff 593c f358 4abd b24f 953b 7acd b33d
00000050: 82d3 00bd 2169 a1bd d2a6 6ebc 0591 87bc
00000060: 8b50 8d3c 47c4 b0bd 4192 6ebd a852 a13c
00000070: 083c bf3d 739c 1dbd 80e6 bd3d 5744 53bd
00000080: 5c3b b93d 3276 a23d 1384 3c3d 2040 c2bc
00000090: 79af 87bd bb11 94bb bc86 3cbe 5770 983d
000000a0: 03dc 313d 4f1e c13d 4bad f3bd 33ce 973d
000000b0: 6e50 8cbd 1df3 973c f372 933c c658 123e
000000c0: aeb8 21bd 56e7 e4bd 445f 4a3d 4909 103e
000000d0: c692 e5bd ed58 223d fde0 98bd a79e 7f3d
000000e0: d401 293e 9814 e73b 7fa1 8f3d af6a 123d
000000f0: 71f3 b1b8 45f0 b1bd 01ca 333d b0e2 303d
00000100: dec6 19be 0fbd 0f3c a4b4 85bd c20c 58bd
00000110: be1a e5bd 370a fc3d 185b 1c3d 8546 c0bd
00000120: 09b1 4dbd 28ef 85bd 7fb9 93bd b7c9 6ebd
00000130: 6484 c7bd ecfe bc3c b075 f83d cf3e 9cbd
00000140: f78f 1dbe c4a0 743a 5dcb 973d e73d 1b3e
00000150: d83c 013b 340f aabd 0943 3a3d 28db a1bd
00000160: f40a 11be d00c d83d 94d2 5c3c b259 9e3d
00000170: 1762 593d 6855 3cbe 9b5c e1bc 7d03 8d3d
00000180: fef3 c23c 5e6b d43d 5774 243e cef1 573d
00000190: 1db3 733d 0189 af3d 3fe6 763d 931c 1c3e
000001a0: e9e0 8ebd f537 d33d fcc1 7c3b ecb6 5fbe
000001b0: a6f4 fe3d 8ce0 ecbb 6fab 69bd 661c d73d
000001c0: c2fb 443d ff37 b23d c200 323d 2e61 fbbd
000001d0: e09f 34bd c296 363d ffda f0bd 6888 143d
000001e0: f5ec c9bd 968d 013d 86ab 9a3b 9313 1e3e
000001f0: 0226 bfbc 1690 bd3d 597f ea3c 0cac 15bd
00000200: 4bdf 8fbc 95dc 25bc 746b 263e 1f0f 293d
00000210: 4e75 8c3d 48ae 463e e861 8c3d 622d e63c
00000220: 9b13 d63c 1815 443d 1d7f 003d 8f7a 04be
00000230: 474f 44bc 548d 7fbd f034 463e ca16 28bd
00000240: 1236 37bd 2833 69bd 7011 923d d29e ebbd
00000250: e4bb 83bd 94fc 73bc 1c7f eb3d 6199 b43c
00000260: b284 793d 70a6 b53d ff9c d3bc 71f9 463d
00000270: 71b9 58bd fdf5 8c3b b78c 6f3d 7ccf b83b
00000280: 8cf9 25ba d1d9 cb3d 5b4f bb3d 4129 183d
00000290: 3cf4 cabd 445e 97bc 970e 76bc 6083 74bd
000002a0: b68a af3d d202 d8bd 0b46 a63c 77bc 11bd
000002b0: 8f10 42bd eea9 5b3d 7f40 e13b c0ad 8ebb
000002c0: 1488 45bd 5fd0 a8bb c955 4d3c dede 543d
000002d0: 9b79 5ebc 10cd 33bc 4369 66bc 36df 0b3e
000002e0: d1fa a8bc 7722 d13d c8a0 46bc 3746 b53c
000002f0: e90e 7abd 112f b4bc 9c24 123d 3898 433e
00000300: 89e0 51bd 21c9 383e bc59 063e 01a2 853d
00000310: 3b66 8bbc 7a13 87ba 9c50 be3d 2203 c2bd
00000320: 6aa8 743c 16fd a63a f819 24bc fe7d 69be
00000330: 4df2 24be 6ada 03be 0dd0 603a f02b 6a3e
00000340: 9297 c1bd 6390 15be 7893 dfbd 0f69 bfbb
00000350: 9ed8 c1ba befa 903d 8df5 123d f485 76ba
00000360: 2d72 1c3d a838 97bd f09f c33d 530c 22bd
00000370: 4fe9 0c3d e209 c23b 88f2 25be a8a3 c9bd
00000380: 35a9 0d3d 35d7 63bd 5c5a 37be 96db ebbd
00000390: 4b5d ccbd 6b48 7f3d 0ef8 6fbd c914 0b3d
000003a0: edf1 48bb fe3a 393d f654 19bd 5404 f53c
000003b0: ae87 a83d 621c 8fbc 433f d23d 432b 0ebd
000003c0: 0b15 fbbd 29c7 60bd c4dc f03d 7459 84bd
000003d0: cfa3 093c fbdb 903d 7c61 a9bd 155c 8639
000003e0: 5a53 433d b71e 1b3e 74f8 90bd 5a7d 0abe
000003f0: 4f62 553c 9851 edbc 93e7 77bd 07e2 45bd
0.09607682 0.04556169 0.055412546 -0.06466318 0.020617897 -0.101069644 0.0016095574 0.038601313
0.061633795 0.17328519 -0.17842844 -0.11742153 -0.017117072 0.05345133 -0.07396049 -0.05096397
0.013305552 -0.049401235 0.0045566196 0.08779426 -0.03145171 -0.0788138 -0.01456614 -0.016548643
0.01725032 -0.08631187 -0.058244947 0.019692734 0.09337622 -0.03847928 0.0927248 -0.051578846
0.09044525 0.079327 0.046024393 -0.023712218 -0.06625266 -0.004518715 -0.18410772 0.07443302
0.04342271 0.09429609 -0.118982874 0.07412376 -0.06851278 0.018548543 0.017999148 0.14291677
-0.039482765 -0.11176936 0.04940726 0.14066042 -0.112096354 0.039635587 -0.07464788 0.062407162
0.16504604 0.0070520155 0.07013225 0.035746273 -8.485362e-05 -0.08688406 0.043893818 0.043184936
-0.15017268 0.008773102 -0.06528595 -0.05274654 -0.11186741 0.12306636 0.03817281 -0.093884505
-0.050217662 -0.06539756 -0.07213115 -0.05829784 -0.097420484 0.023070775 0.12131822 -0.07629167
-0.1538695 0.0009331817 0.07411835 0.15160333 0.0019720104 -0.08303681 0.045474086 -0.07903129
-0.14164335 0.10549319 0.01347794 0.07731952 0.05307206 -0.18391955 -0.027509978 0.06885431
0.023797985 0.10372041 0.16060005 0.052720837 0.059496988 0.08571053 0.060278174 0.15245275
-0.06976492 0.10313407 0.0038567772 -0.21847123 0.12449007 -0.0072289165 -0.057048257 0.105034634
0.048091657 0.08702087 0.043457754 -0.12274395 -0.04409778 0.044577368 -0.1176052 0.0362629
-0.09859649 0.031629167 0.004720154 0.15437154 -0.023333553 0.09255998 0.028625177 -0.03654103
-0.01756253 -0.010123392 0.16251928 0.041274186 0.068583116 0.1940242 0.06854612 0.028097812
0.026132395 0.04787168 0.031371225 -0.12937377 -0.011981792 -0.06239064 0.19356132 -0.04103736
-0.0447293 -0.056933552 0.07132232 -0.11504902 -0.06432322 -0.014891762 0.114988536 0.022045793
0.060917564 0.08869636 -0.025831698 0.04857773 -0.052911226 0.004301785 0.058483806 0.0056399684
-0.0006331436 0.099536546 0.09145995 0.037148718 -0.09909865 -0.018477567 -0.015018127 -0.0596956
0.08571379 -0.10547413 0.020297071 -0.035580125 -0.047379073 0.053628854 0.0068741436 -0.0043542087
-0.048225477 -0.005151793 0.01253266 0.051970355 -0.013578798 -0.010974184 -0.014063182 0.13659367
-0.020627411 0.10211652 -0.012123294 0.022128208 -0.061049376 -0.0219951 0.035679445 0.19101036
-0.051239524 0.18045475 0.13120168 0.065250404 -0.01701652 -0.0010305487 0.09292719 -0.09473254
0.014932731 0.001274022 -0.010015957 -0.22801968 -0.16108055 -0.12876287 0.0008575924 0.22868323
-0.09452738 -0.1460586 -0.10916799 -0.0058413814 -0.0014789288 0.07079075 0.035878707 -0.0009404116
0.038194824 -0.07383853 0.0955199 -0.039562535 0.034402188 0.0059215883 -0.162058 -0.09845668
0.034585197 -0.05562516 -0.17905563 -0.11516492 -0.09978732 0.062324923 -0.058586173 0.03395537
-0.0030661777 0.045222275 -0.03743454 0.02990929 0.08229004 -0.017469589 0.102659725 -0.034709226
-0.12259873 -0.054877434 0.11760858 -0.06462374 0.008400871 0.07073208 -0.08270547 0.00025627078
0.047686912 0.15148436 -0.07078639 -0.1352438 0.013023927 -0.028969571 -0.06052358 -0.04831126

network_body._body_endoder.seq_layers.0.bias f4 [128]
00000000: 4939 633c db7f 31bc 3cd8 84bb 2549 9e3c
00000010: af12 2bbc cb2d 653c 67ae 223c 0d53 dbbb
00000020: 090f 97bb 27fc 033c 6ce5 fd3b cd56 423c
00000030: 3b3b a5bc e44e 47bb 6bf1 d43a 5378 b0bb
00000040: b2cf 05bc 9a45 5439 f0f4 03bc c83c 6f3b
00000050: 8586 083b bf66 0a3c b8d2 20bc 3e5f a73c
00000060: 022b 50bb 4603 af3b b231 f3ba fbb9 c93c
00000070: 0ef2 da3b aeb2 9b3c c6c9 483c 6c51 9b3b
00000080: 3282 763c 204e 343b 5d4f fb3b 7526 cc3b
00000090: 2d34 383c 788b ebbb 7006 debb 539f 40bc
000000a0: ca69 713c 7a07 88bb 42cb 1f3b 20bd 573b
000000b0: c486 7c3c f045 543c 9cde 8f3c d34f 473b
000000c0: 659b bfba 399d b53c de78 b93b 2406 f03b
000000d0: bfec 373c 94f3 f63b afda 40bc 8214 1abc
000000e0: b450 e23b 861d b2bc 4ee9 e53c b52a 15ba
000000f0: e8c8 3f3c ca9c 5d3b 996f bfbb 71f2 f73b
00000100: 64bf 7c3b 30be 6239 2d10 42bb 4f56 14ba
00000110: 9378 843c c710 27bb 3833 2c3c 58b5 8f3c
00000120: b0d9 a2bc 9294 4cbc ccd0 ddb9 6e1c b03b
00000130: 735c c43b 5b45 04bb 2af5 f0bb 868c 57ba
00000140: f060 4b3c ab88 1c3c ba84 9b3b 626e e5bb
00000150: b84e ab3c 0549 c63b 111d ae3b 59db c93c
00000160: 33e9 883c e490 093c 4b1c d2bb 88bf 923c
00000170: 8ffe 863c 5957 083b b4dd e13a bd6c 8a3c
00000180: e8c8 42bc 4164 cd3b 836c c93b 1826 373c
00000190: b54e 2a3b cb6c 2c3b 5457 623c 419b b4bb
000001a0: a349 583c 1b5a 83bc e693 3139 1bad 0c3b
000001b0: d2ca f0bb 8906 843a 82b4 eabc 6428 3ebb
000001c0: 71bd adb7 2e6e f7bb 26ff ca3b 37c3 9c3c
000001d0: e17f c23c 1538 05bc f545 ab3b 5f94 b83b
000001e0: b265 243c 6c70 d53b 216b 50bc 7f0d 38bc
000001f0: eef0 383b 1763 89bc 0f5d 733c 1c15 f8bb
0.013868638 -0.010833706 -0.0040540975 0.019321987 -0.010441466 0.013987969 0.009929276 -0.00669325
-0.0046099466 0.008055723 0.0077482965 0.011861515 -0.020169845 -0.0030412013 0.0016246265 -0.0053854375
-0.008167194 0.00020243824 -0.008054003 0.0036504734 0.0020832133 0.008447348 -0.009815864 0.020431157
-0.0031763916 0.0053409664 -0.0018554239 0.024624815 0.006681687 0.0190061 0.012255138 0.004739931
0.015045689 0.0027512386 0.007669373 0.0062301704 0.011242908 -0.007188257 -0.0067756698 -0.011756736
0.014734695 -0.004151282 0.0024382626 0.0032919124 0.01541299 0.0129561275 0.017562203 0.003041257
-0.0014618455 0.022169696 0.0056601604 0.007324951 0.011225878 0.007536361 -0.011770888 -0.0094043035
0.006906593 -0.021742593 0.02806535 -0.0005690263 0.011705615 0.0033815377 -0.005842161 0.007566743
0.0038566226 0.0002162389 -0.0029611692 -0.0005658613 0.016170776 -0.0025492178 0.010510258 0.017542526
-0.019879192 -0.012486594 -0.0004230797 0.005374483 0.005992466 -0.002018294 -0.0073534446 -0.0008222539
0.012413248 0.009554069 0.004746047 -0.007001684 0.02091156 0.006051185 0.0053135236 0.024640726
0.01671276 0.008396361 -0.006412064 0.017913595 0.016478805 0.0020804016 0.001723221 0.016897554
-0.01188872 0.0062680547 0.006146969 0.011178516 0.0025986854 0.0026309963 0.013814766 -0.005511672
0.01320115 -0.016034177 0.00016935132 0.0021465484 -0.007348397 0.0010072748 -0.028650526 -0.0029015774
-2.0711423e-05 -0.0075509762 0.006194967 0.019136054 0.023742618 -0.008131047 0.0052268454 0.0056329216
0.010034012 0.006513646 -0.012720854 -0.0112336865 0.0028219777 -0.016770883 0.01485373 -0.007570876

network_body._body_endoder.seq_layers.2.weight f4 [128, 128]
00000000: 2dc9 51be d94a 123d b8d6 8e3d c820 55bd
00000010: e6f4 983c b4e0 f5bd c4f6 d2bd 7936 84bd
00000020: f009 39bd 7744 d5bc b925 51be 27a5 3dbc
00000030: a9e0 2fbe 2a69 33bd 3821 693c 1c40 e53d
00000040: 7d8a 13be e8b8 853d 45b7 183e 94c2 e4bd
00000050: 4a6f a8bc b258 e73c 64f8 9dbc 3612 993c
00000060: 37f5 ddbd 1c36 a6bd 29ce fe3c 102a 243d
00000070: 6d36 003e 4e60 03bd ad4c d03d fd88 1bbe
00000080: 0156 80bd ba58 58bd 0153 07ba 72d5 d8bd
00000090: 8c21 71bd aae7 89be 16d3 6b3c 1aea 1cbd
000000a0: 09ec ab3d 2cbf 90bd 839f c23d c62e ee3c
000000b0: a45d 8b3d d200 be3d 60cd 7d3e 5fb3 5e3c
000000c0: 01ca 4c3d e5a0 0c3d ab12 ebbd f2b6 a13d
000000d0: 843e 8a3d 4639 973d 4fb0 0bbe 41a6 fbbd
000000e0: 1dc6 433d 3fad 15bc b862 4cbc 452c 283e
000000f0: 5914 303d 8e9b eb3d ce26 dd3d 2307 443d
00000100: 6628 8f3d 67b1 f73b bd80 abbd b443 f43c
00000110: 234a 29be 895d 5c3c 35f1 0b3d 9e04 113d
00000120: d282 55bd c6f7 763b 6307 9b3d 888c 1c3d
00000130: fc04 4c3e 6652 b23d ae38 0e3d 4201 43bd
00000140: 55b9 853c 0900 e23d a774 2cbc 9ef8 c13d
00000150: 5eb6 bc3d b42d 2ebe 9b65 33bd 8980 323d
00000160: 968e 24bc 7947 0b3e 65e7 4cba 97c0 bbbd
00000170: 3029 32bd 8cf2 ac3d 4fbe 58bd 482c 203d
00000180: ad85 823d 4b1c 753d 891b 5ebd e82e 9c3c
00000190: 793b 3abd 3c0d 5ebd 00e4 98bc b95b 653d
000001a0: 42d6 3f3d 6b4a 8fbd e463 edbd 6c2a be3d
000001b0: 2867 b7bc cfeb b5bd 022c 09bc 0679 8cbc
000001c0: 4aa3 023e 131c 1c3b eb2f 623d a950 1ebe
000001d0: 3d93 a53d 4d97 16bd ee58 28be 3fb6 053d
000001e0: a1ff 7f3d 997d 04be dd89 cbbd 6038 68be
000001f0: 154e f23d bfce ae3d e9ec 053e aeaa 473e
00000200: 6c38 96bc 793c b93c c062 a3bd 6eb7 8ebc
00000210: bd19 173d 8ce5 07be eb7b 0c3d c226 95bd
00000220: 7337 a23d 4c9d 543d ae91 05bd 4236 85bd
00000230: ca46 103d 122d 77bd 230b c2bb a600 6c3d
00000240: 3793 553e b16c c9bc 1dc3 95bd 805c 3fbe
00000250: 3e50 663e 219b 79bc 5961 413d 33c0 803a
00000260: 7a11 6a3b 71b9 993c 43ae 993c e089 b7bd
00000270: 6b38 09be bbf6 5cbd 2b77 363d 35c3 29be
00000280: bc45 2f3d 6cbc f2bd ea1d c83d 7db8 703d
00000290: c599 ef3d 29a0 2dbe 7764 0bbd 9ee6 da3d
000002a0: 6bc0 d63b 37f1 323d d2d7 383d 8e62 de3d
000002b0: 0bcb 073d 1213 843d b05d 99bd becc 9dbd
000002c0: 6fd3 c63d f6db b93c 06ec 1fbd f165 493d
000002d0: a80d a0bd b02d 11bc 018c 66bd 3906 31bd
000002e0: 13fa 40bd e9ef aabd c01e 7c3b dffd bdba
000002f0: b70d aebd 07d4 debd be0c ea3c a45e 10bd
00000300: 270a 75bd 2cf0 dc3d 8487 843d 5d66 d7bd
00000310: 060b 1d3e 8ab7 b53c 5125 793c df2c b93b
00000320: 2d3d babd adac 023e e6d9 0e3d b7f7 893d
00000330: a59e 82bc 78b6 dc3d dbc1 2a3c 160f 3d3e
00000340: 538b 82bd 66f4 4abe 941f a7bd a058 0f3e
00000350: a7fa 433e 5bbc 2b3e 908d 4b3e 0ce6 fabc
00000360: 457d 9a3c b833 c93d 4756 dd3c 15d4 73bd
00000370: 22f0 59bd 6ade 7a3d ac45 72bd 57c0 283d
00000380: f2d7 ad3d f679 38bd 037d e13d e5a9 093e
00000390: 4185 cd3c bbf5 d5bd 7177 5bbc e029 2bbd
000003a0: 08b1 5dbd a903 cc3d 1be6 fd3d 0732 453d
000003b0: f62b 863d dd42 083e e817 54be 9054 5c3d
000003c0: 71c1 163c ccec 02be a1ff f8bc 9ae5 453d
000003d0: a902 783e 3944 a3bd a189 11bd f850 843e
000003e0: ac64 50be 737b c7ba 5883 44be 87b5 ba3d
000003f0: 3e8c cb3d 7c6e fbbd 7412 abbb f952 d73c
-0.20486899 0.03571591 0.06974548 -0.052033216 0.018671464 -0.12005749 -0.10300973 -0.06455702
-0.045175493 -0.026033623 -0.20424546 -0.01157502 -0.17175545 -0.043801464 0.014229111 0.111938685
-0.14408298 0.06529409 0.14913662 -0.11169925 -0.02056088 0.028240535 -0.019283481 0.018685441
-0.10837787 -0.08115789 0.031104164 0.040079176 0.12520762 -0.032074265 0.10170875 -0.15188976
-0.06266404 -0.05281899 -0.000516221 -0.105875865 -0.058869883 -0.26934558 0.0143935885 -0.038309194
0.083946295 -0.07067713 0.09503081 0.029075038 0.0680497 0.092775 0.24785376 0.01359257
0.049997333 0.03433313 -0.1147817 0.07896222 0.06750205 0.07383971 -0.13641475 -0.1228757
0.047796357 -0.009135543 -0.012474708 0.16423137 0.042988155 0.11504279 0.10798417 0.04785837
0.06990127 0.00755899 -0.08374164 0.02981744 -0.16532187 0.013450035 0.03416558 0.035404794
-0.052126713 0.0037684306 0.07569768 0.03821996 0.19923776 0.087071225 0.034722023 -0.04760862
0.016323725 0.11035163 -0.010525859 0.09471248 0.09214471 -0.17009622 -0.04379807 0.043579612
-0.010043761 0.13601483 -0.0007816463 -0.09167593 -0.04349631 0.084447 -0.052915867 0.03910473
0.06373153 0.059841435 -0.05422548 0.019065335 -0.045466874 -0.05421184 -0.018663406 0.055995677
0.04683519 -0.06996616 -0.11591318 0.09285435 -0.022388056 -0.088828675 -0.008372309 -0.017147552
0.12757602 0.0023820444 0.05522148 -0.15460457 0.08084724 -0.036765385 -0.16440174 0.032644507
0.062499646 -0.12938537 -0.09938405 -0.22677755 0.11831299 0.085355274 0.13078655 0.19498703
-0.01833745 0.022611843 -0.079778194 -0.01742145 0.03688978 -0.13271159 0.034297865 -0.07282783
0.07920732 0.051907822 -0.032609634 -0.065044895 0.03522376 -0.060345717 -0.0059217378 0.057617806
0.2085694 -0.02458796 -0.073126055 -0.1868763 0.22491547 -0.0152347395 0.04721198 0.0009822905
0.0035715983 0.018765183 0.018759852 -0.089618444 -0.13400428 -0.053946238 0.04454724 -0.16578372
0.042791113 -0.11852345 0.09771331 0.05876969 0.11699251 -0.16955628 -0.034031358 0.10688518
0.0065536997 0.04368707 0.045127697 0.108586416 0.03315262 0.0644895 -0.074885726 -0.07705067
0.097082965 0.022687893 -0.03904345 0.049169485 -0.07815105 -0.00886099 -0.056285862 -0.043218825
-0.04711349 -0.083465405 0.0038470477 -0.0014495215 -0.0849871 -0.10880285 0.02857053 -0.035246506
-0.059824135 0.10787997 0.0647116 -0.10517571 0.15336236 0.022182245 0.015206651 0.005651101
-0.090936996 0.12761183 0.034875773 0.06736701 -0.015944788 0.10776991 0.010422195 0.18462786
-0.0637423 -0.19819793 -0.0816032 0.13998652 0.19138585 0.1677107 0.1987822 -0.030627273
0.018858561 0.09824318 0.02701868 -0.05952843 -0.053207524 0.061247267 -0.059148476 0.041199055
0.08488454 -0.045038186 0.11010172 0.13443716 0.025087954 -0.1044726 -0.013395176 -0.041787982
-0.05412391 0.099616356 0.12397405 0.048143413 0.06551354 0.13306756 -0.20712245 0.053791583
0.009201393 -0.12785643 -0.03039533 0.04831467 0.24219765 -0.07971997 -0.035531644 0.25843024
-0.20350903 -0.0015219286 -0.19190729 0.09116655 0.099388584 -0.122769326 -0.0052207056 0.026284682

network_body._body_endoder.seq_layers.2.bias f4 [128]
00000000: 06af 243b 806e 153c 9f41 9abc 2a8b 4bbc
00000010: 7466 f7bb bd97 aa3b 0c0b 2bba d260 803c
00000020: 5cbb 773b 4e98 fcba 5acb 053c bc4e 96bb
00000030: 6c77 653c 9ef2 ffbb 1267 00bc 3f2e 6a3c
00000040: f644 8d3c 2e92 a5bb 50e2 be3c 5acb d3bb
00000050: 97f5 093c 8473 a039 f3eb 13bb 2818 593c
00000060: 2a67 383c c3f4 80bc 4aef d43b 7b55 00bd
00000070: 6775 a03c 3975 aeba e1ba 823c bf7a ad3b
00000080: 323a ef3b ce4a 9239 c9f9 c9bb 6279 3a3b
00000090: b15d b6bc f542 143c 99c6 6aba 047a 0dbc
000000a0: 03a2 bdba 6e4c 933a 6cc6 8c3b 1e95 17bb
000000b0: 31d8 1dbc 7429 883c 3df1 91bb 6bbc df3b
000000c0: 806e f338 7ccb 28bb 33fc 8fbc 45d3 c2bb
000000d0: e5bf 3c3c af80 97b8 00ba b93b 5618 4abc
000000e0: 4e1a f3bb acf9 f6bb 7362 dabb e64f 44bc
000000f0: 9fe7 b33b 897d 783b 7413 bbbc b1b7 07ba
00000100: 9344 9c3a 1dfb cbbb 84d5 ecbb e340 44bc
00000110: fbf3 293c 70ce 92bc 531b c63b 7be2 bf3b
00000120: 7953 2a3b abbf fb3b a316 0dbb 83f4 bebb
00000130: 835b 2d3c b66f 643c 88cf e63b 96c8 093b
00000140: c5b2 0c3c 1417 69b9 3594 4d3c ab35 f03b
00000150: b6be 633b 7e26 e8bb 2b2f cf3c d4c1 833c
00000160: 5f3d 543a e8c0 153c f011 39bc 74dd 2ebb
00000170: 39d1 2b3b 5046 433c 00e5 2abc 2c2e 22bb
00000180: 55ea a1bb 6d2e ad39 c2c1 5d3c 5125 15bc
00000190: ed07 523c d785 fb3b 6239 a439 17d7 ff3b
000001a0: 8375 09bc 1e3b e7ba 4aa2 443c af5d 973c
000001b0: 6838 2e3c 3b60 0b3b e006 323c af1c b83b
000001c0: 2f19 8c3a d187 983c 9ad1 24bc bca5 0aba
000001d0: 0938 e9bb 9de5 40bb 4c9a fcbb 83d6 883b
000001e0: 59e4 8ebb 467d f1bb 39bc d5ba c0ce 34bc
000001f0: c465 3ebc 549a 383b 71f7 bf3b 270c dabb
0.0025128736 0.0091205835 -0.018830119 -0.012423316 -0.007550055 0.005206077 -0.00065247784 0.015671168
0.0037800884 -0.0019271465 0.008166159 -0.0045870226 0.014005523 -0.0078109046 -0.007837074 0.0142932525
0.017244797 -0.0050528264 0.023301274 -0.0064634504 0.00842037 0.00030603644 -0.0022571057 0.013250388
0.011255065 -0.015741711 0.006498252 -0.03133152 0.019587232 -0.0013310082 0.015958251 0.0052941735
0.0073006386 0.00027903024 -0.00616381 0.0028453697 -0.022261472 0.009049167 -0.0008955985 -0.008635048
-0.0014467839 0.0011237988 0.0042961147 -0.0023129652 -0.009634064 0.016621329 -0.0044538067 0.006827881
0.00011607725 -0.0025756052 -0.017576313 -0.0059455954 0.011520361 -7.22421e-05 0.005667925 -0.012334904
-0.0074189072 -0.0075370874 -0.006664568 -0.01198194 0.005490258 0.0037916622 -0.022836424 -0.00051772135
0.0011922292 -0.0062250034 -0.0072276015 -0.011978361 0.010373111 -0.017920703 0.006045738 0.005855856
0.0025989695 0.0076827607 -0.0021528385 -0.005827488 0.0105809 0.01394265 0.0070437826 0.00210241
0.008587544 -0.00022229209 0.012547542 0.0073306165 0.0034751124 -0.0070846668 0.025291046 0.016083635
0.0008096303 0.009140231 -0.011295781 -0.002668229 0.0026217236 0.011918619 -0.010430574 -0.002474676
-0.0049412646 0.0003303172 0.013534965 -0.009103135 0.0128192725 0.007675867 0.0003132327 0.007807623
-0.008389833 -0.001764152 0.012001583 0.018477289 0.0106335655 0.0021267075 0.010865897 0.0056186537
0.0010688658 0.01861945 -0.0100597385 -0.00052889786 -0.0071172756 -0.0029433735 -0.0077088233 0.0041759624
-0.0043607173 -0.00736967 -0.0016306705 -0.011035621 -0.0116209425 0.0028168159 0.0058583547 -0.0066542807
