Assets/result/ppo/My Behavior/My Behavior-999969.onnx (onnx, 578818 bytes, 21 tensors)

network_body.observation_encoder.processors.0.self_ent_encoder.seq_layers.0.bias f4 [128]
000000 6e 37 60 bc 47 96 c1 bb e0 6f 91 3c f8 8c 68 bc
       -0.0136850905 -0.005907807 0.017753541 -0.014193766
000010 07 ca 1f 3c e1 a7 97 bc a0 f0 44 3c 31 d0 b9 bc
       0.009752757 -0.018512668 0.01202026 -0.022682281
000020 df e2 09 3b 24 d9 83 bb 03 3a c5 3b 02 15 a0 bb
       0.0021039767 -0.004023688 0.0060188784 -0.004885317
000030 1e 21 f7 bb c0 44 ac 3c 17 61 eb bb e9 ad 07 bc
       -0.0075417897 0.021028876 -0.007183205 -0.0082812095
000040 0d 9c 69 3a 74 39 46 bc 7c 99 11 bc 88 6d 95 3b
       0.0008911498 -0.012098659 -0.008886691 0.0045601763
000050 e8 8e ef 3b 0b 8d 3e bb 18 22 9b 3b e1 a3 86 bc
       0.007310737 -0.0029075767 0.004734289 -0.016435565
000060 54 cc ed 3b f0 69 ce bb 7c f5 a3 3c 25 eb f5 ba
       0.007257024 -0.00629925 0.020014517 -0.0018762095
000070 b0 09 60 bc 38 df 00 3b 62 38 a3 bc 61 c7 81 bc
       -0.013674185 0.0019664299 -0.019924346 -0.015842142
000080 bc c8 84 bb 36 60 ad b9 cd c0 da 3b 77 5d 81 bc
       -0.0040522497 -0.00033068814 0.0066758157 -0.015791638
000090 db 44 6f bc 61 f4 d3 3b eb 94 a1 3b e8 75 98 bb
       -0.014603819 0.006468341 0.0049310825 -0.0046527274
0000a0 1c a6 6f 38 e0 50 fc 3b 8c bd 2d 3c 68 cd 59 ba
       5.713674e-05 0.0077000707 0.0106042735 -0.0008308501
0000b0 86 bc 92 bc 8d 4c a6 3a 78 f6 b3 bb 2e 61 64 3c
       -0.01791216 0.0012687609 -0.005492028 0.013939185
0000c0 05 20 9d bb 35 6d 08 bc 2b 7d 2a 3c 58 1e d5 bb
       -0.004795077 -0.008326818 0.010405819 -0.0065038614
0000d0 22 ed ac bc fa a5 55 3c 99 03 c7 3a b3 c7 04 bb
       -0.021109167 0.01304006 0.0015183567 -0.0020260632
0000e0 bc 74 c9 3b e0 a6 d3 bc b5 28 df bb 5b a0 52 bc
       0.006147949 -0.025836408 -0.0068102726 -0.012855615
0000f0 d5 67 ad 3c 18 8a 76 3c 0a 85 1c 3c da 67 0c 3c
       0.021167675 0.015047573 0.009553203 0.008569682
000100 b5 a7 21 bc a3 f2 0b bc 59 19 31 3c 59 12 fb ba
       -0.009866645 -0.008541736 0.010809266 -0.0019155248
000110 02 41 eb 3a 55 4a 3d 3c 77 68 26 3c f4 91 26 bc
       0.0017948451 0.011553367 0.010156742 -0.010166634
000120 50 13 ab bc b3 05 94 3c 2c ef b7 3b 76 27 12 3c
       -0.020883232 0.018069124 0.0056132283 0.008920541
000130 ad de 22 3a 30 fe 4d 3a c2 71 e4 bb c2 e3 de bc
       0.0006212991 0.0007858006 -0.006971569 -0.027208213
000140 3e 12 d9 3b 1a a4 a5 bc 36 bf 33 bb 91 73 28 3c
       0.006624489 -0.020219851 -0.0027427203 0.010281459
000150 c2 5b 42 bc bf 8d bd bb 08 a6 a5 3c 7d 0e b3 3b
       -0.011862697 -0.0057847197 0.020220771 0.0054643736
000160 55 73 25 3b 4a c1 f2 3b 12 86 39 bb 06 df 11 3c
       0.0025245745 0.0074082958 -0.0028308672 0.008903271
000170 7b 3e 18 3a 65 1a b7 bb d0 fb 44 3c 56 8c 9b bb
       0.000580765 -0.0055878633 0.012022927 -0.004746954
000180 bb f2 52 3b 17 6d 03 3c d1 62 e7 bb 34 f1 43 3b
       0.0032188136 0.0080216145 -0.0070613404 0.0029898407
000190 05 c5 b6 3c 9a 4b 6d 3b 5f 80 5a 3c c0 9d 81 3a
       0.022310743 0.0036208392 0.01333627 0.0009888932
0001a0 ff 70 46 bc 8c 5d b5 3b 9e cc 9d 3b ed a6 8e bc
       -0.012111901 0.0055348333 0.004815652 -0.01741358
0001b0 96 85 45 bb 2c 41 82 bc 20 15 6c bb b5 49 ef 3b
       -0.0030139438 -0.015900217 -0.0036023334 0.0073024877
0001c0 af 9e 70 bb 11 ef 70 bc cc 8b cc 3c 1c de e9 bb
       -0.0036715677 -0.014705435 0.024969004 -0.007137073
0001d0 b4 5e 84 bb 04 27 be 3b c4 77 94 bc 46 d6 3d 3b
       -0.00403961 0.005802991 -0.018123515 0.0028966828
0001e0 08 d5 97 bc 1e 0c a0 3a a8 af da bb 65 90 15 bc
       -0.018534198 0.0012210642 -0.006673772 -0.009128665
0001f0 c9 78 b8 3c fa b4 e0 bb a6 50 b6 3b 54 09 75 3c
       0.022518532 -0.0068575116 0.0055638133 0.014955837

network_body.observation_encoder.processors.1.self_ent_encoder.seq_layers.0.bias f4 [128]
000000 2c 38 eb 3b 4b 2f 01 3c 7a 67 54 bc 12 cd 2a bc
       0.007178327 0.007884811 -0.012964124 -0.010424869
000010 b5 fa d3 bb 20 e0 82 3c 59 e1 4d bc 71 84 19 3a
       -0.0064690956 0.015976012 -0.012565934 0.0005856222
000020 19 fa 67 ba 72 3b 0b bc c6 ba c2 3a 71 d6 ab bb
       -0.0008849218 -0.00849806 0.0014856688 -0.0052440693
000030 6d ff fc 3a cb d3 9a bc bf 3e 52 bc 05 e6 6c 3b
       0.0019302197 -0.018899819 -0.012832343 0.0036147845
000040 53 22 c8 3b 57 45 15 bc 12 74 b4 bb 04 a9 8b bc
       0.0061076074 -0.00911077 -0.0055070007 -0.017048366
000050 4a 70 81 3c 8c 73 e5 3a 84 36 8a bb 04 ef 02 bc
       0.015800614 0.0017505749 -0.0042179246 -0.007991556
000060 0d 5c 6a bc 82 02 a8 bb ed ce c0 3b 8a cc 0b bc
       -0.014304173 -0.005127252 0.0058840425 -0.008532653
000070 24 b9 04 3c 38 75 e4 bb 9b 93 93 3c 57 d9 43 3c
       0.008100782 -0.0069719814 0.01801472 0.011953673
000080 3c d0 6b bb a0 fe d2 bb 7c d1 10 3b ff 20 cc 3b
       -0.0035982272 -0.006439045 0.0022097519 0.0062295194
000090 dc dc 28 bc b4 cd 0b bc 09 ef 41 ba 8d 14 f4 3b
       -0.010306563 -0.00853293 -0.0007397985 0.007448739
0000a0 27 e3 32 bc 5e 64 a1 3b 03 de 05 3b 25 d5 08 bc
       -0.010918415 0.004925295 0.0020426519 -0.008351599
0000b0 78 e3 eb 3a 6d 33 87 3c b3 97 12 bc 2c 0b 0d bb
       0.0017996868 0.016504014 -0.008947301 -0.0021521552
0000c0 b6 de f1 3b ac 83 74 3b 4f d4 61 bc 21 b4 37 3c
       0.0073812855 0.0037309928 -0.0137835285 0.01121238
0000d0 01 e5 af 3b 07 49 f0 bb 7c 02 3d 3b e2 18 2b bc
       0.0053678756 -0.0073329243 0.0028840592 -0.010442944
0000e0 ae 4e 49 3c 0d ae 4c 3c fe e9 07 bb ef 89 9a bb
       0.012286825 0.012492669 -0.0020738835 -0.00471615
0000f0 eb 0b 05 bc 24 04 20 bc d1 f3 91 3c af fb c7 3a
       -0.008120517 -0.009766612 0.017816456 0.0015257503
000100 77 37 43 3c 6a 84 a6 3b e8 72 42 bb 0b 2a 12 bb
       0.011915079 0.005081703 -0.002967054 -0.0022302892
000110 d2 8f 54 3b da c0 09 3c fd 5f b1 bb 5b 32 f0 3a
       0.0032434356 0.008407796 -0.005413054 0.0018325554
000120 47 0c f1 3b 94 7b 01 3c 74 13 1f bc 07 db 48 bc
       0.0073562 0.0079029985 -0.009709228 -0.012259251
000130 46 26 34 3c 06 26 6c 3b f9 fb ee bb 5c fe 28 3c
       0.010995453 0.0036033406 -0.007293221 0.01031455
000140 41 86 ca bb a2 10 4e bc fe de d6 bb c0 6e f4 3b
       -0.006180555 -0.012577208 -0.0065573445 0.0074594915
000150 4d 65 a5 bb 00 cc af 3c ea a1 54 bb 29 69 0a 3a
       -0.0050474764 0.02145958 -0.003244514 0.00052799523
000160 c8 a2 57 3b f7 de 64 bc 0d ec eb bb cb be 56 bc
       0.0032903422 -0.013969175 -0.0071997703 -0.013107012
000170 c8 29 ac bc c8 28 5b 3b 30 43 85 3c 4a 0f 0e bc
       -0.021016017 0.0033441056 0.016267389 -0.008670637
000180 f1 c6 92 3c 3e 15 c8 b9 79 f7 84 3b 3e 31 4c 3b
       0.017917128 -0.000381628 0.0040578214 0.003115728
000190 0c 27 34 bc 4a 79 bf bb 8f fc 47 ba fd df ef 3b
       -0.010995638 -0.005843316 -0.0007628882 0.0073204027
0001a0 07 db e4 3b d1 84 e4 bb 61 76 9b 3a 62 e3 43 3c
       0.006984118 -0.0069738408 0.0011860841 0.011956068
0001b0 13 ab 18 b8 ec 09 9a bc 07 1d a1 bb 8d 2a bd 3c
       -3.639895e-05 -0.01880356 -0.0049167904 0.023091579
0001c0 b8 2e e3 3b c1 36 24 3c 00 44 11 bc 1e bd f1 3a
       0.0069330595 0.01002282 -0.00886631 0.0018443202
0001d0 18 e7 1a bb 75 48 06 bc ec 99 20 39 c8 4c 99 3b
       -0.0023636278 -0.008195986 0.0001531613 0.0046783425
0001e0 c9 b4 a0 3b c3 67 ed ba 3a 8c 91 3b ae bf 43 ba
       0.004904364 -0.0018112588 0.004441765 -0.0007467222
0001f0 c1 d9 d9 bb ca ba 68 3b 25 46 1c 3b ea 32 bd 3b
       -0.0066482727 0.0035511726 0.002384552 0.0057738917

network_body.observation_encoder.rsa.fc_q.bias f4 [128]
000000 e3 63 1f 3c 0e 78 d6 3c 7c 5a e2 bc 27 45 49 3b
       0.009728405 0.026180293 -0.027631037 0.0030711384
000010 6b 2e 39 bc 84 93 46 bc fd 98 c1 b9 9d af 0c bd
       -0.011302571 -0.012120131 -0.00036925814 -0.034347165
000020 df f9 e8 bc 05 3f 99 3a e9 f6 5c bb 20 94 91 3c
       -0.02843946 0.0011691755 -0.0033716506 0.017770827
000030 21 16 05 3c 67 d0 40 3c 44 13 f4 3b 66 49 c3 bb
       0.008122952 0.011768437 0.0074485857 -0.0059596775
000040 d0 77 53 3c 23 36 e6 3c 1a a5 4d bc 7e c1 7b b9
       0.0129069835 0.028101986 -0.01255157 -0.00024009307
000050 92 e4 c1 3c 59 9f 7e 3c 02 84 22 bc 22 42 74 bc
       0.023668561 0.015540921 -0.009919168 -0.014908345
000060 e3 0a 3d 39 a1 b6 81 3c d8 1f d0 3c ab 0e 06 3d
       0.000180285 0.015834155 0.02540581 0.032728832
000070 be 9e de bc 04 e6 8b bc 21 3a 93 3c d9 b8 8e 3c
       -0.027175304 -0.017077453 0.017972054 0.017422127
000080 e3 13 86 3b ad fb 20 3c 83 8d ba bc 97 0b 13 3c
       0.004091726 0.009825629 -0.022772556 0.008974931
000090 56 d1 fe bc 1b 4b 8f 3c 00 d1 49 3d dd d4 f4 bc
       -0.031105679 0.017491868 0.049271584 -0.029886657
0000a0 b7 fe 3f bc aa 64 9f bc aa 15 f5 3b a9 37 99 ba
       -0.011718444 -0.01945718 0.007479389 -0.0011689562
0000b0 09 a6 ee bc 05 a2 25 bc 0d e1 dd bb 96 3b 0c bb
       -0.029131906 -0.010109429 -0.006771213 -0.002139782
0000c0 8e 62 ff bb 95 42 2b 3c 10 96 ca 3c 46 95 d5 3c
       -0.007793731 0.010452886 0.024729759 0.026072156
0000d0 38 f1 58 bc e6 a9 ce bc 1a 4d c1 3c 65 3d c6 3c
       -0.013241105 -0.025227498 0.023596335 0.024199197
0000e0 3d 03 a9 3c de 3f a0 bc 38 14 f4 bc 22 b1 f1 3c
       0.020631427 -0.019561704 -0.029794797 0.029503409
0000f0 9a d6 01 3d 49 16 89 bc 7d 24 3a bc 77 cf 15 3c
       0.0316988 -0.01673426 -0.011361239 0.009143702
000100 3e 98 5c bc a3 51 d6 ba c9 68 0f 3c 38 14 fa b9
       -0.013464032 -0.0016351234 0.00875301 -0.0004769878
000110 9b 82 30 bc c8 09 6a bb 71 59 15 3b 26 07 a8 bb
       -0.010773326 -0.0035711396 0.0022788907 -0.0051278053
000120 e0 81 39 3c b0 a3 54 3c bb 95 56 3c c9 77 fc ba
       0.0113224685 0.012978479 0.013097222 -0.0019261773
000130 b0 a6 38 bc 29 7c ba 38 25 d2 44 bc bc dd 8a bb
       -0.01127021 8.892298e-05 -0.012012993 -0.0042378586
000140 a5 15 e8 3a 2b 8f 35 bc 1b 51 71 3c bb 41 82 3a
       0.0017706646 -0.011081497 0.01472881 0.0009937802
000150 ca 13 1b bb da 5d 55 3c 11 5f 1c 38 60 d0 34 3c
       -0.0023662918 0.013022864 3.7281836e-05 0.011036009
000160 8d 21 01 3c 75 1e 2e 3c 4f c8 10 bc 8c a0 74 bb
       0.007881534 0.010627379 -0.00883682 -0.0037327139
000170 43 f3 8f bc 9b 9a ec bb b3 39 c1 3b 4c 03 0f bc
       -0.01757205 -0.007220579 0.005896771 -0.008728813
000180 ba fc ff 3a b1 ce 03 bc 6e de 30 3c 59 16 1d 3b
       0.0019530274 -0.008044885 0.010795219 0.002396962
000190 0e aa 46 3b 83 5a 66 bc d5 a9 17 3c 25 c5 75 bc
       0.0030313763 -0.014059666 0.0092568 -0.015000616
0001a0 74 a9 1b 3c e9 11 2d bc 95 02 e2 bb 1d 28 09 bc
       0.00950085 -0.010563352 -0.0068972805 -0.00837138
0001b0 1e fe 8d bb ad 5a 9d 3a 22 e4 2c bb 3d 8d 9d bc
       -0.0043332716 0.0012005173 -0.0026381095 -0.019232387
0001c0 c2 36 88 ba bb 95 86 bb f1 59 d5 3a 59 d4 c5 bb
       -0.0010392296 -0.0041072047 0.0016277415 -0.0060372767
0001d0 3c 82 89 3c 38 06 7f bc 6f 1e eb bb 85 76 d7 3b
       0.016785733 -0.0155654475 -0.007175259 0.006575408
0001e0 3c 9b a1 39 40 75 40 3b 16 5c 0b 3c 2a 3c 62 b9
       0.00030823972 0.0029366761 0.008505842 -0.00021575452
0001f0 e0 02 5d b9 d2 0e 05 3a fa a0 21 bc 63 9a 3a bc
       -0.00021077273 0.0005075756 -0.00986504 -0.011389348

network_body.observation_encoder.rsa.fc_k.bias f4 [128]
000000 88 1b 02 b5 ad 47 6c b4 b4 95 14 b4 50 d7 a6 34
       -4.8468837e-07 -2.2005288e-07 -1.3838036e-07 3.107657e-07
000010 5a 0c 8d 34 71 cc d8 34 fa 5f 9a 34 39 66 21 b5
       2.6272284e-07 4.0381886e-07 2.8754567e-07 -6.012593e-07
000020 8f 63 db b1 0f 8f c9 b4 df 6a 65 34 dc ce f9 31
       -6.3850574e-09 -3.7543256e-07 2.1366166e-07 7.270371e-09
000030 dc 1a 7c 34 99 8f 26 b3 34 4a 1a b3 82 d3 91 34
       2.34791e-07 -3.8780488e-08 -3.5923406e-08 2.7162247e-07
000040 e6 d9 db b0 72 a5 d0 34 fa d3 71 34 97 e0 cb b4
       -1.5996278e-09 3.8863396e-07 2.252199e-07 -3.7975107e-07
000050 c3 9d c7 33 4a 32 b0 b4 5d fb 5d b4 9b 52 2f 32
       9.295356e-08 -3.2819145e-07 -2.0673674e-07 1.0205123e-08
000060 e1 9b 2f b4 22 33 6a b4 40 8c 8e b3 8f ed e0 b4
       -1.6354853e-07 -2.181155e-07 -6.6379016e-08 -4.1896098e-07
000070 7c 87 4f b4 20 41 49 b5 0d 0a 73 34 dc ca 8e b4
       -1.9327666e-07 -7.4973104e-07 2.2634795e-07 -2.659716e-07
000080 38 6f 33 35 54 2a 30 34 cf bd 5e b4 80 f0 cc 34
       6.684454e-07 1.6406676e-07 -2.0744413e-07 3.8172948e-07
000090 e9 5d 08 35 e8 02 e5 34 ff f6 62 34 5c 1d 4f 34
       5.0800605e-07 4.2656688e-07 2.1137747e-07 1.9289058e-07
0000a0 73 cd 0b b4 5f 25 b7 34 dc d7 2a b5 44 04 38 35
       -1.3020126e-07 3.4113597e-07 -6.364405e-07 6.855155e-07
0000b0 23 6b 07 35 8d 50 cc 34 8b 4f 20 35 bf 19 b3 33
       5.0447323e-07 3.805657e-07 5.9720395e-07 8.34002e-08
0000c0 44 90 c4 34 bf 5b 22 32 20 28 f9 34 c9 a6 f2 2f
       3.6612812e-07 9.450502e-09 4.640906e-07 4.4138052e-10
0000d0 d2 0f 84 b4 b6 14 b7 34 c8 9a df b4 ca d9 bc b4
       -2.4598427e-07 3.4101475e-07 -4.1649605e-07 -3.517619e-07
0000e0 54 b2 b3 34 0d ae 17 b4 c5 0b 44 b4 02 71 6a b4
       3.34711e-07 -1.412629e-07 -1.8258204e-07 -2.183406e-07
0000f0 65 59 4b 34 bd c4 9b b4 c2 38 2a b4 24 90 5f b5
       1.893837e-07 -2.9014146e-07 -1.5853132e-07 -8.3283726e-07
000100 0c bf 6d b4 9a f4 95 33 0d 89 08 35 69 f8 18 35
       -2.2141847e-07 6.982846e-08 5.0863383e-07 5.6985897e-07
000110 32 6e 15 b5 6f cb 65 34 72 3b a7 34 b1 07 86 b5
       -5.566718e-07 2.1401296e-07 3.1149426e-07 -9.986016e-07
000120 8f 65 71 b4 34 30 0f 35 f6 99 ad 35 f5 81 29 b5
       -2.2481821e-07 5.3341796e-07 1.2934313e-06 -6.314652e-07
000130 63 0e 05 b5 ae 2d 90 b4 68 bc 9d b4 90 26 78 b4
       -4.9567296e-07 -2.6855326e-07 -2.9380612e-07 -2.3110829e-07
000140 ea 28 1e 35 07 45 2a 34 98 cf 47 35 ad 13 26 35
       5.8919125e-07 1.5857596e-07 7.4435366e-07 6.186845e-07
000150 e0 ae 8e 34 81 f7 49 34 cc 6c 2e 35 af 36 4b 34
       2.65768e-07 1.8809625e-07 6.497837e-07 1.8925742e-07
000160 ba 7f eb 34 36 38 47 35 c1 46 26 b4 18 e6 c3 33
       4.3865094e-07 7.4215075e-07 -1.5485695e-07 9.122249e-08
000170 09 fa 57 b5 9b 1b 90 34 ad d6 f9 b3 f6 e3 0d b5
       -8.045759e-07 2.6842176e-07 -1.1634015e-07 -5.285832e-07
000180 60 60 1e b5 d5 70 31 b5 5f c4 45 34 64 de c7 b3
       -5.899983e-07 -6.610183e-07 1.8418494e-07 -9.307112e-08
000190 af 5b ca 34 96 7e 49 35 7d bc 88 b1 22 ae 16 b5
       3.769214e-07 7.506254e-07 -3.9795496e-09 -5.613275e-07
0001a0 31 9b 20 b3 c2 67 ee b4 65 09 19 35 5b ef 25 34
       -3.739405e-08 -4.4406448e-07 5.701061e-07 1.54539e-07
0001b0 2d d2 3a 34 08 c7 fe 34 26 51 76 b3 46 56 2a 33
       1.7399061e-07 4.7456e-07 -5.7350142e-08 3.9659675e-08
0001c0 e0 53 92 34 68 89 e9 34 4d 34 11 34 9e ec f7 b4
       2.7255646e-07 4.3499608e-07 1.3523204e-07 -4.6179497e-07
0001d0 d1 ba 00 b5 7d c0 30 b5 65 bf cf b4 30 69 06 34
       -4.795557e-07 -6.5845217e-07 -3.8696012e-07 1.251799e-07
0001e0 86 7b 40 35 27 11 a3 34 a8 b3 c5 b4 f7 cf ba 34
       7.1705324e-07 3.0373596e-07 -3.6824827e-07 3.4796514e-07
0001f0 2a b5 0c 35 86 71 71 b5 1f 43 c8 b4 6c 6c 36 34
       5.241769e-07 -8.9944695e-07 -3.730174e-07 1.6989515e-07

network_body.observation_encoder.rsa.fc_v.bias f4 [128]
000000 64 c6 3c bc 97 db 9d 3b 10 e5 dd 3a f5 93 90 3b
       -0.011521909 0.004817437 0.0016929228 0.004412169
000010 7a ac f6 bb 75 63 7b 3a a6 d6 b5 bb 58 a2 6c 3c
       -0.007527885 0.00095897104 -0.0055492697 0.014443003
000020 cc 5a 12 bc 64 77 10 3b 92 2d 18 bb 69 95 eb 3b
       -0.0089327805 0.0022043819 -0.0023220521 0.007189442
000030 df 6d 44 bb 6e d2 a7 bb b6 69 2a bb d4 95 c2 bb
       -0.0029972715 -0.0051215207 -0.002600295 -0.005938271
000040 74 4a d4 3a 79 a0 eb ba 6d db ad 3b 6c 06 ac 3a
       0.0016196505 -0.0017976902 0.0053056986 0.0013124472
000050 6a fa 9a ba 38 1f 8a 3b 23 b6 c6 ba ff 5f 6e bb
       -0.0011823897 0.0042151473 -0.0015160482 -0.0036373136
000060 8c 5e 1b 3c bf 5a 60 bb 2c ec ad bb 23 bd 47 3c
       0.009482991 -0.0034233776 -0.005307695 0.01219109
000070 34 8f 49 3c 2d 87 83 3b c7 a0 2d 3b ad 1e a4 3a
       0.012302209 0.004013917 0.0026493536 0.0012521349
000080 46 01 99 3a 85 d1 13 bc c3 c3 3c 3c c8 bd ec bb
       0.0011673353 -0.009022121 0.011521283 -0.007224772
000090 88 12 9c 3b 97 2d 2f 3b e5 c9 a8 3b db cf 70 bc
       0.0047629513 0.0026730055 0.005151021 -0.014697994
0000a0 14 aa 9c 3a fb e8 b3 3b 9b ad 06 3c 02 c1 d2 bb
       0.0011952543 0.00549042 0.008220102 -0.0064316997
0000b0 18 1c 39 bc 55 d9 8e 3a a0 63 03 3b b7 9b 90 3b
       -0.011298202 0.001089851 0.0020048395 0.004413094
0000c0 ee 72 a6 bb ed e8 1b 3c 4b b3 2c bc ce d6 b1 bb
       -0.0050796187 0.009515983 -0.010540794 -0.005427218
0000d0 fc e4 99 3b c7 3d 0d 3b cc 0c 87 3b 17 c8 85 bb
       0.0046964865 0.0021551715 0.0041213986 -0.0040826905
0000e0 a1 94 70 bb e3 2a a7 bb 54 75 c7 3b a6 05 61 3c
       -0.0036709683 -0.005101548 0.0060869846 0.013734257
0000f0 6c 78 8b 3b 9a c4 f6 3b 18 28 c2 3a e2 9f 95 3b
       0.0042562988 0.007530761 0.0014812974 0.0045661787
000100 ac e0 18 bc b3 f3 4f bc 6b 13 f0 bb 62 a3 68 ba
       -0.00933091 -0.01269238 -0.0073265336 -0.00088744436
000110 c2 d5 f5 ba ea 28 e5 ba d9 d3 9d bb f6 0d 2c bb
       -0.0018755721 -0.0017483507 -0.004816514 -0.0026253439
000120 ec e0 c2 bb d1 ee d5 3b bc fc d2 ba 3b 8e bc bb
       -0.005947223 0.0065287133 -0.0016097049 -0.00575426
000130 b0 40 02 3a da 51 97 3b 0e e0 f6 bb c9 9f a4 bb
       0.00049687456 0.0046179118 -0.0075340336 -0.0050239307
000140 eb e9 44 bb 01 70 dc bb a4 c8 e9 3a 68 87 c6 bb
       -0.0030046653 -0.006727219 0.0017836285 -0.006058622
000150 7f 77 d9 bb f2 7d 0f bc f6 79 80 3b 2d 19 1d bc
       -0.0066365595 -0.008758055 0.003920789 -0.009588522
000160 3d 52 c0 bb b2 c6 6e 3b 39 ef 8a bb e3 f9 1b 3b
       -0.0058691786 0.003643435 -0.0042399433 0.0023800067
000170 e5 f3 21 bc c5 b0 b1 ba 8f bb 20 bc 07 d5 64 3b
       -0.009884809 -0.001355671 -0.009810342 0.0034917013
000180 98 d0 98 bb 49 9b 2e bb 09 a7 4b ba d6 e0 92 3b
       -0.004663538 -0.002664285 -0.00077687256 0.004482369
000190 02 38 31 3c 6a 5b 68 bc 0e c5 12 ba 0d 2f d0 3b
       0.010816576 -0.014181951 -0.00055988214 0.006353265
0001a0 d6 03 11 3c c4 6e d7 3b ba fc ef 3a b6 79 a0 3a
       0.008851012 0.0065744836 0.0018309571 0.0012243304
0001b0 ea a6 dc bb 87 57 2f 3c cf 92 9b 3b 9c 53 76 3c
       -0.006733765 0.0107020205 0.0047477256 0.0150345825
0001c0 47 21 8c 3c a4 79 27 3b d1 c6 f2 3b 39 83 87 bc
       0.017105712 0.0025554681 0.0074089547 -0.016542064
0001d0 d1 e5 96 3b a1 7f df bb ac ab eb bb 14 9d 2f bc
       0.004605033 -0.0068206345 -0.0071920957 -0.010718603
0001e0 d3 d8 c2 3b 82 6c 7a 3a 97 17 99 bb f5 b1 17 3b
       0.0059462576 0.0009552912 -0.0046720016 0.0023146842
0001f0 a5 e4 a7 bb bb 7a 84 3b 58 92 b6 ba 39 3d 2b 3c
       -0.005123692 0.004042951 -0.0013929112 0.010451608

network_body.observation_encoder.rsa.fc_out.bias f4 [128]
000000 e0 59 2b 3a cf 25 50 3c e5 b6 08 3b e7 6c e3 3b
       0.0006536525 0.012704327 0.0020860967 0.0069404724
000010 a4 5b b7 3b 9a 18 c3 3b 7f 1c de bb 65 2e 03 ba
       0.005595641 0.0059538605 -0.0067782993 -0.0005004167
000020 1f 26 0a bc 15 f7 08 bc f1 f3 fb 3b 55 0d 25 bc
       -0.00843194 -0.00835969 0.007688992 -0.010073979
000030 a8 30 d6 36 98 02 6d bb 41 e6 cd bb ca 49 ba 3b
       6.3833613e-06 -0.0036164876 -0.006283552 0.005685066
000040 c8 87 03 3c fd 3c 07 3b 10 e4 c9 bb 64 aa 0e 3b
       0.008027978 0.0020635717 -0.0061612204 0.0021769041
000050 6c b3 1b bc d0 9c dd 3b 38 41 7c 3a e2 8f a3 3c
       -0.009503227 0.0067630783 0.00096227555 0.01996607
000060 d6 3f 85 bc fa d4 a7 3b 04 a4 c5 bb 10 09 c0 bb
       -0.01626579 0.0051218243 -0.006031515 -0.0058604553
000070 6e d4 57 3c 74 ef 29 bc a6 71 37 3b 9c 4a 2d 3b
       0.013173206 -0.0103720315 0.0027991324 0.0026442176
000080 44 03 4b bb 64 b7 05 bc a3 82 10 3c cf 37 dd 3b
       -0.0030977288 -0.0081613995 0.008820209 0.0067510377
000090 80 57 c6 3b 7d 1c e8 bb bb fe da bb d3 bf ce bb
       0.0060529113 -0.007083474 -0.0066831983 -0.0063094883
0000a0 59 ba 82 bb 3e e4 28 bc 6b 6a b1 3b 11 a9 08 bc
       -0.0039894995 -0.010308323 0.0054142973 -0.00834109
0000b0 01 cb 26 3c 5b 6b 13 bc 69 82 e2 3a 69 34 a5 3a
       0.010180236 -0.0089977635 0.0017281297 0.001260412
0000c0 d8 d3 33 3b ec 42 22 3c a4 62 17 3a 99 e6 2d 3b
       0.00274395 0.009903651 0.00057748915 0.0026535152
0000d0 cb 62 30 bb 81 85 8b bb b3 82 93 bb 0f 42 0e 3a
       -0.0026914354 -0.0042578583 -0.0045016645 0.00054267136
0000e0 93 58 c2 3a 9e 42 c7 3a 8d 82 28 bc aa 1a db 3b
       0.0014827423 0.0015202349 -0.010285032 0.006686528
0000f0 0a d9 32 3b 0e fc 33 bc 1a e3 d7 39 0f 5c 5c 3c
       0.002729001 -0.0109853875 0.000411772 0.013449683
000100 04 8e 9d 3b 24 b8 fc bb 54 47 78 bb 09 85 7f bb
       0.0048081893 -0.007712381 -0.0037884312 -0.0038989207
000110 88 cf 2d 3b 28 a8 18 3a 8f 71 d7 bb dc 9a a7 bb
       0.0026521403 0.0005823397 -0.0065748165 -0.005114896
000120 08 0a 4a 3c dd 61 a7 ba fe 71 24 bb 81 e1 38 3b
       0.012331493 -0.0012770254 -0.0025092359 0.0028210583
000130 be 1f 49 3c 90 05 02 bc 94 89 30 3b f3 d4 9a 3a
       0.012275634 -0.0079358965 0.0026937472 0.0011812731
000140 b0 2f 81 b9 a7 3d 57 bb b9 02 c9 ba 48 28 95 3b
       -0.00024640327 -0.0032843144 -0.0015335894 0.004551921
000150 49 fa 0f 3b 60 00 20 bc a0 1e 2a bc fe 6d 8c bc
       0.002196925 -0.009765714 -0.010383278 -0.017142292
000160 6b f6 06 ba 19 bb 6d bb 87 de d3 3b f4 24 0d bc
       -0.00051484135 -0.003627485 0.0064657363 -0.008614767
000170 66 31 53 3b f5 c5 7c 3b 5c 6a 92 bb e3 12 ac 3b
       0.0032225489 0.003857014 -0.0044682454 0.005251275
000180 03 4f ba 3b 38 0a 48 3c b2 bb f5 bb 55 5e c7 bb
       0.0056856885 0.012209468 -0.0074991817 -0.0060842433
000190 88 96 bc bb 65 5f 36 b9 18 15 46 3a 21 f7 f3 3b
       -0.0057552494 -0.0001739241 0.0007556244 0.0074452315
0001a0 58 bc 5e 3b 77 fd 2d 3c 32 11 fb 3a 0d fe 84 3c
       0.0033986773 0.010619513 0.0019154905 0.016234422
0001b0 02 76 00 bc 55 7b 07 bc c3 49 26 bc df 7b d4 3b
       -0.007840635 -0.008269151 -0.010149422 0.006484493
0001c0 f4 e4 a7 bb c9 1d 9b 3b c2 e0 80 bb b4 8e 9b bb
       -0.005123729 0.0047337753 -0.003933043 -0.004747236
0001d0 38 9d 8f 3b ac bc b8 3a 97 ad 5e 3c c3 3c 3c 3b
       0.0043827556 0.0014094315 0.013591192 0.002872274
0001e0 b2 8b ce 3b c1 05 40 bc f9 35 38 3b 46 74 3b bc
       0.006303274 -0.011720122 0.0028108342 -0.011441296
0001f0 b2 42 6e 3b 3d 3a f6 b9 93 23 1f 3c c8 f9 d0 3b
       0.0036355671 -0.00046964167 0.009713071 0.0063774325

network_body.observation_encoder.x_self_encoder.seq_layers.0.weight f4 [128, 3]
000000 32 66 71 bc 5c bb 0d bd 00 23 71 bc 8b 6e ad 3c
       -0.014733838 -0.034602508 -0.014717817 0.021170875
000010 21 7a 18 bc cf 5a 08 3d 9a 1e db 3c f4 5e 06 3d
       -0.009306462 0.033289727 0.02674799 0.032805398
000020 98 c5 2a bb dd a7 19 bc ff 45 50 bc 7f ea fa 3c
       -0.0026057716 -0.009378401 -0.012712001 0.030629395
000030 23 9c 57 3c de 4f 5a 3c 41 25 6c bc f1 65 7e bd
       0.0131597845 0.013324706 -0.014413179 -0.062108938
000040 20 03 90 bd d5 85 4f bd 43 ad a2 bc 17 1b 2d bd
       -0.07031846 -0.05066474 -0.019858008 -0.042262163
000050 ee ff c4 ba cb 69 85 3c 31 5a d7 3c 0c 49 b8 3b
       -0.0015029886 0.016285798 0.026288124 0.0056239422
000060 e1 46 a7 3c 82 e3 17 3d 98 48 61 bb 0d 6a 62 bc
       0.02041954 0.037082203 -0.0034375545 -0.01381923
000070 4d c0 00 bd c9 bc 29 3d be 02 a7 3c cc 6e e7 3c
       -0.031433392 0.041439805 0.02038705 0.028251074
000080 cc 13 3a 3d 92 eb 42 bd 5d 85 31 bc f0 e8 45 bc
       0.045429036 -0.04758794 -0.010835019 -0.012079462
000090 37 69 e2 3b 05 66 9a 3c 69 64 cd bc af fb f7 3c
       0.0069095152 0.018847475 -0.025072293 0.03027138
0000a0 44 28 bb bc b9 b3 48 bc ed fa 04 3d 3f 27 a0 bc
       -0.022846349 -0.0122498805 0.032465864 -0.019549964
0000b0 3f 34 7b bc 86 73 f8 bc 1a 58 77 bc 0d 3d 3c ba
       -0.015332281 -0.030328523 -0.015096689 -0.0007180728
0000c0 a7 ae ad bb 76 25 e6 bb 95 3b 07 bd 6f 49 ae 3b
       -0.005300361 -0.0070235087 -0.033015806 0.0053188126
0000d0 1f 03 ab 3b da ee 90 3b 71 00 1a bc 4b a9 1c bc
       0.005218878 0.0044230046 -0.009399519 -0.009561847
0000e0 de b6 35 3d 0a 4e 4c bb c6 e3 13 bd 47 3b 85 bd
       0.04436385 -0.0031174445 -0.036105894 -0.06505447
0000f0 3a 0a 74 bc b4 6b a7 bc 31 97 d2 3c 23 ee 93 3c
       -0.014895016 -0.020437099 0.02570686 0.018057888
000100 6a 42 b0 3c c7 a9 07 3d 0b b3 ed 3c 33 63 5b 3d
       0.021516044 0.033120897 0.029016038 0.0535614
000110 00 4c c4 bc d8 c6 31 bc 8b 61 5f bd 50 5f 3f 3c
       -0.02396202 -0.010850631 -0.054536384 0.011680439
000120 4a 5b 99 bd 12 88 8f 3d 8c 9c 84 bb e6 d1 79 bc
       -0.07488115 0.07008375 -0.004046982 -0.015247798
000130 16 bf ac bc 26 02 cd bc 9f 3c cc 3b 48 e4 36 3c
       -0.02108721 -0.025025439 0.0062328125 0.011162825
000140 5b 6b fc 3c 83 15 b4 bc c7 87 07 bd b7 a7 d1 bc
       0.03081291 -0.021982914 -0.03308847 -0.025592668
000150 9b 75 0a bc 0e cb 07 bd 01 31 d8 3c 80 96 6d bc
       -0.008450891 -0.033152632 0.026390554 -0.014501214
000160 5e 3a fd bc 08 ec 86 3d 2c 53 00 3c 3e 2c e1 bb
       -0.03091162 0.06587988 0.00783233 -0.006871729
000170 4b 05 f0 bc 1b 16 b8 3c df e3 e3 3c bd 72 f7 bb
       -0.029299399 0.022471478 0.027818618 -0.0075515197
000180 50 a7 61 3d 1c cb cb 3c be 5d 9b bd 8a 11 91 3d
       0.055091202 0.024877124 -0.07586239 0.070834234
000190 2d 1e 48 3d f1 00 ff bc 09 9c 4f bc e9 0c 70 bc
       0.048856903 -0.031128379 -0.012671479 -0.0146515155
0001a0 6c f6 f5 3c d0 0e 81 bb 27 22 ce bb b6 45 87 3b
       0.03002473 -0.0039385334 -0.0062906924 0.0041281832
0001b0 a1 cd 0d bc 9c 40 2b bc a1 48 e9 ba 0c 0f c3 b8
       -0.008654983 -0.010452416 -0.0017798134 -9.301127e-05
0001c0 38 df 3f 3a 3e 24 14 bd 4c 79 72 bc 76 cd b0 bc
       0.0007319334 -0.036167376 -0.014799427 -0.021582346
0001d0 27 b3 ee 3c d2 fc 15 3d e3 a3 b7 bb 98 69 6a bd
       0.02913816 0.03661806 -0.0056042536 -0.05722961
0001e0 90 f1 16 3c cd 31 a5 3c 85 3e 90 3c ef ce 7a bb
       0.009212866 0.020165348 0.017607937 -0.0038270315
0001f0 34 6d e6 bb 1f 34 5f 3c 2a 58 d2 bc ca 37 04 bd
       -0.007032061 0.0136232665 -0.025676806 -0.032279767
000200 48 9e 87 bd 24 a2 f3 3c 3e 39 e2 bc 77 e9 7b bc
       -0.06621987 0.0297404 -0.027615186 -0.015375487
000210 63 3a e1 ba 10 8b 4a bb 2c bf be bc ba cf 4b 3d
       -0.0017183538 -0.0030905642 -0.023284517 0.04975865
000220 f9 52 7f bc 88 53 ff bc 4d 42 e8 bc 4b 38 48 3c
       -0.015583747 -0.03116776 -0.028351927 0.012220453
000230 94 ed cc bb d0 56 65 bb 4a 86 8f bb ef f7 27 3c
       -0.0062539075 -0.0034994371 -0.004380022 0.010251983
000240 e5 c5 14 3b 35 bf 7a 3d 78 31 8f bc 7f d6 f2 3b
       0.0022700962 0.061217505 -0.017479643 0.007410824
000250 3a d2 43 3d d7 3f f3 3b b1 1c 6a bc ba 3b b2 bc
       0.04780791 0.007423382 -0.014289067 -0.021756995
000260 f3 01 1e bb 2b a6 1d bc 81 b3 6e bd 7b 29 83 bb
       -0.0024110049 -0.009622137 -0.058276657 -0.0040027476
000270 4b 85 c5 bc cd 5e 23 bd 4c 25 4f bd 01 87 0a bd
       -0.02411141 -0.03988533 -0.05057268 -0.033820156
000280 82 cc 12 bd 3c d3 5b bd 14 0f b8 bb ab 81 39 bd
       -0.035839565 -0.053668246 -0.005617032 -0.045289677
000290 ef 68 e1 bc 05 6d 68 bc b4 76 28 bd a8 4f d8 3b
       -0.027515857 -0.0141861485 -0.04112883 0.0066012926
0002a0 2a 4a be 3c e9 ee ca bb 47 89 4a 3c 34 0c 38 3d
       0.023228724 -0.006193031 0.012361831 0.044933513
0002b0 05 cd 44 bb 0a b4 fe bb 6b 6a bc 3b 4d 43 aa bd
       -0.0030029428 -0.007772927 0.0057499907 -0.08313618
0002c0 8c 2e 86 3a 04 2f 61 3b 71 ba 43 bd eb 39 e2 3c
       0.0010237261 0.00343603 -0.047785226 0.027615508
0002d0 e0 df 7e bd 29 dd 47 3d 6a dd ab 3c 2b 68 14 bc
       -0.062225223 0.0487949 0.020979602 -0.009058039
0002e0 14 64 56 bd a2 e8 40 3c 4d 88 90 3c 13 c0 d2 3c
       -0.052341536 0.011774214 0.017643118 0.025726354
0002f0 7d 4e 23 bc 36 63 86 3b 40 42 b8 3b d2 bd 24 bd
       -0.0099674435 0.0041011823 0.005623132 -0.04022009
000300 91 e9 9c 3c fe ef 91 bb 8a fd b8 3c 25 e5 2d 3d
       0.019154342 -0.004453658 0.022581834 0.042454857
000310 8f a2 4b 3d e6 fe 25 bc 7e ed 57 bc 2b 8b 8e bc
       0.049715575 -0.010131573 -0.013179181 -0.017400345
000320 b7 2d ab bc 8d 31 7d 3d fa 5c 27 3d c8 33 b1 bc
       -0.020895822 0.061814833 0.040860154 -0.021631137
000330 35 e4 9d bc 9a a9 9c 3c 9a a8 8a 3b 3b d8 01 3d
       -0.019273857 0.019123841 0.0042315247 0.031700354
000340 3b a8 22 3d 73 1a fa 3b c6 b6 7f ba 4e 8e d6 3a
       0.03971122 0.0076325475 -0.00097547134 0.0016369314
000350 11 4a 64 3d 6e 47 1b bc 73 c5 3b bd c3 31 f1 3c
       0.055734698 -0.009477479 -0.0458426 0.029442674
000360 ea 6e 74 ba a6 6c 29 bd 13 e3 df 3c 78 11 97 bc
       -0.0009324389 -0.04136338 0.027329957 -0.018440947
000370 79 c6 3f bd 3b 55 9b bc 9c 89 4a 3d 4f d1 06 3d
       -0.046820138 -0.01896154 0.04944764 0.032914456
000380 b0 0f 12 bd bc 14 19 bd 22 63 fa bb 50 bf e4 bc
       -0.035659492 -0.03737329 -0.007641212 -0.027923256
000390 a9 cc 7a bc 44 10 38 38 e0 32 66 3b c4 69 8e 3d
       -0.015307584 4.3884167e-05 0.0035125539 0.06953767
0003a0 f8 32 9e 3b f0 9c 22 bd 9f c1 68 3c 7b b0 8d 3c
       0.0048278533 -0.03970045 0.014206319 0.017296067
0003b0 cc 2d 50 bd 47 c3 2f 3d 02 42 d4 3c d2 34 af bd
       -0.050824925 0.04291084 0.025910381 -0.085549966
0003c0 46 25 b4 3c d3 77 3a 3c 72 4e dc 3c ff b6 7d bd
       0.02199043 0.011381107 0.026892874 -0.061942097
0003d0 36 93 a9 bc 55 7c 8d bc e3 d0 e7 bb 46 31 78 bc
       -0.020700078 -0.0172712 -0.007074462 -0.015148466
0003e0 84 c6 35 3c b3 26 99 bd 16 9c 0e 3d 0e 92 b9 bb
       0.011094693 -0.074780844 0.034816824 -0.005663163
0003f0 0e da 15 3d 8a d5 3a 3c 17 12 01 3b 4f ba 1b 3c
       0.036584906 0.011403451 0.001969462 0.009504869

network_body.observation_encoder.x_self_encoder.seq_layers.0.bias f4 [128]
000000 af bf 33 3c 6e f5 2e ba 45 85 83 bc d2 3c a9 bb
       0.010970994 -0.0006674145 -0.016054759 -0.005164721
000010 5f f4 b6 bc 35 54 5e 3c b0 7a 8b bc e4 d8 30 bc
       -0.022333322 0.013569881 -0.017026275 -0.010793898
000020 22 8d 80 3a 8d 55 9a bc dc 94 63 bc c5 53 5f 3c
       0.0009807686 -0.018839622 -0.013890471 0.013630812
000030 32 f4 cc 3a bd 24 b6 bb d2 7d 32 bc c4 30 cf 3c
       0.0015636741 -0.0055585788 -0.010894256 0.025291808
000040 fd e5 36 bb 40 fd 84 bc 22 56 af 3c a4 f3 4e bc
       -0.002790808 -0.01623404 0.021403376 -0.012631331
000050 d0 c0 20 3b 9c 5e 94 bb 0d f4 7e bb 2f 91 3b 3c
       0.0024528988 -0.00452788 -0.003890279 0.011448189
000060 f5 55 30 bd be fe e6 3a 1b 6d 80 3c 8a cb 22 3c
       -0.043050725 0.0017623527 0.015677026 0.009936223
000070 32 f8 8b bb f8 52 9d b9 19 41 94 bc fa aa 29 bb
       -0.0042715305 -0.0003000719 -0.018097447 -0.0025889263
000080 af bd 55 bc 38 81 54 bc 96 bf 37 3c c0 32 18 bb
       -0.013045712 -0.012970261 0.011215111 -0.0023223609
000090 f1 62 a1 3a 3c 61 85 3c 7f 5e 2b 3c 17 03 6b bc
       0.0012312812 0.016281717 0.010459541 -0.014343998
0000a0 aa 46 0e bb 8c d5 70 bc d1 91 78 3b ad 0f 9b bc
       -0.00217096 -0.014699351 0.003792871 -0.018928373
0000b0 0d bf 90 bb 49 14 f8 bb fa 2f a8 3c 5d fc 0a bc
       -0.0044173063 -0.0075707776 0.02053069 -0.00848302
0000c0 96 cc 82 bc 3e 58 d4 bb 65 e0 0c bc c5 b3 79 bc
       -0.015966695 -0.006480246 -0.008598422 -0.015240614
0000d0 9c 94 02 3c e4 ee 5b 3c 4c dd 3c 3c ab bd 48 3a
       0.007970002 0.013423655 0.011527371 0.0007657657
0000e0 71 e8 e3 bb 8a 4c 54 bc 3d b6 5e ba d9 0d 45 3b
       -0.0069551994 -0.012957701 -0.00084957835 0.0030068068
0000f0 80 b5 06 bd 4f e5 34 3b b3 4e 62 3b 0b 6d f2 3a
       -0.032887936 0.00276025 0.0034531772 0.0018495632
000100 b4 64 eb bc 7a 8e 66 bc 49 12 0b 3c 5c 0b d5 bb
       -0.028734542 -0.014072055 0.008488246 -0.0065015983
000110 de 84 17 3c 7a 5b 7b bb e4 df 46 3c 44 7d 4b bc
       0.009247987 -0.0038354085 0.012138341 -0.012420002
000120 93 e9 53 3b c1 0e 57 3c d3 75 16 bc 76 59 95 3c
       0.0032335266 0.013126076 -0.009183365 0.018231135
000130 f4 6e aa 3c cd ba 91 bb 63 6f b9 bb 03 64 51 bc
       0.02080486 -0.004447317 -0.0056590303 -0.012780192
000140 39 3c 97 ba 40 1a 97 3c 13 c2 05 b9 60 ee 87 bc
       -0.0011538333 0.018445134 -0.00012756167 -0.016593158
000150 32 55 eb bb d8 15 b9 3b ae e1 81 3c 6b e6 98 bb
       -0.007181787 0.005648356 0.015854683 -0.00466614
000160 ba c1 25 3c a2 32 d6 3b e6 d6 58 3c a7 d4 27 3c
       0.010116989 0.0065367976 0.0132348295 0.010243571
000170 77 5f 93 3c af 37 b8 bc 88 57 16 bc 7d be e9 bb
       0.017989857 -0.02248749 -0.0091761425 -0.0071333037
000180 b3 64 66 bb 4b 73 88 3c 66 39 93 bb c3 70 a5 bc
       -0.0035155236 0.016656538 -0.0044929264 -0.02019537
000190 d2 d9 8d 3b 4e 4e 20 bc cd 30 6b bc c2 e4 38 bb
       0.0043289447 -0.009784294 -0.014354897 -0.0028212522
0001a0 50 5b 25 bc 18 eb 74 bc c7 5e 97 bc aa 89 8b 3b
       -0.010092571 -0.014948629 -0.01847781 0.004258354
0001b0 ca ef 90 3c b0 d1 92 bb b1 8e eb bc 23 e0 b2 3b
       0.017692465 -0.004480563 -0.028754564 0.005458848
0001c0 16 4c 31 3b 79 a8 ee bb 7f 27 d5 bc 70 4b 88 3c
       0.0027053407 -0.007283267 -0.02601981 0.016637534
0001d0 ae ea b4 3b 7f 05 33 bc 9f 48 2b bc 3e fb 71 bc
       0.00552114 -0.010926603 -0.010454326 -0.014769373
0001e0 43 02 c9 3c 6d f1 37 bc 04 3b 6a bb 3b 60 d5 3b
       0.024537211 -0.011226994 -0.0035740742 0.0065117157
0001f0 78 ce 0e bc a2 b4 06 bb ac 52 47 39 91 68 92 3c
       -0.008716218 -0.0020554443 0.00019008917 0.017872127

network_body._body_endoder.seq_layers.0.weight f4 [128, 131]
000000 9c e2 25 3d 59 10 3a bd 1a 85 98 3d 37 88 9c bd
       0.040499315 -0.045425747 0.07447262 -0.076431684
000010 a5 32 d3 bd 88 69 fd 3d 3a a6 b0 bd 3f 21 08 3d
       -0.10312394 0.12373644 -0.08625455 0.03323483
000020 2b cf ec bd 8c 42 48 3d a2 c2 cd bc 2f 23 7f bc
       -0.11562952 0.04889159 -0.025117222 -0.015572353
000030 64 67 90 3c 4e 66 2b 3d ac 26 61 be 61 98 2c be
       0.017627425 0.041845612 -0.21987408 -0.16855003
000040 b4 08 2b 3e 6d ac c6 bd 6b fe 7f 3d d0 64 bb 3d
       0.16702539 -0.09700856 0.06249849 0.09150088
000050 e5 01 96 3d cd 36 77 3d 56 61 2f bd 02 be b5 bc
       0.0732458 0.060354996 -0.042817436 -0.02218533
000060 a0 62 f0 3d 65 b0 00 be 8c 4c 8d bd 8a 5d 97 3d
       0.11737561 -0.12567289 -0.06899366 0.07390888
000070 64 c7 82 bd 90 9d 82 bd b7 2d 09 bd 54 c7 1f bd
       -0.06385687 -0.06377709 -0.033490863 -0.039008453
000080 95 ca e4 3c d7 c8 99 bd 87 48 b5 bd 94 ae 53 bd
       0.02792863 -0.0750901 -0.08851724 -0.051680163
000090 70 22 0d be ca 1d 61 3c 38 a5 9e bd 8b c7 0e bd
       -0.13782668 0.013740012 -0.07746357 -0.034858268
0000a0 a2 b9 d9 bd 0c ae d5 bd 8a 9c e4 3d 26 49 f3 bd
       -0.1063111 -0.104335874 0.1116267 -0.11879186
0000b0 80 e2 26 be 82 f0 52 3d c4 e2 a9 bd 0f 59 1f be
       -0.1629734 0.051498897 -0.08295205 -0.15561317
0000c0 63 ca 28 bd df ef c5 bc fb 0b 12 bd 6b c1 c7 3c
       -0.041208636 -0.024162231 -0.035655957 0.024384221
0000d0 f2 41 4c 3d c2 d0 d3 3d 6f ef 9d bd 50 f6 0b bd
       0.049867578 0.10342552 -0.07711684 -0.03417045
0000e0 c9 f3 11 be 5e 40 85 3d 8a ac cf 3b e7 88 bb bd
       -0.14253153 0.06506418 0.006337707 -0.091569714
0000f0 d2 db 4a be 98 b6 83 bc 52 d6 4c 3d fd ca 89 bd
       -0.19810417 -0.016078278 0.05000908 -0.0672817
000100 5f 61 4f 3d fa bc d3 3d ac 4d 5b bd 8b 32 d2 3d
       0.05062997 0.10338779 -0.05354087 0.102635466
000110 eb 22 ae 3c a5 20 a8 3d ed 12 08 bd e4 1e 4c 3b
       0.021256885 0.082093515 -0.033221174 0.0031146342
000120 b5 d7 08 bd cf 77 8e 3d fc e2 06 3e 2f 83 96 3c
       -0.03340884 0.069564454 0.13172525 0.0183731
000130 2f fe 22 3c 6d 9b a7 3c 3a cc 4e 3d 45 16 3d bd
       0.009948297 0.020459855 0.050487734 -0.046163816
000140 38 6f d5 bd 90 02 45 bd 9a 42 03 3e 32 ef 93 3d
       -0.10421604 -0.048098147 0.12818375 0.07223357
000150 19 5c 33 be 9f 54 24 bd fc de 93 bd 83 fe cc bb
       -0.17515601 -0.040119763 -0.07220265 -0.006255926
000160 c4 ff 40 3d 9e ca e2 3c 90 d5 25 3d d8 32 c5 bc
       0.047118917 0.027684506 0.040486872 -0.024072096
000170 9c 37 8f 3d 6d 4d 11 be aa a4 44 bc dc 6e 41 3e
       0.069930285 -0.14189692 -0.01200215 0.18889946
000180 24 da 2e 3d be ae 33 bd cf 71 4e 3d 60 0d cc bd
       0.042688504 -0.04386782 0.050401505 -0.099634886
000190 7b ff 88 bd 42 ea b5 bd e6 fc f3 bc 0e f3 d4 3d
       -0.06689354 -0.08882572 -0.029783677 0.103979215
0001a0 97 a7 61 bd b3 c3 7f 3d 7d 8b 8c 3c b0 26 1d 3b
       -0.055091467 0.062442493 0.017156357 0.0023979358
0001b0 dc 80 71 bd be 91 1f 3d 6d 1c 83 bd 0d 7a d0 3b
       -0.05896078 0.03895735 -0.06401906 0.006362206
0001c0 59 1b 2a 3c e8 f2 5d bd a1 35 bb bc dc 2e c4 bc
       0.010382497 -0.05418673 -0.02285272 -0.023948126
0001d0 a8 5f 78 3d ab 75 df 3d a1 65 bd 3c 6d e7 89 3c
       0.0606381 0.10911115 0.02311975 0.016833985
0001e0 9f 92 93 3d 16 d3 39 bd 1d f2 d9 bd fe 96 06 3d
       0.072057 -0.045367323 -0.106418826 0.03285884
0001f0 28 5f d0 bd e7 d8 1d be 95 38 08 3d 76 f2 e6 3d
       -0.101743996 -0.15414773 0.033257086 0.112767145
000200 e0 70 64 bc 44 9a 13 be f1 d6 dc 3c 09 cd e6 3d
       -0.013942927 -0.14414316 0.02695796 0.11269576
000210 6e 61 4b bd 7c 99 d2 3c 63 c0 2e bd 5b 29 f3 3d
       -0.049653463 0.025707953 -0.042663943 0.11873122
000220 1c ae d4 3d bf 96 8f bd 4c 95 cb bd 0a c0 a3 bd
       0.10384771 -0.070111744 -0.099405855 -0.07995613
000230 62 6c df 3d f4 54 41 3d cf c1 b6 bd ba f3 27 3e
       0.10909344 0.04720016 -0.08923685 0.16401568
000240 8d 94 76 3c 95 ff 04 be f7 1a 92 bb 56 14 31 3e
       0.015050066 -0.12988122 -0.004458781 0.17292914
000250 b8 71 0c bd cd 07 43 3d a0 ee 18 bd 76 bd 54 bc
       -0.03428814 0.04761486 -0.037336946 -0.012984624
000260 6d 1f 9c bd 01 7a 3c 3d 2b 29 f5 bd cf 7c 32 bd
       -0.076231815 0.04601479 -0.11970743 -0.043576058
000270 76 5a c5 3d 71 b1 a9 3e 6b 45 69 3d c6 54 56 be
       0.09636395 0.3314319 0.056950968 -0.20930776
000280 1b c6 2f be a5 40 72 3d 52 25 de 3d ed ae 3c 3d
       -0.17165415 0.05914368 0.10846962 0.04606526
000290 54 2a 93 3e cd 2a dc 3d c6 25 34 bd 42 c8 dc bd
       0.2874323 0.10750351 -0.043981336 -0.10780384
0002a0 81 52 e9 bd 99 13 c1 3d 6c 63 1b 3e 4e fa 8c 3d
       -0.113926895 0.09427566 0.15174645 0.06883679
0002b0 d4 3a ab 3b db 5a 29 3d 4e 8b 9b 3d c6 8a bf bc
       0.0052255187 0.041346412 0.0759493 -0.023381602
0002c0 e0 e2 8b 3d b8 96 bd 3d cc a8 80 bd 79 9f c4 bd
       0.06830382 0.09257263 -0.062821954 -0.096007295
0002d0 48 c7 3d 3d 70 ba 00 3c 35 c8 83 3d 77 27 c5 bd
       0.046332628 0.00785695 0.06434671 -0.09626668
0002e0 f5 5c e8 bc be 7b 02 bb 32 47 c3 bc db 60 83 bb
       -0.028364638 -0.0019910182 -0.02383766 -0.004009349
0002f0 82 7b 6c bd d6 5c 06 3e 1d 04 60 3d ba 24 ef 3c
       -0.057734974 0.13121352 0.054691423 0.029192317
000300 79 c1 f8 bd 68 6d 08 be 7b 3a a1 3b 45 63 0a 3e
       -0.12146277 -0.13322985 0.0049203015 0.13514431
000310 34 b5 96 bc 59 39 18 be 20 a5 51 bd 81 a3 0d 3c
       -0.018396951 -0.14865626 -0.051182866 0.008644939
000320 73 dd a7 3d 6b 50 d0 3a 41 6a e2 3c 1a f2 11 bd
       0.08196535 0.0015893107 0.027638556 -0.035631277
000330 08 6b 6c 3c 77 49 c7 bc dd 57 44 be 88 39 97 3d
       0.014429815 -0.024327023 -0.19174142 0.0738402
000340 42 ca 1e 3e 56 12 b3 3d 6e 24 37 3c fa 77 67 3c
       0.15506843 0.08743732 0.011178119 0.014127726
000350 7b ca 60 bd ec 65 a5 bb 91 9b e5 3c 03 0f 84 3d
       -0.0548806 -0.0050475504 0.028028281 0.06448176
000360 08 da 2a 3d ef f6 03 3e 19 93 a1 3d df 30 37 3b
       0.041711837 0.12887166 0.07889385 0.0027952713
000370 0e 33 5e be e9 e7 c0 bd 8c dc 1a 3e cc ba 3b be
       -0.21699163 -0.09419233 0.15123194 -0.18332976
000380 c9 e8 9e 3d c2 f5 0e bd 84 24 14 3d af 99 bd 3c
       0.07759244 -0.03490234 0.036167637 0.023144571
000390 ef 75 17 3d 98 4c 6d bc 35 e0 6d 3c 35 72 c7 3d
       0.036977705 -0.014483593 0.014518787 0.0973858
0003a0 cf 94 a9 3d 0f fa 89 3c 80 28 f1 bd 0d 42 1d bd
       0.08280336 0.01684287 -0.11775303 -0.03839307
0003b0 af 0d 81 3d 1d 7a 97 bd 4b d9 68 3b b8 f3 38 bd
       0.06301438 -0.07396338 0.0035529907 -0.045154303
0003c0 8d f3 c7 3d be 41 e9 3d 59 d4 26 3d 70 32 75 3d
       0.097632505 0.113894925 0.040729854 0.059862554
0003d0 a5 d6 10 3e 07 13 13 3d 3d 8e 03 3e 8d d5 02 be
       0.1414438 0.035906818 0.12847228 -0.12776776
0003e0 41 cc ae bb f5 3e f6 bc 9c 73 23 3d 75 c4 ff bc
       -0.0053344076 -0.030059317 0.039905176 -0.031221608
0003f0 03 e5 db 3c e3 cf 8e bc fd c0 21 be 3c 1e 00 3e
       0.0268426 -0.017433112 -0.15796275 0.12511533

network_body._body_endoder.seq_layers.0.bias f4 [128]
000000 98 a1 8c 3c b1 c9 53 bc 4a af 66 3c 26 42 0f bc
       0.017166898 -0.012926505 0.014079878 -0.008743798
000010 32 c4 9a bb 8b 1f 7e 3c 2d f7 a0 3c a1 16 07 3c
       -0.0047230953 0.01551045 0.019649113 0.008245141
000020 57 0f f7 3a 0f 16 9c bb 2a 17 7e bb 48 26 96 bb
       0.0018849176 -0.004763372 -0.003877113 -0.0045822
000030 ad 92 07 3c c6 61 2c bc 97 33 8b bb 72 55 19 3b
       0.008274716 -0.010521358 -0.0042480933 0.0023396877
000040 5b 74 e4 3b fc 5e 5f ba 80 33 5d bb 26 cb 2e bb
       0.0069718785 -0.00085209287 -0.003375262 -0.002667138
000050 7f 46 48 3c a9 3f e1 3b 3e ec 3d bb 22 5e 5d bb
       0.012223839 0.006874044 -0.0028979923 -0.0033778031
000060 1c 87 b8 bb 1f e6 6a 3c 65 8e b3 bb e6 d1 16 bc
       -0.0056313407 0.014337092 -0.0054796212 -0.009205317
000070 29 81 8a 3c 79 65 b7 3b f0 19 8d 3b c4 97 cc 3b
       0.016907291 0.0055968133 0.0043060705 0.006243678
000080 6c b2 9a 3b cb da 81 bb e1 73 70 3c 9c 52 ea 3b
       0.0047209766 -0.0039628497 0.014676065 0.007150961
000090 f9 85 66 bc 43 ae 0f bb ad c0 a8 bc 15 39 a2 bc
       -0.0140700275 -0.0021923936 -0.020599687 -0.01980261
0000a0 ea ae a7 3a fc b0 06 bb 02 a9 e3 ba 88 fb 38 bc
       0.0012793217 -0.0020552268 -0.0017369094 -0.0112904385
0000b0 0c 04 81 bc d6 1c 3d bc 97 15 25 3c 81 9f 07 3c
       -0.015749 -0.01154252 0.010075948 0.008277775
0000c0 9c 8f fe 3b 73 63 8e ba a9 30 1d bc fa 3a c5 3b
       0.0077685844 -0.0010863378 -0.009594121 0.0060189934
0000d0 3f 7f 6a 3b 44 80 40 b9 6c 09 02 3c 5b c4 3d 3c
       0.003578141 -0.0001835833 0.007936817 0.011582459
0000e0 8c 68 04 3b ae 4d 87 3c 83 ee 91 3a c4 21 1e 3c
       0.0020203916 0.016516533 0.0011133704 0.009651605
0000f0 6a 8b 28 bc a0 ee 61 bc 47 eb 3c 3b 08 bd bc bb
       -0.010287145 -0.013789803 0.002882676 -0.005759839
000100 27 41 11 bc 93 ca c3 3b 88 e3 19 3c 3b cf 3e 3a
       -0.008865631 0.0059750765 0.009392627 0.00072788046
000110 4a 97 c1 3b ab 63 39 bb 2b 4c 1b 3c c4 d9 da 3b
       0.0059079276 -0.0028288167 0.009478609 0.0066787917
000120 6a 5f 67 bc 70 d6 e3 3b e5 da 45 3b ae 16 9d bb
       -0.01412187 0.006953053 0.0030190286 -0.0047939634
000130 26 56 bc bb de 79 24 bc 15 fe 70 3c 44 50 0e 3c
       -0.0057475744 -0.010038821 0.014709015 0.008686129
000140 85 68 1d 3c 67 ec 73 3b 77 d2 09 3b 80 99 c7 bb
       0.009607439 0.0037219764 0.0021029988 -0.0060912967
000150 1c f7 13 3c 22 6e 3a bb 48 c8 a8 bb 06 5f 2f 3c
       0.009031083 -0.0028446992 -0.0051508285 0.010703808
000160 5c d5 a2 3b 1a 9f 0f bc 32 76 bc b9 ea 6f f5 bb
       0.004969282 -0.00876596 -0.00035946217 -0.007490148
000170 82 c7 f9 ba 67 3e 8d 3c 79 b4 da b9 b5 3a 1d 3c
       -0.001905665 0.01724167 -0.00041714663 0.009596516
000180 2d 3d 51 3c c9 3b 08 bc 11 8e 39 3c 28 7b e4 39
       0.012770933 -0.008315035 0.011325375 0.00043579307
000190 9d 98 8c 3c 90 f8 c4 3b 22 7b b7 ba 62 e8 0a bc
       0.017162615 0.0060110763 -0.0013998488 -0.008478256
0001a0 cb 3e 5d bb b5 d6 d3 bb 82 7c c2 bb 92 26 ca 3a
       -0.0033759351 -0.006464804 -0.0059352526 0.0015422872
0001b0 03 ea a2 ba ca 66 1c bc 3c 05 1a 3c 50 f2 a4 3b
       -0.001242936 -0.009545991 0.009400662 0.0050337687
0001c0 88 5b 2a bb a1 12 0b bb 91 e6 41 bb 5e e6 36 bc
       -0.0025994498 -0.002122082 -0.0029586891 -0.011163322
0001d0 32 a9 37 ba 31 4e 3e bc a2 bb a8 bc 49 d2 fb 3a
       -0.0007006108 -0.011615322 -0.020597283 0.001921245
0001e0 3b 6d 7a bb 34 0d 05 3c 13 33 5c 3a 1d fb bf bb
       -0.003821208 0.008120824 0.00083999446 -0.0058587925
0001f0 90 e3 14 3c cd 3d 35 3b 08 44 43 3b ad 17 05 3c
       0.009087458 0.0027655244 0.0029795188 0.0081233205
