Assets/result/ppo/My Behavior/My Behavior-1999951.onnx (onnx, 578818 bytes, 21 tensors)

network_body.observation_encoder.processors.0.self_ent_encoder.seq_layers.0.bias f4 [128]
-0.011756 0.004250437 0.012237739 0.011781691 -0.003452907 -0.0074601867 0.0022317711 -0.0009874916
-0.0040232106 0.0033418755 0.0077000037 -0.00411689 0.009449916 0.009444977 -0.012429323 0.0037490528
-0.006254392 0.002339598 -0.0033535794 0.007815226 -0.004850031 -0.014713381 0.019383302 -0.008968242
0.00047819613 0.009383841 0.000120091565 -0.009843269 0.005696561 0.0014384028 0.016671428 -0.00367105
-0.007569437 -0.014056672 -0.0008614152 -0.0052178567 0.010924994 -0.0012014129 -0.0074338783 0.003118777
0.0033761524 0.0033154492 -0.006134205 0.0043644886 0.0010504371 -0.0069579873 -0.0010960773 -0.0073047634
-0.0002203693 0.011618936 -0.013170427 0.013144064 -0.015515533 -0.012455718 0.0015614568 0.0012503992
0.017986635 -0.020675492 0.0074189473 -0.007180672 0.0046835565 -0.00029567178 -0.0015175497 0.0011570754
-0.010813066 0.0011404308 0.00039874908 -0.002302722 -0.0066287704 -0.0044958317 0.0050162957 -0.015736556
-0.017034741 -0.013751358 -0.015177143 -0.0081541855 0.009948376 0.0015112062 -0.010762053 0.0017351346
-0.00950834 0.006655827 0.009433153 0.010720276 -0.0066946335 -0.009485303 -0.0048635043 -0.01565534
0.010628298 -0.012004974 -0.0034874957 0.015568434 -0.0054664765 -0.0078038773 0.01295731 0.016680162
0.0016949204 -0.0026224619 -0.022519568 0.005560437 -0.0031334318 -0.00019782346 -0.0044031497 -0.000375748
-0.004555477 0.0061007617 -0.0011019768 -0.022233054 0.007983238 -0.00952378 -0.017484488 -0.0012248837
0.015843721 -0.010532668 0.005677651 -0.0104839 -0.0105854375 0.003577151 -0.029326417 -0.0040338663
-0.0028316218 -0.009359843 -0.0027787297 0.004803005 0.01235885 0.01320567 -0.020855771 0.0043027867
00000000: 3d9c 40bc 4047 8b3b cc80 483c fe07 413c
00000010: 2b4a 62bb 9574 f4bb e842 123b b86e 81ba
00000020: 23d5 83bb 5e03 5b3b 5050 fc3b fae6 86bb
00000030: d2d3 1a3c 1bbf 1a3c 5ca4 4bbc abb2 753b
00000040: a5f1 ccbb f153 193b bac7 5bbb 6f0b 003c
00000050: 02ed 9ebb 6510 71bc bbc9 9e3c 89ef 12bc
00000060: 66b6 fa39 afbe 193c abd9 fb38 aa45 21bc
00000070: 38aa ba3b ca88 bc3a 8592 883c 0096 70bb
00000080: 0a09 f8bb f54d 66bc 98d0 61ba 8efa aabb
00000090: bffe 323c ba78 9dba e497 f3bb 6564 4c3b
000000a0: 7042 5d3b 0248 593b 7101 c9bb fc03 8f3b
000000b0: d2ae 893a d4ff e3bb 40aa 8fba cc5c efbb
000000c0: ef12 67b9 5a5d 3e3c c6c8 57bc 335a 573c
000000d0: dd34 7ebc 1113 4cbc cca9 cc3a 6fe4 a33a
000000e0: b558 933c a65f a9bc a41a f33b d84b ebbb
000000f0: 8578 993b 6504 9bb9 85e8 c6ba 02a9 973a
00000100: 4929 31bc 827a 953a 320f d139 44e9 16bb
00000110: 2836 d9bb c551 93bb bd5f a43b f3e9 80bc
00000120: 718c 8bbc 604d 61bc 8da9 78bc 2299 05bc
00000130: 83fe 223c aa13 c63a 5253 30bc 756d e33a
00000140: dec8 1bbc 2019 da3b 838d 1a3c 19a4 2f3c
00000150: a85e dbbb 3f68 1bbc 085e 9fbb a13f 80bc
00000160: 5022 2e3c 83b0 44bc 788e 64bb bf12 7f3c
00000170: 2120 b3bb abb7 ffbb e64a 543c d6a4 883c
00000180: 1728 de3a 9cdd 2bbb f57a b8bc 5434 b63b
00000190: 435a 4dbb d56e 4fb9 4c48 90bb 0b00 c5b9
000001a0: 1c46 95bb e6e8 c73b 3570 90ba 1822 b6bc
000001b0: 21cc 023c a109 1cbc a13b 8fbc 478c a0ba
000001c0: b1ca 813c 3691 2cbc 970b ba3b aac4 2bbc
000001d0: 8b6e 2dbc a36e 6a3b f43d f0bc 862e 84bb
000001e0: bb92 39bb 075a 19bc 591b 36bb 8762 9d3b
000001f0: c67c 4a3c 985c 583c b9d9 aabc 64fe 8c3b

network_body.observation_encoder.processors.1.self_ent_encoder.seq_layers.0.bias f4 [128]
0.009279726 0.0105896015 -0.01899407 0.0042952807 0.007165599 0.009998701 -0.005171426 -0.0022205522
0.00043279745 -0.0101254545 0.006245051 0.013557145 -0.026678912 0.0025808564 0.0120843565 -0.013758775
0.0056976844 -0.0060433773 -0.007338935 -0.030792149 0.019349739 0.028770775 0.00052491896 -0.024445461
-0.019240007 0.0039618295 0.011647249 -0.0071179396 0.0037122963 -0.0027620096 -0.022251848 -0.010099826
0.009865342 0.02246801 -0.0033650124 0.0048600147 0.014847331 0.012515842 -0.0026516644 -0.001891374
0.0016379398 -0.0044951853 -0.010846067 0.0060471813 0.005646223 0.026927505 0.021118522 -0.004749636
-0.020134075 -0.012679156 0.00088141963 0.007818432 -0.015632147 -0.009225989 0.008192202 0.009094816
-0.012676206 -0.001245377 -0.0018641035 -0.006894954 -0.03133138 -0.0052340976 0.017009916 -0.0149263125
0.0016487879 -0.006681939 0.011655825 0.001793964 0.014115368 0.028317124 0.009744418 0.0060811318
0.013833942 -0.003250878 -0.0016322648 -0.024228636 -0.0099581955 -0.019301616 -0.01671429 0.0015290481
0.02878801 0.008960245 0.0069752736 -0.027439991 0.024953233 -0.006726948 -0.00062646467 -0.025157934
-0.018496744 0.016050816 -0.0026142024 0.0047440645 0.00059460674 0.020512423 -0.007879881 -0.021993015
-0.0016036764 -0.010698533 -0.0046194186 0.01156805 -0.024852948 -0.010050326 0.01008602 -0.026721053
0.024070561 0.000501157 -0.009382974 0.010326901 -0.009447801 0.0036133002 0.025492389 -0.00402308
-0.005598189 -0.0028205973 -0.008575339 0.011940219 0.0012248225 0.0041712234 -0.017274573 0.014246654
0.0043021757 0.014303304 0.0054411795 0.007444803 -0.0081663085 -0.0013080197 0.026861185 0.014734679
00000000: fe09 183c 0280 2d3c 7499 9bbc 6dbf 8c3b
00000010: 67cd ea3b 97d1 233c 1175 a9bb af86 11bb
00000020: 17e9 e239 3ce5 25bc 49a3 cc3b ca1e 5e3c
00000030: bc8d dabc 9623 293b 77fd 453c 7c6c 61bc
00000040: a4b3 ba3b 8607 c6bb 737b f0bb d13f fcbc
00000050: 5883 9e3c b0b0 eb3c b79a 093a d941 c8bc
00000060: 389d 9dbc 3cd2 813b 1ad4 3e3c 9b3d e9bb
00000070: ff49 733b d502 35bb 8249 b6bc be79 25bc
00000080: 3ea2 213c d50e b83c 8a87 5cbb c240 9f3b
00000090: 3842 733c 3f0f 4d3c 8cc7 2dbb fbe7 f7ba
000000a0: 24b0 d63a 594c 93bb b4b3 31bc 6f27 c63b
000000b0: f403 b93b 1297 dc3c c000 ad3c d6a2 9bbb
000000c0: 37f0 a4bc 3cbc 4fbc 120f 673a e118 003c
000000d0: fd0e 80bc 9a28 17bc 9638 063c 6c02 153c
000000e0: ddaf 4fbc eb3b a3ba ef54 f4ba 11ef e1bb
000000f0: 5555 00bd cb82 abbb 6158 8b3c 7e8d 74bc
00000100: 241c d83a 2bf4 dabb 13f8 3e3c 7123 eb3a
00000110: 2544 673c 50f9 e73c 0da7 1f3c 3b44 c73b
00000120: c2a7 623c af0c 55bb b8f1 d5ba 227b c6bc
00000130: b327 23bc 6c1e 9ebc 68ec 88bc 576a c83a
00000140: d5d4 eb3c fecd 123c d690 e43b d5c9 e0bc
00000150: b96a cc3c bb6d dcbb 5539 24ba 0318 cebc
00000160: 7c86 97bc 007d 833c 0a53 2bbb 1974 9b3b
00000170: 62df 1b3a ab09 a83c 9e1a 01bc b22a b4bc
00000180: 7332 d2ba e648 2fbc 7e5e 97bb eb87 3d3c
00000190: 6998 cbbc 1faa 24bc d63f 253c 1ce6 dabc
000001a0: a02f c53c 1460 033a 0cbb 19bc 2a32 293c
000001b0: f3ca 1abc 1ecd 6c3b 6ad5 d03c 0bd4 83bb
000001c0: 0371 b7bb c5d9 38bb 947f 0cbc e9a0 433c
000001d0: 398a a03a c2ae 883b 6883 8dbc cc6a 693c
000001e0: 44f9 8c3b 6858 6a3c ec4b b23b 89f3 f33b
000001f0: fbcb 05bc dc71 abba fd0b dc3c b969 713c

network_body.observation_encoder.rsa.fc_q.bias f4 [128]
-0.03379028 0.05742913 -0.010135386 -0.0141808335 0.012910397 -0.080925286 0.031284317 0.007284054
-0.037051067 0.049205586 0.028110992 -0.03580201 0.06918005 -0.013227421 0.03642338 -0.025126861
-0.006831917 -0.031504586 -0.022559902 -0.0096767945 0.003246159 -0.04100125 0.040688913 0.008264439
-0.07659053 -0.02575721 0.021313697 0.044613477 -0.029853953 -0.06337227 0.07455783 0.047042806
0.06132034 0.03358071 -0.05092606 0.04480937 0.059255254 -0.06280088 0.0058527156 -0.041027587
-0.055775985 -0.033330243 -0.059816863 0.032601308 -0.007271607 0.047223408 -0.025034038 0.045765374
0.016159117 0.015089525 -0.049313337 -0.046303805 0.03164679 0.04426936 0.014930695 -0.025927179
0.030404825 -0.049908724 0.0004214413 -0.052881494 0.049617868 -0.016604949 0.035010934 -0.022890514
-0.010579292 -0.016194168 0.0023250475 0.008127108 -0.012006473 -0.019543063 0.020043168 0.015452547
0.00902647 0.02724227 0.00813722 -0.008082982 -0.0143942535 0.008778404 0.032286435 -0.0037724252
-0.026548397 0.015184867 -0.012887795 -0.021178849 -0.014503026 0.021249942 0.0022505012 0.014482691
0.031573217 -0.0076056262 -0.014450832 0.010078812 0.006870275 -0.019872874 -0.0019315502 -0.014788503
0.01965545 0.026829366 0.0060610864 -0.031617675 -0.027369294 -0.011885379 0.0014951059 0.012335257
0.022654168 0.021483574 -0.012854388 -0.004393819 -0.0126191145 0.024421517 0.00941689 -0.011301772
-0.0077430764 0.016458862 -0.029173184 -0.0032042894 -0.0011761029 -0.039097883 -0.04236985 -0.014756519
0.018636683 -0.0027465194 0.013098859 0.0015836934 -0.028641462 -0.03746414 -0.009256514 0.008941139
00000000: ad67 0abd cf3a 6b3d e40e 26bc ba56 68bc
00000010: 2186 533c 28bc a5bd fc23 003d 13af ee3b
00000020: dcc2 17bd cc8b 493d 0649 e63c 21a5 12bd
00000030: 45ae 8d3d d3b7 58bc af30 153d d9d6 cdbc
00000040: 46de dfbb f40a 01bd 8bcf b8bc 6b8b 1ebc
00000050: 83bd 543b edf0 27bd 6ba9 263d 9267 073c
00000060: 7fdb 9cbd c900 d3bc 109a ae3c 9fbc 363d
00000070: 4790 f4bc 52c9 81bd c7b1 983d f5af 403d
00000080: 092b 7b3d ed8b 093d d897 50bd 088a 373d
00000090: a3b5 723d bf9d 80bd 23c8 bf3b 8b0c 28bd
000000a0: 5c75 64bd 4b85 08bd 8702 75bd f388 053d
000000b0: a946 eebb 556d 413d 2f14 cdbc 7974 3b3d
000000c0: 2060 843c 0e3a 773c c8fc 49bd 0fa9 3dbd
000000d0: 11a0 013d ca53 353d e09f 743c 3c65 d4bc
000000e0: 8a13 f93c 176d 4cbd e5f4 dc39 449a 58bd
000000f0: 1b3c 4b3d 1a07 88bc a067 0f3d e384 bbbc
00000100: c454 2dbc a2a9 84bc d35f 183b 9027 053c
00000110: ccb6 44bc c618 a0bc 9231 a43c ae2c 7d3c
00000120: c2e3 133c 2e2b df3c f951 053c 7c6e 04bc
00000130: e0d5 6bbc 4cd3 0f3c c83e 043d cb3a 77bb
00000140: 067c d9bc f3c9 783c 5527 53bc 447f adbc
00000150: 1a9e 6dbc 5c14 ae3c 257d 133b cf48 6d3c
00000160: eb52 013d 9e38 f9bb 2fc3 6cbc 9a21 253c
00000170: 0b20 e13b 70cc a2bc 122c fdba 7a4b 72bc
00000180: 7704 a13c 42c9 db3c 149c c63b 8981 01bd
00000190: 9235 e0bc e5ba 42bc 6ef7 c33a d119 4a3c
000001a0: 3c95 b93c 52fe af3c 369b 52bc 06fa 8fbb
000001b0: 67c0 4ebc a20f c83c 4d49 1a3c 112b 39bc
000001c0: a2b9 fdbb bcd4 863c 9afc eebc 0eff 51bb
000001d0: 7727 9aba 1a25 20bd 028c 2dbd 54c5 71bc
000001e0: f5ab 983c f3fe 33bb 999c 563c ef93 cf3a
000001f0: 80a1 eabc 0074 19bd a2a8 17bc db7d 123c

network_body.observation_encoder.rsa.fc_k.bias f4 [128]
7.907035e-06 -7.261553e-06 6.967737e-06 2.8295356e-06 1.2133871e-06 -2.814699e-06 2.950267e-06 -6.8559007e-07
1.282724e-05 -2.619976e-06 -7.3448696e-06 5.924525e-06 -3.1201635e-06 2.0675539e-06 -1.13866245e-05 4.195087e-06
-1.3530631e-06 -2.8787042e-06 -4.288123e-06 2.2797603e-06 5.915208e-06 -4.5580805e-06 7.8849496e-07 -1.8878259e-06
1.3650553e-05 5.7408056e-06 1.8148422e-06 -1.3833611e-05 6.036644e-06 1.2651123e-05 -7.357274e-06 -5.554366e-06
3.0005884e-05 9.50675e-06 -2.0597408e-05 7.039527e-07 1.0676188e-05 -2.6297606e-05 2.9479415e-06 -3.4428354e-06
-1.818989e-05 -1.749137e-05 -1.9842666e-05 5.0248045e-06 -1.0310551e-05 1.45510085e-05 -1.7672266e-05 2.0158584e-05
4.496995e-06 -1.091771e-06 -1.965662e-05 -1.1149724e-05 2.051299e-05 9.52363e-06 -8.028762e-06 -9.081481e-06
1.792093e-05 -1.4963609e-05 -6.273395e-06 -2.23287e-05 2.508896e-05 6.4840942e-06 5.3952153e-06 -6.286434e-07
7.55178e-06 7.0368546e-06 -3.0993674e-06 -4.9908463e-06 3.8981866e-06 7.8538363e-07 -4.2298734e-06 3.7419784e-06
-4.6257733e-06 2.17293e-07 -5.1648726e-06 5.6962394e-06 -4.5132792e-06 -4.4008775e-06 1.2429232e-05 -1.6160079e-06
6.552164e-06 3.1181585e-06 3.6922384e-06 4.4743215e-06 -5.0410226e-06 -5.9806816e-06 8.25706e-06 1.866561e-06
1.573905e-05 1.4088e-06 -4.685885e-06 -5.3782865e-06 -7.0320534e-06 -4.2749093e-06 6.804023e-06 6.213701e-06
2.748026e-06 2.7440143e-07 4.240076e-06 -2.9187017e-06 1.5435237e-06 -1.2080039e-06 -5.0726912e-06 5.269436e-06
1.0845888e-07 -3.4886286e-06 2.5056208e-06 7.980989e-06 -5.442044e-06 -8.75885e-06 -3.3908557e-06 -1.510034e-07
-3.7486185e-08 3.5501764e-06 -1.8974296e-06 3.8832695e-07 9.2372863e-07 2.3654416e-06 6.7751434e-06 -1.9738366e-06
1.0261889e-06 -6.658334e-06 -3.2751211e-06 -1.514814e-06 -8.474904e-06 3.860147e-06 -2.0065803e-08 -4.93754e-06
00000000: 75a8 0437 44a8 f3b6 68cc e936 0de3 3d36
00000010: aadb a235 29e4 3cb6 33fd 4536 6409 38b5
00000020: 9434 5737 d8d2 2fb6 f373 f6b6 48cb c636
00000030: 0064 51b6 4ec0 0a36 2e09 3fb7 86c3 8c36
00000040: e59a b5b5 c32f 41b6 b2e2 8fb6 fcfd 1836
00000050: 407b c636 9df1 98b6 f6a8 5335 3461 fdb5
00000060: ae04 6537 25a1 c036 8195 f335 e816 68b7
00000070: 618e ca36 2940 5437 81de f6b6 a45f bab6
00000080: 25b5 fb37 2e7f 1f37 99c8 acb7 43f7 3c35
00000090: e11d 3337 ae99 dcb7 40d5 4536 760b 67b6
000000a0: 7e96 98b7 6eba 92b7 cd73 a6b7 be9a a836
000000b0: 7bfb 2cb7 1b20 7437 e73e 94b7 3b1a a937
000000c0: e5e4 9636 f788 92b5 45e4 a4b7 b30f 3bb7
000000d0: 5013 ac37 aec7 1f37 45b3 06b7 aa5c 18b7
000000e0: e754 9637 360c 7bb7 0d80 d2b6 854e bbb7
000000f0: 2276 d237 f291 d936 8c08 b536 0cc0 28b5
00000100: 4c65 fd36 1f1e ec36 bafe 4fb6 0b77 a7b6
00000110: 2bcd 8236 27d3 5235 56ee 8db6 b31e 7b36
00000120: 1737 9bb6 0c51 6934 eb4d adb6 5322 bf36
00000130: c670 97b6 40ab 93b6 2587 5037 9ce5 d8b5
00000140: a9da db36 8e41 5136 2cc8 7736 2122 9636
00000150: 0e26 a9b6 aaad c8b6 cd87 0a37 8c86 fa35
00000160: 5a07 8437 0016 bd35 723b 9db6 2177 b4b6
00000170: e1f4 ebb6 3171 8fb6 1d4e e436 497f d036
00000180: ba6a 3836 7251 9334 fa45 8e36 eade 43b6
00000190: 122b cf35 b322 a2b5 1636 aab6 1cd0 b036
000001a0: e6e9 e833 2f1e 6ab6 3d26 2836 16e6 0537
000001b0: cd9a b6b6 f9f2 12b7 758e 63b6 8023 22b4
000001c0: 7f00 21b3 913f 6e36 2fab feb5 407b d034
000001d0: 26f6 7735 fabd 1e36 0a56 e336 4176 04b6
000001e0: 95bb 8935 a76a dfb6 27ca 5bb6 9d50 cbb5
000001f0: 6f2f 0eb7 6986 8136 2b5d acb2 25ad a5b6

network_body.observation_encoder.rsa.fc_v.bias f4 [128]
0.004966292 -0.011238986 -0.0010354494 -0.005615767 0.009059252 -0.0029716163 -0.014974606 -0.0007080987
0.007427065 -0.016792929 0.0030097594 0.011892775 0.001957637 -0.015895674 0.008959724 -0.0012544801
-0.0057021584 -0.010696971 0.0090902075 0.0070916065 0.004960912 0.004074025 0.00067434495 -0.0047269887
0.0007485368 0.0007063802 -0.0036145486 -0.0055111507 0.00073061365 0.011040129 0.009454282 -0.0029504814
0.013846396 -0.0070724925 0.0049250345 0.00488265 -0.006609394 -0.014339985 0.0027636704 -0.005417725
-0.0051947786 0.010494878 -0.00036755574 -0.00227149 -0.00034520036 -0.005220225 0.0074493727 -0.005465123
-0.0080632875 0.0018794221 0.009045292 0.00624065 0.0029844313 -0.006627715 0.011470997 0.00519846
-0.006162356 0.005973609 0.0040977704 -0.0014519887 -0.008633926 -0.0041407207 0.004418195 0.005264223
0.006549894 9.033948e-05 0.0079104835 0.008721481 -0.014604339 0.010131332 -0.00042144427 0.0015578824
-0.0052414834 0.003312959 -0.008572386 0.017391225 -0.008260398 -0.0045446185 -0.013281413 0.00045138207
-0.007148157 0.0008977597 -0.0016172369 -0.0062962817 -0.008907691 0.0025964289 0.0058425697 -0.00495363
0.011836209 -0.001197691 -0.01240838 -0.00091288873 -0.009675498 0.001700511 0.001390627 -0.0016903579
-0.0040500257 0.0015841989 -0.0064180386 0.0036256176 -0.008416981 -0.00049559464 -0.0028914532 -0.005018755
0.0009640854 0.0030997733 0.008780958 -0.01193127 0.0005369186 0.005836921 -0.0070477733 0.0065959143
-0.0005107114 -0.0019214496 -0.005038651 -0.0042988486 -0.007863037 0.0006512577 -0.009039398 -0.0140866265
0.007687333 0.007876139 -0.0028297463 -0.0070077716 0.0005058758 0.00499349 0.0077179843 -0.0016949204
00000000: 47bc a23b b923 38bc ebb7 87ba 7804 b8bb
00000010: 426d 143c 73bf 42bb 0d58 75bc b39f 39ba
00000020: bd5e f33b 5391 89bc 623f 453b ead9 423c
00000030: b34b 003b a537 82bc cecb 123c 5e6d a4ba
00000040: 2cd9 babb 5942 2fbc 18ef 143c b560 e83b
00000050: 258f a23b 667f 853b 86c6 303a dbe4 9abb
00000060: 7439 443a 5f2c 393a 10e2 6cbb e296 b4bb
00000070: a786 3f3a a8e1 343c 22e6 1a3c dd5c 41bb
00000080: fedb 623c 5ec0 e7bb 2f62 a13b a3fe 9f3b
00000090: 9e93 d8bb 42f2 6abc b21e 353b 2c87 b1bb
000000a0: f638 aabb b5f2 2b3c 7fb4 c0b9 47dd 14bb
000000b0: 02fc b4b9 6c0e abbb de19 f43b c614 b3bb
000000c0: e11b 04bc f156 f63a b432 143c 5e7e cc3b
000000d0: 7396 433b 4e2d d9bb d9f0 3b3c d857 aa3b
000000e0: 97ed c9bb 44be c33b 9746 863b a850 beba
000000f0: 4f75 0dbc e2ae 87bb 82c6 903b 817f ac3b
00000100: 7ea0 d63b a474 bd38 f99a 013c 8be4 0e3c
00000110: 0a47 6fbc e3fd 253c 4bf5 dcb9 dc31 cc3a
00000120: c0c0 abbb 3b1e 593b 3173 0cbc 0b78 8e3c
00000130: 9f56 07bc 06eb 94bb 499a 59bc 7aa7 ec39
00000140: 163b eabb a257 6b3a 77f9 d3ba 0a51 cebb
00000150: 90f1 11bc d928 2a3b 0773 bf3b 0f52 a2bb
00000160: a9ec 413c d7fb 9cba 854c 4bbc ed4e 6fba
00000170: fb85 1ebc aee3 de3a b345 b63a 008f ddba
00000180: 14b6 84bb e5a4 cf3a 694e d2bb c59b 6d3b
00000190: 61e7 09bc cbea 01ba 897e 3dbb 5e74 a4bb
000001a0: adba 7c3a 9125 4b3b 02de 0f3c 607b 43bc
000001b0: ffbf 0c3a a443 bf3b 02f1 e6bb 8a22 d83b
000001c0: 43e1 05ba 26d9 fbba 451b a5bb 5bdd 8cbb
000001d0: f8d3 00bc 2ab9 2a3a fc19 14bc 98cb 66bc
000001e0: 06e6 fb3b ec0a 013c 4473 39bb 73a1 e5bb
000001f0: c09c 043a 6ea0 a33b 25e7 fc3b 1728 deba

network_body.observation_encoder.rsa.fc_out.bias f4 [128]
0.0044515445 0.0074786274 0.00070410373 0.004478711 -0.004444679 0.0054755756 0.00029309661 0.008140356
-0.016530747 0.0015616434 0.004673036 0.011419006 -0.007985025 -0.004326367 0.015899016 -0.014323949
0.0062312908 -0.0005872129 0.00087383547 -0.020043079 0.024834111 -0.0066150236 -0.0018018823 -0.0038781352
-0.009022521 0.0021457493 0.010104244 0.014017213 0.012570973 -0.010267341 -0.010525692 -0.0067674387
-0.008676531 0.013627247 -0.0037373374 -0.008437718 -0.00696772 -0.006424699 -0.013415485 0.00034101596
-0.0006993677 -0.012332924 0.011941043 -0.00801435 -0.004799154 0.011346891 0.0046499665 -0.007497194
0.007908456 -0.008040113 0.006795634 -0.001048736 0.0024943743 -0.0016005802 -0.01275084 -0.004055587
0.0012750935 -0.0016889336 -0.004620981 -0.0034107468 0.0051717223 0.0033090527 0.004723277 0.013963606
-0.0058151917 -0.001978947 -0.0028559319 -0.005507496 -0.0043955864 -0.0029047772 -0.015453166 0.010767743
0.010433 -0.0004912089 -0.0113407085 -0.009442199 0.0072369627 -0.016743122 0.008393865 -0.0089896545
0.0069680302 0.0072925296 -0.005440565 0.0046790414 0.0038483045 0.0008478138 -0.00337068 0.010287771
0.012255817 0.018054456 -0.002930883 0.0034888082 0.02120969 0.013527677 -0.004941311 -0.011680436
-0.0010890492 -0.008131319 -0.0034561935 0.01612923 -0.008666034 -0.008807719 0.012941208 0.0018076992
0.016678337 -0.0037997994 -0.001387769 -0.0142401615 0.014854418 0.0029639183 -0.008951438 0.0032511053
-0.00716773 -0.010700816 -0.0007584759 0.0016546638 0.009731238 0.0021949916 -0.0011515444 0.0015802353
0.020567968 0.008877567 0.01036199 0.022234008 -0.011389045 -0.0009773856 0.008600032 0.01456197
00000000: 43de 913b 460f f53b 9a93 383a 27c2 923b
00000010: aba4 91bb 756c b33b c3aa 9939 215f 053c
00000020: 7d6b 87bc 0fb0 cc3a 4420 993b c816 3b3c
00000030: 9fd3 02bc 32c4 8dbb a73e 823c ffae 6abc
00000040: db2f cc3b 31ef 19ba 1b12 653a 6231 a4bc
00000050: e870 cb3c d7c2 d8bb 232d ecba 5028 7ebb
00000060: 32d3 13bc b39f 0c3b 458c 253c 74a8 653c
00000070: 7bf6 4d3c 5938 28bc f473 2cbc 64c1 ddbb
00000080: 0228 0ebc d144 5f3c 1eee 74bb 5b3e 0abc
00000090: 7951 e4bb 4886 d2bb 9fcc 5bbc 63ca b239
000000a0: c655 37ba 0810 4abc 5da4 433c 9f4e 03bc
000000b0: 3942 9dbb 4fe8 393c bf5e 983b 06ab f5bb
000000c0: 7892 013c aeba 03bc e9ad de3b be75 89ba
000000d0: a878 233b 8fca d1ba e6e8 50bc bbe4 84bb
000000e0: 0a21 a73a 355f ddba 996b 97bb d686 5fbb
000000f0: 8d77 a93b b1dc 583b b8c5 9a3b 9cc7 643c
00000100: 5d8d bebb 39b1 01bb 962a 3bbb 3a78 b4bb
00000110: da08 90bb 135e 3ebb 472f 7dbc 306b 303c
00000120: 2cef 2a3c 79c4 00ba 61ce 39bc 74b3 1abc
00000130: 0b24 ed3b df28 89bc 6c86 093c 5849 13bc
00000140: 1354 e43b 2cf6 ee3b c446 b2bb a552 993b
00000150: d633 7c3b d23f 5e3a a0e6 5cbb 0a8e 283c
00000160: 9fcc 483c f0e6 933c 0f14 40bb 7da4 643b
00000170: f2bf ad3c 31a3 5d3c b9ea a1bb 4d5f 3fbc
00000180: 6dbe 8eba 3939 05bc 4e81 62bb 7221 843c
00000190: fbfb 0dbc 404e 10bc 5c07 543c 52f0 ec3a
000001a0: 02a1 883c 0e06 79bb cde5 b5ba 914f 69bc
000001b0: f25f 733c 4c3e 423b 0da9 12bc 7f10 553b
000001c0: 47df eabb 7a52 2fbc 75d4 46ba 4ee1 d83a
000001d0: c56f 1f3c d9d9 0f3b 6bef 96ba e61f cf3a
000001e0: 287e a83c 3773 113c 56c5 293c 1824 b63c
000001f0: 1e99 3abc 9e1b 80ba 26e7 0c3c 5495 6e3c

network_body.observation_encoder.x_self_encoder.seq_layers.0.weight f4 [128, 3]
0.04406224 0.0551492 -0.020134127 0.05153073 -0.0011937025 0.029264035 -0.03449627 -0.038067054
-0.024061482 -0.039500244 -0.015739353 0.022369787 -0.019575076 0.07346245 -0.019992173 0.0477214
0.011689631 0.009532857 0.001266486 -0.0026457652 -0.040885404 -0.018465247 -0.007374012 -0.020581732
-0.035954386 0.030166576 0.02594773 0.023912542 0.009649388 0.018273512 -0.018273203 -0.0011250929
-0.023786668 -0.011128264 0.03651136 0.03043095 -0.023847409 0.030307906 0.012446729 -0.026904184
0.033575397 0.017378693 -0.06987575 0.03925849 -0.0018647083 0.07572438 -0.017484972 0.050160166
0.051050667 0.00533469 0.03984714 -0.05766898 -0.03411142 0.013495419 -0.03612135 -0.037437115
0.0037217694 -0.054975234 -0.008183043 0.05621214 0.021299299 0.0096827345 0.012663188 0.053191967
-0.021906715 -0.0009993619 -0.031734042 -0.039176647 -0.01690631 -0.029255386 -0.0365597 -0.039799117
0.022484547 -0.0286033 -0.009169117 -0.009585454 0.0048705586 -0.03644247 -0.0060209963 0.0014355262
0.010100485 0.017211242 -0.022840763 0.0012099211 0.028896045 0.032609012 -0.010979087 0.059064675
0.04641409 -0.031215219 0.035487887 0.00020889442 -0.008500303 -0.042674724 -0.01652303 -0.042814706
0.045941364 -0.03012731 0.01021193 0.0066516474 0.014300398 0.023013474 -0.0012309233 -0.029471876
-0.1012344 0.06513329 0.013112226 0.02087971 -0.00052548357 0.02307801 -0.04335104 0.029111454
0.014682493 0.03617609 -0.026539003 0.027356843 -0.013660669 -0.029198825 -0.028555071 0.017487688
-0.03870174 0.0044767214 0.00868987 -0.0391086 -0.00083682995 0.040326685 -0.039304096 0.04980662
-0.034989063 -0.04529687 -0.07362606 -0.028537758 -0.0230959 0.046850365 0.018781625 0.047446273
-0.00097282365 -0.0006812794 0.0378063 -0.032152683 0.008177571 -0.0032563074 0.0041140835 -0.0050178976
0.026423229 0.0075320485 -0.034709085 -0.06006691 -0.014749523 0.0022984033 -0.025817983 -0.0030875294
-0.001828787 0.016249279 0.0022673178 0.014297292 0.018769415 -0.003966629 0.006718384 0.03775065
-0.08517062 -0.016081974 0.020621402 -0.023616567 0.037795983 -0.0068053203 0.009517813 -0.06393081
0.034798745 0.007940441 0.021241069 -0.032003384 -0.006879093 -0.026838757 0.03586174 0.017441396
-0.028306298 -0.044612635 0.017580973 0.0075842263 -0.022607211 -0.007404531 0.06280208 -0.052188884
-0.021348258 -0.030393196 0.04361582 0.00231964 -0.021790892 0.02706574 -0.03792267 -0.03915531
0.0023870678 -0.0060042986 0.037150774 -0.019214615 -0.011971481 0.0010252648 -0.056326363 0.011368076
0.05175708 0.0311843 0.00040505975 0.0383296 0.00038947 -0.00047895583 0.0048515494 -0.03830684
-0.005892126 -0.039170466 -0.028160522 -0.036193218 -0.028257001 0.0019140794 0.00057778414 0.038247332
-0.028586045 -0.012252287 -0.027560648 -0.0556301 -0.0060061575 -0.0033569369 -0.009898725 -0.017274586
-0.045593176 -0.02062431 -0.008662128 0.025967922 0.0321035 -0.021604145 -0.08083844 0.022060499
-0.029839149 -0.02563025 0.058134966 0.015918402 -0.009004708 0.03775166 -0.0014839926 -0.003638583
-0.019387763 -0.010367804 -0.025409104 -0.028769515 -0.023838786 -0.00013443528 0.015135871 -0.00048625708
0.059965353 0.021299118 0.020461924 0.019743001 0.002581317 -0.014135583 0.015066703 -0.012367702
00000000: 9b7a 343d 21e4 613d 53f0 a4bc e311 533d
00000010: 0276 9cba 21bb ef3c f64b 0dbd 33ec 1bbd
00000020: 961c c5bc 02cb 21bd d1ef 80bc d840 b73c
00000030: e95b a0bc 7b73 963d a0c6 a3bc 8477 433d
00000040: de85 3f3c b32f 1c3c 3800 a63a 9364 2dbb
00000050: 7477 27bd 6e44 97bc b2a1 f1bb 059b a8bc
00000060: e844 13bd e51f f73c 5590 d43c 3ce4 c33c
00000070: 7718 1e3c 55b2 953c afb1 95bc da77 93ba
00000080: 42dc c2bc 5253 36bc f08c 153d 544a f93c
00000090: a45b c3bc 4948 f83c 5ded 4b3c 2a66 dcbc
000000a0: 5b86 093d c35d 8e3c 041b 8fbd 83cd 203d
000000b0: 3a69 f4ba 6215 9b3d a53c 8fbc bf74 4d3d
000000c0: 811a 513d a0ce ae3b c136 233d 4f36 6cbd
000000d0: 6bb8 0bbd e41b 5d3c fbf3 13bd a957 19bd
000000e0: eee8 733b b62d 61bd 2c12 06bc b33e 663d
000000f0: de7b ae3c 55a4 1e3c 4379 4f3c d2df 593d
00000100: b675 b3bc 05fd 82ba 8efb 01bd b177 20bd
00000110: 1a7f 8abc fea8 efbc a0bf 15bd 6604 23bd
00000120: 8331 b83c 7851 eabc 103a 16bc 4f0c 1dbc
00000130: 3599 9f3b b344 15bd c74b c5bb 4428 bc3a
00000140: 817c 253c 97fe 8c3c 8d1c bbbc 3796 9e3a
00000150: 66b7 ec3c 0791 053d a1e1 33bc cded 713d
00000160: b31c 3e3d 0fb7 ffbc bf5b 113d ab0a 5b39
00000170: db44 0bbc b1cb 2ebd 4e5b 87bc 795e 2fbd
00000180: 032d 3c3d 8ccd f6bc f04f 273c 10f6 d93b
00000190: 374c 6a3c c186 bc3c ef56 a1ba 016f f1bc
000001a0: fb53 cfbd 9a64 853d a9d4 563c ed0b ab3c
000001b0: 9bc0 09ba 180e bd3c dc90 31bd 257b ee3c
000001c0: d78e 703c 612d 143d 5368 d9bc 751b e03c
000001d0: 00d1 5fbc 6032 efbc 53ec e9bc 5742 8f3c
000001e0: b785 1ebd 76b1 923b f55f 0e3c 5730 20bd
000001f0: b55e 5bba 982d 253d 55fd 20bd 0702 4c3d
00000200: b150 0fbd 3689 39bd 42c9 96bd 04c8 e9bc
00000210: 9d33 bdbc 2be6 3f3d ecdb 993c 0657 423d
00000220: 1705 7fba e397 32ba c7da 1a3d 88b2 03bd
00000230: 38fb 053c c667 55bb 6fcf 863b 2d6d a4bb
00000240: 8775 d83c 67cf f63b 1d2b 0ebd b808 76bd
00000250: fca7 71bc cfa0 163b 3c80 d3bc 2658 4abb
00000260: e9b3 efba 351d 853c 4897 143b 303f 6a3c
00000270: 51c2 993c 7ffa 81bb e425 dc3b 6da0 1a3d
00000280: ef6d aebd 58be 83bc 37ee a83c 8877 c1bc
00000290: f6cf 1a3d 2aff debb 9af0 1b3c 28ee 82bd
000002a0: 2189 0e3d a018 023c c001 ae3c fb15 03bd
000002b0: 046a e1bb f4dc dbbc c3e3 123d 42e1 8e3c
000002c0: 9ce2 e7bc bdbb 36bd f905 903c 1a85 f83b
000002d0: c232 b9bc b5a1 f2bb 609e 803d 03c4 55bd
000002e0: 8be2 aebc 27fb f8bc 81a6 323d 1a05 183b
000002f0: d082 b2bc f9b8 dd3c cd54 1bbd 5161 20bd
00000300: 5a70 1c3b b5bf c4bb 692b 183d f867 9dbc
00000310: 0824 44bc 2e62 863a 79b6 66bd 2b41 3a3c
00000320: 3bff 533d 3876 ff3c 335e d439 80ff 1c3d
00000330: c731 cc39 5d1c fbb9 bff9 9e3b a2e7 1cbd
00000340: bc12 c1bb 3671 20bd e5b0 e6bc 573f 14bd
00000350: 3a7b e7bc d9e1 fa3a 7076 173a 3ca9 1c3d
00000360: 482d eabc d1bd 48bc dec6 e1bc 63dc 63bd
00000370: 4dcf c4bb 0e00 5cbb 432e 22bc 6f83 8dbc
00000380: e9bf 3abd 50f4 a8bc 99eb 0dbc aeba d43c
00000390: f67e 033d 2dfb b0bc a08e a5bd 38b8 b43c
000003a0: 3b71 f4bc 88f6 d1bc ee1e 6e3d 4f67 823c
000003b0: 7c88 13bc 7ca1 1a3d 8782 c2ba 4b75 6ebb
000003c0: 16d3 9ebc b9dd 29bc c126 d0bc 0cae ebbc
000003d0: 8f49 c3bc 32f7 0cb9 72fc 773c 52f0 feb9
000003e0: 3b9e 753d 7d7b ae3c c49f a73c 13bc a13c
000003f0: 502b 293b ef98 67bc 55da 763c e7a1 4abc

network_body.observation_encoder.x_self_encoder.seq_layers.0.bias f4 [128]
0.009050337 -0.008639048 -0.002383305 0.0026071835 0.006011115 0.0073311557 -0.013478753 0.008293873
0.016014246 0.0024004478 -0.006383611 0.011578842 0.007570641 -0.0025069495 -0.018023338 -0.0014965512
-0.006375142 0.012643617 0.011334856 0.0014005109 -0.003475375 -0.0029180932 -0.007712278 -0.000104104554
-0.015214989 0.00073891436 -0.020466298 0.00096418377 0.01013593 0.008496582 -0.0071922275 0.01391506
-0.001508944 0.017824724 -0.02133514 0.003784618 0.010527579 -3.0381545e-05 -0.01752909 0.0023705817
-0.0062565524 0.0012738692 0.01432417 -0.0015593623 0.01602266 -0.009621298 0.0007882191 0.007252783
-0.00028862798 -0.006268701 0.002582095 -0.0015687018 0.0007316889 -0.00055888225 -0.009648472 0.008468552
-0.006958718 -0.006739318 -0.0017900441 0.00683235 0.0065161576 0.009327006 0.010936315 -0.01086295
-0.012542987 -0.0020239216 0.011209887 -0.001007621 -0.007282816 0.0050456556 0.0068587866 -0.0070586735
-0.0054097613 0.005933223 -0.029968342 0.010739544 -0.0014679907 -0.0020922974 -0.0005241467 -0.002286054
0.012962014 0.0045487643 0.0078622345 0.006835188 -0.010352874 0.016262598 0.019686183 0.031248908
-0.00020483312 -0.0067754546 -0.004555085 -0.009931713 0.0014027673 -0.024144266 -0.0072645266 0.011229845
0.01098648 0.014217688 0.0048980913 -0.0018864933 0.0028954474 -0.00820944 0.0067778 -0.0014818424
-0.009277377 0.0086038895 -0.013433373 -0.014979313 0.0058098063 -0.0019978527 0.011908207 0.00088635687
-0.0028446522 0.013850939 -0.0056045125 0.008245543 -0.0011437464 -0.0147592155 0.003910803 0.028233549
-0.0025783044 0.0024704912 0.0049558487 0.0055234795 0.0023785539 0.009961474 0.003335346 0.011437386
00000000: dd47 143c cb8a 0dbc 3931 1cbb 48dd 2a3b
00000010: e3f8 c43b 313a f03b fdd5 5cbc 06e3 073c
00000020: 4f30 833c d550 1d3b 9c2d d1bb 2fb5 3d3c
00000030: 2413 f83b a24b 24bb aea5 93bc ed27 c4ba
00000040: 91e6 d0bb 2c27 4f3c d5b5 393c 5991 b73a
00000050: 1ec3 63bb 7b3d 3fbb 47b7 fcbb b552 dab8
00000060: 4a48 79bc b4b3 413a f0a8 a7bc 47c1 7c3a
00000070: 2c11 263c 3f35 0b3c c7ac ebbb fefb 633c
00000080: c2c7 c5ba 2805 923c 08c7 aebc 5b07 783b
00000090: de7b 2c3c dfdb feb7 2b99 8fbc c35b 1b3b
000000a0: c403 cdbb f5f7 a63a ecaf 6a3c 8463 ccba
000000b0: f441 833c a6a2 1dbc 7da0 4e3a c1a8 ed3b
000000c0: fe52 97b9 ad69 cdbb 5e38 293b e69c cdba
000000d0: d0ce 3f3a f481 12ba a014 1ebc aebf 0a3c
000000e0: f505 e4bb 7fd5 dcbb ea9f eaba e8e1 df3b
000000f0: 7e85 d53b 4cd0 183c 3b2e 333c 84fa 31bc
00000100: 1a81 4dbc c5a3 04bb ada9 373c 2612 84ba
00000110: b0a4 eebb 0756 a53b acbf e03b 724c e7bb
00000120: 5e44 b1bb 7b6b c23b 2b80 f5bc eaf4 2f3c
00000130: 9869 c0ba ed1e 09bb e466 09ba 9fd1 15bb
00000140: a15e 543c cd0d 953b 9ad0 003c b6f9 df3b
00000150: 1a9f 29bc 2439 853c eb44 a13c b6fd ff3c
00000160: 79c8 56b9 a204 debb d342 95bb a0b8 22bc
00000170: 0fdd b73a 32ca c5bc 440b eebb 62fd 373c
00000180: a300 343c 4ef1 683c 2b80 a03b 3644 f7ba
00000190: 8cc1 3d3b e380 06bc 4f18 de3b 613a c2ba
000001a0: 2400 18bc 54f7 0c3c a617 5cbc cb6b 75bc
000001b0: 3060 be3b 68ee 02bb a41a 433c 675a 683a
000001c0: 586d 3abb 0def 623c 0fa6 b7bb 5018 073c
000001d0: c3e9 95ba a3d0 71bc 3126 803b 0b4a e73c
000001e0: c5f8 28bb f7e7 213b ac64 a23b 4efe b43b
000001f0: 83e1 1b3b 7335 233c d295 5a3b e063 3b3c

network_body._body_endoder.seq_layers.0.weight f4 [128, 131]
0.0077542895 -0.06251002 0.04706425 -0.182735 -0.049882997 -0.0012229586 0.0726622 -0.122666575
-0.018743083 -0.17284402 -0.028498918 0.031528402 0.09051854 -0.055021793 0.04757813 0.025217986
-0.0872127 0.034225915 -0.06889474 -0.08023283 0.027373243 0.1029578 -0.07177522 0.014071709
0.015097174 0.058115166 -0.061960228 -0.057569884 0.1144995 -0.0065566166 -0.08691632 0.031302758
-0.11673408 0.018520031 -0.0053379345 0.014031291 -0.09314836 0.025962751 -0.117813475 0.20689993
-0.12790734 0.08396751 -0.061103817 -0.034231316 -0.025062434 0.10084085 -0.03130186 -0.04249219
0.07806352 -0.101502016 0.07899391 -0.0077464315 0.13707784 -0.14465643 0.058510076 -0.10272052
-0.107644014 0.05792608 -0.05785593 -0.20174915 0.023493446 -0.036122113 0.0571521 0.06882729
0.011873122 0.10488375 -0.0055369153 0.015911955 -0.020287361 0.0067390124 0.06267268 -0.05975999
0.064126104 -0.03178548 -0.056170795 0.094046615 -0.17113586 0.0124664465 -0.04003883 0.077680364
-0.09722225 0.0038569977 -0.003738963 -0.013665671 -0.14766203 -0.16717808 -0.028779007 -0.074171945
0.10104828 -0.09007177 0.0068162666 -0.03394143 -0.045896914 -0.30789652 0.13481158 -0.07480315
-0.0007248511 0.14236613 0.13652173 -0.10890995 0.05648861 -0.05899917 -0.06746283 -0.06022983
0.04198597 -0.036963303 0.0063002277 0.03253216 -0.06573362 -0.09572793 -0.11316227 0.010226447
-0.012309338 -0.0017995142 -0.04262823 0.0138343135 -0.08988119 -0.026514241 0.004243157 0.074114904
0.11359568 0.052989013 0.020812247 -0.14129286 0.09143131 0.10057573 -0.05339847 -0.022911912
0.0102645 0.021643424 0.015501874 -0.020775598 -0.10217963 -0.09894678 -0.1559635 0.14222106
0.07827609 0.04612432 0.034094654 -0.1430405 0.19096932 -0.1229613 -0.08768576 -0.06344264
-0.026528211 -0.0206541 0.10913312 0.13603935 -0.01991882 -0.036109157 0.16666453 -0.08366389
0.09031687 0.06339856 -0.018362505 -0.04417785 -0.10038862 0.08385009 0.1738514 0.114434175
-0.06079428 -0.13482107 -0.028020142 0.038642775 -0.026941735 -0.029236164 -0.093335085 0.15158813
-0.08511273 0.0058877887 0.008970702 0.19994593 0.024263503 0.0684626 -0.057046317 -0.10740039
-0.013072954 0.08455254 -0.013415707 -0.08020728 -0.00050648686 0.05724134 -0.15799281 0.20440537
-0.10586383 -0.13490209 -0.045931578 -0.026286272 -0.08392396 0.021617025 0.13866904 0.046831135
-0.11376262 -0.10122136 -0.046708483 -0.076512225 -0.007705529 0.0015826497 0.03634167 0.088336
0.08741963 -0.001943928 0.07846985 -0.024312295 0.028351517 0.040427405 -0.06573357 0.12796357
0.014771874 0.091491856 -0.018606843 -0.0209052 0.056779593 -0.07357234 -0.0386178 -0.006929946
-0.06256204 0.03466925 -0.024331713 0.0049622804 -0.033201747 0.05538399 -0.012954668 -0.006838641
0.050255984 -0.043026358 0.12573054 0.05556663 0.054433014 -0.062140636 0.03897989 0.08174162
0.06194794 0.099475935 0.20942299 -0.022040738 -0.025393592 0.007266938 -0.14216413 -0.08858523
0.03612058 -0.0019341885 -0.10349125 -0.12373641 -0.017269604 -0.058390602 0.14175041 0.13168731
-0.009069746 0.033452448 -0.13826877 -0.026296036 -0.06228556 0.012179918 -0.052549094 0.17958474
00000000: b217 fe3b 4105 80bd 71c6 403d e21e 3bbe
00000010: 1d52 4cbd ae4b a0ba ebcf 943d 9d38 fbbd
00000020: 188b 99bc 06fe 30be 9076 e9bc ed23 013d
00000030: c961 b93d 885e 61bd 49e1 423d f395 ce3c
00000040: 929c b2bd 7930 0c3d af18 8dbd 1c51 a4bd
00000050: da3d e03c 8adb d23d e3fe 92bd 068d 663c
00000060: 235a 773c 2b0a 6e3d 02ca 7dbd 66ce 6bbd
00000070: b77e ea3d e3d8 d6bb 2f01 b2bd 5237 003d
00000080: 4712 efbd 52b7 973c d7e9 aebb 80e3 653c
00000090: 91c4 bebd d6af d43c 3148 f1bd 93dd 533e
000000a0: 24fa 02be 28f7 ab3d ff47 7abd 2336 0cbd
000000b0: bc4f cdbc a685 ce3d 6136 00bd 4a0c 2ebd
000000c0: c4df 9f3d 4ae0 cfbd 8fc7 a13d c7d5 fdbb
000000d0: 225e 0c3e d120 14be 43a8 6f3d 235f d2bd
000000e0: 7774 dcbd e643 6d3d 57fa 6cbd 5497 4ebe
000000f0: 5475 c03c c8f4 13bd 5218 6a3d 52f5 8c3d
00000100: 7c87 423c 4bcd d63d 036f b5bb ca59 823c
00000110: ae31 a6bc efd2 dc3b 895a 803d e4c6 74bd
00000120: 8c54 833d 7e31 02bd 5913 66bd 839b c03d
00000130: 3d3e 2fbe 1140 4c3c c2ff 23bd e216 9f3d
00000140: 761c c7bd afc5 7c3b 6409 75bb fbe5 5fbc
00000150: b734 17be bb30 2bbe f4c1 ebbc 76e7 97bd
00000160: 67f2 ce3d 8c77 b8bd fd5a df3b 2b06 0bbd
00000170: 67fe 3bbd 9da4 9dbe 0c0c 0a3e 6532 99bd
00000180: ef03 3eba 6dc8 113e 5acc 0b3e 2e0c dfbd
00000190: 9a60 673d 1da9 71bd f429 8abd 8eb3 76bd
000001a0: 7bf9 2b3d d566 17bd 2472 ce3b 7140 053d
000001b0: 599f 86bd 010d c4bd 9fc1 e7bd d48c 273c
000001c0: 1bad 49bc addd ebba f09a 2ebd 51a9 623c
000001d0: a113 b8bd 6534 d9bc 2e0a 8b3b 8ec9 973d
000001e0: daa4 e83d 020b 593d 727e aa3c 13af 10be
000001f0: 5740 bb3d a6fa cd3d 5bb8 5abd c3b1 bbbc
00000200: 6f2c 283c 8d4d b13c 92fb 7d3c 9631 aabc
00000210: 8e43 d1bd 9ca4 cabd e5b4 1fbe 66a2 113e
00000220: 374f a03d dbec 3c3d d6a6 0b3d 3579 12be
00000230: 768d 433e 22d3 fbbd 9794 b3bd 37ee 81bd
00000240: b151 d9bc ca32 a9bc 2f81 df3d e64d 0b3e
00000250: cb2c a3bc 32e7 13bd 1baa 2a3e f957 abbd
00000260: 0df8 b83d 1bd7 813d f76c 96bc d5f3 34bd
00000270: 8c98 cdbd 99b9 ab3d 1a06 323e 775c ea3d
00000280: 6c03 79bd 890e 0abe 7f8a e5bc e347 1e3d
00000290: eab4 dcbc ae80 efbc 7726 bfbd eb39 1b3e
000002a0: 954f aebd 5aee c03b daf9 123c a0be 4c3e
000002b0: 41c4 c63c 1f36 8c3d 66a9 69bd bcf4 dbbd
000002c0: f12f 56bc e229 ad3d 8ecd 5bbc b743 a4bd
000002d0: c2c5 04ba e575 6a3d dec8 21be a44f 513e
000002e0: 23cf d8bd c623 0abe c022 3cbd 4f56 d7bc
000002f0: 53e0 abbd 3016 b13c 42ff 0d3e 01d2 3f3d
00000300: 60fc e8bd 254d cfbd 6551 3fbd 71b2 9cbd
00000310: aa7e fcbb e970 cf3a 01db 143d 81e9 b43d
00000320: 1009 b33d 66cb feba cdb4 a03d 942a c7bc
00000330: 7141 e83c 3597 253d 529f 86bd e208 033e
00000340: bb05 723c 1560 bb3d 616d 98bc 6241 abbc
00000350: b891 683d 18ad 96bd b32d 1ebd 9a14 e3bb
00000360: 8720 80bd 5801 0e3d 4d53 c7bc a09a a23b
00000370: 8efe 07bd 53da 623d d13f 54bc ae16 e0bb
00000380: 38d9 4d3d 683c 30bd 82bf 003e d699 633d
00000390: 27f5 5e3d 2e87 7ebd 61a9 1f3d 2768 a73d
000003a0: 20bd 7d3d 0aba cb3d fb72 563e c78e b4bc
000003b0: 3906 d0bc 7f1f ee3b 7993 11be 2c6c b5bd
000003c0: 2cf3 133d 9984 fdba 38f3 d3bd 8469 fdbd
000003d0: fc78 8dbc fc2a 6fbd 0527 113e 0ad9 063e
000003e0: 4699 14bc 6f05 093d 5496 0dbe c96a d7bc
000003f0: 251f 7fbd 478e 473c b83d 57bd 10e5 373e

network_body._body_endoder.seq_layers.0.bias f4 [128]
0.0039999704 0.001409896 -0.0071647125 -0.009622357 -0.002506218 0.0040890197 -0.0033365476 0.002395608
-0.0086722765 -0.000900253 0.016419768 0.0021617925 -0.032911483 0.00083703076 0.020968428 0.0012988885
-0.012507472 -0.008326901 0.011232067 0.0063202223 0.007291237 0.014585941 0.003071484 -0.015617182
0.019510098 0.0035422763 -0.01702057 0.0072992127 0.022248728 -0.0075407443 0.010150475 0.005030125
0.021482982 -0.017145116 -7.020552e-05 0.0051234686 -0.0025393334 0.00786396 -0.008456924 0.024478901
0.011449741 0.013813084 0.004860774 -0.004738731 0.010655679 0.004101234 0.024491383 0.009903635
0.0013363216 0.01703954 0.015143167 -0.005440849 -0.009646354 0.010701777 0.040410202 -0.014149813
0.0076306895 0.00809238 0.005592846 0.008017356 0.0112213055 0.016950946 0.0073844464 0.0113986675
0.008166149 -0.0032308549 -0.00047101267 0.0061434 0.019594587 0.004833919 0.015396415 -0.02040864
-0.029912345 0.0049971137 0.01649859 0.0065193283 0.029738601 -0.006007063 -0.00048202142 -0.0017966077
-0.0031223847 -0.027692776 -0.0006435241 0.018515883 0.0047844276 0.017599342 -0.016387 0.025508763
-0.03029493 -0.018368648 0.015192652 -0.011465959 0.002815943 -0.0043250294 -0.012945893 0.026334254
-0.016401168 -0.0025264937 -0.0012747823 0.008996851 0.0001702119 -0.0070487815 0.008141935 -0.006260629
-0.01058852 -0.0071672625 -0.007392538 -0.01928716 0.005700548 -0.011361866 -0.013274216 0.011758796
-0.023693062 -0.0045364 -0.004645829 0.015961066 -0.0070159347 -0.0013586676 -0.007391892 -0.007105402
-0.012166623 -0.001179384 0.014454998 -0.008900036 0.007158385 0.0074923714 0.012916506 0.014872956
00000000: 2f12 833b 42cc b83a f7c5 eabb 17a7 1dbc
00000010: 5c3f 24bb 2ffd 853b fba9 5abb a2ff 1c3b
00000020: 2a16 0ebc f5fe 6bba c082 863c dcac 0d3b
00000030: 31ce 06bd 2f6c 5b3a fbc5 ab3c 773f aa3a
00000040: 24ec 4cbc 8e6d 08bc b406 383c de19 cf3b
00000050: 54eb ee3b dff9 6e3c f34a 493b 35df 7fbc
00000060: a4d3 9f3c 8925 683b b96e 8bbc 3c2e ef3b
00000070: f742 b63c 5918 f7bb 2e4e 263c bfd3 a43b
00000080: 14fd af3c ea73 8cbc 4d3b 93b8 c5e2 a73b
00000090: f26a 26bb d7d7 003c e98e 0abc fa87 c83c
000000a0: b297 3b3c 4650 623c 2147 9f3b 5b47 9bbb
000000b0: 2895 2e3c a563 863b 27a2 c83c db42 223c
000000c0: 8327 af3a 8196 8b3c 0c1b 783c 2649 b2bb
000000d0: be0b 1ebc 8256 2f3c 2b85 253d 9ed4 67bc
000000e0: dd0a fa3b e795 043c 3144 b73b 3a5b 033c
000000f0: 91d9 373c b6dc 8a3c 3af9 f13b 7ac1 3a3c
00000100: 50cb 053c c0bc 53bb 40f2 f6b9 934e c93b
00000110: d484 a03c da65 9e3b 3f41 7c3c 0530 a7bc
00000120: bc0a f5bc d4be a33b 0d28 873c 17a0 d53b
00000130: 5e9e f33c e6d6 c4bb d2b7 fcb9 277c ebba
00000140: eca0 4cbb f6db e2bc 2cb2 28ba 9fae 973c
00000150: b0c6 9c3b 7f2c 903c 083e 86bc c1f7 d03c
00000160: 132d f8bc d979 96bc 9aea 783c b8db 3bbc
00000170: af8b 383b fab8 8dbb 031b 54bc efba d73c
00000180: be5b 86bc 8893 25bb 9916 a7ba 8767 133c
00000190: e97a 3239 77f9 e6bb c065 053c f625 cdbb
000001a0: 797b 2dbc 5bdb eabb 1a3d f2bb 1b00 9ebc
000001b0: aacb ba3b 1f27 3abc 197c 59bc f7a7 403c
000001c0: f417 c2bc 15a6 94bb 0a3c 98bb c8c0 823c
000001d0: ede5 e5bb 5215 b2ba af37 f2bb 6fd4 e8bb
000001e0: 8456 47bc 8f95 9aba a8d4 6c3c 75d1 11bc
000001f0: e390 ea3b 9182 f53b c19f 533c b3ad 733c

network_body._body_endoder.seq_layers.2.weight f4 [128, 128]
0.06405813 -0.09306514 0.0042432775 0.17961206 0.10113364 0.08428292 -0.1980134 0.05431487
-0.06385206 -0.022384902 -0.10547064 -0.014850332 -0.033412743 0.055119667 0.012032836 0.13093612
-0.04865299 -0.004050416 -0.018928729 0.026783628 -0.05084003 0.019284556 -0.11064897 0.0060246154
-0.06375359 -0.08600022 0.053922605 0.058383174 0.029981175 0.025370257 0.0028266003 0.15382496
-0.07942677 -0.09101266 0.04067597 -0.13430214 0.14152417 0.12876475 -0.10521876 0.1389103
0.02526467 -0.0100262575 0.072478116 -0.11152167 -0.11098277 0.06770497 -0.021112058 -0.056283098
0.08806771 0.046314847 0.12623328 0.043698158 0.06403344 -0.094808616 0.010225518 0.042779002
0.17547764 0.22382088 -0.03298873 -0.087957054 -0.05237321 0.17750917 -0.0008568803 -0.14664018
0.065996855 -0.041494098 -0.057008408 -0.079164125 0.031748496 -0.082820214 -0.052100778 -0.12581988
0.17948648 0.17685138 -0.08392647 0.025947098 -0.057708327 -0.09328772 -0.02060949 -0.16295445
0.016252728 0.07654453 0.054212708 -0.021124246 0.09289626 -0.14063247 -0.040308617 -0.13347656
0.11371894 0.0011031444 -0.097940326 0.023888208 -0.13239852 0.0074840635 -0.10840874 0.04495023
0.053689454 -0.15112905 0.08399491 0.05536298 0.042937543 -0.18973415 0.07699371 -0.07446119
-0.08400869 -0.11130905 0.07836899 0.045215745 -0.03741944 0.0488116 0.109122135 -0.1682625
-0.08897915 0.088410445 0.03789341 0.00037693884 0.05371671 0.06516209 -0.14254284 -0.09862415
-0.13199264 -0.11491721 0.007772377 0.00495311 -0.04906404 -0.06634162 -0.1294984 -0.12536812
-0.06193969 -0.06994104 -0.11189763 0.14714868 -0.014414945 0.09986035 -0.08120679 0.07840995
0.092487834 0.017637525 0.108594075 0.09247944 -0.0639306 -0.15567535 -0.06290447 -0.025533482
0.040025566 -0.123965584 0.14208135 0.06451758 -0.048080385 -0.13689502 -0.06774549 -0.097686596
0.07618258 -0.09454801 0.029373879 -0.11365626 -0.024506599 0.11967769 0.10763997 0.083740555
0.06312886 0.051755235 0.09741004 0.118358836 0.11613755 0.05455196 -0.040168755 0.16130543
0.047640212 0.05640809 -0.002580186 -0.03301643 -0.038461894 -0.008136685 0.039627276 -0.022868603
-0.083211526 0.040167157 0.10833488 0.088633776 0.12991646 0.15020518 -0.10146638 0.1737737
0.033431962 -0.06742918 -0.09369516 -0.048491474 -0.049499925 -0.09054873 0.106597185 0.116118
-0.16096912 -0.010160864 -0.05286253 0.044373002 0.12969892 -0.076472335 -0.1280309 0.0043206336
0.121697575 -0.029146045 -0.1946623 0.117839865 -0.025251037 -0.027860384 0.06223129 0.07896555
0.0059510283 -0.15104116 -0.16876048 -0.14177454 -0.045399718 0.085258655 0.060477026 -0.05047171
-0.15220241 -0.029160053 -0.1527864 0.10814406 -0.027475638 0.14156839 -0.017902477 -0.010745985
-0.028933506 0.07854515 0.065328166 0.104169235 -0.0073227426 0.02351727 0.10633528 0.005216513
-0.06871324 0.0017588239 -0.057789043 0.081727445 0.038094644 -0.009229003 0.106186524 0.15316476
0.013140943 0.009527822 -0.08350009 -0.04142159 -0.08122269 0.021307187 -0.00203321 0.046732627
0.0270998 0.09940542 -0.0021517514 0.16397049 -0.040281992 -0.02982633 0.021312265 -0.056771092
00000000: e930 833d f098 bebd 310b 8b3b 39ec 373e
00000010: 271f cf3d 869c ac3d 06c4 4abe 4579 5e3d
00000020: dec4 82bd 8b60 b7bc fe00 d8bd cf4e 73bc
00000030: cddb 08bd 29c5 613d 5f25 453c 1e14 063e
00000040: 5c48 47bd 5ab9 84bb 6c10 9bbc 5769 db3c
00000050: a33d 50bd a5fa 9d3c ed9b e2bd 236a c53b
00000060: 3e91 82bd e220 b0bd f3dd 5c3d 3223 6f3d
00000070: 159b f53c 49d5 cf3c 7c3e 393b 4a84 1d3e
00000080: 81aa a2bd d864 babd d99b 263d 8086 09be
00000090: b6eb 103e e8da 033e ef7c d7bd 803e 0e3e
000000a0: daf7 ce3c 2c45 24bc 686f 943d 7965 e4bd
000000b0: ef4a e3bd e7a8 8a3d 32f3 acbc 1b89 66bd
000000c0: d85c b43d a3b4 3d3d 4c43 013e d7fc 323d
000000d0: f723 833d 052b c2bd ee88 273c 0939 2f3d
000000e0: 69b0 333e 4d31 653e 311f 07bd d422 b4bd
000000f0: 4b85 56bd f7c4 353e 43a0 60ba d828 16be
00000100: 5c29 873d b7f5 29bd a681 69bd cd20 a2bd
00000110: b60a 023d a59d a9bd a067 55bd edd6 00be
00000120: 4ecb 373e 8718 353e a4e1 abbd 028f d43c
00000130: 915f 6cbd a20d bfbd 3cd5 a8bc 88dd 26be
00000140: 7124 853c 61c3 9c3d 250e 5e3d c10c adbc
00000150: 6540 be3d f501 10be a61a 25bd 14ae 08be
00000160: 7ae5 e83d 6297 903a f094 c8bd 34b1 c33c
00000170: 7a93 07be e03c f53b 6705 debd bb1d 383d
00000180: 79e9 5b3d 93c1 1abe 8605 ac3d 4bc4 623d
00000190: 47df 2f3d ab49 42be e1ae 9d3d 1c7f 98bd
000001a0: c00c acbd 00f6 e3bd ec7f a03d 2534 393d
000001b0: 2045 19bd acee 473d 6d7b df3d 014d 2cbe
000001c0: b33a b6bd 8910 b53d 1f36 1b3d e09f c539
000001d0: 0e06 5c3d b473 853d c0f6 11be 75fb c9bd
000001e0: 1429 07be b759 ebbd 6daf fe3b b34d a23b
000001f0: 60f7 48bd 1ede 87bd 3b9b 04be 8060 00be
00000200: 79b4 7dbd 3f3d 8fbd 962a e5bd 25ae 163e
00000210: a92c 6cbc 9583 cc3d bf4f a6bd 6595 a03d
00000220: 436a bd3d 927c 903c 9266 de3d dc65 bd3d
00000230: 0cee 82bd 5c69 1fbe 0fd4 80bd 982b d1bc
00000240: d9f1 233d abe1 fdbd c67d 113e cb21 843d
00000250: f0ef 44bd 352e 0cbe 26be 8abd e90f c8bd
00000260: 9d05 9c3d 63a2 c1bd 7da1 f03c 9dc4 e8bd
00000270: 10c2 c8bc 9419 f53d 5872 dc3d 2b80 ab3d
00000280: b449 813d 4cfd 533d ea7e c73d 1e66 f23d
00000290: 86d9 ed3d e071 5f3d fe87 24bd 402d 253e
000002a0: 6222 433d 2b0c 673d 5618 29bb 3c3c 07bd
000002b0: 388a 1dbd bb4f 05bc 3650 223d f056 bbbc
000002c0: ce6a aabd 5186 243d adde dd3d a085 b53d
000002d0: d208 053e 63cf 193e 9bcd cfbd bcf1 313e
000002e0: f4ef 083d 4f18 8abd 3fe3 bfbd ff9e 46bd
000002f0: 6fc0 4abd 9d71 b9bd a04f da3d 46cf ed3d
00000300: 17d5 24be c179 26bc 6186 58bd 77c0 353d
00000310: cbcf 043e 879d 9cbd 881a 03be 1a94 8d3b
00000320: 943c f93d b0c3 eebc 8e55 47be 0756 f13d
00000330: 43db cebc 763b e4bc 3de6 7e3d b1b8 a13d
00000340: d800 c33b 89aa 1abe 8ccf 2cbe 582d 11be
00000350: 0ef5 39bd 179c ae3d c2b6 773d 6cbb 4ebd
00000360: f3da 1bbe 10e1 eebc 0a74 1cbe a27a dd3d
00000370: 9714 e1bc 4ef7 103e 37a8 92bc ee0f 30bc
00000380: f605 edbc 48dc a03d c6ca 853d ae56 d53d
00000390: 9ef3 efbb 4aa7 c03c 50c6 d93d 48ef aa3b
000003a0: 87b9 8cbd 5688 e63a 34b4 6cbd b860 a73d
000003b0: 2109 1c3d 3f35 17bc 5278 d93d 39d7 1c3e
000003c0: 1c4d 573c 951a 1c3c 1802 abbd afa9 29bd
000003d0: 1558 a6bd 698c ae3c 9a3f 05bb b66a 3f3d
000003e0: 6600 de3c 1295 cb3d 6604 0dbb e1e7 273e
000003f0: bbfe 24bd 5956 f4bc 0f97 ae3c ce88 68bd

network_body._body_endoder.seq_layers.2.bias f4 [128]
0.00548478 0.0034989405 0.0020462275 -0.0056746933 -0.01021199 -0.0019853842 -0.013997752 0.0008745836
-0.015465374 -0.00949549 -0.0014902023 0.004129076 0.014727614 0.0056185797 0.014165941 0.008184887
0.0078284815 0.005347406 0.01611077 0.009119283 -0.013183445 -0.00091261015 0.000115751725 -0.014544122
-0.008441943 -0.025404735 -0.001957984 0.0030321185 0.0065537007 0.016061552 -0.015539665 0.03082925
-0.009629123 0.027945198 -0.013714402 0.021786401 -0.010200157 -0.020757655 -0.0005999563 -0.0024534957
-0.0047650533 0.014975456 -0.008027525 0.008414136 0.021664182 0.0052399486 -0.011619803 0.0028922928
0.0239274 0.014909417 0.0015822856 -0.015032786 0.00753013 -0.00035362085 -0.017894417 -0.007462118
0.0017646351 -0.000986194 -0.01854435 0.012260715 -0.0015474181 -0.026298491 -0.011701751 0.003304896
-0.020456366 0.018013932 -0.001636928 -0.0039008607 0.01017128 -0.006555879 -0.0027861628 0.017196503
0.0041775666 -0.008572566 -0.009575322 -0.007228486 0.0064601214 0.02977093 0.0065631387 0.0066065593
0.0007595467 -0.007697806 -0.010143404 0.013639903 -0.008228271 -0.0026615262 -0.00338711 0.007934317
-0.012662014 -0.009722882 0.020019941 0.00600707 0.011817153 -0.011923585 0.01745714 -0.006357776
0.013284961 -0.0065129087 0.004954593 0.015032434 0.0046823397 0.0047936896 -0.0003119084 0.0098857805
0.015363656 0.021911096 -0.0032698808 0.0049429513 0.0040033823 -0.017971389 -0.0026312598 0.0051327017
0.0037449726 -0.017276121 -0.007928731 -0.0020026832 0.0107220365 -0.003860089 -0.01766006 0.002554374
0.02369253 0.01696819 -0.009276883 -0.00046991394 0.01517478 0.002525858 -0.00515528 0.010082416
00000000: abb9 b33b 7b4e 653b 001a 063b c7f2 b9bb
00000010: 3150 27bc 381d 02bb d456 65bc 5044 653a
00000020: 7b62 7dbc f992 1bbc e452 c3ba 334d 873b
00000030: 174c 713c 101c b83b 4318 683c e719 063c
00000040: 0843 003c 4b39 af3b bcfa 833c 0c69 153c
00000050: 60ff 57bc 3b3c 6fba bcbf f238 784a 6ebc
00000060: 1350 0abc 971d d0bc 8551 00bb 82b6 463b
00000070: 6dc0 d63b 8493 833c 149a 7ebc a08d fc3c
00000080: 78c3 1dbc 54ed e43c 5fb2 60bc 6579 b23c
00000090: 8f1e 27bc f50b aabc 6346 1dba d4ca 20bb
000000a0: 2a24 9cbb 9d5b 753c e185 03bc 72db 093c
000000b0: 1579 b13c e0b3 ab3b fc60 3ebc 9f8c 3d3b
000000c0: 6503 c43c a146 743c b264 cf3a 134c 76bc
000000d0: 4fbf f63b 3066 b9b9 5097 92bc c884 f4bb
000000e0: 544b e73a 2e43 81ba 52ea 97bc 2ae1 483c
000000f0: bcd2 caba ef6f d7bc b3b8 3fbc f496 583b
00000100: 1c94 a7bc f491 933c 308e d6ba 95a5 7fbb
00000110: 71a5 263c b3d2 d6bb 0e98 36bb aedf 8c3c
00000120: f8e3 883b f373 0cbc d0e1 1cbc efdc ecbb
00000130: 6daf d33b 2ae2 f33c 990f d73b d67b d83b
00000140: 511c 473a e13d fcbb 8530 26bc e679 5f3c
00000150: dfcf 06bc 006d 2ebb 47fa 5dbb f0fe 013c
00000160: 5674 4fbc b94c 1fbc dc00 a43c f5d6 c43b
00000170: bb9c 413c 245b 43bc 4702 8f3c e454 d0bb
00000180: 2aa9 593c 3d6a d5bb 235a a23b 994a 763c
00000190: 506e 993b 6214 9d3b a387 a3b9 f8f7 213c
000001a0: d8b7 7b3c e67e b33c 7f4b 56bb 7bf8 a13b
000001b0: ce2e 833b bc38 93bc 3771 2cbb 3930 a83b
000001c0: 376e 753b a786 8dbc 82e7 01bc 733f 03bb
000001d0: 7bab 2f3c 8cf9 7cbb d5ab 90bc 4967 273b
000001e0: d616 c23c e000 8b3c 11fe 17bc c85e f6b9
000001f0: a49f 783c de88 253b a0ed a8bb b830 253c
