Assets/result/ppo/My Behavior/My Behavior-1999969.onnx (onnx, 578818 bytes, 21 tensors)

network_body.observation_encoder.processors.0.self_ent_encoder.seq_layers.0.bias f4 [128]
00000000: 074a 69bc 562e ccbb ad33 993c 811e 74bc
00000010: beba 153c b1a6 97bc be92 533c 1a20 cbbc
00000020: 534a a73a a2ec a7bb 0533 f53b b170 59bb
00000030: ddc7 09bc 0f40 b53c 5b00 04bc d0bc 10bc
00000040: 685a 643a 92e8 5ebc 1465 2dbc 5a11 c03b
00000050: 2b86 e63b 9b8c 04bb 77f0 643b 68c3 90bc
00000060: fb76 0f3c 82ee f7bb c58c af3c d430 683a
00000070: 4710 6dbc 14cc 0c3b 4ccb a6bc 1cbb 8abc
00000080: d410 89bb 7b87 243a aba3 fc3b d379 87bc
00000090: 42b5 82bc 635d f73b fb85 bc3b 2751 90bb
000000a0: 7de2 82ba cc1d 093c 1f1e 453c 39be 873a
000000b0: f3b7 9bbc 2aa2 9c38 152c d0bb affd 6c3c
000000c0: 1f34 98bb 3b8b 00bc be38 4c3c 19cd 81bb
000000d0: 5844 b1bc 8286 5e3c d951 483b 3418 9f39
000000e0: 36d0 be3b 1a8c e8bc 5851 06bc cdb9 5fbc
000000f0: 21ee b53c 95d7 853c dc71 253c 56c2 223c
00000100: 9c80 42bc 0d01 36bc 938c 443c 38a4 f2ba
00000110: 9c70 633a 96ce 4c3c 4eb3 0f3c 4fb0 39bc
00000120: c16c b4bc 4ae9 983c 3edb 8e3b 67d1 193c
00000130: 8efd c83a 368a 2d39 6b28 ecbb a718 e9bc
00000140: 0f81 073c 1fc3 adbc 686c 04bb 96be 3b3c
00000150: 729e 4bbc d5ee 9abb 00fa b43c 7359 bc3b
00000160: c7ec 653b cb49 bd3b a894 50bb c918 103c
00000170: 46d0 99ba 9b71 e1bb 7c32 583c 5e6a ccbb
00000180: a45a 8d3b b35a 153c 3088 d2bb 0b7f e43a
00000190: 0621 be3c 2448 a63b 4a07 5f3c 5b4e 70bb
000001a0: e99e 59bc d221 043c 1b7a bc3b fd4c 96bc
000001b0: 87df 86bb 3da1 83bc df66 d7bb cfd0 0d3c
000001c0: 8ec5 86bb 7cb1 8abc fc4a d63c 69d2 02bc
000001d0: 5e3e 96bb 16f8 e83b f977 94bc a68c b23b
000001e0: a38a a2bc fe62 283b 2f5e c6bb 68ca 24bc
000001f0: 4d29 cc3c 861d e4bb 07b7 da3b 415f 813c
-0.014238841 -0.0062311096 0.018701399 -0.014899851 0.009138761 -0.018512102 0.012913404 -0.02479558
0.0012763239 -0.0051246444 0.0074828886 -0.0033178742 -0.0084094675 0.022125272 -0.008056725 -0.008834079
0.00087109813 -0.013605254 -0.010583181 0.0058614435 0.007035037 -0.002022541 0.0034933367 -0.017671302
0.0087563945 -0.007566274 0.021429429 0.00088573736 -0.014469213 0.0021483945 -0.020360611 -0.016934924
-0.0041829143 0.00062762917 0.0077099404 -0.016537583 -0.015955571 0.0075489744 0.0057532764 -0.0044042054
-0.0009985712 0.008368921 0.012031107 0.0010356373 -0.019008612 7.468865e-05 -0.0063529112 0.01446478
-0.004644885 -0.007845695 0.0124647 -0.003961217 -0.021639034 0.013581874 0.0030566363 0.00030344876
0.0058231605 -0.028387118 -0.008198105 -0.013655138 0.022208275 0.01633815 0.010097947 0.009934029
-0.011871483 -0.011108649 0.011996406 -0.0018512076 0.0008676143 0.012500426 0.008770777 -0.011333539
-0.022024514 0.018665928 0.004359632 0.009388304 0.0015334354 0.00016550053 -0.0072069666 -0.028454138
0.008270516 -0.021211205 -0.0020206217 0.011459013 -0.012427913 -0.004728178 0.022091866 0.005747968
0.0035083757 0.005776619 -0.0031826887 0.008794972 -0.0011735044 -0.006879998 0.01319563 -0.006238266
0.0043137837 0.009115863 -0.006424926 0.0017432881 0.023209106 0.005074518 0.013612578 -0.0036667797
-0.013282516 0.008064704 0.005751861 -0.018347258 -0.004116002 -0.016068095 -0.0065735425 0.008655741
-0.004112906 -0.016930334 0.026158802 -0.007984736 -0.0045850715 0.0071096523 -0.018123614 0.0054488955
-0.019841498 0.002569377 -0.006053708 -0.010058023 0.024922037 -0.0069615273 0.0066746506 0.01579249

network_body.observation_encoder.processors.1.self_ent_encoder.seq_layers.0.bias f4 [128]
00000000: 2c38 eb3b 4b2f 013c 7a67 54bc 12cd 2abc
00000010: b5fa d3bb 20e0 823c 59e1 4dbc 7184 193a
00000020: 19fa 67ba 723b 0bbc c6ba c23a 71d6 abbb
00000030: 6dff fc3a cbd3 9abc bf3e 52bc 05e6 6c3b
00000040: 5322 c83b 5745 15bc 1274 b4bb 04a9 8bbc
00000050: 4a70 813c 8c73 e53a 8436 8abb 04ef 02bc
00000060: 0d5c 6abc 8202 a8bb edce c03b 8acc 0bbc
00000070: 24b9 043c 3875 e4bb 9b93 933c 57d9 433c
00000080: 3cd0 6bbb a0fe d2bb 7cd1 103b ff20 cc3b
00000090: dcdc 28bc b4cd 0bbc 09ef 41ba 8d14 f43b
000000a0: 27e3 32bc 5e64 a13b 03de 053b 25d5 08bc
000000b0: 78e3 eb3a 6d33 873c b397 12bc 2c0b 0dbb
000000c0: b6de f13b ac83 743b 4fd4 61bc 21b4 373c
000000d0: 01e5 af3b 0749 f0bb 7c02 3d3b e218 2bbc
000000e0: ae4e 493c 0dae 4c3c fee9 07bb ef89 9abb
000000f0: eb0b 05bc 2404 20bc d1f3 913c affb c73a
00000100: 7737 433c 6a84 a63b e872 42bb 0b2a 12bb
00000110: d28f 543b dac0 093c fd5f b1bb 5b32 f03a
00000120: 470c f13b 947b 013c 7413 1fbc 07db 48bc
00000130: 4626 343c 0626 6c3b f9fb eebb 5cfe 283c
00000140: 4186 cabb a210 4ebc fede d6bb c06e f43b
00000150: 4d65 a5bb 00cc af3c eaa1 54bb 2969 0a3a
00000160: c8a2 573b f7de 64bc 0dec ebbb cbbe 56bc
00000170: c829 acbc c828 5b3b 3043 853c 4a0f 0ebc
00000180: f1c6 923c 3e15 c8b9 79f7 843b 3e31 4c3b
00000190: 0c27 34bc 4a79 bfbb 8ffc 47ba fddf ef3b
000001a0: 07db e43b d184 e4bb 6176 9b3a 62e3 433c
000001b0: 13ab 18b8 ec09 9abc 071d a1bb 8d2a bd3c
000001c0: b82e e33b c136 243c 0044 11bc 1ebd f13a
000001d0: 18e7 1abb 7548 06bc ec99 2039 c84c 993b
000001e0: c9b4 a03b c367 edba 3a8c 913b aebf 43ba
000001f0: c1d9 d9bb caba 683b 2546 1c3b ea32 bd3b
0.007178327 0.007884811 -0.012964124 -0.010424869 -0.0064690956 0.015976012 -0.012565934 0.0005856222
-0.0008849218 -0.00849806 0.0014856688 -0.0052440693 0.0019302197 -0.018899819 -0.012832343 0.0036147845
0.0061076074 -0.00911077 -0.0055070007 -0.017048366 0.015800614 0.0017505749 -0.0042179246 -0.007991556
-0.014304173 -0.005127252 0.0058840425 -0.008532653 0.008100782 -0.0069719814 0.01801472 0.011953673
-0.0035982272 -0.006439045 0.0022097519 0.0062295194 -0.010306563 -0.00853293 -0.0007397985 0.007448739
-0.010918415 0.004925295 0.0020426519 -0.008351599 0.0017996868 0.016504014 -0.008947301 -0.0021521552
0.0073812855 0.0037309928 -0.0137835285 0.01121238 0.0053678756 -0.0073329243 0.0028840592 -0.010442944
0.012286825 0.012492669 -0.0020738835 -0.00471615 -0.008120517 -0.009766612 0.017816456 0.0015257503
0.011915079 0.005081703 -0.002967054 -0.0022302892 0.0032434356 0.008407796 -0.005413054 0.0018325554
0.0073562 0.0079029985 -0.009709228 -0.012259251 0.010995453 0.0036033406 -0.007293221 0.01031455
-0.006180555 -0.012577208 -0.0065573445 0.0074594915 -0.0050474764 0.02145958 -0.003244514 0.00052799523
0.0032903422 -0.013969175 -0.0071997703 -0.013107012 -0.021016017 0.0033441056 0.016267389 -0.008670637
0.017917128 -0.000381628 0.0040578214 0.003115728 -0.010995638 -0.005843316 -0.0007628882 0.0073204027
0.006984118 -0.0069738408 0.0011860841 0.011956068 -3.639895e-05 -0.01880356 -0.0049167904 0.023091579
0.0069330595 0.01002282 -0.00886631 0.0018443202 -0.0023636278 -0.008195986 0.0001531613 0.0046783425
0.004904364 -0.0018112588 0.004441765 -0.0007467222 -0.0066482727 0.0035511726 0.002384552 0.0057738917

network_body.observation_encoder.rsa.fc_q.bias f4 [128]
00000000: e363 1f3c 0e78 d63c 7c5a e2bc 2745 493b
00000010: 6b2e 39bc 8493 46bc fd98 c1b9 9daf 0cbd
00000020: dff9 e8bc 053f 993a e9f6 5cbb 2094 913c
00000030: 2116 053c 67d0 403c 4413 f43b 6649 c3bb
00000040: d077 533c 2336 e63c 1aa5 4dbc 7ec1 7bb9
00000050: 92e4 c13c 599f 7e3c 0284 22bc 2242 74bc
00000060: e30a 3d39 a1b6 813c d81f d03c ab0e 063d
00000070: be9e debc 04e6 8bbc 213a 933c d9b8 8e3c
00000080: e313 863b adfb 203c 838d babc 970b 133c
00000090: 56d1 febc 1b4b 8f3c 00d1 493d ddd4 f4bc
000000a0: b7fe 3fbc aa64 9fbc aa15 f53b a937 99ba
000000b0: 09a6 eebc 05a2 25bc 0de1 ddbb 963b 0cbb
000000c0: 8e62 ffbb 9542 2b3c 1096 ca3c 4695 d53c
000000d0: 38f1 58bc e6a9 cebc 1a4d c13c 653d c63c
000000e0: 3d03 a93c de3f a0bc 3814 f4bc 22b1 f13c
000000f0: 9ad6 013d 4916 89bc 7d24 3abc 77cf 153c
00000100: 3e98 5cbc a351 d6ba c968 0f3c 3814 fab9
00000110: 9b82 30bc c809 6abb 7159 153b 2607 a8bb
00000120: e081 393c b0a3 543c bb95 563c c977 fcba
00000130: b0a6 38bc 297c ba38 25d2 44bc bcdd 8abb
00000140: a515 e83a 2b8f 35bc 1b51 713c bb41 823a
00000150: ca13 1bbb da5d 553c 115f 1c38 60d0 343c
00000160: 8d21 013c 751e 2e3c 4fc8 10bc 8ca0 74bb
00000170: 43f3 8fbc 9b9a ecbb b339 c13b 4c03 0fbc
00000180: bafc ff3a b1ce 03bc 6ede 303c 5916 1d3b
00000190: 0eaa 463b 835a 66bc d5a9 173c 25c5 75bc
000001a0: 74a9 1b3c e911 2dbc 9502 e2bb 1d28 09bc
000001b0: 1efe 8dbb ad5a 9d3a 22e4 2cbb 3d8d 9dbc
000001c0: c236 88ba bb95 86bb f159 d53a 59d4 c5bb
000001d0: 3c82 893c 3806 7fbc 6f1e ebbb 8576 d73b
000001e0: 3c9b a139 4075 403b 165c 0b3c 2a3c 62b9
000001f0: e002 5db9 d20e 053a faa0 21bc 639a 3abc
0.009728405 0.026180293 -0.027631037 0.0030711384 -0.011302571 -0.012120131 -0.00036925814 -0.034347165
-0.02843946 0.0011691755 -0.0033716506 0.017770827 0.008122952 0.011768437 0.0074485857 -0.0059596775
0.0129069835 0.028101986 -0.01255157 -0.00024009307 0.023668561 0.015540921 -0.009919168 -0.014908345
0.000180285 0.015834155 0.02540581 0.032728832 -0.027175304 -0.017077453 0.017972054 0.017422127
0.004091726 0.009825629 -0.022772556 0.008974931 -0.031105679 0.017491868 0.049271584 -0.029886657
-0.011718444 -0.01945718 0.007479389 -0.0011689562 -0.029131906 -0.010109429 -0.006771213 -0.002139782
-0.007793731 0.010452886 0.024729759 0.026072156 -0.013241105 -0.025227498 0.023596335 0.024199197
0.020631427 -0.019561704 -0.029794797 0.029503409 0.0316988 -0.01673426 -0.011361239 0.009143702
-0.013464032 -0.0016351234 0.00875301 -0.0004769878 -0.010773326 -0.0035711396 0.0022788907 -0.0051278053
0.0113224685 0.012978479 0.013097222 -0.0019261773 -0.01127021 8.892298e-05 -0.012012993 -0.0042378586
0.0017706646 -0.011081497 0.01472881 0.0009937802 -0.0023662918 0.013022864 3.7281836e-05 0.011036009
0.007881534 0.010627379 -0.00883682 -0.0037327139 -0.01757205 -0.007220579 0.005896771 -0.008728813
0.0019530274 -0.008044885 0.010795219 0.002396962 0.0030313763 -0.014059666 0.0092568 -0.015000616
0.00950085 -0.010563352 -0.0068972805 -0.00837138 -0.0043332716 0.0012005173 -0.0026381095 -0.019232387
-0.0010392296 -0.0041072047 0.0016277415 -0.0060372767 0.016785733 -0.0155654475 -0.007175259 0.006575408
0.00030823972 0.0029366761 0.008505842 -0.00021575452 -0.00021077273 0.0005075756 -0.00986504 -0.011389348

network_body.observation_encoder.rsa.fc_k.bias f4 [128]
00000000: 881b 02b5 ad47 6cb4 b495 14b4 50d7 a634
00000010: 5a0c 8d34 71cc d834 fa5f 9a34 3966 21b5
00000020: 8f63 dbb1 0f8f c9b4 df6a 6534 dcce f931
00000030: dc1a 7c34 998f 26b3 344a 1ab3 82d3 9134
00000040: e6d9 dbb0 72a5 d034 fad3 7134 97e0 cbb4
00000050: c39d c733 4a32 b0b4 5dfb 5db4 9b52 2f32
00000060: e19b 2fb4 2233 6ab4 408c 8eb3 8fed e0b4
00000070: 7c87 4fb4 2041 49b5 0d0a 7334 dcca 8eb4
00000080: 386f 3335 542a 3034 cfbd 5eb4 80f0 cc34
00000090: e95d 0835 e802 e534 fff6 6234 5c1d 4f34
000000a0: 73cd 0bb4 5f25 b734 dcd7 2ab5 4404 3835
000000b0: 236b 0735 8d50 cc34 8b4f 2035 bf19 b333
000000c0: 4490 c434 bf5b 2232 2028 f934 c9a6 f22f
000000d0: d20f 84b4 b614 b734 c89a dfb4 cad9 bcb4
000000e0: 54b2 b334 0dae 17b4 c50b 44b4 0271 6ab4
000000f0: 6559 4b34 bdc4 9bb4 c238 2ab4 2490 5fb5
00000100: 0cbf 6db4 9af4 9533 0d89 0835 69f8 1835
00000110: 326e 15b5 6fcb 6534 723b a734 b107 86b5
00000120: 8f65 71b4 3430 0f35 f699 ad35 f581 29b5
00000130: 630e 05b5 ae2d 90b4 68bc 9db4 9026 78b4
00000140: ea28 1e35 0745 2a34 98cf 4735 ad13 2635
00000150: e0ae 8e34 81f7 4934 cc6c 2e35 af36 4b34
00000160: ba7f eb34 3638 4735 c146 26b4 18e6 c333
00000170: 09fa 57b5 9b1b 9034 add6 f9b3 f6e3 0db5
00000180: 6060 1eb5 d570 31b5 5fc4 4534 64de c7b3
00000190: af5b ca34 967e 4935 7dbc 88b1 22ae 16b5
000001a0: 319b 20b3 c267 eeb4 6509 1935 5bef 2534
000001b0: 2dd2 3a34 08c7 fe34 2651 76b3 4656 2a33
000001c0: e053 9234 6889 e934 4d34 1134 9eec f7b4
000001d0: d1ba 00b5 7dc0 30b5 65bf cfb4 3069 0634
000001e0: 867b 4035 2711 a334 a8b3 c5b4 f7cf ba34
000001f0: 2ab5 0c35 8671 71b5 1f43 c8b4 6c6c 3634
-4.8468837e-07 -2.2005288e-07 -1.3838036e-07 3.107657e-07 2.6272284e-07 4.0381886e-07 2.8754567e-07 -6.012593e-07
-6.3850574e-09 -3.7543256e-07 2.1366166e-07 7.270371e-09 2.34791e-07 -3.8780488e-08 -3.5923406e-08 2.7162247e-07
-1.5996278e-09 3.8863396e-07 2.252199e-07 -3.7975107e-07 9.295356e-08 -3.2819145e-07 -2.0673674e-07 1.0205123e-08
-1.6354853e-07 -2.181155e-07 -6.6379016e-08 -4.1896098e-07 -1.9327666e-07 -7.4973104e-07 2.2634795e-07 -2.659716e-07
6.684454e-07 1.6406676e-07 -2.0744413e-07 3.8172948e-07 5.0800605e-07 4.2656688e-07 2.1137747e-07 1.9289058e-07
-1.3020126e-07 3.4113597e-07 -6.364405e-07 6.855155e-07 5.0447323e-07 3.805657e-07 5.9720395e-07 8.34002e-08
3.6612812e-07 9.450502e-09 4.640906e-07 4.4138052e-10 -2.4598427e-07 3.4101475e-07 -4.1649605e-07 -3.517619e-07
3.34711e-07 -1.412629e-07 -1.8258204e-07 -2.183406e-07 1.893837e-07 -2.9014146e-07 -1.5853132e-07 -8.3283726e-07
-2.2141847e-07 6.982846e-08 5.0863383e-07 5.6985897e-07 -5.566718e-07 2.1401296e-07 3.1149426e-07 -9.986016e-07
-2.2481821e-07 5.3341796e-07 1.2934313e-06 -6.314652e-07 -4.9567296e-07 -2.6855326e-07 -2.9380612e-07 -2.3110829e-07
5.8919125e-07 1.5857596e-07 7.4435366e-07 6.186845e-07 2.65768e-07 1.8809625e-07 6.497837e-07 1.8925742e-07
4.3865094e-07 7.4215075e-07 -1.5485695e-07 9.122249e-08 -8.045759e-07 2.6842176e-07 -1.1634015e-07 -5.285832e-07
-5.899983e-07 -6.610183e-07 1.8418494e-07 -9.307112e-08 3.769214e-07 7.506254e-07 -3.9795496e-09 -5.613275e-07
-3.739405e-08 -4.4406448e-07 5.701061e-07 1.54539e-07 1.7399061e-07 4.7456e-07 -5.7350142e-08 3.9659675e-08
2.7255646e-07 4.3499608e-07 1.3523204e-07 -4.6179497e-07 -4.795557e-07 -6.5845217e-07 -3.8696012e-07 1.251799e-07
7.1705324e-07 3.0373596e-07 -3.6824827e-07 3.4796514e-07 5.241769e-07 -8.9944695e-07 -3.730174e-07 1.6989515e-07

network_body.observation_encoder.rsa.fc_v.bias f4 [128]
00000000: 73bf 54bc 61aa b43b fafc 1cba 7b28 143c
00000010: 3d8c 42bc 4dd3 423b eca6 f9bb 7d0d 193c
00000020: 86b2 12bc beb4 8b3b 49d5 33bc f435 dd3b
00000030: 751b 67b9 6922 a6ba 03e7 653b 0d4d 85bb
00000040: 1cc1 6ebb 86d4 f5ba 5196 c03b d7c8 703b
00000050: b340 dabb fb69 ca3b c961 55ba f6ee 1cbc
00000060: 3f8f f53b 4d17 30bc be75 e9bb 1e39 303c
00000070: 1b68 233c f54e 863b cd06 893b 2478 a83a
00000080: 5af5 a5b9 41eb 61bc aa99 1c3c 6cfe afba
00000090: dc2c 913c 7956 373c 0891 d53b bc81 18bc
000000a0: 4fc0 333a 4606 5f3a 76e2 db3b 560a e4bb
000000b0: b1ae 0cbc ce99 9439 13dd bf3b c69a b23b
000000c0: faee a7ba 543d 413c b26c 4dbc 3b97 213b
000000d0: d3a4 8b3b 7663 b53b 0ff9 4a3b 74b1 a6bb
000000e0: e498 4dbb 9355 a7bb 7ff3 5fb8 62be 3f3c
000000f0: 43d3 483b 2e3a e73b 6405 f13b 6f09 473b
00000100: 2b7c d8bb ae6d 7abc 43dd e9bb c737 fdba
00000110: 874d 2fbc 1109 15bb 2e76 ebbb eb6d 5fbb
00000120: f3da 82bb 063b 2d3b b3ef b1bb 2fcb dfbb
00000130: a5f3 efba 9c5b 933b 46b5 17bc c7d7 1fbc
00000140: 40f2 1dbc 231b bbbb 6222 183b 82cb 95bb
00000150: 6fcc 5abc ef5f e2bb df3e bc3b 19e8 abbb
00000160: e0b1 15bc c1d4 023c 039f 8cbb a330 843b
00000170: 1c44 2fbc 33dd 9dba ecfa 20bc c75a 3c3b
00000180: f8d1 04bc 04a0 49ba 7589 82b9 0be9 243c
00000190: 12e6 1c3c 726b 86bc 6021 09bb 65d2 8b3b
000001a0: 0864 fc3b ed8c c13b 11f8 553b a009 e33a
000001b0: 219e 89bb 389a 323c 8907 c03b 8ebb 683c
000001c0: f359 7b3c ac06 73bb 9be4 0c3c 8b23 9fbc
000001d0: ab04 deba 75ec 19bb 0b41 29bc d818 f0bb
000001e0: 1ba2 293b b34d 9abb 2e43 86bb b8ae 633b
000001f0: 471b cabb 23f3 8d3b 21d9 e9bb dd39 213c
-0.012985098 0.005513475 -0.0005988624 0.009042854 -0.011874256 0.0029727996 -0.0076187756 0.009341595
-0.008953696 0.0042634895 -0.010976144 0.0067508165 -0.00022040105 -0.001267505 0.003508032 -0.004068023
-0.003643102 -0.0018755354 0.005877294 0.0036740804 -0.006660545 0.0061771846 -0.00081398763 -0.009578457
0.007493883 -0.010747743 -0.0071246317 0.010755805 0.009973551 0.004098768 0.004181719 0.0012853188
-0.00031654054 -0.013788999 0.009558121 -0.0013427264 0.017721586 0.01119005 0.006517533 -0.009308275
0.00068569643 0.000850771 0.006710346 -0.00695924 -0.008586572 0.00028343353 0.0058552115 0.0054505793
-0.001281231 0.011794407 -0.012538122 0.002465679 0.004261592 0.0055355383 0.0030971204 -0.005087072
-0.0031371647 -0.005106637 -5.3394117e-05 0.011703106 0.00306435 0.007056496 0.007355379 0.0030370613
-0.006606599 -0.015284939 -0.007136972 -0.0019318991 -0.010699636 -0.0022741 -0.007185719 -0.0034092616
-0.003993386 0.0026432886 -0.0054301857 -0.0068296413 -0.0018306865 0.0044970047 -0.009259528 -0.009756035
-0.009640276 -0.005710022 0.0023213853 -0.004571379 -0.013354405 -0.006908409 0.0057447995 -0.005246174
-0.009136647 0.007985295 -0.0042914166 0.0040341183 -0.010697391 -0.0012044072 -0.009825449 0.002874063
-0.008106701 -0.00076913857 -0.00024897946 0.010065327 0.009576337 -0.016408656 -0.0020924434 0.0042670243
0.0077023543 0.0059066922 0.003264908 0.0017321594 -0.0041997586 0.010901026 0.0058602733 0.014204873
0.01534127 -0.0037082834 0.008599426 -0.019426128 -0.0016938647 -0.0023486887 -0.010330449 -0.0073271804
0.0025883976 -0.0047089695 -0.004097364 0.0034741592 -0.0061678025 0.0043319627 -0.0071364795 0.009840456

network_body.observation_encoder.rsa.fc_out.bias f4 [128]
00000000: 95c0 8fb9 6789 723c 5e04 533b 9c74 df3b
00000010: 50a5 0d3c 2d12 ca3b 6b30 b9bb 2d51 0abb
00000020: 4193 f6bb 9057 0dbc 634c 393c ab44 4fbc
00000030: df24 53b9 0483 e1ba a2d6 c3bb 92f9 b13b
00000040: efa1 0b3c 8987 103b ef1a efbb 6094 0e3c
00000050: 7e67 54bc 1727 f43b 71db 37bb 03ca ab3c
00000060: 9c59 4bbc 5a03 4b3b 10b8 b6bb e0c9 5fbb
00000070: c13e 513c 6801 2ebc 8f69 c03a f811 b73a
00000080: 30d3 93bb 85e1 02bc aa6b 1a3c afd0 f33b
00000090: d274 813b 3149 58bb f398 01bc f737 aabb
000000a0: 5b8a 73ba 8bc9 33bc 0828 cd3b ea0d f8bb
000000b0: 4d35 1e3c 0711 2fbc a8d8 283a 6d2c 433a
000000c0: 090e fe3a acf5 1f3c 813c 0c3b ac02 553b
000000d0: f213 c3ba 777d 60bb 7691 4fbb 2ff7 5f3b
000000e0: d1e8 36bb e583 28bb 862f 2cbc 52f5 d53b
000000f0: e02f 743b ceec 2cbc 4c6b c2b9 5492 653c
00000100: 53e1 ff3a 43df 40bc a5a3 4ebb d351 1bbb
00000110: ec1b 3e3b e22b c539 5c9f ccbb ee4a b4bb
00000120: 3be6 3e3c 6749 02bb 3956 30bb 01bc d03a
00000130: 72f1 6c3c 3a6a c1bb 1cf7 ad3a df3f e8ba
00000140: d424 b53a 1853 71bb f827 0abb 4ab5 983b
00000150: 586d 1b3b 32a5 27bc f721 17bc 305a 81bc
00000160: dcd4 c5ba 5523 5bbb 209d 983b 369c 08bc
00000170: 072f 1c3b f9d3 a93a 92c8 83bb 3d28 cc3b
00000180: cc7c bd3b 5349 583c 5d5c a7bb 70b5 25bc
00000190: 7565 97bb c781 9bba 5502 9039 be9a 953a
000001a0: 1c3f 503b 094b 5b3c 2571 a03a c198 7a3c
000001b0: ce47 f5bb 6a57 68bb b72f 6fbc 8400 e53b
000001c0: b398 40bb 1ab9 89bb 4208 2fbb 9936 a9bb
000001d0: 0f49 d93b eeb8 e53b 593d 7e3c 2227 583b
000001e0: 1e97 853b 7daf 43bc 2078 383b c659 4bbc
000001f0: 7edc 163c e3b9 28ba 6e81 293c 48dc d33b
-0.0002741857 0.014803267 0.0032198648 0.006819321 0.008645371 0.0061667175 -0.005651524 -0.0021105513
-0.0075248783 -0.008626834 0.011309716 -0.012650649 -0.00020136264 -0.0017205183 -0.005976514 0.0054313624
0.008522495 0.0022053441 -0.007296912 0.008702368 -0.012964128 0.007450949 -0.0028054381 0.02097035
-0.012411501 0.003097734 -0.005576141 -0.0034147426 0.012771309 -0.010620452 0.0014679896 0.0013967147
-0.0045112595 -0.007988338 0.009425083 0.0074406485 0.0039506936 -0.003300261 -0.007910001 -0.00519466
-0.0009290331 -0.010973345 0.0062608756 -0.007570018 0.009656263 -0.010685212 0.00064409757 0.00074452796
0.0019382845 0.009763163 0.0021398368 0.0032502813 -0.0014883264 -0.003425447 -0.0031672395 0.0034174433
-0.0027909765 -0.002571338 -0.010509377 0.0065294886 0.003725998 -0.0105545055 -0.00037082506 0.014011938
0.0019522108 -0.01177198 -0.0031530645 -0.0023699894 0.0029008342 0.00037607463 -0.006244583 -0.0055020964
0.011651571 -0.0019880177 -0.0026906861 0.001592517 0.014461862 -0.005902556 0.0013272497 -0.001771923
0.001382018 -0.003682321 -0.0021080952 0.004660283 0.0023716297 -0.010232257 -0.009224406 -0.015790075
-0.0015093344 -0.0033437808 0.0046574026 -0.008338025 0.0023831741 0.001295685 -0.0040217126 0.0062303827
0.005782699 0.013201076 -0.005107446 -0.010114059 -0.004620249 -0.0011864238 0.00027467558 0.0011413915
0.0031775897 0.013384589 0.0012240751 0.015295208 -0.0074853664 -0.0035452493 -0.014598778 0.006988587
-0.002938789 -0.004202974 -0.0026707803 -0.0051639793 0.0066310237 0.0070105707 0.015517556 0.003298231
0.0040768525 -0.011943695 0.0028147772 -0.01241154 0.009207843 -0.00064363907 0.0103458 0.0064654686

network_body.observation_encoder.x_self_encoder.seq_layers.0.weight f4 [128, 3]
00000000: 8c0e 75bc 54cd 10bd 0023 71bc aa53 a33c
00000010: 0067 f6bb cf5a 083d d7c0 db3c ab30 0a3d
00000020: 98c5 2abb 3bd5 14bc dfa1 60bc 7fea fa3c
00000030: 03a2 523c 31c8 6d3c 4125 6cbc 2073 7bbd
00000040: 267c 93bd d585 4fbd fd8e a3bc c48b 30bd
00000050: eeff c4ba 7b53 883c 416b dc3c 0c49 b83b
00000060: 024a a83c 753b 1b3d 9848 61bb 9153 6bbc
00000070: 6eb1 02bd c9bc 293d 3c6d a83c ef71 ee3c
00000080: cc13 3a3d 38f3 3abd 55e2 60bc f0e8 45bc
00000090: 8bf8 f13b f654 9d3c 6964 cdbc 04b2 f03c
000000a0: 2fe8 acbc b9b3 48bc 816a ff3c 387b 90bc
000000b0: 3f34 7bbc 5365 bebc 50db b5bc 0d3d 3cba
000000c0: 7f5e 9ebb ae1c f5bb 953b 07bd 6de6 b23b
000000d0: d336 a93b daee 903b 42de 18bc f9b2 29bc
000000e0: deb6 353d 8e77 87bb b2ce 13bd 473b 85bd
000000f0: 5d05 77bc f9fd adbc 3197 d23c 5689 923c
00000100: 979e b93c c7a9 073d 87e1 f13c b36e 5d3d
00000110: 004c c4bc 71de 38bc 9793 61bd 505f 3f3c
00000120: bfba a4bd 152e 993d 8c9c 84bb 171b 78bc
00000130: 8442 b5bc 2602 cdbc de09 cd3b 0c5c 313c
00000140: 5b6b fc3c e2e8 b3bc d487 0bbd b7a7 d1bc
00000150: f313 1bbc 7302 08bd 0131 d83c 1a8c 71bc
00000160: b791 01bd 08ec 863d 115e ab3b 85ca 9fbb
00000170: 4b05 f0bc b302 b73c fdee ec3c bd72 f7bb
00000180: 054f 603d f0cd d53c be5d 9bbd 4c61 913d
00000190: a594 4b3d f100 ffbc f7ca 4cbc e4fa 80bc
000001a0: 6cf6 f53c b5e1 56bb a45b b8bb b645 873b
000001b0: f837 01bc 65ac 42bc a148 e9ba 5a61 b1ba
000001c0: d1ac 563a 3e24 14bd a787 72bc fe62 b8bc
000001d0: 27b3 ee3c 0416 123d 2fdc 80bb 9869 6abd
000001e0: 9345 1d3c e217 a93c 853e 903c 8ec5 42bb
000001f0: cf52 dfbb 1f34 5f3c 6483 d0bc 3043 09bd
00000200: 489e 87bd c131 f03c e631 d7bc 77e9 7bbc
00000210: 22c0 04bb 1406 4dbb 2cbf bebc 4e9a 4a3d
00000220: da0c 6abc 8853 ffbc 4524 c5bc 2045 e63b
00000230: 94ed ccbb 99fc 39bb d2cb 8dbb eff7 273c
00000240: 0454 1f3b d3fb 7d3d 7831 8fbc 8102 fd3b
00000250: 93a3 463d d73f f33b b750 6ebc d0cb b8bc
00000260: f301 1ebb 0534 25bc e7b0 70bd 7b29 83bb
00000270: c3d8 c4bc 20b2 27bd 4c25 4fbd 588c 07bd
00000280: 96ab 19bd 3cd3 5bbd 4b4c cbbb 1dbd 3abd
00000290: ef68 e1bc 75b7 71bc b03c 2abd a84f d83b
000002a0: 04d0 b83c 8458 97bb 4789 4a3c 8f7a 363d
000002b0: f9f1 deba 0ab4 febb 806c b03b cf7d abbd
000002c0: 8c2e 863a dc0a 433b 8f2a 45bd eb39 e23c
000002d0: 542d 85bd cb5e 563d 6add ab3c 1ba9 1cbc
000002e0: f80d 58bd a2e8 403c 16b0 913c e68c d93c
000002f0: 7d4e 23bc ec17 513b 6e81 ca3b d2bd 24bd
00000300: 8f3f 803c 9f4a b4b9 8afd b83c ef9c 2e3d
00000310: 6a26 4f3d e6fe 25bc 9fff 57bc 3309 96bc
00000320: b72d abbc 0744 7d3d 222e 2b3d c833 b1bc
00000330: 297b 82bc 9d57 823c 9aa8 8a3b 9f16 023d
00000340: 9e8b 263d 731a fa3b 7d06 c4b8 4c2a f63a
00000350: 114a 643d 15b5 21bc 8d2e 3ebd c331 f13c
00000360: 3b5f c1ba 1068 2abd 13e3 df3c 176e 98bc
00000370: 302c 43bd 3b55 9bbc fed2 4a3d 598a 0a3d
00000380: b00f 12bd 0bc6 10bd 674f 2fbc 50bf e4bc
00000390: 2dd3 63bc c23c 1dbb e032 663b 8705 8e3d
000003a0: 95bc c43b f09c 22bd e976 683c f39c 953c
000003b0: cc2d 50bd 5d30 2f3d f75f dd3c d234 afbd
000003c0: bb34 ad3c 0eb4 553c 724e dc3c 6bc1 68bd
000003d0: 3bce d6bc 557c 8dbc 2f66 edbb df97 7dbc
000003e0: 84c6 353c c7f3 9bbd d5c4 173d 0e92 b9bb
000003f0: cc3c 143d 96d8 4f3c 1712 013b 92cb 143c
-0.0149570815 -0.035352066 -0.014717817 0.019937355 -0.007519603 0.033289727 0.026825352 0.03373782
-0.0026057716 -0.009084041 -0.013710468 0.030629395 0.012856009 0.014513061 -0.014413179 -0.06138909
-0.07201414 -0.05066474 -0.019965643 -0.04310204 -0.0015029886 0.01664137 0.026906611 0.0056239422
0.020543102 0.0378985 -0.0034375545 -0.0143631855 -0.03190749 0.041439805 0.0205599 0.029107062
0.045429036 -0.045642108 -0.013725837 -0.012079462 0.007384365 0.019205552 -0.025072293 0.02938176
-0.021106808 -0.0122498805 0.031178715 -0.01763688 -0.015332281 -0.023241675 -0.022199303 -0.0007180728
-0.004833042 -0.0074802255 -0.033015806 0.005459598 0.0051640063 0.0044230046 -0.009330334 -0.010357612
0.04436385 -0.004134125 -0.036085792 -0.06505447 -0.015076962 -0.021239268 0.02570686 0.017887753
0.02265863 0.033120897 0.029526485 0.05406065 -0.02396202 -0.011283503 -0.055072393 0.011680439
-0.080434315 0.074794926 -0.004046982 -0.0151431775 -0.022126444 -0.025025439 0.00625728 0.010825168
0.03081291 -0.021961633 -0.034065083 -0.025592668 -0.0094652055 -0.03320546 0.026390554 -0.0147428755
-0.031633105 0.06587988 0.0052297194 -0.004876437 -0.029299399 0.022340154 0.028922552 -0.0075515197
0.05476286 0.026099175 -0.07586239 0.07098636 0.049702305 -0.031128379 -0.012499562 -0.015744634
0.03002473 -0.003278834 -0.005626159 0.0041281832 -0.007886879 -0.011881922 -0.0017798134 -0.0013533041
0.0008189204 -0.036167376 -0.01480285 -0.02250814 0.02913816 0.035665527 -0.003932498 -0.05722961
0.009599107 0.020641271 0.017607937 -0.0029719803 -0.0068152915 0.0136232665 -0.025453277 -0.03351134
-0.06621987 0.0293206 -0.02626891 -0.015375487 -0.0020256122 -0.003128414 -0.023284517 0.049463563
-0.014285291 -0.03116776 -0.024065146 0.0070272833 -0.0062539075 -0.002837932 -0.004327276 0.010251983
0.0024311552 0.062007736 -0.017479643 0.0077212458 0.04849584 0.007423382 -0.014545611 -0.022558123
-0.0024110049 -0.010083203 -0.058762457 -0.0040027476 -0.024029141 -0.040941358 -0.05057268 -0.033092827
-0.037517153 -0.053668246 -0.006204163 -0.04559051 -0.027515857 -0.014753212 -0.041561782 0.0066012926
0.022560127 -0.004618706 0.012361831 0.044550475 -0.0017009369 -0.007772927 0.005384028 -0.083736055
0.0010237261 0.0029761111 -0.04813629 0.027615508 -0.06502786 0.052336495 0.020979602 -0.009561802
-0.052747697 0.011774214 0.01778416 0.026556443 -0.0099674435 0.0031905128 0.00617998 -0.04022009
0.015655307 -0.00034387872 0.022581834 0.042630132 0.050573744 -0.010131573 -0.013183503 -0.018314933
-0.020895822 0.061832454 0.041792043 -0.021631137 -0.015927868 0.015910918 0.0042315247 0.031759854
0.040660493 0.0076325475 -9.347217e-05 0.0018780916 0.055734698 -0.0098698335 -0.046431113 0.029442674
-0.0014753112 -0.041603148 0.027329957 -0.018607182 -0.047649562 -0.01896154 0.049517624 0.033823345
-0.035659492 -0.03534512 -0.010700083 -0.027923256 -0.013905329 -0.0023992513 0.0035125539 0.06934648
0.006003926 -0.03970045 0.014188507 0.018263316 -0.050824925 0.042770732 0.027023299 -0.085549966
0.021143308 0.013043417 0.026892874 -0.056825083 -0.026221385 -0.0172712 -0.0072448472 -0.015478103
0.011094693 -0.07614856 0.037052948 -0.005663163 0.036190793 0.012685915 0.001969462 0.009081738

network_body.observation_encoder.x_self_encoder.seq_layers.0.bias f4 [128]
00000000: 2906 403c 82e1 20bb fb27 8bbc e887 88bb
00000010: e1af c0bc c919 7a3c b09a 84bc a9f9 3abc
00000020: dae6 2c39 2f74 96bc a799 71bc 3757 873c
00000030: 6312 9e3a 1123 efbb 91d6 51bc dbad 043d
00000040: 2b21 19bb 4287 84bc 30da b53c d148 4fbc
00000050: ad4c 553b f7cb b9bb 65d3 8fbb ae57 443c
00000060: 0fa0 43bd 3892 373b 2430 833c 7cc9 323c
00000070: 343e 8abb b3c0 dc39 0798 a4bc e5fb 71bb
00000080: 98c1 69bc 9b59 62bc 90a6 493c 61c5 43bb
00000090: 205c 2e3b 21b0 843c b487 3a3c 9632 83bc
000000a0: 9371 2dbb 3b62 74bc f89f a43b ef15 a6bc
000000b0: a97b 8fbb 8f4f 11bc d2b8 d23c 32e2 0bbc
000000c0: 2b45 89bc 40df eabb ee81 ffbb 11c0 71bc
000000d0: e7df 133c 5568 773c 09ca 413c 5613 9d3a
000000e0: 7cbd 0bbc 03a0 69bc 2912 83b9 4606 5c3b
000000f0: 4e36 15bd fb80 4f3b 86ee 2b3b 276c a93a
00000100: d988 06bd 5f9c 74bc 460c 1a3c c091 f3bb
00000110: 6523 4c3c 7dc5 9cbb edef 423c 6dda 41bc
00000120: 8597 633b a4a4 643c 9658 25bc 1a67 ae3c
00000130: 3a71 be3c 3b41 b8bb 1f1f d9bb 059f 63bc
00000140: 4d88 38bb 6351 c43c 7d76 5339 1a3d 9abc
00000150: b0ac 0abc b0ce 9b3b 05d7 883c bc80 babb
00000160: 51ad 243c 481b f23b 4448 623c 61bd 3a3c
00000170: 2c16 9c3c 309b c5bc 58db 2bbc c382 d1bb
00000180: fa3c 13bb 1351 913c ff73 7abb c769 adbc
00000190: 2d12 8e3b 20c7 38bc 15de 7cbc 8231 88ba
000001a0: 5d50 38bc ddb0 82bc 0086 a2bc 1993 ca3b
000001b0: 85ff a43c cdee 62bb 0391 f2bc f597 e63b
000001c0: 1594 933b c605 0fbc 590b e7bc 16ef 8a3c
000001d0: 2efd c03b efc6 5cbc 5d16 23bc b1c8 80bc
000001e0: b199 d73c b355 43bc d6cd 86bb afd7 0b3c
000001f0: 1e63 1ebc bef7 1fbb 63cf 433a 202a a53c
0.011720219 -0.0024548476 -0.016986838 -0.004166592 -0.023521366 0.015264937 -0.016187042 -0.011412063
0.00016489197 -0.018365948 -0.014746106 0.01652108 0.0012059923 -0.0072978814 -0.012807504 0.032392364
-0.0023365717 -0.016177777 0.022198766 -0.012651638 0.0032546923 -0.0056700665 -0.004389214 0.011983795
-0.047760066 0.0028010737 0.016014166 0.010912295 -0.004218841 0.00042105242 -0.020092024 -0.0036923822
-0.014267348 -0.013815309 0.012307778 -0.0029872286 0.0026605204 0.016197266 0.011384893 -0.016015332
-0.00264654 -0.014915998 0.0050239526 -0.02027413 -0.004378755 -0.008869066 0.025722895 -0.008537816
-0.016756615 -0.0071677268 -0.0077974712 -0.014755265 0.00902555 0.015100558 0.011827954 0.0011983912
-0.008529063 -0.014259341 -0.00024999797 0.0033573075 -0.036428742 0.0031662572 0.00262347 0.0012925909
-0.03284535 -0.01492986 0.00940234 -0.0074331462 0.012459611 -0.0047842846 0.011898023 -0.011831862
0.0034727764 0.013955269 -0.010091921 0.021289397 0.02324735 -0.0056230105 -0.0066260244 -0.013892894
-0.0028157413 0.02396459 0.00020166668 -0.018827964 -0.0084640235 0.0047548637 0.016704092 -0.005691616
0.0100510875 0.007388506 0.013811175 0.0113976905 0.019053541 -0.02412185 -0.010489307 -0.006393762
-0.0022466765 0.017738855 -0.0038216112 -0.021168603 0.004335663 -0.011277944 -0.015433808 -0.0010390731
-0.011249629 -0.015953476 -0.019839287 0.006182086 0.020141372 -0.00346272 -0.029610163 0.0070371577
0.0045037367 -0.008729404 -0.028203653 0.016959708 0.0058895564 -0.013475164 -0.009954062 -0.015720697
0.026318403 -0.011922288 -0.004113893 0.00853531 -0.009667186 -0.002440914 0.00074695627 0.020161688

network_body._body_endoder.seq_layers.0.weight f4 [128, 131]
00000000: 31b1 3e3d b99c 4cbd 1a85 983d 8f07 9fbd
00000010: eb07 cfbd 6c5a e93d 6fd5 9bbd c9d0 f33c
00000020: 589e f3bd ec2f 303d a8fe ecbc 9f5a 4ebc
00000030: f381 a23c 6710 023d 86d5 62be c3de 21be
00000040: fbf8 2b3e 5089 c1bd a983 823d a5b5 af3d
00000050: 5891 a73d 1d3a 7f3d 6ab4 48bd 0c57 a7bc
00000060: ddb0 ed3d 3152 fdbd ca35 94bd cb58 9f3d
00000070: 57f5 7abd 2b5d 81bd 472c 0abd 30b9 efbc
00000080: 4865 043d 4abf a1bd 12f3 b0bd ba0f 3abd
00000090: b662 12be cfc1 903c bc9d a1bd 788e 17bd
000000a0: b9b3 e9bd a61c d0bd 6402 f33d db43 fdbd
000000b0: 211c 2cbe 8ea2 353d a4aa a7bd 708b 13be
000000c0: b37f 2abd 610a c8bc be26 33bd 88ca a63c
000000d0: de4f 763d 3ce9 c63d 7189 9abd f690 12bd
000000e0: 6532 19be bfa1 633d 117a a138 371c b1bd
000000f0: db77 4cbe 6bd6 a6bc 4252 6c3d 7e46 91bd
00000100: b5f8 483d c997 c73d 5df3 65bd 425f e43d
00000110: 5e64 893c eb4b a53d 6410 16bd fed8 253c
00000120: adc5 15bd f2d7 943d b1aa 0b3e aac0 ef3c
00000130: 67d0 1f3c d26f c13c 195a 523d f0dd 51bd
00000140: c12a d3bd 5ec4 43bd 61ad 013e ed6d 983d
00000150: 528c 33be 3ec9 2fbd b8f7 91bd 5f47 503b
00000160: a54b 5e3d ad78 f33c 5f3c 293d c173 a2bc
00000170: 6341 923d c2b4 10be 989b 15bc 1d17 443e
00000180: d95a 443d 8ef5 47bd b90c 493d 8239 d3bd
00000190: b61c 96bd 82fa b4bd bd7b c8bc 3711 db3d
000001a0: 0f23 86bd 5767 7d3d 447e ad3c 9868 4f37
000001b0: a989 7ebd 534f 1d3d 36ea 63bd 35b4 0f3c
000001c0: 6804 c83b a3e1 4bbd deb8 e1bc cd6b a5bc
000001d0: 40bc 753d 68ca dc3d ac5a e73c 34de 533c
000001e0: 2c1a 913d 0c82 3abd a01d e1bd 0fbd 193d
000001f0: 5c64 d0bd c621 22be 0fcf 303d 1429 eb3d
00000200: 323a efbb 4cb1 18be f835 ba3c 94aa ef3d
00000210: a07c 59bd 7c99 d23c e8c5 18bd 09cb f13d
00000220: 5176 c83d cca1 86bd e89e d8bd 19ca a6bd
00000230: 2f04 d33d 5b7a 373d e290 bfbd 915b 223e
00000240: 8e2a 173c a16f ffbd fd15 14bb 16a2 2a3e
00000250: af09 1cbd 8078 593d ef5b 2ebd 154d 58bc
00000260: fd67 a4bd 52a6 293d 4317 eebd aca6 19bd
00000270: e65a cc3d 2b18 a83e 20f6 663d ce5a 51be
00000280: 2ea8 35be 4250 5e3d 22cd e63d 616f 453d
00000290: 171b 943e eaa9 e73d a262 3dbd 7c83 d4bd
000002a0: 3f95 e5bd 87b2 bf3d 0e85 203e 8adc 833d
000002b0: ea9b 2f3c 7e44 373d b0b8 913d 8704 afbc
000002c0: 9245 823d 6ed3 c83d 6d03 67bd 95aa cebd
000002d0: aa27 4d3d b6c9 d73a b6e7 8d3d 4726 bbbd
000002e0: 8513 02bd 07c3 81ba be16 c1bc 34f1 1dbc
000002f0: 177c 7ebd 14da 063e b83e 723d 23ca 0e3d
00000300: 681e 00be e902 0bbe c65c 3bbb ea30 063e
00000310: ab7d bcbc 0831 15be 79e1 3cbd 5feb 223c
00000320: fa95 b03d 9f4f 3fbb 2e53 063d 966b f7bc
00000330: 2bb9 373c 234d ebbc 19aa 3ebe 57c0 9b3d
00000340: 37ba 193e 8e25 bb3d 4942 f83b e867 2d3c
00000350: c4c1 42bd 02d1 21ba 95e6 b83c 488f 833d
00000360: 7b09 433d 8147 073e f7a0 a23d dfdb e23b
00000370: c14d 61be fa89 cbbd e925 1f3e 5e04 42be
00000380: 641c aa3d 727d 24bd 1735 093d 17ff e63c
00000390: 2418 013d 5983 9bbc f7a5 a13c 83a1 c83d
000003a0: 9d91 a43d df2e ad3c 6346 f4bd 245c 32bd
000003b0: 9126 713d ca2d 8ebd b629 9eba 8da8 2fbd
000003c0: fcad d13d c229 f43d dd34 123d a23a 653d
000003d0: f63d 153e 75d0 1e3d 9fac fc3d 83ca fcbd
000003e0: 4f3f 3ebc 1ecd 0bbd 4b99 113d 277e 14bd
000003f0: 991c 023d 9833 94bc b630 1cbe b523 fa3d
0.0465557 -0.04995415 0.07447262 -0.077651136 -0.10108932 0.113942 -0.076090686 0.029762642
-0.11895436 0.04301445 -0.028930023 -0.012594848 0.019837355 0.031753924 -0.22151765 -0.15807633
0.16794197 -0.094500184 0.063727684 0.08579568 0.08182019 0.06231128 -0.04900018 -0.02042725
0.116059996 -0.123691924 -0.07236822 0.07780608 -0.06126913 -0.063165985 -0.033733632 -0.029263109
0.03232315 -0.078978136 -0.08640112 -0.045425154 -0.14295468 0.01767054 -0.078914136 -0.037001103
-0.114112325 -0.10161714 0.1186569 -0.12366458 -0.16807605 0.044344477 -0.08186844 -0.1440866
-0.04162569 -0.024419012 -0.04373812 0.020360246 0.06013476 0.09712455 -0.07545746 -0.035782777
-0.1496063 0.055574175 7.699815e-05 -0.0864796 -0.19967596 -0.020365914 0.057695635 -0.070935234
0.04906531 0.097457476 -0.056140292 0.111509815 0.016771492 0.08071121 -0.036636725 0.010122536
-0.03656547 0.07267751 0.13639332 0.029266674 0.009754277 0.02361289 0.051355455 -0.051237047
-0.10310889 -0.047794692 0.12663795 0.07442842 -0.17533997 -0.04291653 -0.07127327 0.0031780822
0.05427136 0.029720629 0.04131734 -0.019830586 0.07141378 -0.14131454 -0.009131335 0.19149442
0.0479382 -0.048818164 0.0490844 -0.10313703 -0.07329695 -0.08836843 -0.024473066 0.10696643
-0.06549656 0.06186613 0.021178372 1.2362514e-05 -0.062143 0.038405728 -0.055643283 0.008770992
0.006104041 -0.04977573 -0.027553972 -0.020193005 0.059993982 0.107807934 0.028241478 0.012931395
0.0708507 -0.04553418 -0.10991979 0.037533816 -0.10175392 -0.15833196 0.043166216 0.114824444
-0.0073006386 -0.14911383 0.022730812 0.11702457 -0.053097367 0.025707953 -0.037298113 0.11806304
0.09788192 -0.06573829 -0.10577184 -0.08144016 0.10303532 0.04479442 -0.09353806 0.15855242
0.009226454 -0.124724634 -0.0022596114 0.16663393 -0.038095172 0.053093433 -0.042568143 -0.013201972
-0.08027647 0.04141838 -0.116255306 -0.037512466 0.09978275 0.3283094 0.056387067 -0.20444795
-0.17739937 0.05427576 0.11269595 0.048201922 0.28926918 0.113117054 -0.04623664 -0.10376641
-0.11210107 0.09360223 0.15675756 0.06438549 0.010718325 0.044743054 0.071153045 -0.021364463
0.06360926 0.09805952 -0.05639975 -0.1009113 0.050086655 0.0016463313 0.06928961 -0.0913816
-0.031756897 -0.0009900042 -0.023570415 -0.009640027 -0.06213006 0.13169128 0.059141845 0.03486074
-0.12511599 -0.13575329 -0.0028589233 0.13104597 -0.023009142 -0.14569485 -0.046113465 0.009943812
0.08622356 -0.0029191745 0.03279417 -0.030202668 0.011213581 -0.028723305 -0.18619575 0.07605045
0.15012442 0.09138022 0.007576261 0.010583855 -0.04754807 -0.0006172807 0.022570888 0.06423813
0.047616463 0.1321087 0.07940858 0.0069231833 -0.22002317 -0.09938426 0.15541805 -0.18946978
0.08306196 -0.040158696 0.033497896 0.028197808 0.031517163 -0.01898353 0.019732459 0.09796431
0.08035586 0.021140514 -0.11927488 -0.043544903 0.05887467 -0.06942327 -0.0012066874 -0.042885352
0.10238263 0.11922027 0.035694946 0.05596412 0.14574417 0.03877302 0.12337612 -0.123433135
-0.011611774 -0.034131162 0.035546582 -0.03625312 0.031765554 -0.018091008 -0.15252957 0.12213842

network_body._body_endoder.seq_layers.0.bias f4 [128]
00000000: 52b6 b13c 6263 1bbc e483 6e3c 92dd 3dbc
00000010: 26d7 56bb 9edc 833c 2ed7 d13c 09ea 343c
00000020: e780 f33a 3c26 c0bb ebd6 a33a 9aef 81bb
00000030: a6e1 223c 61e7 2abc c593 68bb 53a5 0d3b
00000040: 7c3d 0c3c 5fe3 5139 2566 5aba 7e31 fcb8
00000050: 1c56 333c c1f3 0e3c 2dcd a4bb 0a96 9fbb
00000060: 090c a6bb 1bfb 8f3c 25b1 9ebb a1d0 a9bb
00000070: 97c6 843c 1b90 c33b 0d2b ff3b 6e1a d23b
00000080: 2847 893b 198e 7fbb 3978 8b3c f1cc 3b3c
00000090: b675 66bc b6b3 88ba 1d79 a4bc d513 bdbc
000000a0: 1b91 8a3a 0d5c a13b d73c b73b a5ba 48bc
000000b0: 9bb1 7bbc d489 00bc a05f 693c 6386 173c
000000c0: 6231 003c a5ed acba 2d1a 36bc f153 cf3b
000000d0: c657 c03a 9c96 9f39 3454 0f3c 54b7 7c3c
000000e0: c9a5 573b 147b ad3c f9e1 293b 7149 873c
000000f0: 4c94 25bc f578 0abc 3c46 973b 9e9e 99bb
00000100: a28b 05bc 672a 143c 9076 2d3c edab 053b
00000110: b98c c83b a050 60bb 087c 163c fce2 053c
00000120: ceaa 83bc b900 003c d79a 6e3b 8dbc 81bb
00000130: 1751 05bb bdfd 31bc 3934 8c3c a8cc da3b
00000140: c657 303c df42 c73b 5e1f c03b 71dd 5bbb
00000150: 6f15 443c 7289 b4ba 0f79 dabb 2cd0 2d3c
00000160: 9504 3b3b f977 23bc bb18 b0ba 9ab5 29bc
00000170: eb0f 49ba 27dd 8f3c cd9b 52ba 7461 133c
00000180: 2ecf 963c 4d85 d7bb 4bd7 403c 5036 303a
00000190: 3e62 9e3c 7165 cf3b 7f7e 55bb 6d8f 07bc
000001a0: 68d0 5cbb 9c94 e9bb 3681 c2bb 1305 4939
000001b0: a143 02ba 8353 29bc 240e 123c b68f 073b
000001c0: 8976 72ba dbba 953a f336 86ba 1a91 7bbc
000001d0: ed78 1b3b 2e21 38bc 747e b0bc 88ef e23a
000001e0: 0eed f739 ed87 0d3c d6f5 f83b d464 bbbb
000001f0: e1bb 1d3c 1468 803a 3a20 e13a 8405 543c
0.021693382 -0.009484144 0.014557812 -0.011588471 -0.0032782047 0.01609641 0.025615301 0.011042126
0.0018577845 -0.005863933 0.0012499964 -0.0039653303 0.009941494 -0.010431142 -0.0035488468 0.0021613433
0.008559581 0.00020016496 -0.0008331261 -0.00012025515 0.010945823 0.008725108 -0.0050293417 -0.004870181
-0.0050673527 0.017575791 -0.0048428946 -0.005182341 0.016207976 0.0059681064 0.0077871145 0.006411842
0.0041893907 -0.003899461 0.0170251 0.011462436 -0.01406615 -0.0010429535 -0.020077283 -0.023080746
0.0010571809 0.0049243034 0.0055919695 -0.012251531 -0.015362169 -0.007845361 0.01424399 0.009248349
0.007824274 -0.0013193382 -0.011114639 0.0063271453 0.0014674596 0.00030439056 0.008748103 0.015424568
0.0032905212 0.021176852 0.0025922044 0.016514512 -0.0101061575 -0.00845169 0.004616527 -0.004688098
-0.008150967 0.009043313 0.0105873495 0.0020396665 0.006120291 -0.0034227744 0.009184845 0.008171793
-0.016072657 0.007812672 0.003640821 -0.0039592446 -0.0020342523 -0.010863719 0.017114745 0.006677229
0.010763114 0.0060809697 0.0058631143 -0.0033548737 0.011968001 -0.0013773872 -0.0066672633 0.010608714
0.0028536667 -0.009977334 -0.0013435105 -0.010358239 -0.00076699135 0.017561508 -0.00080340804 0.008995403
0.018409338 -0.00657717 0.01177008 0.00067219604 0.019333955 0.0063292314 -0.0032576618 -0.008273941
-0.0033693556 -0.0071283113 -0.0059358133 0.00019170744 -0.0004969184 -0.010334852 0.008914504 0.0020685024
-0.00092492305 0.0011423485 -0.0010239765 -0.015354419 0.00237232 -0.011238379 -0.021544673 0.0017313818
0.0004728813 0.008638364 0.0075976653 -0.0057188068 0.009627313 0.0009796643 0.0017175742 0.012940768

network_body._body_endoder.seq_layers.2.weight f4 [128, 128]
00000000: 4f5f 0f3d 70de eabb 32a5 023e d3df 1abe
00000010: 00d6 823d d1be 49bd d4b3 113e 8d4b 113e
00000020: e2e8 73be d38c fbbd 2c91 fd3b 45f9 8b3d
00000030: dfcc 68bc 0a37 b83d f97f b1bc 7894 6b3d
00000040: 6644 cc3d 1315 11be 6fd7 e1ba e1b4 693d
00000050: 99b9 113c 4e22 8fbc 7dff fabc 2d68 423e
00000060: 19dd 91bb c845 8dbd a45d 93bd a176 92bd
00000070: 4136 04bd c1d5 78bd a6ff 153d 575a 063e
00000080: aebc 3c3c fd6e 9f3c 60d4 533d 3552 39bd
00000090: 67a0 253d 03b3 09bd 57ba f4bb 57d3 b83b
000000a0: 8367 adbc 3974 983d 506f f5bd a848 b7bd
000000b0: f3a5 adbc 92c2 b0bd f4e6 fcbc f7ce 40bd
000000c0: 58a7 233e 68e2 03bb fa9b 093e a0b7 0b3e
000000d0: 13b0 393b 74cf 4abd 7438 ae3d 8670 963b
000000e0: ff23 07be cf0e 9dbc e705 a6bd 4579 db3d
000000f0: 7c99 dfbd 45f3 1e3d 48e3 53bd 7c5d c8bc
00000100: 3435 343c 3998 d23c 42d4 43bc 2b20 253e
00000110: f37f 0bbe b2a6 94bd ac59 623d f282 00be
00000120: 132d 8fbd 5f09 e2bc 4cc9 f33d fc17 b6bd
00000130: 5d91 fc3c d3b6 34be a50b dbbd ba85 7dbd
00000140: 6c70 b73d fbe8 63bd eaac 23bd b4b0 7f3d
00000150: 6b20 2c3e 7858 1c3b 71c7 433d 96f0 11be
00000160: cc27 1c3e a943 f6b9 e0b5 633c 69e1 b73b
00000170: 500b 24be 5cc3 20be 659a 4d3d b5e8 85bc
00000180: 4d44 ba3d 2011 07bd a068 6a3c 7b57 163e
00000190: 2fd8 8abd fdbd f93c 0d78 eebd 881f 06bc
000001a0: 8909 143d f1f5 113d 2e01 a2bd a474 eb3d
000001b0: cdc6 5fbe 7351 2b3b 34ae 2f3e 73fb 34be
000001c0: 67a7 e7bd c162 083b a332 b0bd 5f4b 6ebe
000001d0: 6730 763d cf96 bf3c 4ff5 afbd 9332 07bd
000001e0: 0faa 0bbd fffd 04be 33e5 e43c 6e20 82bd
000001f0: 3bbc 88bc d3d3 0c3e 711c d2bd 6803 dbbb
00000200: caae cf3d be3e b93d 3b80 5bbe 65d8 13bd
00000210: 9c76 113e 9ad1 91bd b00b 42bd f42a adbd
00000220: b8fe 48bd 4f85 b7bd cc8a 943d 1e08 0d3e
00000230: 1099 2b3e 857f f13a 09a6 0f3e 16a1 4c3e
00000240: cdd7 a73d 74f3 c7bd 67b4 2abe 749e 0e3d
00000250: 0e17 a5bb 8ec6 8bbd ec86 bdbd 8b70 d73d
00000260: 0c89 a6bd 6570 b73c 1afa 5d3d 8404 f4bd
00000270: db32 823c f4e1 a6bd 7ff1 83bd 3c7c 4a3e
00000280: b062 69bd 0a0f 6c3d c1ca 6dbd a9a4 3fbe
00000290: cb68 bd3c 3490 a63d f425 72bd 6a8d 223d
000002a0: 71b8 8e3b 4c08 f13d 3bf4 c03d b280 a1bd
000002b0: e302 dd3c f927 593e 4fc1 013e 3460 423d
000002c0: 0b38 733d 449e 32be c5f6 8d3c 3626 423d
000002d0: 9a35 32bc e0cf 0ebe 2d80 163c e3d2 8e3d
000002e0: 5ac6 ba3c a241 803d 1633 abbd 0d83 b2bd
000002f0: 9215 71bc dfce 02be 42c2 60bd 017c 43bd
00000300: 1aa0 173d 1252 e9bd 2199 133e 5f20 87bc
00000310: a28b 9ebd 2cbe 6a3d 5396 84bc 3f13 9f3c
00000320: c261 083d 5775 833d 40cd e43d d83e 23be
00000330: 6891 8d3d 4ced bbbd d9a4 e23b cafc 4e3e
00000340: ddb3 82bc 9021 773d 3086 6b3d 1d06 91bd
00000350: c036 f13b cbf9 f6bd 17d6 bd3c 849e 84bd
00000360: 0621 813c 726c a3bc 57cd 01be 834d 763d
00000370: 1cd5 783d e0de e13d 171b 08be 40c8 1dbd
00000380: 89d7 87bd 8a80 d7bd 58ed afba 64ce 4ebd
00000390: 04cc 0cbd e386 a5bc 1c9d 40bd 1151 2f3c
000003a0: 4b80 06be cd0c bcbd 2be9 843d 77fc 55bd
000003b0: 9ba7 c1bd bd18 a0bd 9258 d83d 6145 d93d
000003c0: 6b38 913c 60c9 7bbd 1ee6 8bbd f909 c73d
000003d0: bcc9 e5bc 288b 43bd 5c6d 77bc 4726 043d
000003e0: 6971 49be 1a91 903d 8eb6 48bd 1b03 ee3d
000003f0: 1b54 d13c ad92 273d af98 5c3d 09d3 bd3d
0.035003003 -0.00716763 0.1275833 -0.15124445 0.063884735 -0.049254242 0.14228755 0.14188977
-0.23819306 -0.122827195 0.007738253 0.06834654 -0.014209001 0.08994873 -0.021667467 0.057514638
0.099739835 -0.14168195 -0.0017230342 0.057057265 0.008894348 -0.017472412 -0.030639404 0.18985052
-0.0044514057 -0.06898075 -0.07195595 -0.07151533 -0.032278303 -0.060750727 0.03662076 0.131204
0.011519594 0.019462103 0.05171621 -0.045244414 0.040436175 -0.033617985 -0.0074685025 0.005640428
-0.021167522 0.07444043 -0.11984122 -0.08949405 -0.021197295 -0.08630861 -0.030871846 -0.047072377
0.15981805 -0.0020123962 0.13438407 0.13644266 0.0028333708 -0.04951425 0.08506861 0.0045910506
-0.13197325 -0.0191721 -0.081065945 0.1071649 -0.10917947 0.03880622 -0.051730424 -0.02445864
0.010999013 0.025707351 -0.011952462 0.16125552 -0.13623028 -0.07258357 0.0552613 -0.12549952
-0.06991019 -0.02759236 0.11903629 -0.088912934 0.030831033 -0.17647867 -0.106955804 -0.06189511
0.0895699 -0.05564211 -0.039959826 0.062424377 0.16809241 0.0023856442 0.047797624 -0.14251933
0.15249556 -0.00046971187 0.013898343 0.005611588 -0.1601994 -0.15699524 0.05019607 -0.016346315
0.090950586 -0.032975316 0.014307171 0.14681809 -0.06779515 0.030486101 -0.116439916 -0.008186229
0.036141906 0.03563494 -0.07910381 0.11496857 -0.2185318 0.0026141077 0.17156297 -0.17674045
-0.11311226 0.0020810815 -0.08603408 -0.2327094 0.060104754 0.02338734 -0.08591711 -0.033007216
-0.034097727 -0.12987517 0.027941322 -0.06353842 -0.016691318 0.1375268 -0.10259331 -0.0066837557
0.1014076 0.0904517 -0.21435635 -0.03609504 0.14205402 -0.071200565 -0.047374427 -0.08455458
-0.049071044 -0.089609735 0.07253036 0.13772628 0.16757607 0.0018424845 0.14028181 0.19983324
0.081954576 -0.09763232 -0.1667038 0.03481908 -0.0050381487 -0.06824981 -0.0925425 0.10519513
-0.08131608 0.022392461 0.054193594 -0.11914924 0.01589339 -0.08148566 -0.06442546 0.19773954
-0.05697888 0.05763153 -0.05805469 -0.18715157 0.023121258 0.08132973 -0.059118226 0.039685644
0.004355483 0.11769161 0.09421583 -0.07885875 0.026978916 0.21206655 0.12671398 0.047455028
0.05937962 -0.17443186 0.017329583 0.047399722 -0.010877037 -0.13946486 0.009185833 0.06973817
0.02279966 0.062625185 -0.08359353 -0.08716402 -0.014714615 -0.12774228 -0.05487276 -0.04772568
0.03701792 -0.11392607 0.14413883 -0.016494928 -0.077414766 0.05731027 -0.016184961 0.019418357
0.033296354 0.06418865 0.11171961 -0.15941942 0.069125 -0.0917612 0.006916624 0.20213619
-0.015954906 0.060334742 0.057501018 -0.07081244 0.007361263 -0.12059363 0.023173375 -0.06475547
0.015762817 -0.019949172 -0.12675987 0.060132515 0.060750112 0.11028838 -0.13291584 -0.03852105
-0.06632907 -0.10522564 -0.0013422174 -0.0504898 -0.034374252 -0.02020592 -0.04702483 0.01070048
-0.13134877 -0.09182129 0.06489786 -0.052242722 -0.09455796 -0.078172185 0.105637684 0.10608936
0.017727097 -0.061471343 -0.06831001 0.09718699 -0.028050296 -0.04774013 -0.015101757 0.032263067
-0.19672169 0.07058926 -0.049002223 0.11621686 0.0255528 0.040911365 0.053856548 0.092687674

network_body._body_endoder.seq_layers.2.bias f4 [128]
00000000: ca6c 713b 165b c33b 70e4 2a3b 6e5f 403a
00000010: 94a6 a7bb a8f0 03bc 7496 a2bc 77c3 d73b
00000020: f212 d839 dbd2 f9ba cfc9 ecba fc92 ca3a
00000030: 799a f23a bf5a e73b fbc5 8e3b 7095 6739
00000040: d2d9 d4bb 6cbf 7e3c 72dd ad3a b79b 9bbb
00000050: 5120 8e3b eb6c 8dbc 7069 d0ba bd4b 4b3c
00000060: 8a9d 90bc c2bf 0c3c 70fa 033c 94e6 b33c
00000070: 6f1c e33b cbf2 f93b 943b 85bb 7f3a e439
00000080: e0bb 263b ad35 04bc a9d5 ae3c 1e07 0a3c
00000090: 1ce7 05bb 5284 24bb 9576 9c3b 0da2 703b
000000a0: 9bef 2ebc be33 0d3c bf0c e53b bc57 413c
000000b0: 10ef 93bc 6554 40ba 34df 1a3c 73a2 943b
000000c0: 9f91 99bc a4e1 923b 1cfd ec3b 9d77 a53b
000000d0: 5907 9fbc 5351 3f3c df12 4b3c 5827 56bc
000000e0: f22c 043c 355a b4bb bdcd f2bb eac2 85bb
000000f0: fefe 0cbc 16c1 a3bb f5ee 89bb 1c29 beb9
00000100: 7201 43bc 3445 7a3c ad96 dc3b c535 bb3b
00000110: cdf7 dbbb 494a 233c abbd 33bc f744 22bb
00000120: 743f 223b 9797 713c 7a61 6ebc 51fd d33b
00000130: 397d 5f3c ec14 afbb 4175 34bb 27d0 7dbb
00000140: 4253 cdba d0d4 d93b c341 6038 f3fe bebb
00000150: 1d84 d0bb 8e56 353c 7aeb 25bb fdb4 713b
00000160: d96d bf3c 5992 3bba 2acc 93bb 2689 913b
00000170: 3a10 6d3a 03b9 9bbb 6a3a d03b 410b ea3b
00000180: 6891 b13a 32f4 e93b 9c15 993a 569d bd3b
00000190: 20b8 76bb 71a7 163b 42e0 2eba abe9 283a
000001a0: 04e2 35bc 13ad 843b acaa 173c 814c fab9
000001b0: bb3a 4a3a 334d b03a 665a 473c 2c3c 9a3b
000001c0: 7b5e f53b 2f7d 27bc a0e5 773b a4cf 403b
000001d0: 2948 453c 10c7 0cbb b4d7 26bc 1417 3e3c
000001e0: 8996 51ba 54ba 61bc 9435 a33c 7e06 cf3a
000001f0: 13da 4dbc abc5 6bbc f1aa 8f3b a703 84ba
0.0036838525 0.005961786 0.00260761 0.0007338439 -0.005116293 -0.008052982 -0.019847132 0.0065845805
0.00041212846 -0.0019060032 -0.0018065515 0.0015455182 0.0018509171 0.0070603783 0.004357097 0.00022085547
-0.006495693 0.015548568 0.0013264848 -0.0047487873 0.0043373485 -0.01726385 -0.0015900563 0.012408194
-0.017653245 0.0085906405 0.008055314 0.021960534 0.00693088 0.00762782 -0.00406594 0.00043531132
0.0025441572 -0.008069438 0.021342115 0.008424548 -0.0020431941 -0.0025103283 0.0047748783 0.0036717684
-0.010677244 0.008618293 0.006990045 0.011800703 -0.01805833 -0.00073367945 0.00945263 0.004535967
-0.018746195 0.004482465 0.0072323214 0.0050496594 -0.019412683 0.011677104 0.012394636 -0.013070904
0.008067356 -0.0055039176 -0.00740978 -0.0040820735 -0.008605717 -0.004997383 -0.004209394 -0.00036270253
-0.0119022 0.015275288 0.006731829 0.005713197 -0.0067128898 0.009966441 -0.010970513 -0.0024760345
0.002475706 0.0147456145 -0.014549607 0.0064694067 0.013640695 -0.0053430703 -0.002753571 -0.0038728805
-0.0015665072 0.0066476837 5.3467007e-05 -0.005828732 -0.0063634054 0.0110679995 -0.0025317357 0.003688156
0.02336781 -0.00071552914 -0.0045104222 0.004441398 0.00090432505 -0.0047522797 0.0063546197 0.007142455
0.0013547363 0.007139706 0.0011679414 0.005786578 -0.0037646368 0.0022987986 -0.000667099 0.00064435106
-0.01110125 0.0040489524 0.009257 -0.00047740716 0.000771444 0.0013450742 0.012167549 0.00470688
0.0074880696 -0.010222717 0.0037826076 0.0029420638 0.01204113 -0.0021480955 -0.010183264 0.011602182
-0.0007995149 -0.013777334 0.019923009 0.0015794782 -0.0125642 -0.014390389 0.0043843915 -0.0010071889
