Assets/result/ppo/My Behavior/My Behavior-499980.onnx (onnx, 578818 bytes, 21 tensors)

network_body.observation_encoder.processors.0.self_ent_encoder.seq_layers.0.bias f4 [128]
00000000: 0223 9ebc a96a d1bb 16de 803c 5986 46bc
00000010: 9668 353c 46a7 a6bc e219 2d3c ac6c a2bc
00000020: 7a7e a43b da96 9dba 32aa a33b a5a9 bbbb
00000030: ce95 97bb 1d0b a63c 5e6e 84bb 474e e9bb
00000040: 0cec 39bb 27b5 06bc 2369 a9bb f404 8d3b
00000050: 0729 ba3b ce0f d1bb 7c31 a03a 920d 65bc
00000060: c2bd 1a3c 59c0 65bb b6ea 903c e429 1e3b
00000070: e3de 53bc f6f8 0e3b a10e a8bc 6f4c 64bc
00000080: 7cd0 98ba 086c 54bb a283 d03a 00e7 65bc
00000090: 9951 72bc 3fe2 0a3c 1da0 083b 2874 a939
000000a0: 1db9 9e35 dc38 b43b e395 f23b 0d3f 213b
000000b0: a340 6fbc 324c 9b3b aa34 dabb 05d6 483c
000000c0: 4400 06bc 3d21 09bc ce74 ed3b d7f8 9dbb
000000d0: f04f 9ebc b669 5a3c a6ec b7ba ec09 b8bb
000000e0: 935a 173b 3e67 cebc 4dde 9dbb e941 38bc
000000f0: 54f7 9c3c 284e 503c f34d 193c 8fc2 9f3b
00000100: 82c3 00bc f175 edbb 078c eb3b 1544 7339
00000110: 11ac 823b 609d 153c bfe6 5b3c 8e5c 04bc
00000120: f103 95bc 104e 863c 8def 133c 6eb2 d73b
00000130: e174 37bb 32aa 963b 66ea edbb 7b04 e9bc
00000140: 8be6 c53b 652e 90bc 048f aebb da12 0c3c
00000150: 5d66 20bc 2070 3ebb 93b0 9d3c 9f66 b13b
00000160: dc9a 843b 782a 213c 0525 e9bb 0f53 233c
00000170: 7f67 953b fff7 05bc f001 1a3c 6aa6 bbba
00000180: 1ac8 e4b9 f17e b63b d3a6 d2bb 063f 503b
00000190: c4db af3c 53fd ee3a 86f4 5c3c b7b9 bc3a
000001a0: 65b7 0ebc 6556 b73a 9b54 b13a 65e0 89bc
000001b0: 8563 bbb9 af02 41bc 241c 2dba 63fb 893b
000001c0: 7925 263a 063c 84bc b2d8 b83c 4f85 91bb
000001d0: e553 82bb be0b c83b eeee 86bc cc65 463b
000001e0: d934 90bc 28be 0fb9 d8be 1cbc 45d3 dbbb
000001f0: f89f b13c 373d d3bb 5273 293b c4fb 5d3c
-0.019303802 -0.0063908887 0.015730899 -0.012116992 0.0110722985 -0.020343434 0.010565253 -0.01982721
0.00501996 -0.0012023107 0.004994654 -0.0057270103 -0.0046260124 0.020268971 -0.004041477 -0.007119927
-0.0028369455 -0.008221901 -0.005170004 0.004303569 0.0056811604 -0.006380058 0.0012221779 -0.013980286
0.009444656 -0.0035057275 0.017690044 0.0024133855 -0.012931558 0.0021815873 -0.020514788 -0.013934239
-0.0011658813 -0.0032413024 0.001590837 -0.0140321255 -0.014789962 0.008476793 0.0020847388 0.00032320735
1.1825792e-06 0.005499942 0.007403122 0.0024604232 -0.014602813 0.004739308 -0.00665911 0.0122580575
-0.008178774 -0.008369741 0.00724659 -0.004820924 -0.019325227 0.0133308675 -0.0014032319 -0.005616417
0.0023094758 -0.025195714 -0.00481776 -0.011246183 0.019160904 0.012713946 0.009356963 0.004875488
-0.007859113 -0.0072467257 0.0071883234 0.00023199648 0.003987797 0.009131759 0.013421713 -0.008078707
-0.018190356 0.016394645 0.009029281 0.00658255 -0.002799325 0.0045979256 -0.0072606085 -0.02844452
0.0060394458 -0.017600248 -0.0053271074 0.008549416 -0.00979003 -0.002905853 0.019249236 0.0054138447
0.004046781 0.0098367855 -0.007115009 0.009968533 0.004559457 -0.008176803 0.009399876 -0.0014316563
-0.00043636636 0.005569332 -0.0064285784 0.0031775846 0.021467097 0.0018233455 0.013486033 0.0014398609
-0.008710717 0.001398754 0.0013529243 -0.016830632 -0.00035741567 -0.011780425 -0.00066036195 0.004210876
0.00063379813 -0.016141903 0.022564266 -0.0044409405 -0.003977286 0.0061049154 -0.016471352 0.0030273078
-0.017603325 -0.00013708381 -0.009566985 -0.006708535 0.021682724 -0.0064465064 0.002585609 0.013548795

network_body.observation_encoder.processors.1.self_ent_encoder.seq_layers.0.bias f4 [128]
00000000: 1621 4f3c dcbd 3c3b f6d8 35bc 9d1b 30bc
00000010: d9d7 baba c0c0 5b3c 5690 02bc 7868 29bb
00000020: e786 d4ba db26 44bc bee5 683b 1a4c 21bc
00000030: c34f 843b f280 87bc 28b2 82bc 1a94 143c
00000040: d334 5f3b d5c3 13bc ce77 ffbb 9b97 44bc
00000050: eb62 653c bb50 cf3b 8bf5 bebb 9f5f 98bb
00000060: 38c3 60bc 9b9a 02bc df54 803a 41b3 0ebc
00000070: 3993 e53b 6b75 0abc 97ee 863c 50df 483c
00000080: a8c0 09bc 8b27 ecba 27e8 a73b 1107 843b
00000090: e964 a9bb fed8 c0bb 2582 87ba 6b03 293b
000000a0: 037e 2cbc f2f6 ed3b 98ad 463b d3dc 07bc
000000b0: 4013 253b 357d 8a3c db0b 96bb 2e2b ebbb
000000c0: ffa4 243c b805 f83a ef0e 1bbc 2af2 fd3b
000000d0: 32a8 e43b 3ac0 14bc 0cad 05ba cf82 c4bb
000000e0: 8132 3a3c 1ced 4c3c 43f2 c0bb 1e8b 6abb
000000f0: 204d d7bb 3092 29bc c831 8c3c 8dbb 9a3b
00000100: ed3b ce3b 3ac9 e6ba 9ff3 0f3b d1f7 39bb
00000110: 00c7 143c b437 193c c19e e2bb 569d f23a
00000120: 73cf ca3b 16a3 233c a0ba 0abc a342 69bc
00000130: 12f4 723c 2e6b d93b 8a8e 06bc 8b4b d23b
00000140: e90a 0fbc 58f2 40bc 0cea 93bb 2f61 263b
00000150: 73b9 58bb c075 c33c 6250 8bbb 6e6d 8abb
00000160: 848a 963b 2f22 7dbc 568c 1cbb 842a 82bc
00000170: 828f a8bc c4d9 cb3b 1dad 5f3c 2ce0 cfbb
00000180: 19ae 973c 9f4e b9ba 80d2 ff3b 98e7 b03b
00000190: bd2e 2abc a51e 35bc 9f53 84ba 657e 8b3b
000001a0: b091 c13b 293b 86ba 4e72 f33a d1c5 723c
000001b0: cebd 8cbb 2ed4 b3bc 44a4 e4bb 55c9 a33c
000001c0: bbb0 bd3b 0fec 323c 4554 38bc 53ae bf3a
000001d0: 78ee b3ba 4c42 e8bb c563 ef3a 3324 da38
000001e0: c7ce 6c3b 583c 5bbb e8c7 e13b c660 18bb
000001f0: 9f38 91bb 9ac7 0a3b 7db8 ff3b c2cb 2d3c
0.012642166 0.0028799688 -0.011099091 -0.010748771 -0.0014255001 0.013412654 -0.007968983 -0.0025849622
-0.001621452 -0.0119721545 0.0035537328 -0.009844804 0.0040378287 -0.016540978 -0.015954092 0.009068513
0.0034058585 -0.009018858 -0.0077962643 -0.011999036 0.014000635 0.0063267625 -0.005827611 -0.004650071
-0.013718419 -0.007971431 0.0009790919 -0.00870973 0.0070060757 -0.008450846 0.01647119 0.012260273
-0.008407749 -0.0018017156 0.0051241103 0.0040291627 -0.0051695 -0.0058852425 -0.0010338469 0.002578939
-0.01052809 0.007262104 0.0030315872 -0.008292395 0.0025188476 0.016905406 -0.00457905 -0.0071767783
0.010049104 0.0018922603 -0.00946401 0.0077498155 0.0069780583 -0.0090790335 -0.00050993334 -0.005997039
0.01136458 0.012507703 -0.005888255 -0.0035788487 -0.0065704733 -0.010349795 0.017113581 0.004722065
0.006293765 -0.0017607578 0.0021965278 -0.002837647 0.009080648 0.00935166 -0.0069158976 0.0018510025
0.0061892807 0.009987613 -0.008467346 -0.014237079 0.014828699 0.0066350913 -0.008212695 0.006417697
-0.0087306285 -0.011776529 -0.0045139845 0.0025387516 -0.003306952 0.023859859 -0.0042515257 -0.004224471
0.004594149 -0.015450045 -0.0023887358 -0.015889414 -0.020576242 0.006221028 0.013652113 -0.006343862
0.018515633 -0.0014137811 0.007807076 0.005398702 -0.01038712 -0.0110546695 -0.0010095722 0.0042570108
0.00590726 -0.001024102 0.0018573494 0.014817671 -0.0042950874 -0.021951761 -0.00697759 0.019993464
0.00578889 0.010920539 -0.01125056 0.0014624096 -0.0013727685 -0.0070879813 0.0018263987 0.00010401793
0.003613399 -0.0033452716 0.0068902858 -0.002325104 -0.0044317986 0.00211761 0.007803975 0.010607662

network_body.observation_encoder.rsa.fc_q.bias f4 [128]
00000000: 91c9 3f3c bfc4 dd3c e141 d3bc f7e9 9b3b
00000010: 91b0 52bc 3a16 46bc d8b5 05ba c98d 12bd
00000020: e486 d3bc 4762 03ba ab42 3dbb a915 633c
00000030: 187f f13b 68ff 4f3c 3c84 d73b 1ef6 b6bb
00000040: e730 6b3c 5115 fb3c 568d 43bc 7b7f 75ba
00000050: 40b0 b53c 5de5 873c 4238 1abc 4dda 91bc
00000060: 23cc e4ba ca7a 8c3c 6b62 cc3c e739 023d
00000070: 70e8 e9bc 7957 a2bc 00b8 9b3c f90e 893c
00000080: 9479 b93b eaca 2f3c 4a42 bfbc bf69 dc3b
00000090: 19be eabc 338f 853c 4120 423d 80ef e7bc
000000a0: 5147 36bc 8864 9fbc ab1d c13b 4a03 64b9
000000b0: 53ad e5bc 986f f8bb 8171 d2bb 59d3 25bb
000000c0: 0724 9bbb 506a 253c 8908 c33c 3fd8 be3c
000000d0: 2fbc 35bc 0740 d2bc 3b47 c33c 118f b63c
000000e0: 0ee5 a33c 89b5 93bc 747d e3bc 369c e53c
000000f0: 0eea f73c fef3 6fbc 01c2 0dbc 61ce 1d3c
00000100: ae27 4dbc ac1f 0139 cb3e 1b3c 46fc c43a
00000110: 5347 18bc 952d 01bc a146 c63b a086 39bb
00000120: 541e 4c3c 4f3c 613c 902f 743c 64f0 34bb
00000130: 76b7 43bc 515d 60ba 7c05 35bc 4a3b 4dbb
00000140: 0ebb 0b3b 7927 27bc 4479 8d3c 7966 68ba
00000150: 14d9 a9bb 9742 563c 4123 8c3a 1ca4 433c
00000160: 3182 033c 8bd2 1d3c b43d 1abc b5c6 1abb
00000170: dcea 93bc a84f 14bc 2d77 153c 227e 24bc
00000180: e5dd 7f3b 7216 0abc e53e 2e3c 4a32 d73b
00000190: a498 023b fc60 41bc aed9 d63b 9825 7cbc
000001a0: 212a 2e3b e8ee 08bc bbaf 24bc 31ce eebb
000001b0: 1ee4 2bbc 10fd bbb9 b177 2339 544a 8bbc
000001c0: 6298 33bb 0df1 3ebb 5b3b e63a 763a 8ebb
000001d0: 612d 923c dcd3 5ebc 6a70 98bb 7d82 af3b
000001e0: c4f0 91bb 5ff8 9c3a aa7b 6a3b 9590 783b
000001f0: 1581 b9bb 6f1d 403b cafb 6dbc 2a2e 28bc
0.011705772 0.027071355 -0.02578825 0.0047581154 -0.0128594795 -0.01209026 -0.0005100644 -0.035779748
-0.025821157 -0.0005011898 -0.0028878849 0.013860145 0.007369887 0.012695171 0.006577043 -0.0055835387
0.014354921 0.030649813 -0.011935553 -0.00093650044 0.02217877 0.016588861 -0.009412827 -0.01780429
-0.0017455857 0.017148394 0.024949273 0.0317935 -0.028553218 -0.0198171 0.019008636 0.016730772
0.005660245 0.010729531 -0.023347039 0.006726473 -0.028655099 0.016303634 0.04739404 -0.028312445
-0.011125402 -0.019457117 0.0058934293 -0.00021745 -0.028036749 -0.0075816624 -0.006422222 -0.0025302975
-0.0047345194 0.010096148 0.02380778 0.023296474 -0.01109223 -0.025665296 0.023837676 0.022285016
0.020006683 -0.018030899 -0.027769782 0.028028589 0.030262973 -0.014645575 -0.008652211 0.009631724
-0.012521667 0.00012314197 0.00947542 0.0015028797 -0.009294349 -0.007884403 0.0060509 -0.0028309003
0.012458403 0.013747289 0.014903918 -0.0027609104 -0.011945596 -0.0008558827 -0.011048671 -0.0031315857
0.002132121 -0.010202282 0.017269738 -0.0008865367 -0.0051833484 0.0130774 0.0010691659 0.011940982
0.0080266455 0.009632717 -0.009414125 -0.0023616974 -0.018056326 -0.009052195 0.009122652 -0.010039838
0.0039042172 -0.008428203 0.010635112 0.006567274 0.0019927407 -0.011802908 0.006556711 -0.015389822
0.0026575404 -0.008357741 -0.010051663 -0.0072877635 -0.010491399 -0.00035855966 0.0001558948 -0.017003216
-0.002740406 -0.0029135377 0.0017565297 -0.004340465 0.017843904 -0.013600316 -0.0046520727 0.0053561316
-0.0044537503 0.0011975876 0.0035779276 0.0037927974 -0.0056611397 0.0029314419 -0.014525363 -0.010264913

network_body.observation_encoder.rsa.fc_k.bias f4 [128]
00000000: 7e5f 06b5 89e9 3eb4 76e9 e9b2 e19f a934
00000010: 53c8 9d34 7b00 f334 519e c334 a99d 27b5
00000020: 0ea3 44b2 30a0 9ab4 46f0 0c34 5d36 9633
00000030: 0179 5134 f2b0 87b1 24b0 e1b3 4b88 8d34
00000040: f809 4432 d441 df34 1596 2f34 cf39 e8b4
00000050: 8102 8f33 35c1 9fb4 5e1a 21b4 cd97 3630
00000060: b923 29b4 e8e5 97b4 0a02 b8b3 6d49 e4b4
00000070: 154f 60b4 bc1b 4fb5 ca1d 7b34 ed63 74b4
00000080: ff26 3135 3802 7934 c936 bfb4 368c de34
00000090: 8daa 0935 f5a2 1035 2530 b834 2e18 5b34
000000a0: 1a30 21b4 8443 bb34 8bd7 41b5 87e5 4a35
000000b0: 4637 0235 2c8d db34 a89f 3135 25a8 1b34
000000c0: fc1b df34 9c7a 4d33 fd7a 0835 43a8 72b3
000000d0: 0dab 9fb4 0c17 a634 f465 a7b4 3e00 9bb4
000000e0: 3565 c834 474f beb3 c3ee 49b4 770b 88b4
000000f0: 1da1 6334 76d4 7ab4 724e 7cb4 4431 6ab5
00000100: c2d8 c9b3 56dc 9934 8ed7 d034 1521 0535
00000110: 5e40 11b5 f6c2 0034 56a8 e634 4752 65b5
00000120: 0c8e a9b4 c308 1c35 a4af b635 9afa 3bb5
00000130: 6c1a 1fb5 aaa1 c1b4 a445 a1b4 cd65 73b3
00000140: 8198 3a35 49c2 1434 aac9 5735 790e 0d35
00000150: c6b5 b734 1e67 1334 f19c 2835 aa9c 2234
00000160: f2b1 f634 53e3 3a35 8583 aeb3 8186 cfb3
00000170: c41b 41b5 26f7 9234 4fed b1b3 9267 18b5
00000180: 0167 2db5 7dbb 1eb5 052f 8234 289d 01b4
00000190: cf68 0235 d1da 3935 41cc d8b1 5ad6 05b5
000001a0: 241d 9e31 0ce0 ecb4 0f13 1335 6131 4834
000001b0: 5f15 4c34 c77c f934 a554 88b4 641e d5b1
000001c0: 941d c334 01e9 1435 0d6f 3733 5e95 0bb5
000001d0: e593 13b5 a88c 41b5 035e 00b5 e75b 1c34
000001e0: 9ff2 4c35 9d8f e234 f848 c4b4 5e03 c234
000001f0: 5257 9d34 98a4 8ab5 6af8 9eb4 5b02 cf33
-5.005785e-07 -1.7780089e-07 -2.7230936e-08 3.159503e-07 2.9389284e-07 4.5262627e-07 3.643677e-07 -6.2441774e-07
-1.1445776e-08 -2.8801287e-07 1.3125927e-07 6.994808e-08 1.9508663e-07 -3.9491335e-09 -1.0509419e-07 2.6362463e-07
1.1410968e-08 4.1584883e-07 1.6352745e-07 -4.325543e-07 6.659412e-08 -2.9756634e-07 -1.5003886e-07 6.6426936e-10
-1.5752347e-07 -2.829322e-07 -8.5685386e-08 -4.2521734e-07 -2.0890396e-07 -7.715387e-07 2.3387034e-07 -2.2760624e-07
6.5994385e-07 2.3190739e-07 -3.5616384e-07 4.145274e-07 5.128466e-07 5.3881314e-07 3.43077e-07 2.0404761e-07
-1.5011793e-07 3.4880588e-07 -7.221176e-07 7.558487e-07 4.850921e-07 4.0894645e-07 6.616997e-07 1.449667e-07
4.1557348e-07 4.7841795e-08 5.084292e-07 -5.649805e-08 -2.9740514e-07 3.0936678e-07 -3.1180355e-07 -2.8871176e-07
3.732654e-07 -8.861985e-08 -1.8806445e-07 -2.5340316e-07 2.1199635e-07 -2.3360357e-07 -2.3497867e-07 -8.7243484e-07
-9.39922e-08 2.8658786e-07 3.8899856e-07 4.95945e-07 -5.4110376e-07 1.1991855e-07 4.296332e-07 -8.5428877e-07
-3.1582056e-07 5.812728e-07 1.3611175e-06 -7.00276e-07 -5.9270565e-07 -3.6066677e-07 -3.0039257e-07 -5.6670434e-08
6.951232e-07 1.3854255e-07 8.03872e-07 5.2547654e-07 3.4218664e-07 1.3727956e-07 6.2813257e-07 1.514442e-07
4.5950543e-07 6.96212e-07 -8.12643e-08 -9.663655e-08 -7.1938507e-07 2.7374443e-07 -8.285371e-08 -5.677513e-07
-6.459741e-07 -5.913242e-07 2.4248598e-07 -1.2071234e-07 4.858129e-07 6.923629e-07 -6.3096484e-09 -4.9858284e-07
4.601718e-09 -4.412144e-07 5.47895e-07 1.8644415e-07 1.9006755e-07 4.6470652e-07 -2.539356e-07 -6.202571e-09
3.63431e-07 5.547336e-07 4.2709008e-08 -5.1998893e-07 -5.497698e-07 -7.2102785e-07 -4.782052e-07 1.4562066e-07
7.634898e-07 4.2200273e-07 -3.6560937e-07 3.6137766e-07 2.9307063e-07 -1.0329704e-06 -2.9610538e-07 9.639617e-08

network_body.observation_encoder.rsa.fc_v.bias f4 [128]
00000000: b726 37bc a870 b43b eaf6 943a f2c4 1a3b
00000010: d201 d8ba 8360 7839 ea64 0dbb 2572 413c
00000020: 6a4d 10bc 3198 013b ee49 edba 175a bb3b
00000030: ceba f7b9 5c8b a6bb becd cbba c0a3 8dbb
00000040: a1d9 d037 d710 54ba 507e 7c3b 734a e93a
00000050: af39 6aba ba79 1c3b 18ad 3cbb c95f 8dbb
00000060: d2c4 a83b 9eba afbb 05c7 90bb ff50 553c
00000070: 154c 263c 017d 613b b6d3 073b eb31 9a3a
00000080: 0638 573a c9c7 b2bb be81 223c 8605 93bb
00000090: b92a 693b 1bb8 9a39 945c c93b 99d8 47bc
000000a0: b677 333a 9db0 843b 0284 183c 5b9c d6bb
000000b0: 03cd 27bc 69a9 0aba 23f0 d33b efe7 8d3b
000000c0: dd39 7dbb 39cf a63b d790 1bbc 1176 23bb
000000d0: 714d 473b 2ce2 843b 47e6 643b f1a1 4abb
000000e0: 4bc9 5cbb 039a 9ebb 38cf 533b a532 2b3c
000000f0: e4d8 d43a ce5f d03b ebd0 923b 54f3 223b
00000100: e446 c9bb 36b8 2abc 42c3 1bbc 95dd 06bb
00000110: 546f 6cbb 3020 21bb f3e5 d4bb 8862 4cbb
00000120: a842 adbb f293 813b 3297 14bb 1395 c9bb
00000130: 5a49 bfba a7b4 f93a 81d6 1fbc 4a1c 91bb
00000140: 9050 50bb 7eb0 2ebb 5e90 493b ae63 eebb
00000150: 85f5 93bb 71d9 10bc 9c05 323b 5681 ccbb
00000160: d0f9 03bb 31dd ce3b f5e7 81bb 2e47 99ba
00000170: f417 34bc 012f 69bb a640 22bc 6698 913a
00000180: c8f3 a8bb 083f fa39 4f8d 93ba 968d 803b
00000190: d082 1f3c f4b9 68bc aac8 49bb 7ca6 a23b
000001a0: eef9 3f3c ae86 a33b 8903 713a 4494 833a
000001b0: 1e79 97bb c774 333c 0671 f63b daab 533c
000001c0: d66c 603c 19dd dc3a 566c ae3b 0c16 45bc
000001d0: 2699 373b a47a 81bb 3131 e6bb 1f39 f8bb
000001e0: 1716 b13b a4c7 bf3a 91c2 f5ba be40 2dba
000001f0: c7b2 c8bb 1283 af39 b529 2cbb 7d44 053c
-0.011178664 0.0055065937 0.001136509 0.0023615924 -0.0016480035 0.00023687076 -0.0021575042 0.011806999
-0.008807519 0.001977455 -0.0018103698 0.0057175267 -0.00047250692 -0.005082531 -0.0015548987 -0.004322499
2.4896874e-05 -0.00080896675 0.0038527437 0.0017798677 -0.0008934987 0.0023876266 -0.0028789695 -0.004314397
0.005150416 -0.0053628227 -0.004418256 0.013019799 0.010149975 0.0034406784 0.0020725555 0.0011764144
0.0008209947 -0.005455945 0.009918628 -0.0044867424 0.0035578443 0.00029510338 0.0061450694 -0.012197637
0.00068461464 0.0040493743 0.009308817 -0.0065494007 -0.01024175 -0.00052895263 0.0064678355 0.004330627
-0.0038639226 0.005090621 -0.009494982 -0.00249422 0.003041115 0.004055282 0.0034927295 -0.0030919279
-0.0033689316 -0.004840137 0.0032319557 0.010449086 0.0016238955 0.006359077 0.0044804714 0.0024864273
-0.006142484 -0.010419896 -0.009507002 -0.002057885 -0.00360771 -0.0024585836 -0.0064971386 -0.003118666
-0.005287487 0.003954404 -0.0022673127 -0.0061518042 -0.0014594004 0.0019051031 -0.009755732 -0.004428421
-0.00317863 -0.002665549 0.0030756216 -0.0072750663 -0.004515352 -0.008840905 0.0027163988 -0.006241004
-0.0020137914 0.006312989 -0.003964419 -0.0011694187 -0.010992039 -0.0035580995 -0.009903109 0.001110804
-0.005156014 0.00047730678 -0.0011257323 0.0039231284 0.009735778 -0.014204491 -0.003078977 0.004963694
0.011717303 0.0049904203 0.0009193947 0.0010038693 -0.0046225926 0.010953135 0.0075207977 0.012919391
0.0136978235 0.001685056 0.0053229732 -0.012029182 0.0028014868 -0.0039513875 -0.007024907 -0.0075751687
0.0054042446 0.0014631641 -0.0018750002 -0.00066090736 -0.0061248275 0.00033476256 -0.0026269977 0.008134005

network_body.observation_encoder.rsa.fc_out.bias f4 [128]
00000000: 26d8 81bb 57a3 353c 14b3 b63a dd2e 1a3c
00000010: 566d ea3b 8439 8d3b 7dc0 efbb 8a64 09bb
00000020: d9aa a3bb b03b aabb 7891 223c f1da 45bc
00000030: fd0b 443b f4b8 2bbb 3667 32bb f1b4 963b
00000040: 199a ad3b b58d 8f3b b9cf 81bb 1bf8 1eb8
00000050: 5508 1bbc 1290 863b 8b23 b0bb a71e a83c
00000060: 53e8 5cbc 4071 9a3b 3c06 e4bb d22a 12bb
00000070: fef5 5f3c edea 1bbc 40fc db3a 5b99 843b
00000080: 0a7d 33bb 47e8 16bc 7046 bd3b c8cf de3b
00000090: c5f4 9f3b 4f7c bbbb 16de 16bc 766d 25bb
000000a0: 2f5a dfbb fede 35bc 9f36 543b 0fc2 73bb
000000b0: 2d5b 513c 680f a8bb 2c8b f93a 163a 81ba
000000c0: 6602 023a b13b 393c 0090 5239 4eb9 ab3b
000000d0: f62a b0b9 04ea 09bb 68d8 acbb 4ab0 26ba
000000e0: 6eee 95bb b517 3bb7 5126 c7bb 40de 0a3c
000000f0: a39c fe39 406f 3cbc b1e7 323a 35c7 273c
00000100: 4453 b03b 64e0 c2bb 4f01 e4bb b0fe 9abb
00000110: f997 703b 31f9 dcb9 8d35 75bb 11b0 9fbb
00000120: d73c 6c3c a8de 0cbb eacd bc3a 1adc 8e3a
00000130: 7db3 203c f1fd 55bb 7ad1 10b9 a483 09bb
00000140: 3cbe ee3a fbe2 93b9 3b7f 8abb 3067 e33a
00000150: 17ab 843b e224 d0bb 31f5 08bc 98bc 83bc
00000160: 28f8 71ba 9e23 51bb 785e 103b 2837 36bc
00000170: 13e8 4d3b e949 083b 11c7 c9bb a015 c13b
00000180: 16e4 3f3b 67f2 233c 8373 b5bb d548 c1bb
00000190: cf0e 45bb d785 6abb 8918 ba39 b68f 923b
000001a0: 6639 e53b 3a1b 153c 661e caba c5ca 683c
000001b0: 8161 dcbb 329e 88bb 1301 14bc 8161 673b
000001c0: 7e83 caba 7f12 1d3b d844 c7bb 3e3d 0cbb
000001d0: 2c4b 493b d92c b93a df54 733c 3bb0 4e3b
000001e0: 4649 cf3b db18 60bc 9aa8 543a b022 1abc
000001f0: 6c93 a03b 0f3a d53a 408d f33b cd84 ad3b
-0.0039625345 0.011086307 0.0013938867 0.009410587 0.007154147 0.004309835 -0.0073166476 -0.0020964467
-0.004994732 -0.0051951036 0.009922378 -0.0120761255 0.0029914372 -0.002620277 -0.0027222163 0.0045992066
0.005297911 0.0043809065 -0.00396153 -3.79012e-05 -0.009462436 0.00410653 -0.005375331 0.020522429
-0.013483125 0.0047132075 -0.006958751 -0.0022303355 0.013669489 -0.00951646 0.001678355 0.0040466017
-0.0027387762 -0.009210653 0.005776219 0.006799672 0.0048814737 -0.005721606 -0.009208223 -0.0025242246
-0.0068161706 -0.011100529 0.003238119 -0.0037194525 0.012778086 -0.0051287897 0.0019038669 -0.000985923
0.0004959464 0.011305735 0.00020080805 0.005240596 -0.00033601344 -0.0021044025 -0.005274821 -0.00063586666
-0.004575542 -1.1151588e-05 -0.0060775657 0.00847584 0.0004856336 -0.011501133 0.0006824686 0.010240366
0.00538102 -0.0059471596 -0.006958164 -0.004730068 0.0036711677 -0.00042147332 -0.0037415952 -0.0048732837
0.014418802 -0.0021495018 0.0014404629 0.0010899336 0.009808418 -0.0032652582 -0.00013810946 -0.0020983005
0.0018214653 -0.00028207139 -0.004226593 0.0017349478 0.004048716 -0.006352053 -0.008359239 -0.01608114
-0.00092303986 -0.0031912099 0.0022028964 -0.011121549 0.0031418845 0.0020796007 -0.006157764 0.0058924705
0.0029280237 0.010006524 -0.0055374517 -0.005898575 -0.003006864 -0.0035785341 0.00035494965 0.004472698
0.006995368 0.00910073 -0.0015420436 0.0142085 -0.0067254906 -0.004169249 -0.009033459 0.003530592
-0.0015450565 0.0023967323 -0.006081205 -0.0021398808 0.0030714972 0.0014127746 0.014851778 0.0031538147
0.0063258735 -0.013677801 0.0008112282 -0.009407684 0.0049003866 0.0016267913 0.00743261 0.005295372

network_body.observation_encoder.x_self_encoder.seq_layers.0.weight f4 [128, 3]
00000000: ab01 47bc daf0 08bd 0023 71bc 3edc ea3c
00000010: 5c0c 99bc cf5a 083d 8d94 c83c 5fea fe3c
00000020: 98c5 2abb 6e56 01bc 6b33 38bc 7fea fa3c
00000030: f30b 5e3c 413c 1a3c 4125 6cbc 69eb 80bd
00000040: d845 86bd d585 4fbd b289 89bc 0737 2abd
00000050: eeff c4ba 98c5 563c 904d d33c 0c49 b83b
00000060: ce25 903c dd62 133d 9848 61bb d41a 28bc
00000070: 1ee1 ffbc c9bc 293d 0d09 963c d906 d93c
00000080: cc13 3a3d 580e 5abd bc5a ccba f0e8 45bc
00000090: bd44 aa3a e788 aa3c 6964 cdbc 0288 033d
000000a0: 6219 e6bc b9b3 48bc 556f 143d 8b92 d7bc
000000b0: 3f34 7bbc 8857 1fbd 99a6 afbb 0d3d 3cba
000000c0: 2384 a2ba 6c19 0abc 953b 07bd f020 bc3a
000000d0: 94df d13b daee 903b 8693 08bc d6f9 f4bb
000000e0: deb6 353d 4ebc 353b ebab 1ebd 473b 85bd
000000f0: b9ae 3ebc 6c7f a6bc 3197 d23c 601d 8b3c
00000100: 544d 993c c7a9 073d 8c16 cf3c 33ca 5a3d
00000110: 004c c4bc f23b d1bb bb4e 63bd 505f 3f3c
00000120: b6ee 83bd 3945 6d3d 8c9c 84bb f5e9 57bc
00000130: 8b90 9ebc 2602 cdbc 1c90 ce3b 28de 163c
00000140: 5b6b fc3c d6db a1bc 6e58 00bd b7a7 d1bc
00000150: adf0 80bb 533c 0bbd 0131 d83c 1b87 41bc
00000160: f9ec f4bc 08ec 863d f5f9 883c ec80 84bc
00000170: 4b05 f0bc d956 aa3c 86e5 cf3c bd72 f7bb
00000180: dd40 5e3d 4ce5 b33c be5d 9bbd b18a 8d3d
00000190: 8b59 3f3d f100 ffbc 0aba 31bc c7d9 50bc
000001a0: 6cf6 f53c 91b4 6bbb 2382 afbb b645 873b
000001b0: e424 e4bb f52e 0fbc a148 e9ba 15ac 00bb
000001c0: 890c 293b 3e24 14bd bd62 4abc 8664 a5bc
000001d0: 27b3 ee3c e430 1e3d fb88 35bc 9869 6abd
000001e0: 51d3 8e3b a4c4 ae3c 853e 903c e21b 7cbb
000001f0: 69a3 c5bb 1f34 5f3c f6be c5bc 0485 f4bc
00000200: 489e 87bd fc7f f93c 0c4f 02bd 77e9 7bbc
00000210: 40a6 57ba 8871 e738 2cbf bebc 2d73 593d
00000220: 5ab4 b3bc 8853 ffbc 6d24 31bd 3e8d f03c
00000230: 94ed ccbb 5db4 2abb f8a9 97bb eff7 273c
00000240: 324b c3b8 7ab3 763d 7831 8fbc bc74 753b
00000250: 7be3 433d d73f f33b fdd2 44bc 0170 a5bc
00000260: f301 1ebb 0517 9ebb e108 73bd 7b29 83bb
00000270: b232 b2bc 1019 1dbd 4c25 4fbd f2c8 0bbd
00000280: 6b49 01bd 3cd3 5bbd 6903 43ba 72f5 40bd
00000290: ef68 e1bc eca2 1dbc ee25 2dbd a84f d83b
000002a0: e708 c83c 7d29 35bc 4789 4a3c e4b8 393d
000002b0: 3abb e6bb 0ab4 febb a687 183c 04f7 a9bd
000002c0: 8c2e 863a bfdc 293c ad10 54bd eb39 e23c
000002d0: 3ac4 6cbd b9a3 283d 6add ab3c 2966 a8bb
000002e0: 48b3 57bd a2e8 403c e0eb 713c c3d4 c83c
000002f0: 7d4e 23bc 8730 a73b a9d5 093b d2bd 24bd
00000300: b13a d03c db16 63bc 8afd b83c 31de 243d
00000310: 7bdd 433d e6fe 25bc f66e 23bc 0fd6 8abc
00000320: b72d abbc ad5a 763d 11a9 1e3d c833 b1bc
00000330: 7467 d2bc ff9e e33c 9aa8 8a3b d6d9 f33c
00000340: 515c 1a3d 731a fa3b 4a4a 7bba 3fcc a13a
00000350: 114a 643d 4002 a9bb 3d9e 3fbd c331 f13c
00000360: 2a1b aa3b e8c4 37bd 13e3 df3c 38d7 81bc
00000370: e9d7 3abd 3b55 9bbc 633e 463d 4405 f83c
00000380: b00f 12bd 068f 2bbd a7a4 f138 50bf e4bc
00000390: 6833 8bbc f06c a73b e032 663b 7de8 8d3d
000003a0: 50b8 bc3a f09c 22bd 1482 543c c07f 743c
000003b0: cc2d 50bd e72e 2f3d 6884 b63c d234 afbd
000003c0: 0799 be3c 6e86 da3b 724e dc3c 4d27 8fbd
000003d0: c850 1bbc 557c 8dbc 24b6 66ba 1ddc 9abc
000003e0: 84c6 353c 5274 99bd c8f4 033d 0e92 b9bb
000003f0: 5d1f 183d f222 ee3b 1712 013b 61a5 643c
-0.012146394 -0.03343282 -0.014717817 0.028669473 -0.018682651 0.033289727 0.024484897 0.031117616
-0.0026057716 -0.007894142 -0.011242728 0.030629395 0.013552654 0.00941378 -0.014413179 -0.06294901
-0.065562904 -0.05066474 -0.016789291 -0.041556384 -0.0015029886 0.013108633 0.02579382 0.0056239422
0.017596152 0.035982955 -0.0034375545 -0.010260303 -0.031235274 0.041439805 0.018314863 0.026492523
0.045429036 -0.053236336 -0.0015591006 -0.012079462 0.0012990456 0.020817233 -0.025072293 0.03211213
-0.028088275 -0.0122498805 0.036238987 -0.026314994 -0.015332281 -0.038901836 -0.005360436 -0.0007180728
-0.0012398999 -0.008428913 -0.033015806 0.0014353078 0.0064048264 0.0044230046 -0.008335954 -0.007476072
0.04436385 0.0027730647 -0.038738173 -0.06505447 -0.011638337 -0.020324431 0.02570686 0.01698178
0.01871363 0.033120897 0.025279306 0.05341549 -0.02396202 -0.00638532 -0.055495005 0.011680439
-0.06442015 0.057927344 -0.004046982 -0.013178338 -0.019356033 -0.025025439 0.0063038003 0.00920824
0.03081291 -0.019758146 -0.031334333 -0.025592668 -0.003934941 -0.033993077 0.026390554 -0.011811997
-0.029898154 0.06587988 0.016720751 -0.016174756 -0.029299399 0.020793365 0.025378 -0.0075515197
0.054261077 0.021959923 -0.07586239 0.06911219 0.046716254 -0.031128379 -0.010847578 -0.012747235
0.03002473 -0.003596578 -0.0053560897 0.0041281832 -0.0069624055 -0.008739223 -0.0017798134 -0.001963382
0.0025794825 -0.036167376 -0.012352643 -0.020189535 0.02913816 0.038620844 -0.011080022 -0.05722961
0.004358687 0.021334 0.017607937 -0.0038468768 -0.006031443 0.0136232665 -0.024138909 -0.029848583
-0.06621987 0.030456536 -0.031813666 -0.015375487 -0.00082263723 0.00011036085 -0.023284517 0.053088356
-0.021936584 -0.03116776 -0.04324763 0.029364225 -0.0062539075 -0.0026047446 -0.004628416 0.010251983
-9.312331e-05 0.060229756 -0.017479643 0.0037453612 0.047824364 0.007423382 -0.012013194 -0.02019501
-0.0024110049 -0.0048245215 -0.05933464 -0.0040027476 -0.021752689 -0.03835398 -0.05057268 -0.034127183
-0.031564157 -0.053668246 -0.0007439168 -0.047109075 -0.027515857 -0.009621363 -0.0422725 0.0066012926
0.024418307 -0.011057255 0.012361831 0.04534234 -0.007041362 -0.007772927 0.009309685 -0.082990676
0.0010237261 0.010367571 -0.051773716 0.027615508 -0.057804324 0.041171763 0.020979602 -0.0051391316
-0.05266121 0.011774214 0.01476571 0.024515515 -0.0099674435 0.0051022205 0.0021031892 -0.04022009
0.025418611 -0.01386043 0.022581834 0.04025096 0.047818642 -0.010131573 -0.009975186 -0.016947774
-0.020895822 0.06014507 0.038735453 -0.021631137 -0.025684096 0.027785776 0.0042315247 0.029766958
0.037685696 0.0076325475 -0.000958596 0.0012344195 0.055734698 -0.005157739 -0.046781767 0.029442674
0.0051912265 -0.04486552 0.027329957 -0.015849695 -0.045616064 -0.01896154 0.04839934 0.030275948
-0.035659492 -0.041884445 0.000115224444 -0.027923256 -0.016992286 0.005109422 0.0035125539 0.06929109
0.0014398191 -0.03970045 0.012970466 0.014923036 -0.050824925 0.04276934 0.022279933 -0.085549966
0.023266328 0.0066688573 0.026892874 -0.06989918 -0.009479709 -0.0172712 -0.0008800945 -0.018903786
0.011094693 -0.074928895 0.032215863 -0.005663163 0.037139285 0.0072673494 0.001969462 0.013955445

network_body.observation_encoder.x_self_encoder.seq_layers.0.bias f4 [128]
00000000: 4e97 203c 56ad 0e3c 3b65 6bbc 1d5e d9bb
00000010: e9eb 96bc 556c 103c ab41 91bc 37c1 28bc
00000020: 3549 083b 32f4 9bbc cfc6 46bc b2ba 8e3b
00000030: 6bfa d4b9 3a3d a6b9 aa53 87bb 17de 7e3c
00000040: de91 b5ba 08b5 8ebc e240 9e3c c5d1 23bc
00000050: 3465 193b c439 e2ba 966a 75bb e847 4b3c
00000060: c118 fdbc 354d 0438 a86e 903c 9f10 063c
00000070: 87d5 60bb bd1d acba 4c17 10bc a608 1cb9
00000080: a6f3 25bc 8870 31bc 3c8e 183c 0c6e 55bb
00000090: 4382 fcb9 077d 6c3c 248e 143c b24e 11bc
000000a0: f5e1 5abb 5e9b 80bc b688 b23a 1658 71bc
000000b0: df97 f9bb 32b8 9fba 1018 5e3b c3ee 06bc
000000c0: f36b 75bc 1de5 d4bb 4b76 26bc 525d 68bc
000000d0: 0dfe d23b c4e4 153c 63ad 5a3c 5851 fa3a
000000e0: 8411 09bb e723 12bc 7363 82ba 5c3b e53b
000000f0: 49f9 cebc 94de 493b 2ad1 983b 3eef af3b
00000100: e056 9ebc 057c 47bc bda9 033c 1670 8fbb
00000110: 53e8 193a 3e49 edba 0a77 4d3c af18 3cbc
00000120: 2eb8 dc3b 3056 433c ff79 d6bb 05a1 2b3c
00000130: 7ff0 803c b6e5 8aba 3563 57bb 60ea 15bc
00000140: 992c 693b d1c3 ec3b 98c0 6d3b f041 65bc
00000150: 53a1 47bb f877 4a3c f70b 6f3c 65a4 3abb
00000160: f6fc 093c deab a93b 0859 633c fd77 f23b
00000170: 5b84 843c 28f9 8dbc dc53 b3bb 8127 0cbc
00000180: 964c b0bb 55ad 713c bba6 9fbb 2cee 93bc
00000190: bcdb 3e3b 7246 a2bb 519f 42bc 2a19 0abc
000001a0: 8966 c8bb 973a 59bc 50db 5ebc f2c7 9bba
000001b0: 9a5f 273c 12d5 d9bb 6679 d0bc d2d3 dd3a
000001c0: 0f62 04bb 48a5 47bb 1bfe 96bc fbfd fe3b
000001d0: f004 db3b 53de 45bb b33d 15bc 8a03 4abc
000001e0: cb33 9d3c 1875 24bc 8774 a93a 438b a53a
000001f0: 8295 07bc bf7c 11bb 0c45 f1bb b1ab 4a3c
0.009801699 0.008708319 -0.014367397 -0.0066335336 -0.018423038 0.008814891 -0.017731508 -0.010299972
0.0020795588 -0.01903734 -0.012132361 0.004355752 -0.00040622367 -0.00031707605 -0.0041298466 0.01555588
-0.0013852676 -0.017420307 0.019318048 -0.009998743 0.002340627 -0.0017259647 -0.0037447563 0.0124072805
-0.030895593 3.1543157e-05 0.01763089 0.008182674 -0.003430696 -0.0013131421 -0.008794617 -0.00014880541
-0.010128891 -0.010830052 0.009311255 -0.0032566814 -0.00048162238 0.014434106 0.009067092 -0.00886886
-0.003339884 -0.015699085 0.0013621065 -0.014730474 -0.0076169814 -0.0012185632 0.0033888854 -0.008235636
-0.01497935 -0.006497039 -0.010160039 -0.014182406 0.0064389766 0.00914878 0.013347003 0.0019097729
-0.002091498 -0.008919693 -0.0009947851 0.0069956016 -0.025265353 0.0030802833 0.004663606 0.005369096
-0.019328535 -0.012175565 0.008036074 -0.0043773754 0.0005871106 -0.0018103493 0.012540588 -0.011480494
0.006735823 0.011922404 -0.006545305 0.010475402 0.015739677 -0.0010597024 -0.0032865528 -0.009150118
0.003557956 0.0072254916 0.0036278125 -0.0139927715 -0.0030461147 0.012357704 0.014590255 -0.0028479334
0.008422127 0.005177959 0.013876207 0.0073995576 0.016176393 -0.017330721 -0.0054726433 -0.00855434
-0.0053802235 0.014750798 -0.0048721707 -0.018057905 0.002912267 -0.0049522454 -0.011878804 -0.008428851
-0.006115739 -0.013258598 -0.013602093 -0.001188515 0.010215664 -0.0066477144 -0.025448512 0.0016924089
-0.002020005 -0.0030463506 -0.018431714 0.0077817417 0.006683938 -0.003019233 -0.0091089485 -0.012329945
0.019189736 -0.010037683 0.0012928405 0.0012630004 -0.0082753915 -0.0022199599 -0.0073629674 0.012370036

network_body._body_endoder.seq_layers.0.weight f4 [128, 131]
00000000: 5262 1e3d 614a 3bbd 1a85 983d 85f3 99bd
00000010: d4fd d5bd f3f6 fc3d a6a2 bcbd 44e0 f13c
00000020: 9528 ebbd 6db9 423d 1bee d1bc f696 aabc
00000030: 1997 213c 2942 1d3d 6553 5ebe dd66 34be
00000040: 9927 293e d430 dabd c5da 8b3d 50c0 b73d
00000050: 5c60 8a3d fa8a 563d 13e4 3abd c68d 95bc
00000060: 6a7e fa3d 78dc fcbd 154e 8fbd edfe 983d
00000070: d5ff 74bd 7491 84bd cf2c 1bbd ca92 27bd
00000080: 2134 d53c ed24 94bd d275 acbd 5b3a 67bd
00000090: b5f2 04be 0ad1 703c 4944 9ebd 78b7 fabc
000000a0: 9845 dbbd 38aa c6bd af03 e33d 204d fdbd
000000b0: 6978 1fbe 567d 5d3d e841 9dbd e1b5 1ebe
000000c0: 2a6d 3ebd 1706 9bbc 0952 22bd 8d35 003d
000000d0: 1740 573d 946c d63d 15ed 96bd 263d 07bd
000000e0: 138f 14be a207 813d 4f78 313c 9119 b1bd
000000f0: 9907 48be 8d1d 97bc 5f8b 243d d947 84bd
00000100: a567 573d 0e33 d83d cf32 3cbd 4a34 d13d
00000110: 07e2 cc3c 67fc b93d 6202 1bbd abd3 b63b
00000120: 0949 dabc 3b09 873d 24c9 fb3d 9d80 0d3c
00000130: 4060 6a3c 4043 573c ddd1 703d 1c3c 40bd
00000140: 7525 d9bd 757f 4abd 191e 053e 881d 893d
00000150: da34 37be 6d90 10bd ee42 85bd 871c 39bc
00000160: 51b3 483d 157b dc3c 05b5 0c3d f85e a9bc
00000170: e183 863d f792 0abe 6b43 8abc e870 3c3e
00000180: 0ff5 473d 588e 20bd 4bc8 2e3d 505b bdbd
00000190: 6aba 78bd 35cb bfbd 7ca2 e4bc 9f06 d43d
000001a0: adf2 63bd e0f2 7d3d 7a8b a83c ff50 b2bb
000001b0: d885 5cbd 3002 423d 7db2 77bd 1a0a 31b9
000001c0: bc94 003c ab3f 51bd abb4 7bbc 6d76 fcbc
000001d0: ba11 743d 78eb d83d 682d 613c 81d7 553c
000001e0: 9eb6 853d 8503 28bd 9f57 dabd d774 0e3d
000001f0: de97 cabd 6c37 19be e458 d73c f76f e13d
00000200: 2d79 8cbc 5277 0ebe 0757 033d e509 ea3d
00000210: a03f 59bd 7c99 d23c 5cea 41bd 7741 f43d
00000220: a2c3 d83d 1228 93bd 9f3b cdbd 1e05 b1bd
00000230: 6b27 e13d 39ea 263d b61c b5bd 16c0 273e
00000240: d420 3e3c 2f43 02be 84ee 93bb 77e0 363e
00000250: 7447 1bbd e9fc 433d a06f 1bbd 70ed 30bc
00000260: 86f1 a1bd 849c 353d b76c eebd ec87 38bd
00000270: 8969 cb3d ceb5 a63e b73c 863d 5e39 57be
00000280: 9a4c 28be e51d 733d 4b2f e23d d9ab 543d
00000290: a53b 903e 87fb d63d 3a02 20bd 1bc1 ddbd
000002a0: 34a1 edbd 0620 b83d 676c 163e 315d 893d
000002b0: 51bb f93b e3f4 413d 81fd 9a3d 8329 adbc
000002c0: 1f99 853d d680 c13d 8016 7dbd c8c8 c5bd
000002d0: 8b73 333d 4bbc ec3b 870f 793d 9aca c0bd
000002e0: d2c6 edbc b797 bc39 2aeb dabc be9e 39bb
000002f0: 6284 73bd 7e96 013e 8b1e 723d b4c9 b63c
00000300: 49f2 01be c7d1 0ebe e834 2d3c 81b7 0f3e
00000310: 7ef6 71bc f034 17be f692 47bd f58e d83b
00000320: df57 ad3d c640 57ba b53b 003d d749 16bd
00000330: 1938 813c 2a0b d0bc 66e1 46be 5407 a03d
00000340: c174 1e3e a781 ba3d e81f c83b 4fb9 6c3c
00000350: fa06 7abd e4cc 0abc 3a7f 003d e989 753d
00000360: 7592 263d 6c4b 0b3e b6ad 9b3d 2d49 e83b
00000370: bec4 57be 781b c0bd 1992 1f3e 86a9 39be
00000380: fd21 9c3d 759e fbbc 27c2 153d 01d7 c43c
00000390: aadb 283d 7420 9ebc 1691 5b3c f1f9 c93d
000003a0: 81ff 9d3d b751 b13c 9a77 e1bd 95c3 33bd
000003b0: e8db 8c3d ed54 92bd 082c 1fbb 6331 47bd
000003c0: 3c6a ce3d 27a2 ec3d d38a 293d b5a5 643d
000003d0: 7ae7 133e 93ba 193d 3276 023e 1b48 0bbe
000003e0: 8aed 50bb 9e4b 01bd 788b 1b3d dde8 03bd
000003f0: 0499 e03c a361 94bc a36a 23be 0384 063e
0.038667984 -0.04572523 0.07447262 -0.07517151 -0.104488045 0.12351789 -0.0921071 0.029525883
-0.1148235 0.047540117 -0.025626233 -0.020823937 0.009862685 0.038393173 -0.217115 -0.17617364
0.16519012 -0.106538445 0.06828836 0.089722276 0.0675666 0.052378632 -0.045627665 -0.01825608
0.12231143 -0.123467386 -0.06997315 0.07470498 -0.059814293 -0.064730555 -0.03788453 -0.040911473
0.026025834 -0.072336055 -0.0842091 -0.056452136 -0.1298321 0.014698276 -0.07727868 -0.030605063
-0.10706633 -0.097004354 0.11084687 -0.12368226 -0.15573277 0.054074608 -0.07678586 -0.15499069
-0.046490826 -0.018923802 -0.039629016 0.03130107 0.052551355 0.104699284 -0.073694386 -0.0330173
-0.14507703 0.06300284 0.010831906 -0.086474545 -0.19534148 -0.018446708 0.040171977 -0.06459016
0.052589078 0.10556613 -0.045946892 0.102150515 0.025010122 0.09081345 -0.03784407 0.005579432
-0.026646154 0.065935574 0.12294224 0.008636621 0.014305174 0.013138592 0.05879389 -0.046932325
-0.106028475 -0.04943796 0.12999763 0.06695086 -0.17891255 -0.035293985 -0.065069064 -0.011298305
0.048999134 0.026914159 0.03435232 -0.020675167 0.06568123 -0.13532625 -0.01687785 0.18402445
0.04881769 -0.03919825 0.042671483 -0.09245932 -0.060724653 -0.093649305 -0.02790951 0.103528254
-0.055651356 0.0619992 0.02057432 -0.0054417844 -0.05383858 0.047365367 -0.060472954 -0.00016883799
0.007847961 -0.05108611 -0.015362899 -0.030818189 0.059587218 0.10591787 0.013743736 0.013051868
0.06528972 -0.04101898 -0.10661244 0.034779396 -0.098922476 -0.14962548 0.026287504 0.11007684
-0.017147625 -0.13912705 0.032065418 0.114276685 -0.053039193 0.025707953 -0.047342643 0.11926549
0.10584189 -0.07185377 -0.100211374 -0.08643554 0.109938465 0.040750716 -0.08843367 0.16381869
0.0116045065 -0.12720941 -0.0045145173 0.17859064 -0.03790994 0.047848616 -0.03794825 -0.010798797
-0.07907395 0.044338718 -0.116418295 -0.0450515 0.099322386 0.3256058 0.06554549 -0.21017978
-0.16435471 0.05935468 0.11044177 0.0519217 0.28170505 0.10497194 -0.039064623 -0.108278476
-0.11603013 0.08990483 0.1468979 0.06707228 0.007621207 0.047352683 0.07567883 -0.021137958
0.06523346 0.09448402 -0.061789036 -0.096574366 0.043811362 0.0072245947 0.060805824 -0.09413643
-0.029025469 0.0003597119 -0.026723463 -0.0028323377 -0.059452422 0.12655064 0.05911116 0.022312976
-0.1269008 -0.13947211 0.010571696 0.14034845 -0.014768241 -0.14766288 -0.048724137 0.0066088387
0.08464026 -0.0008211251 0.03130694 -0.036691513 0.01577382 -0.025395948 -0.1942192 0.07813898
0.15474226 0.091067605 0.006107319 0.014448478 -0.06104181 -0.008471701 0.031371333 0.059945974
0.040667016 0.1360299 0.07601492 0.0070888014 -0.21071145 -0.09380239 0.15583076 -0.18131074
0.0762367 -0.030715207 0.03656211 0.024028303 0.041225113 -0.019302584 0.01340129 0.09862126
0.07714749 0.02164541 -0.1100914 -0.043887693 0.06877881 -0.071451046 -0.002428772 -0.048631083
0.10078856 0.115543656 0.04139216 0.055822093 0.1444377 0.037531447 0.127404 -0.13601725
-0.0031879866 -0.031566255 0.037974805 -0.032204498 0.027416714 -0.018112963 -0.15958647 0.13136296

network_body._body_endoder.seq_layers.0.bias f4 [128]
00000000: e313 8f3c 3b55 1cbc 6f7d 343c 83a4 11bc
00000010: 80eb 6bbb 8ae8 443c f6bb 8d3c dd96 283c
00000020: 60e2 2e3b 126f 22bb c107 693b 7131 50ba
00000030: d198 0b3c 07cd f5bb c201 9ebb dc89 d93a
00000040: 3cdf be3b 5f6c 293b e1bf 92bb f074 3dbb
00000050: ab3a 363c e57b 9c3b cd14 26bb 6b89 1fba
00000060: 4d0d d7bb d657 173c 6bd5 5dbb c627 13bc
00000070: 1a73 933c 4117 bc3b a37b b03b 2175 983b
00000080: 4371 d63b 0688 50bb cf9d 803c 2f6d db3b
00000090: eee8 71bc d31e 383b 82b3 b7bc e669 abbc
000000a0: 44a8 283b 37a8 1bbb bafd 383b d8ee 2cbc
000000b0: e643 54bc 5cf5 23bc 169a ec3b 46c7 243c
000000c0: 6132 f43b 8e72 153a 27e5 cbbb 9b41 053c
000000d0: 90c0 8d3b 8260 62bb 3b4c 273c 3083 0d3c
000000e0: 6fbd b13a 7a1f 8a3c 8d0c 8a3b c015 1b3c
000000f0: 9e3d 13bc b6e1 1bbc 63d3 3139 97f9 8abb
00000100: 10c9 f6bb 9db0 f23b 2af5 073c c5b3 193b
00000110: 5f7e 993b 50b7 f1ba f5ff 403c 3cda 253c
00000120: 709d 00bc 8fe5 a73b b042 143b deaa 03bc
00000130: 0150 20bb 39a2 2abc 2891 803c ee8e 133c
00000140: c618 0d3c deaf 5d3b 8f21 e53a 69a3 b9bb
00000150: c1ec 2c3c a49d 2ebb 6400 7ebb 00dc 183c
00000160: 0962 f43b c487 8bbb 63db 873b a9e3 6abb
00000170: ba54 1cbb 9db6 873c de10 7eba ab11 4d3c
00000180: 73b5 5e3c 3bec b6bb 0add 103c fb7c 133b
00000190: a9fd 803c 5ad7 b03b bf55 8f39 96cc 06bc
000001a0: 1be6 b5bb 13ff 79bb 3ccb 93bb 4450 9d3b
000001b0: 76ab bfb9 0da9 a3bb 3f91 043c 8a82 093c
000001c0: 8311 28bb ad7c 5cbb 94b8 93bb e071 17bc
000001d0: 44c0 44bb 1a5c 54bc a9a3 92bc 16c4 133b
000001e0: b4cd 73bb dcb5 143c 00e1 0a3c 67d0 c2bb
000001f0: a6b2 f83b 9a95 cb3b 2bce f83b 07df 023c
0.017465537 -0.009541805 0.011016234 -0.00888932 -0.0035998523 0.012018332 0.01730154 0.010289875
0.0026685223 -0.0024785441 0.00355576 -0.00079419377 0.008520321 -0.007501248 -0.004821987 0.0016596871
0.0058249515 0.0025851948 -0.00447844 -0.0028908812 0.011122386 0.0047755116 -0.0025341988 -0.00060858455
-0.006562865 0.00923725 -0.003384913 -0.008981651 0.01799922 0.005740077 0.0053858324 0.0046526347
0.0065442636 -0.0031819358 0.015700249 0.0066963653 -0.014765007 0.0028094545 -0.022424463 -0.02092452
0.002573506 -0.0023751387 0.0028227405 -0.010554992 -0.012955641 -0.010007229 0.007220517 0.010057276
0.0074522947 0.0005700969 -0.0062223854 0.008133317 0.0043259338 -0.0034542386 0.010211046 0.008637235
0.0013560484 0.016860712 0.004212922 0.009465635 -0.008986859 -0.009514263 0.00016958783 -0.004241179
-0.0075312927 0.007406308 0.008298198 0.0023453098 0.004684254 -0.0018441472 0.011779775 0.010122832
-0.007850036 0.005123801 0.0022622757 -0.008036343 -0.0024461749 -0.010414653 0.015694216 0.009006245
0.0086118635 0.003382675 0.0017481315 -0.005665232 0.010554493 -0.0026644254 -0.0038757557 0.009329796
0.0074579758 -0.004258128 0.004146026 -0.0035841262 -0.0023854212 0.016566569 -0.00096918445 0.012516419
0.013593066 -0.00558236 0.008841762 0.0022504914 0.015745955 0.0053967657 0.0002733897 -0.008227488
-0.0055511124 -0.003814642 -0.0045103114 0.004800828 -0.00036558107 -0.0049945177 0.00809127 0.008392939
-0.0025645203 -0.0033643648 -0.0045080874 -0.0092434585 -0.0030021826 -0.012961412 -0.017900305 0.0022547296
-0.0037201466 0.009076562 0.008476496 -0.0059452537 0.007589656 0.0062129023 0.0075929365 0.007987744

network_body._body_endoder.seq_layers.2.weight f4 [128, 128]
00000000: 567a f73c 47e0 1cbb 6c28 053e 03e9 13be
00000010: e779 783d 2fd0 48bd 4983 133e cade 153e
00000020: 8cd6 6fbe 7f4c f6bd 7721 0f3c c487 8e3d
00000030: 7810 66bc 444a bc3d c1aa b2bc f501 613d
00000040: 5c09 d73d baf7 10be 040d d53a 63b3 673d
00000050: e880 8d3b b571 aebc c053 f4bc dd0e 473e
00000060: ae6f 74bb 4464 91bd 67ca 8dbd cf33 a1bd
00000070: c1ae fcbc 8956 71bd 4f7c ff3c 7652 083e
00000080: 1269 903c ff9f b43c 9131 523d c888 34bd
00000090: 09b6 1e3d 5b39 14bd 3595 eebb d107 cd3b
000000a0: 5b4d 7cbc f18a a03d d0b0 eebd e2b9 babd
000000b0: d1e4 92bc 5097 aabd d6dc 14bd b13f 4fbd
000000c0: 847b 203e c2da d9bb 85fd 0a3e ba68 0e3e
000000d0: 49cd 8b3b 8ccf 51bd 0548 b33d ac4b 403c
000000e0: 56e3 06be e4bb bcbc 4ed5 9fbd 084f db3d
000000f0: b2ae d7bd f409 0b3d dbbd 49bd 1b78 d8bc
00000100: 63ba 1a3c 9a78 ec3c 1b81 2abc c8b1 233e
00000110: c936 0dbe 56d7 9dbd 52d2 6f3d ee08 02be
00000120: 0e31 86bd d9be f9bc 7f9c eb3d 094b c0bd
00000130: adcc f33c a751 31be 5c1a e4bd fdc6 7bbd
00000140: 8699 af3d 2e14 77bd c403 24bd 754d 843d
00000150: f655 2b3e 6fe9 983b 4673 3b3d 8db9 14be
00000160: 851f 183e aa02 27bb 0444 303c ed47 bc3b
00000170: 592d 1ebe 606d 23be fb28 4e3d 724f 38bc
00000180: 5505 b43d 80fb eabc 86d7 653c f759 193e
00000190: 87fb 91bd fb2b 153d 2244 edbd eaed babb
000001a0: c523 2a3d ea41 073d 2a70 a3bd 0340 f33d
000001b0: 28b5 62be 1b6f b83b e9ac 363e 1b46 2fbe
000001c0: 6186 dcbd 1d5e 5d3b 3d3f acbd a74b 6ebe
000001d0: 8955 823d e318 cd3c 0c4f adbd eda5 00bd
000001e0: 648d 07bd 3f2a febd e318 f93c 09b1 7fbd
000001f0: 6e55 68bc e0f7 0b3e 5281 c1bd e82e 54bb
00000200: 8b4f cd3d dc7d c33d 7183 54be 4c41 efbc
00000210: fb1f 0c3e 95f1 7ebd 321b 2ebd 1794 9bbd
00000220: 667f 53bd cb2d b2bd 6689 943d 3638 0a3e
00000230: 3071 263e 66f4 203b 220a 043e d2b0 4e3e
00000240: 0697 ac3d 6809 cebd f387 26be 7601 133d
00000250: 9751 bfbb 7f53 93bd e87f c2bd 9be9 da3d
00000260: da5f a9bd 6601 a23c 59b5 3b3d 0ed9 f0bd
00000270: 7c8f 7a3c d204 a6bd 899b 8abd d873 4a3e
00000280: e76d 6dbd 450f 713d ef03 6cbd 19f1 40be
00000290: b109 e33c 3b8d a63d c0e8 75bd d00b 223d
000002a0: 6f43 97ba 60c0 f13d 6c1d c43d e4e6 abbd
000002b0: 0425 c53c 57a5 5d3e 3bdd 023e 2d6d 3b3d
000002c0: 6077 713d 1b46 39be 4e40 883c e0dc 2d3d
000002d0: bad2 32bc bdd2 06be 1942 273c 6945 8b3d
000002e0: afd5 b03c 6464 7b3d 93b9 a9bd f945 b5bd
000002f0: b7f4 a5bc c170 0cbe e07a 5fbd 4fdd 3dbd
00000300: f3e9 fe3c 737a e1bd 43be 143e 8e1b 80bc
00000310: 97f7 95bd dc36 6e3d dfa6 87bc ac27 913c
00000320: 653b 063d 337c 833d 4d71 e83d bb71 1bbe
00000330: c06f 853d a0c3 b0bd c9d1 9c3b 3c9a 4e3e
00000340: 0397 53bc 4f09 7a3d ede4 6c3d e623 90bd
00000350: be2e 1b3b 48e4 f5bd 3169 c63c f843 7fbd
00000360: 00fa 143c 7296 c1bc 5f6a 02be 660d 633d
00000370: 4d07 873d da18 ee3d 45cb 07be df16 30bd
00000380: 3125 89bd eb83 dabd da26 8c3a ed72 56bd
00000390: e723 0cbd 15f6 8cbc 5ec7 43bd bf41 3e3c
000003a0: 54b4 ffbd 1b88 c8bd 5e43 803d 96e9 50bd
000003b0: 9856 ccbd 1ace 94bd 327f dc3d 7871 d73d
000003c0: b3be c43c bc2d 84bd ff13 8fbd c82e c03d
000003d0: 5451 dfbc 52e1 44bd 9cce 75bc 8f6f 003d
000003e0: 1bac 49be b28b a03d c581 43bd b945 ec3d
000003f0: 10ce d33c dd44 063d 7151 643d d043 c83d
0.030209702 -0.002393739 0.13003701 -0.14444356 0.06066313 -0.049026664 0.1440555 0.14635769
-0.23421687 -0.12026309 0.008736006 0.06959489 -0.014042012 0.091938525 -0.021809937 0.054933507
0.10499832 -0.14157 0.0016254489 0.05656756 0.0043183453 -0.021294454 -0.029825091 0.19439264
-0.0037298012 -0.07099202 -0.06923371 -0.0787121 -0.030845048 -0.058920417 0.031187205 0.13312706
0.017628226 0.022048948 0.0513168 -0.044075757 0.03874782 -0.03618751 -0.0072809705 0.0062570353
-0.015399302 0.07839001 -0.11654818 -0.091174856 -0.017931374 -0.08329642 -0.036343418 -0.05059785
0.15672117 -0.0066483924 0.13573273 0.13907138 0.0042664153 -0.051223323 0.08753971 0.011736792
-0.1317266 -0.023038812 -0.078043565 0.107084334 -0.10531367 0.03394504 -0.049253326 -0.026424458
0.009443852 0.028866101 -0.010406758 0.15985787 -0.1379043 -0.07707088 0.058550186 -0.12698719
-0.06552325 -0.030486511 0.11504459 -0.09389312 0.029760683 -0.17316304 -0.1113784 -0.061469067
0.08574204 -0.06032198 -0.040042654 0.06460086 0.1673201 0.0046664993 0.04576423 -0.14523907
0.14855774 -0.0025483766 0.010758404 0.005745879 -0.15446986 -0.15959692 0.05033205 -0.01124941
0.087900795 -0.028684378 0.014028436 0.14975725 -0.07128053 0.036418896 -0.11585261 -0.005704631
0.04153802 0.033021845 -0.07980378 0.11877444 -0.22139418 0.005628479 0.17839397 -0.17116587
-0.10767818 0.003377802 -0.08410499 -0.23271047 0.06363971 0.025036281 -0.084623426 -0.03140824
-0.033093825 -0.124104016 0.030407375 -0.062424693 -0.014180524 0.13668776 -0.09448494 -0.003237659
0.10024937 0.0954549 -0.20753266 -0.02920594 0.13684075 -0.06224211 -0.042506404 -0.07596605
-0.05163517 -0.087001406 0.07252769 0.13498005 0.16254115 0.0024559735 0.1289449 0.20184639
0.08427243 -0.10060388 -0.16262798 0.035890065 -0.0058385837 -0.0719366 -0.094970524 0.10689088
-0.08270235 0.019776057 0.045827243 -0.1176015 0.015292998 -0.08106388 -0.06767947 0.19770753
-0.05796614 0.058852453 -0.05762094 -0.18841971 0.027714582 0.08132406 -0.06003642 0.039562047
-0.0011540483 0.11804271 0.09575924 -0.08393648 0.024065502 0.21645103 0.12779705 0.045758415
0.058951735 -0.1809315 0.016632225 0.04244697 -0.010914499 -0.13166328 0.01020863 0.06800348
0.021586267 0.061375037 -0.082873486 -0.08851237 -0.02025829 -0.13714887 -0.054560542 -0.046353634
0.031117415 -0.110096835 0.14525704 -0.01563814 -0.07322615 0.058157787 -0.016559063 0.017719112
0.032771487 0.064201735 0.113497354 -0.15180103 0.06515455 -0.086310625 0.0047857505 0.20176023
-0.012914422 0.061044034 0.05783551 -0.07038097 0.0023678984 -0.12006432 0.024220081 -0.06232068
0.009092808 -0.023631308 -0.1273589 0.0554327 0.065931894 0.11625834 -0.13261135 -0.04299056
-0.06696547 -0.106696926 0.0010692731 -0.052355696 -0.034213927 -0.017207185 -0.047797553 0.011612355
-0.12485567 -0.09791585 0.06262849 -0.051004015 -0.09977454 -0.07265873 0.10766448 0.10519689
0.024016714 -0.06454036 -0.06986236 0.09383923 -0.02726046 -0.048066445 -0.015002873 0.03135639
-0.1969456 0.07839145 -0.04773118 0.11536736 0.025855094 0.032780517 0.05574173 0.09778559

network_body._body_endoder.seq_layers.2.bias f4 [128]
00000000: 2618 a13b dfae da3b b2b7 863b 0c15 203c
00000010: ec77 8b3b 63b5 aabb 3f68 5abc d0f6 0d3a
00000020: 34dc 6c3a 7298 52bb 72d7 ae3a 1277 90ba
00000030: 7995 d43a b983 803b e573 af3b e96e 973b
00000040: e0f1 d73b f30d 603c e438 893b 817b a0bb
00000050: 986d a33b 04ba 59bc 41d6 02bb 2ddc fc3b
00000060: f3ef 85bc 7c35 a93b 090c cd3b 10e7 833c
00000070: 2596 903b ee54 143c 9e1e daba 670b 1539
00000080: dcc1 25bb 00e9 d2bb 2e78 613c 2b09 1a3c
00000090: 62aa d2ba e96e 20ba fbdc 3739 ecd5 ddb6
000000a0: 24db b2b9 32eb 513b 5585 9c3b 0771 4a3c
000000b0: ec17 84bc de8c 5dbb c1a6 d23b 43e0 883b
000000c0: ccc5 33bc a3c2 cf3b 5dfe 6db9 32b7 d4b9
000000d0: 84f5 57bc 911c 8d3c 577e 1a3c b5f3 27bb
000000e0: 9086 5a3b 6f65 b0bb bda0 283a c58b e2bb
000000f0: 7680 b4bb 70c4 8fba 1fd1 99bb 2be6 75b9
00000100: 29d6 5bbc 16cc 373c 0e01 b73b 6ba0 703b
00000110: a552 b4ba 3621 113c 2c3d 1abc 4066 373b
00000120: db8e fcba 1b28 f83b c83c 48bc 3103 0d3c
00000130: 9295 093c e8f2 86ba 26f4 8f3a 1794 adbb
00000140: 62a8 05bb 68cf 3f3c d1b4 b3bb a016 b4bb
00000150: 7345 cfbb d497 b83b c595 64bb 62e9 753b
00000160: 1b31 953c 0732 a9ba 4ef9 30bb b06c 973b
00000170: 283b 883b d704 16bc 06c0 e13b 6f23 5a3b
00000180: f6a3 c13b e00e ee3a 34a5 74bb 485a 453b
00000190: 5b79 a7bb 92fc 07bb 0e5b 4fba 6aa5 b9ba
000001a0: 866f 18bc 04c3 143a 467d 093b b1a0 13bb
000001b0: ad4c cd3a 796f 853b 0a0c fd3b 0db9 2e3b
000001c0: 66f2 c53b d459 06bc ba59 a93a 379d b239
000001d0: 89df 803c ab51 5ebb 6efe 09bc 25ce 0f3c
000001e0: 70bb d6ba 114c c9bb 97ab 963c 4308 133b
000001f0: caa0 c0bb d962 6cbb 9ada 043a 5c30 693b
0.004916209 0.0066736783 0.0041112537 0.009770643 0.004256239 -0.0052096113 -0.013330518 0.0005415501
0.00090354984 -0.0032134322 0.0013339354 -0.0011021814 0.0016218863 0.0039219526 0.005354392 0.004621376
0.006590113 0.013675201 0.00418769 -0.0048975353 0.00498743 -0.0132889785 -0.001996413 0.0077166767
-0.016349768 0.0051638465 0.006257538 0.01610139 0.00441243 0.009053452 -0.0016641205 0.00014213995
-0.002529255 -0.006436467 0.013761563 0.0094016 -0.0016072507 -0.00061200425 0.00017534562 -6.611217e-06
-0.00034114078 0.0032031056 0.0047766366 0.012356049 -0.016124688 -0.0033805887 0.00642857 0.0041771247
-0.010972451 0.006340341 -0.00022696839 -0.00040572282 -0.013181094 0.017225536 0.009429536 -0.0025627438
0.0033344366 -0.0053831856 0.0006432643 -0.0069136345 -0.005508478 -0.0010968577 -0.0046941186 -0.00023450765
-0.013417759 0.0112180915 0.0055848425 0.003671671 -0.001375754 0.008858016 -0.009413999 0.002798453
-0.0019268648 0.0075731403 -0.012221523 0.008606718 0.008397477 -0.001029578 0.0010982796 -0.0052971947
-0.0020394553 0.011707164 -0.0054842015 -0.005495861 -0.0063254177 0.0056333337 -0.0034879309 0.003752314
0.018211892 -0.0012908586 -0.0027004066 0.004621111 0.0041574426 -0.009156427 0.006889346 0.003328528
0.0059094382 0.0018162392 -0.0037329914 0.0030113626 -0.0051109022 -0.002074991 -0.00079099915 -0.0014163677
-0.009303933 0.00056748115 0.002097921 -0.00225262 0.001566311 0.0040721265 0.0077223824 0.0026660592
0.006040859 -0.008200128 0.0012920417 0.0003406794 0.01573159 -0.003392319 -0.008422477 0.008777176
-0.0016382765 -0.006143101 0.018392367 0.0022435344 -0.0058785425 -0.003606966 0.00050679746 0.0035581803
