Assets/result/ppo/My Behavior/My Behavior-1499944.onnx (onnx, 578818 bytes, 21 tensors)

network_body.observation_encoder.processors.0.self_ent_encoder.seq_layers.0.bias f4 [128]
000000 97 07 87 bb 4c d8 a4 bc a7 f5 bb bb 9a 60 a1 3b
       -0.004120778 -0.02012267 -0.005736071 0.004924846
000010 fa 4b 84 bb 74 b1 a7 bb 1b 9a 9a bc 2c 83 42 bb
       -0.0040373774 -0.0051175896 -0.018872311 -0.0029680235
000020 c8 f6 72 bb 2d 7e c3 3b 34 41 40 3a 9b ea 58 3a
       -0.0037073363 0.005965969 0.0007333935 0.0008274705
000030 66 92 db 3a d9 26 8a 3a fc 5c 17 bc 4d 1b 35 bc
       0.0016752004 0.0010540142 -0.009238478 -0.011053872
000040 a0 64 37 bc e0 22 ab bc 20 ec 1a bc 52 06 96 3c
       -0.011193424 -0.020890653 -0.009455711 0.01831356
000050 64 15 1c bb d1 2b 14 3c ad cf 0e 3c 9c 8b ea ba
       -0.002381646 0.00904365 0.008716506 -0.001789439
000060 21 6f e7 3b 6c 1f 81 bb 43 23 4f 3c 2b 1d 14 bc
       0.007062808 -0.0039405134 0.012642684 -0.009040157
000070 77 97 18 bb b5 f9 aa ba d3 56 60 bb d3 68 20 bc
       -0.002328364 -0.0013044389 -0.0034231439 -0.009790617
000080 ac c0 ec bb 1d bc 53 3c 78 d9 c6 3c 2a b8 b3 bb
       -0.0072251167 0.012923268 0.024273619 -0.0054846006
000090 98 44 70 bc 32 f9 b5 3a 0c 79 5c 3c ab 92 03 3c
       -0.0146647915 0.001388347 0.013456594 0.008030574
0000a0 45 6a 09 bc 76 10 f1 3a f9 36 b3 3b 82 df 43 bc
       -0.008387153 0.0018391747 0.0054691997 -0.011955144
0000b0 b4 63 ea 3a e4 c0 d9 ba c8 b5 b6 3b 86 7a c2 bb
       0.0017882497 -0.0016613272 0.005575869 -0.005935016
0000c0 e9 1a b7 3c 75 8e 06 bc 3d f3 fd 3b 8f ad 25 bb
       0.022351699 -0.008212675 0.0077499435 -0.002528045
0000d0 b0 d0 62 3c 64 0b ce 3c c1 69 2d bc 01 03 23 bc
       0.0138437 0.025151916 -0.010584296 -0.009949447
0000e0 7a 65 18 bb 42 7b 1d bb 88 97 85 ba 3a fb 40 bc
       -0.0023253844 -0.0024029766 -0.0010192255 -0.011778647
0000f0 e9 b8 bc bb 08 54 0a bc 08 fb 9f bc 7b 26 4b 3a
       -0.0057593477 -0.008442886 -0.01952888 0.00077495695
000100 2b b5 c5 bb 49 1d 4f 3c 91 79 88 3c 40 60 c1 3b
       -0.00603356 0.0126412595 0.01665953 0.0059013665
000110 d7 25 6a bc 2a 1e 0b bc bd 93 0a bc 2c 7b 13 bc
       -0.014291248 -0.008491078 -0.008458075 -0.009001534
000120 17 42 05 bc f7 be b8 ba e0 81 67 bc c3 9d d4 3b
       -0.008133433 -0.0014094998 -0.014130086 0.006488533
000130 62 a9 5a bc 29 01 ed 3a b8 83 96 bc 7d 37 0b bb
       -0.013346048 0.0018082011 -0.018373355 -0.002124279
000140 48 2d 6c bc e9 55 b5 3c c5 28 98 bb 4a 58 57 3b
       -0.014415093 0.022135692 -0.004643532 0.003285902
000150 57 b9 83 3c 7c f5 9c bb 95 b4 31 bc b5 2b 61 3b
       0.016079588 -0.004790006 -0.010846277 0.0034358327
000160 a3 e5 dc bc 0d 06 3d 3b d4 0f be 3b c3 b3 9a 3c
       -0.026964968 0.0028842718 0.0058002267 0.018884545
000170 42 cc 1d bc 2b 9b 9a bb ce b2 4d 39 98 00 78 bb
       -0.009631218 -0.0047182045 0.00019616933 -0.003784215
000180 03 b7 a6 3b ea bd 09 bc 31 7b d0 bb 73 c2 96 3b
       0.0050877347 -0.008407095 -0.006362342 0.004600817
000190 f9 05 a5 ba 09 04 b4 3c e7 47 99 ba 58 c3 82 bc
       -0.0012590281 0.02197458 -0.0011694402 -0.015962288
0001a0 dd 48 8c bc 8d ba 3a bb ab 09 3f 3b 4f 35 91 3c
       -0.017124588 -0.002849254 0.002915005 0.017725615
0001b0 3d 6e 0c bc da 4a fa 3c 04 a1 d7 3a af 71 e7 bc
       -0.008571205 0.03055327 0.0016451185 -0.02825245
0001c0 25 c8 44 3c ff d0 89 3c 8d 01 cd bc 59 45 7d bb
       0.012010609 0.01682329 -0.025025154 -0.003864607
0001d0 eb 05 55 3c ff 71 51 bc dc 9d 96 bc e5 a3 d9 bb
       0.013001899 -0.012783526 -0.01838582 -0.006641852
0001e0 02 54 80 b9 ca f5 b3 3b c0 ff 15 3c b2 26 f1 bb
       -0.00024476653 0.005491947 0.009155214 -0.007359349
0001f0 3f 8e 8c 3c f7 d2 d1 3c 28 09 b4 3c 25 ee 55 bc
       0.017157672 0.025613291 0.021977022 -0.013057266

network_body.observation_encoder.processors.1.self_ent_encoder.seq_layers.0.bias f4 [128]
000000 3b ac ed bb 1d e1 bb bb 81 3a 71 3c dd 91 1f 3b
       -0.0072531975 -0.0057336227 0.014723421 0.0024348416
000010 cb f4 a2 bc 2f 39 1a bc 1b eb 0c 3b 11 cc 2e bc
       -0.019892117 -0.009413048 0.0021502438 -0.01066877
000020 51 70 b0 bc a2 ca 7a bc bd 6e ad bb 0b 55 68 3a
       -0.021537932 -0.0153071005 -0.005292742 0.000886277
000030 db 3a 36 3d 28 81 0b 3b 14 1d 50 3c 4a 74 f2 b8
       0.044489723 0.00212867 0.012702245 -0.0001156112
000040 3c b2 77 bc 88 f8 c4 3c a6 42 51 bc e9 3e 59 bc
       -0.015118178 0.02404429 -0.012772238 -0.013259628
000050 fe 5b c4 ba 97 39 17 bb a2 9a 84 3c b5 41 0f 3b
       -0.0014981029 -0.0023075098 0.016187016 0.0021859233
000060 ec dd a2 3b 06 f9 83 bc cc 38 86 3c a7 fe e4 ba
       0.004970303 -0.016109955 0.016384505 -0.0017470912
000070 c8 da b7 3a c9 df 1f b8 18 76 9a 3b 4c d1 47 bc
       0.0014026994 -3.811697e-05 0.004713785 -0.012195896
000080 f3 ac 18 3c ad a2 0c bc 96 ca 71 39 4f c2 55 bc
       0.009318578 -0.008583707 0.0002305902 -0.013046815
000090 6a 7c a5 3b ef c2 88 bc fe 58 c5 bb 33 78 87 3c
       0.0050502317 -0.016694514 -0.0060225716 0.016536808
0000a0 b8 d1 8f 3a 0d 95 43 ba d0 c4 0c ba d0 8f 10 bc
       0.0010972535 -0.000746087 -0.00053699035 -0.00882335
0000b0 c7 2a 0a 3b 97 52 ad 3c 1b ba 0c 3a d9 ad c7 bc
       0.0021082626 0.021157546 0.0005368308 -0.02437489
0000c0 6a 18 44 3c 17 31 bd ba 74 9c bf 3b 60 83 94 bb
       0.011968711 -0.0014434186 0.005847508 -0.0045322627
0000d0 37 5a ba 3b 28 40 6d bc 97 7b a0 3c 2c c1 11 bb
       0.005687024 -0.014480628 0.019590182 -0.0022240384
0000e0 7a 9c e0 bb cc 1a 3b 3b 7e 29 1e ba 65 17 18 bd
       -0.006854591 0.0028549908 -0.00060334045 -0.037131686
0000f0 e3 96 a4 3a cc 4a 2b bc 33 98 81 bc f7 4d c8 bb
       0.0012557175 -0.010454845 -0.015819645 -0.0061128098
000100 25 2b 98 3b 26 7e d9 3a 47 8a 03 3a 8b b8 a6 bb
       0.004643815 0.0016593381 0.00050178583 -0.005087917
000110 6c 34 57 bc af c6 06 3d 02 c2 3c bb fe aa 92 3b
       -0.013135057 0.032904323 -0.002880216 0.0044759503
000120 cd 1e 1f 3d d9 4e 0a 3d e8 77 db bc 05 f4 a6 39
       0.038847733 0.0337666 -0.026790574 0.00031843796
000130 d5 58 23 3a 1a b5 86 3b 2b dc 1e bd 30 0f 17 bb
       0.00062311935 0.0041109445 -0.038784187 -0.0023049824
000140 73 3d 49 bb 1c a7 0c bb 87 a5 00 3c 4f ea c5 bb
       -0.0030706793 -0.002146191 0.007851965 -0.0060398947
000150 08 25 a9 bc fb ef ef 3c 28 b2 9e bc c6 bf 61 bc
       -0.02064754 0.029289236 -0.01937206 -0.0137786325
000160 29 0c 94 bb e0 8b b6 3c fa 17 a7 bc 6a 0f aa 3c
       -0.004518051 0.022283494 -0.020397175 0.020759303
000170 c9 7c c7 bc 11 b8 89 39 b3 5b 8a 3c 0e dd df 3a
       -0.024351494 0.00026267816 0.016889429 0.0017079429
000180 61 6d 5b bc bd 22 87 bb 2a a1 9f bc 98 58 ff bc
       -0.013392777 -0.004124014 -0.019486029 -0.031170174
000190 9b ab 65 b9 af ca ab bc 3b da 9e bc 96 ff 09 bc
       -0.0002190307 -0.02097067 -0.01939117 -0.008422753
0001a0 1b 43 66 3c 9b 82 17 3d 71 b3 0f 3a bf 7c 66 bb
       0.014054085 0.03698979 0.0005481756 -0.003516957
0001b0 5a 1f 9c ba 1a 84 b8 3b bf ce 42 bc 49 3e f5 3c
       -0.0011911199 0.005630982 -0.011890112 0.029936926
0001c0 b1 01 a4 bc dd 7a 6c bc ca ca 45 bc 8f e1 18 bd
       -0.020020338 -0.01443359 -0.012072274 -0.037324484
0001d0 15 ee e0 bc 63 64 da bb 8f 89 86 3c fb 85 b9 bb
       -0.027457276 -0.006664799 0.016423015 -0.0056617237
0001e0 71 1d 1a 3c 41 fc 51 3b bb a4 a1 bc 92 fc 73 bc
       0.009406433 0.0032041224 -0.01973187 -0.01489176
0001f0 be 39 53 3d 42 d4 76 3c 10 b7 01 bc 39 9e 7e 3c
       0.05156874 0.015065255 -0.007917181 0.015540653

network_body.observation_encoder.rsa.fc_q.bias f4 [128]
000000 b5 75 18 bd 0d 12 29 3c a4 10 35 bd 98 da 96 3d
       -0.03722163 0.010319245 -0.044205323 0.07365912
000010 56 a6 18 bc 04 e4 86 bd 93 0e 82 bd 2d df de bc
       -0.009317001 -0.06586459 -0.06350436 -0.027206028
000020 94 4e 7c 3d 53 59 23 3c 58 ee 20 3d db bb 90 3d
       0.061598375 0.009970027 0.039289802 0.070670806
000030 5f 77 e6 3c a9 cd 08 3d 44 90 07 3c 77 d0 fc 3b
       0.028133092 0.033399258 0.008274142 0.0077152806
000040 4a e3 5f bb ed 11 20 bd e2 85 a2 bc 43 58 c0 3b
       -0.0034162574 -0.039079595 -0.01983923 0.0058698966
000050 25 27 89 3d c3 17 72 3d e7 75 bd 3c 33 66 2b 3d
       0.06696919 0.059104692 0.02312751 0.04184551
000060 be 0c 39 bd f3 04 93 bc af 1d 72 3d 51 36 3d 3d
       -0.045178168 -0.017946696 0.05911034 0.04619438
000070 db cc 08 bd 8a eb c2 3a ba 97 4a 3d 55 00 9f bb
       -0.03339849 0.0014871222 0.049461104 -0.0048523345
000080 dc 16 46 bc 70 61 7f bd 38 3d 1f 3d ca ab 0d 3d
       -0.012090411 -0.062348783 0.038876742 0.03458766
000090 0f 62 46 bd a8 b9 b9 bb 69 9c b4 bc 49 16 ba 3c
       -0.04843336 -0.005667884 -0.022047238 0.022715705
0000a0 c0 ba e2 39 ec a7 19 bc f5 d4 36 bd af a6 99 bc
       0.0004324522 -0.009378415 -0.044636685 -0.018756239
0000b0 93 ee 1c 3d 35 32 36 bd 1d f8 91 3b 8c eb 93 3d
       0.03831346 -0.044481475 0.0044546262 0.072226614
0000c0 e4 b0 7c bd d1 20 73 3d d7 df b3 3b 40 95 66 bc
       -0.061692134 0.059357468 0.0054893303 -0.01407367
0000d0 03 a8 74 bb ad 59 f3 3c 1f 45 b9 3c fd 10 ae 3c
       -0.0037331588 0.029705847 0.022615967 0.021248335
0000e0 e3 bd 21 3d b1 26 71 3d 9b 15 77 3b ed 76 a8 bb
       0.03948773 0.05887479 0.0037702087 -0.00514113
0000f0 52 8f 62 bc ac 45 34 3d 5f 2b f3 bb d6 81 94 bc
       -0.013828116 0.044011757 -0.0074209417 -0.018128317
000100 b2 77 42 3c ad 31 89 3d 47 37 a5 3d 52 68 ac 3d
       0.011869358 0.06698928 0.08067184 0.08418335
000110 78 c9 59 bd 26 84 b0 3c 16 e0 b3 3d ee 5a 98 3d
       -0.05317065 0.021547388 0.087829754 0.074392185
000120 c4 53 1c 3d b9 8e 45 bd 46 40 b3 3d 32 b8 02 bd
       0.038165823 -0.048231814 0.087524936 -0.031913944
000130 af f7 f2 3c 34 56 64 3d 4b 63 84 bd f6 27 d6 bd
       0.02965912 0.055746272 -0.06464251 -0.10456841
000140 b4 16 98 bc d6 a3 35 3d 19 b0 26 bd 9c 7d 48 bd
       -0.018565513 0.0443457 -0.040695284 -0.048947915
000150 7a a3 87 bd 0e c0 99 bd 7e c6 87 3d d9 c9 66 bd
       -0.066229776 -0.07507335 0.06629656 -0.05634484
000160 04 73 a1 bd 05 dc 4e 3b ef 05 b1 bc f6 73 be bc
       -0.078832656 0.0031564247 -0.021609275 -0.023248654
000170 a2 f0 b6 3d 5f c9 b0 bd af a3 45 3d 98 9c b9 3d
       0.08932616 -0.086321585 0.048251804 0.09063071
000180 22 5a d0 3c 06 b2 ab bd f5 3e 9c b9 1d b9 76 bd
       0.025433604 -0.08383565 -0.00029801545 -0.06023513
000190 a9 ec b7 bc 4f d8 65 b9 d0 00 c4 bd db 19 94 bc
       -0.022451716 -0.00021919723 -0.095704675 -0.018078735
0001a0 4e 15 69 bc 49 84 6b 3c e7 83 5b bd e6 3c 2c bc
       -0.014226271 0.014374801 -0.05359259 -0.010512566
0001b0 37 46 6d bd ee 67 54 3c fe fe 21 bd c2 e3 0e bd
       -0.05792829 0.012964232 -0.03954982 -0.034885176
0001c0 d7 96 94 3c 23 36 ea 3c ad 46 b9 3c 4f eb 5d 3d
       0.018138332 0.028590268 0.022616709 0.054179486
0001d0 b3 77 43 3c f5 7c 35 3d f2 a2 4f 3b fa cd 26 bb
       0.011930394 0.04430862 0.0031682816 -0.0025452361
0001e0 49 0d a1 bd ae cd d9 bc e0 4b 4f bd 43 f8 77 bd
       -0.07863862 -0.026587334 -0.05060947 -0.060539495
0001f0 93 14 02 3d 1f 4c b3 bd c0 83 0d 3d 87 e3 54 3d
       0.031757902 -0.08754753 0.034549475 0.0519748

network_body.observation_encoder.rsa.fc_k.bias f4 [128]
000000 e2 d4 74 b6 b5 fe 1f b7 ef 38 18 37 61 11 f9 b6
       -3.6482747e-06 -9.536442e-06 9.073162e-06 -7.4228014e-06
000010 19 c6 59 37 e4 60 90 37 83 aa f7 35 0b 4d 82 37
       1.2980331e-05 1.7211256e-05 1.845256e-06 1.5533084e-05
000020 5a d5 8d b7 87 98 a8 b6 a0 23 c1 b7 96 66 97 b7
       -1.690786e-05 -5.0245467e-06 -2.3023982e-05 -1.8048373e-05
000030 e0 03 3d b7 6d 44 c1 b7 38 87 c5 b6 87 4a d9 36
       -1.126618e-05 -2.3039256e-05 -5.886799e-06 6.47578e-06
000040 f3 b4 6a b6 f8 08 3f 37 e7 f6 76 b7 26 04 5d b7
       -3.4974044e-06 1.1386575e-05 -1.4720229e-05 -1.3173592e-05
000050 38 53 05 b7 49 15 96 b7 90 94 91 b7 f2 1b fe 35
       -7.946794e-06 -1.7891305e-05 -1.7354527e-05 1.8932608e-06
000060 59 75 1f 37 4b dd 3b b7 b4 24 9d b7 01 69 02 b7
       9.504461e-06 -1.1197592e-05 -1.873295e-05 -7.773052e-06
000070 d9 99 38 b7 7a 87 b3 35 37 a1 f9 b7 28 dd d3 37
       -1.1003075e-05 1.3375968e-06 -2.9758185e-05 2.5256144e-05
000080 3b d5 3b b7 bc 11 6a 37 a4 26 27 b7 b7 65 d2 35
       -1.1195715e-05 1.3951616e-05 -9.962972e-06 1.5675822e-06
000090 80 75 96 37 ea ac 06 b7 4b c1 f3 36 8b 1b fd b6
       1.7936109e-05 -8.027282e-06 7.2644666e-06 -7.543194e-06
0000a0 38 f4 ac 36 3b 3f 87 36 00 f2 46 b3 07 3e 4b 35
       5.1544303e-06 4.0306745e-06 -4.6320565e-08 7.5713655e-07
0000b0 82 b2 29 36 20 94 22 36 62 5c 87 b6 d0 76 15 b7
       2.5286868e-06 2.4226101e-06 -4.0340683e-06 -8.908755e-06
0000c0 b1 d3 b5 36 07 0f 84 b7 4a 42 35 35 0e 78 f7 36
       5.4188645e-06 -1.5742624e-05 6.752422e-07 7.37515e-06
0000d0 3f 76 68 35 b3 74 1e b5 4b b7 31 36 13 ed 18 b6
       8.6598806e-07 -5.9029406e-07 2.6481746e-06 -2.278776e-06
0000e0 89 6c d0 36 2e d3 28 b7 bf 52 28 37 71 0d 1f 37
       6.211518e-06 -1.0062749e-05 1.0032846e-05 9.480268e-06
0000f0 fd e7 24 b6 8b 92 e3 b5 0d c3 4f b7 3c 03 c6 35
       -2.457294e-06 -1.6955468e-06 -1.2383575e-05 1.4753091e-06
000100 84 97 d4 36 0a 8d ee b6 44 2e 55 b7 de a3 28 b7
       6.335731e-06 -7.109372e-06 -1.2706561e-05 -1.0051734e-05
000110 13 fb 14 37 05 53 83 b6 46 ef 2f b7 4a 85 5f b7
       8.879945e-06 -3.913769e-06 -1.0486523e-05 -1.332287e-05
000120 d7 2b 0b b7 83 8d c9 b5 ac 12 42 36 45 c2 3c 37
       -8.295253e-06 -1.5016852e-06 2.8919121e-06 1.1250905e-05
000130 04 81 30 35 33 a5 64 b7 c4 11 75 37 8a d7 a9 36
       6.575285e-07 -1.3628322e-05 1.4607274e-05 5.0616845e-06
000140 4c 9a 26 35 23 57 68 b7 10 b9 5e 36 0c 28 29 37
       6.206435e-07 -1.3848566e-05 3.3188298e-06 1.0082509e-05
000150 64 e7 23 b6 13 7f 26 36 cb a7 51 b6 c9 ec 4f 35
       -2.442358e-06 2.4809895e-06 -3.1241095e-06 7.7458077e-07
000160 d7 a3 bc 37 50 13 52 b6 b5 f0 02 b6 68 36 8e b6
       2.248764e-05 -3.130368e-06 -1.951162e-06 -4.2382635e-06
000170 1f 5b e4 35 3a ed bc b5 92 5d ec b6 28 e9 a5 b6
       1.7013843e-06 -1.4076134e-06 -7.044241e-06 -4.944526e-06
000180 aa 62 3e b5 6b 77 d1 b6 95 1d c0 b6 69 e8 3a b4
       -7.092409e-07 -6.2425875e-06 -5.7254897e-06 -1.740715e-07
000190 c7 df 74 36 7e 7f 21 36 59 04 66 b6 8f 9e 90 35
       3.648909e-06 2.406508e-06 -3.4275201e-06 1.0774983e-06
0001a0 25 ec 13 b6 e1 b4 03 37 c1 12 c9 36 42 8c 10 36
       -2.2042161e-06 7.850323e-06 5.99245e-06 2.1539313e-06
0001b0 42 51 be b6 27 05 0e 37 b3 39 11 b5 fe 85 6a b6
       -5.671901e-06 8.465059e-06 -5.410067e-07 -3.494671e-06
0001c0 c1 c2 0e 36 5a 25 fb 36 0d 00 f2 36 d1 d8 2a 37
       2.127301e-06 7.484731e-06 7.212168e-06 1.0183271e-05
0001d0 d9 71 f1 b6 39 29 4a b6 e4 b4 98 b6 ad 45 c9 b6
       -7.1956133e-06 -3.012434e-06 -4.5510114e-06 -5.998378e-06
0001e0 3d 50 d6 b6 95 e4 96 37 d2 4e b8 b6 ee 22 ff b6
       -6.387038e-06 1.7987835e-05 -5.492803e-06 -7.6036586e-06
0001f0 6a 7d 57 b7 94 6a 50 35 f4 b7 92 b5 a9 ef 6f b5
       -1.2844199e-05 7.764113e-07 -1.0931385e-06 -8.938319e-07

network_body.observation_encoder.rsa.fc_v.bias f4 [128]
000000 4f 77 16 3b d9 e1 ed ba b7 bc 4e bb 56 50 c2 bb
       0.0022959297 -0.0018148973 -0.0031545588 -0.005929987
000010 1f 3e 7f bb 43 aa 99 b9 2d f5 4d bb b8 89 2f ba
       -0.003894694 -0.0002930929 -0.0031426654 -0.0006696242
000020 3f 0d 7a bb c9 6b c8 3a 20 e3 95 ba d6 da e5 3a
       -0.0038154868 0.0015290912 -0.0011435486 0.0017536532
000030 71 aa c4 3a 7f ad 95 bc 06 6e c1 bb 76 14 2b 3b
       0.0015004409 -0.018271206 -0.0059030084 0.0026104725
000040 e1 79 27 3c 50 81 e9 bb 1c 97 9a 3a 7a f6 b3 bb
       0.010221929 -0.007126011 0.0011794302 -0.005492029
000050 2f 75 23 bc 64 9d 50 bc f5 13 a7 3b f9 0d bb bb
       -0.009976669 -0.012732837 0.0050988146 -0.005708453
000060 5b 5e 7f bb 15 6d e2 3b 40 23 a3 ba 79 13 52 bc
       -0.0038966152 0.0069099762 -0.0012446418 -0.012822025
000070 70 b7 d2 39 1a 00 36 ba e7 1b e1 3b b0 c6 74 3b
       0.00040190993 -0.0006942764 0.0068697813 0.0037349872
000080 40 be d6 3b 93 41 fc 39 98 7e 7c bb ac 3d a2 bb
       0.0065534413 0.00048114042 -0.0038527604 -0.0049511995
000090 aa f7 c7 bb 35 cc 05 ba f3 d2 c6 3a 4e a1 41 bb
       -0.006102522 -0.00051039766 0.0015169069 -0.0029545608
0000a0 3f 9d 5f bb 0a 64 02 bb d1 17 ee 3b 72 21 8c 3b
       -0.0034120826 -0.0019896054 0.0072660227 0.004276448
0000b0 6b 86 b4 3b 9c 52 af 3b e4 de 10 3b 03 8c 73 3b
       0.005509188 0.005350424 0.002210551 0.003716231
0000c0 83 bd 56 3b 0e 22 85 3b 7d 3c 73 bb 33 02 6e 3c
       0.0032766766 0.0040628975 -0.0037114911 0.0145268915
0000d0 93 52 0e bb 74 db 96 b9 0a 21 92 3a 27 22 7b bb
       -0.0021716699 -0.00028773735 0.0011148762 -0.0038319917
0000e0 2f 87 e0 3b 09 d5 14 bc f9 99 29 3c 3d 5b a1 ba
       0.0068520526 -0.009083995 0.010351651 -0.0012310516
0000f0 70 f1 75 3b cd 7c 72 39 65 3e 9d 3c ed 50 97 3b
       0.0037527941 0.0002312541 0.019194791 0.0046178014
000100 25 95 68 3b 2a 76 3e bb e7 ec 5a bc b0 a6 0f bc
       0.0035489288 -0.002906213 -0.013362146 -0.008767769
000110 f1 d7 16 3c 89 45 07 bc 5b 5e 9e ba 05 76 aa bb
       0.009206758 -0.008256325 -0.0012082563 -0.0052020573
000120 0b a9 b2 bb f8 1d 16 3c 5e 89 07 3c 75 0a 17 bb
       -0.0054522804 0.009162419 0.008272497 -0.0023047004
000130 a2 16 d9 3b 22 70 b1 39 21 e1 62 b7 fc e4 f7 3b
       0.0066250125 0.00033843616 -1.3523067e-05 0.007565139
000140 f6 04 96 bb 52 40 86 3a 0d 57 ef 3b 01 19 32 3c
       -0.004578228 0.0010242558 0.0073040784 0.010870219
000150 b3 2c 9b bb a1 64 6e bb 81 81 18 bb 81 f0 0f bc
       -0.004735553 -0.0036375897 -0.002327055 -0.008785368
000160 c5 63 40 bb 31 2c 02 3c 83 2d 3c bb 67 bb 55 3b
       -0.0029356342 0.007945106 -0.002871365 0.0032612921
000170 2a 52 af 3b 66 f0 74 ba d2 9e 28 3c e7 1e d4 3b
       0.005350371 -0.00093436835 0.010291772 0.0064734104
000180 62 a1 05 3c ed 06 55 3b 4a f4 d7 ba 42 b6 7f 3b
       0.008156152 0.0032505349 -0.0016476002 0.0039018546
000190 a7 d4 4f 3c ad 09 86 3b 5b 04 d7 3a 30 20 83 3b
       0.012684978 0.004090509 0.0016404496 0.00400164
0001a0 35 55 ce 3b 64 45 4f 3b bf 6f 07 bb 4e 85 2c 3b
       0.0062967786 0.0031627053 -0.002066597 0.0026324573
0001b0 9f 24 35 bb 40 72 84 bb f0 70 b8 bb 13 bb 0e bb
       -0.0027640236 -0.00404194 -0.0056286976 -0.0021778985
0001c0 e7 a8 4f bb fb 4f 43 bb a7 46 ce bb 2f a2 50 3c
       -0.0031686367 -0.002980231 -0.0062950435 0.01273398
0001d0 7f e5 26 3c fa 3c e3 3b 0e 9f 4c 3a b3 cb 43 3a
       0.010186552 0.006934759 0.00078056834 0.0007469013
0001e0 a7 ef f4 38 a6 9a 69 bb 9f 8e b0 bb 45 52 15 3c
       0.000116794654 -0.0035645156 -0.0053880955 0.009113853
0001f0 32 ce 43 3c a5 ea 3b 3a 05 78 7e 3a 05 b7 99 3b
       0.011951016 0.00071684486 0.00097072154 0.004691007

network_body.observation_encoder.rsa.fc_out.bias f4 [128]
000000 e6 8b ab bb ad 50 f2 3b fc 24 00 bc 4b ea 8e bb
       -0.005235183 0.007394871 -0.007821318 -0.004361426
000010 c0 41 f8 bb 70 ed b4 3b b5 38 4b bc 1a 0a f0 bb
       -0.0075761974 0.005521469 -0.012403657 -0.007325423
000020 6f aa da 3b 2f 53 88 3b 5f 5f 19 ba 98 6e e9 3b
       0.0066731493 0.004160307 -0.0005850698 0.0071237795
000030 e0 5c 07 3c aa 23 fc 3b d1 b7 53 bb 31 98 16 bb
       0.008261889 0.007694681 -0.0032305608 -0.0022978897
000040 19 e5 32 bc 19 4c d8 3a b0 86 3b bc c5 79 df ba
       -0.010918879 0.0016502171 -0.011445686 -0.001704984
000050 8d ab 07 bb 70 ee 92 ba e3 63 55 3b 9a d6 a5 3b
       -0.0020701617 -0.0011209976 0.0032560758 0.005060983
000060 69 c3 34 3c a6 d7 55 bb 0d 10 e0 3b 7f 67 c3 b9
       0.011032918 -0.0032629757 0.006837851 -0.0003727041
000070 f0 69 c1 bb c5 eb f4 ba b6 e2 e4 ba 21 f6 a0 ba
       -0.0059025213 -0.0018685987 -0.0017462585 -0.0012280383
000080 92 32 74 bc b9 31 56 ba b3 48 44 3c 09 e9 d0 ba
       -0.014904635 -0.00081708614 0.0119802235 -0.001593859
000090 ae ec 2f bc 33 38 51 3b 43 f8 1a 3c 06 c0 b6 3a
       -0.010737581 0.0031924366 0.009458604 0.0013942725
0000a0 c1 6d 07 bc 8e f4 04 3b 10 9a 44 3c 60 2b 3e bb
       -0.008265913 0.0020287368 0.011999622 -0.0029017553
0000b0 a2 2d d3 3b c0 1b da 3b a3 ff 97 3c e5 e8 90 bc
       0.006444649 0.00665614 0.018554514 -0.017689178
0000c0 17 d9 09 3c fb bf 4a 3c 25 6c 55 3c e9 bf 2f 3b
       0.008413575 0.012374873 0.013026272 0.0026817268
0000d0 3b 70 30 3b dc e6 22 3c d7 42 e8 ba 18 ef f7 3b
       0.0026922363 0.0099427365 -0.0017720115 0.007566344
0000e0 79 57 0d bc 2d 5a f3 3b b2 73 e7 3a ea ba 72 bc
       -0.008626812 0.0074265213 0.0017658381 -0.014815072
0000f0 fb 18 81 3a e2 bd d8 bb 6a 48 75 bc dc 04 0d ba
       0.0009849364 -0.0066144327 -0.014970878 -0.0005379447
000100 db 6d 9d bb 0d 6c c9 3b 52 90 05 3c a5 c2 00 bc
       -0.0048043556 0.006146914 0.008152084 -0.007858907
000110 a8 d3 8a 3b 7a a4 21 3a 1b 07 05 ba a9 b0 da b7
       0.004236657 0.00061661715 -0.0005074606 -2.6069889e-05
000120 72 a6 f5 3b 5f 79 b5 3a 71 45 67 bb 8f d7 9a 3c
       0.0074966485 0.0013845376 -0.0035289193 0.018901614
000130 49 e3 68 bb 7b 0f 4c 3b c0 36 6d bc 54 c5 26 3c
       -0.0035535863 0.0031137157 -0.014478385 0.010178883
000140 47 03 87 bc 65 08 44 3c ae 00 5e bc 02 0c 0d 3b
       -0.016481055 0.011964892 -0.013549967 0.002152205
000150 3a 11 80 3b b7 50 3a ba d3 21 e6 bb e1 d6 7f 3b
       0.0039083036 -0.00071073644 -0.007023075 0.003903799
000160 b4 58 41 bc 8d 3e af 3b 25 19 ae 3b 18 b4 90 3c
       -0.011800934 0.005348033 0.005313056 0.017664
000170 fb b8 a9 bb 1d ac 03 b8 bf f5 d5 3b 15 c8 08 bc
       -0.005179522 -3.1393127e-05 0.0065295394 -0.0083484845
000180 46 dd 9f bb d7 0d 93 bb 45 72 e2 bb 53 be c0 bb
       -0.004878673 -0.004487734 -0.0069105946 -0.0058820634
000190 a1 2d 39 3c 0d 97 1c 3a 53 74 dc bb 20 ec 23 bc
       0.011302383 0.0005973436 -0.006727734 -0.010005027
0001a0 2c f3 0b bc ff 94 e6 3a 1a aa f9 3b 69 14 83 3c
       -0.008541863 0.0017592012 0.0076191546 0.016000943
0001b0 1b bb 95 bb c2 7d 87 3b 7a 2d 9d bb ac 16 af bc
       -0.004569424 0.0041348645 -0.004796681 -0.021373115
0001c0 28 54 2b 3c 07 5b be 3b a9 f4 91 bb 15 e4 2e bc
       0.010457076 0.005809191 -0.0044542146 -0.010674496
0001d0 c8 3d bd 3b d9 c7 42 bb 5b 54 fc bb 48 d9 b0 3b
       0.005775187 -0.002972117 -0.0077004856 0.0053969957
0001e0 85 f2 34 3c 82 a3 1d 3c 92 ec 4e ba 89 fb 81 3b
       0.011044149 0.009621503 -0.0007893528 0.003966753
0001f0 52 e9 82 3c 8e bf c1 3b 97 5a 5a 3c 16 7f bf 3a
       0.015980396 0.0059127277 0.013327262 0.0014610018

network_body.observation_encoder.x_self_encoder.seq_layers.0.weight f4 [128, 3]
000000 1f 66 63 bd 71 cd 60 3d ab 7c a7 bc d5 f2 61 3d
       -0.055517312 0.054883424 -0.020445189 0.055163223
000010 e4 20 d3 bc 0c de 52 bb d7 bc 07 bd fe c3 a0 bb
       -0.02577252 -0.0032175807 -0.033139076 -0.0049061766
000020 30 35 47 bc e3 54 c4 3d 28 c0 6e bd fb d6 a7 3b
       -0.012158677 0.09586503 -0.058288723 0.005122063
000030 da 7a 69 bd 62 5b 30 3c 14 e7 5e bc 72 7d 0a bd
       -0.057001926 0.010763975 -0.013604898 -0.03381104
000040 aa ca 88 bb 29 47 ef bc b9 bb 5d bb fe fe a3 3d
       -0.00417455 -0.029208736 -0.0033833815 0.0800762
000050 d4 76 78 bc 7e f3 88 bc c6 0d fc bc 07 ef 67 bd
       -0.01516505 -0.016717669 -0.030768286 -0.05662444
000060 a9 f2 98 3c 72 e8 0c 3c c1 78 cd bc 88 32 21 3a
       0.018670397 0.008600341 -0.025081994 0.00061491923
000070 76 46 28 3b f0 97 d9 ba c6 28 df bc 7c 39 3a bd
       0.0025676764 -0.0016601067 -0.027241122 -0.045464978
000080 ce b5 d4 bb 5d 44 ac 3c b2 0a c4 3b f4 45 8a 3c
       -0.0064913994 0.021028692 0.0059827203 0.01687906
000090 c2 da 28 3d f8 03 fc bb f7 42 be bc 77 41 f1 3c
       0.04122425 -0.007690903 -0.02322529 0.029450161
0000a0 43 cc 94 3c 27 23 64 ba fe 77 17 bd b4 58 84 3b
       0.018163806 -0.0008702748 -0.036979668 0.0040388945
0000b0 30 34 72 3c e2 d9 97 3c 4b 01 52 3d 14 fc 0e b9
       0.01478295 0.018536512 0.051270764 -0.00013636082
0000c0 31 a6 4f 3d 34 6b 6f 3d c8 ed e5 3c 35 12 77 3d
       0.0506956 0.058451846 0.028067484 0.060320098
0000d0 b7 b1 a0 3c db e6 d0 bb 2c 02 92 3c a8 51 8e 3c
       0.019615991 -0.0063751764 0.017823301 0.017372921
0000e0 38 1d 5a 3c 8f 99 4c 3d e1 40 df 3b c2 6f 01 bc
       0.01331263 0.049951132 0.006813154 -0.00790018
0000f0 11 dc 08 bd 39 de 93 3c 7a 44 9d bc de b9 2e 3d
       -0.033412997 0.0180503 -0.019197691 0.042657726
000100 e4 ff f1 bc 56 db bb 3c ec ae 45 3d 32 f0 91 3c
       -0.029540963 0.022931736 0.04826252 0.01781473
000110 7b 8b 6e bc 1e 27 90 bd 53 0c 5c 3c 1a 2f 27 3b
       -0.014559622 -0.07038711 0.013430673 0.0025510252
000120 8c 20 40 3d 7f 2a c4 bc 28 2a aa ba 83 d4 a2 bc
       0.04690604 -0.023946045 -0.0012982534 -0.019876724
000130 fc 95 57 3c a5 ec 24 bc aa 2a 46 bd c3 46 38 3c
       0.013158318 -0.010066186 -0.04838053 0.01124734
000140 66 a0 ec 3b 32 97 db 3c bf 01 7e bc c1 2f 5d 3d
       0.0072212694 0.026805494 -0.015503346 0.05400062
000150 20 64 58 bd 3d 67 1b bc 67 14 18 3d 00 c8 0a bd
       -0.05282986 -0.009485063 0.037128832 -0.03388214
000160 be e8 ee 3c a2 d4 69 3c 4f 8c 54 bc 1e 54 85 3c
       0.029163714 0.014271887 -0.012972905 0.016275462
000170 8c 29 c1 bc a8 3b 68 bd 11 30 5d 3d 0d 1d b5 3c
       -0.023579381 -0.056697518 0.054000918 0.022108579
000180 62 c4 2c bd e8 df 2b bb 37 37 98 bc da dd 11 3c
       -0.042179473 -0.0026225988 -0.018581016 0.008902991
000190 cc 28 f9 bc 2a 0b bf bc f4 66 d2 3c fb ff b2 bc
       -0.030414961 -0.023320753 0.025683858 -0.021850577
0001a0 94 66 e2 3b 63 7e 12 3d 31 25 05 bd 6c 74 dc 3c
       0.006909201 0.035765063 -0.03250617 0.026910983
0001b0 cc 16 8d bc 4c 65 a7 3c e5 00 05 3d 49 7a d3 3b
       -0.017222784 0.020434044 0.032471556 0.0064537865
0001c0 27 34 e5 3c 5c 76 c4 bc 22 9b 9f 3c 7c b5 5c 3c
       0.02797897 -0.02398222 0.019483153 0.013471004
0001d0 26 b4 d6 3b d1 b2 70 3d b5 1c 9d bc 36 97 55 3d
       0.006552237 0.058764283 -0.019178728 0.05214616
0001e0 e6 04 46 3d eb 7e 0c 3d cd ea ff 3c 11 fb 40 bc
       0.048344515 0.034300726 0.031239891 -0.011778609
0001f0 9d 0f 46 bd aa be ad 3b 90 21 b0 bd 74 9e ac 3b
       -0.048354734 0.00530227 -0.086001515 0.0052679125
000200 2e 54 ff 3c e3 b7 75 bd 68 1e 32 3d 8c b8 66 3c
       0.03116807 -0.05998982 0.04348603 0.014082085
000210 6c 9b 17 bd 6c bf 96 ba a3 72 1a 3c 77 f6 68 3d
       -0.037013456 -0.001150114 0.009426746 0.056875672
000220 2c 4a 73 bd 05 b8 02 bd 56 53 fa b9 82 9a 0a ba
       -0.059396908 -0.031913776 -0.00047745806 -0.00052873057
000230 c3 0c 01 bd b0 8d c9 3c 21 2e 50 bd 1d b2 13 bd
       -0.03150631 0.024603695 -0.050825242 -0.036058534
000240 cf b9 5c 3c 04 8f 80 3c e9 82 9d 3a 11 4c 2a bd
       0.013472035 0.015693195 0.0012017164 -0.04157645
000250 29 4f ac bc af 01 0b 3b f4 ff 6f bd fb 8e 24 bd
       -0.02103384 0.002121072 -0.058593705 -0.04017542
000260 d4 0f fd 3c 58 dc 60 3d f7 63 bf 3c 08 fa 70 3b
       0.030891337 0.054897636 0.023363097 0.0036770124
000270 1d f5 1a bb 50 af 1d 3b 01 cc 6f 3c 6c 06 a2 bd
       -0.0023644634 0.0024060793 0.014636041 -0.07911381
000280 9c 5e 00 39 f1 25 14 3b 11 36 4b 3d 83 ce 25 bd
       0.00012242276 0.0022605623 0.04961211 -0.040480148
000290 23 ba a7 bc 0c 47 10 3d 20 ed 1d bd ec d0 eb 3c
       -0.0204745 0.035224006 -0.03855622 0.028786145
0002a0 bc 78 e8 bc 96 38 44 3d 32 13 6e bc f9 19 1c 3d
       -0.028377883 0.047905527 -0.014530944 0.038110707
0002b0 9b 4c d2 3c f9 61 3a 3d 06 9f 43 3c 87 18 b7 bc
       0.025671294 0.04550359 0.01193977 -0.022350563
0002c0 a3 bb 35 3c d7 f2 a0 bc ce 3a 21 bc cd 18 86 3d
       0.011092099 -0.019647045 -0.00984068 0.06547699
0002d0 14 f1 01 3d 41 80 05 3d 94 db 2a bd 7f fe 83 3c
       0.03172405 0.032593016 -0.041713312 0.016112564
0002e0 2b 71 f1 3c 44 54 8d b9 4b 13 30 3d 39 f0 61 bd
       0.029472908 -0.00026956399 0.04298715 -0.055160735
0002f0 27 83 04 3d 3b 0e 2c bc e5 20 2b 3c 9f 8b 3c bb
       0.03235164 -0.01050144 0.010444854 -0.0028769744
000300 7b 3a a7 bd 2d 9c 2b bd 8a 75 c3 3c da 52 a3 bc
       -0.08165451 -0.041896988 0.023859758 -0.019936968
000310 ee ea b0 3b 94 5d 09 bd 30 bc 26 3d 38 dc 7b 3d
       0.0053990996 -0.03353651 0.040706813 0.061489314
000320 08 c6 26 3c 37 1c 43 3d 08 3f 75 ba 06 04 ee bc
       0.01017905 0.04763433 -0.00093554007 -0.029054653
000330 46 4a 1c 3d 82 7e f6 bc 56 91 a5 bc d4 50 09 3d
       0.03815677 -0.03008962 -0.020210903 0.03352435
000340 71 bf 33 bc 9a ef 4f bc ed af e0 bc c7 36 3f bd
       -0.010970936 -0.012691403 -0.027427638 -0.0466831
000350 ef 94 fc bb 81 20 37 bd 97 74 bb bc 26 31 52 3d
       -0.007708184 -0.044708733 -0.022882743 0.051316403
000360 07 87 6a bc ee df d3 3c 35 51 a9 ba 64 4e 21 3c
       -0.01431442 0.025863614 -0.0012917878 0.00984535
000370 21 5e 87 bc 0e bd ad 39 66 ac d5 3c 65 cc 15 3d
       -0.016524376 0.00033137988 0.026083183 0.03657188
000380 58 ff c6 bb 10 4d f7 ba fe e0 8f bc 82 07 ff bb
       -0.00607292 -0.0018867571 -0.01756334 -0.0077828774
000390 61 2c 29 3d 6c e6 d7 bb cb a0 0c 3d 14 04 94 3d
       0.04130209 -0.0065887477 0.03433303 0.0722734
0003a0 6c f0 a8 bc 05 fc 92 3c 21 73 11 3d 30 87 6c bc
       -0.020622455 0.017942438 0.035510186 -0.014436528
0003b0 70 83 76 bb 64 ed 98 3c 5c 8a 7d bd 80 48 ff 3c
       -0.0037614964 0.018667884 -0.061899528 0.0311625
0003c0 2e d0 00 bd b2 2e c1 37 f6 fc 84 bd 56 dd ba bd
       -0.031448536 2.3029137e-05 -0.06493561 -0.09124248
0003d0 83 35 65 3d 3d 75 0d 3b af d3 02 3d a5 41 28 3d
       0.055959236 0.0021584772 0.03194016 0.04107823
0003e0 7e b2 50 3d d3 a3 47 bd 3d 95 e4 bb 0e 03 64 3d
       0.050951473 -0.04874022 -0.0069757984 0.055666976
0003f0 28 43 85 ba 08 ab 7c bb ba 6a b7 bc 79 76 d9 3d
       -0.0010167109 -0.003855409 -0.022389758 0.106183

network_body.observation_encoder.x_self_encoder.seq_layers.0.bias f4 [128]
000000 a2 b3 ac 3b 45 40 2b 3c e8 b9 1c 3b 40 7b 9e 39
       0.0052704373 0.010452335 0.002391452 0.00030227937
000010 d5 1b 08 3c 71 eb 12 3c 60 12 3f bc 9e 77 02 bc
       0.008307417 0.008967266 -0.011662096 -0.007963089
000020 83 47 98 ba 68 3f b2 3b c4 c8 c9 bb 69 9e 25 3c
       -0.0011617992 0.0054396875 -0.0061579663 0.010108569
000030 9e a6 79 bb 7a 61 42 bc b8 91 05 bc d5 e6 31 3a
       -0.0038093696 -0.011864061 -0.008152418 0.0006786411
000040 66 d4 42 b8 c9 7b 7c bb 92 ac c5 bb 12 dc f4 ba
       -4.6451016e-05 -0.003852593 -0.006032535 -0.0018681309
000050 56 c7 37 bc 42 04 ca bb 72 72 b5 3b 6c 56 d7 3b
       -0.011216959 -0.0061650584 0.0055373246 0.0065715816
000060 64 95 3f 3c ff f2 0c ba 64 0b 25 3c c4 07 be b8
       0.011693332 -0.00053767854 0.0100735165 -9.0613525e-05
000070 82 b1 5d 3b 3e 83 02 bc 1c ee af 3a b6 9b 4f 3c
       0.0033827727 -0.007965861 0.0013422403 0.012671402
000080 18 a8 af bb 24 2e d4 3b 26 80 08 3c 50 94 27 3c
       -0.0053606145 0.006475227 0.008331334 0.010228232
000090 e5 d3 11 ba 28 1f 7b ba 09 43 7a ba b3 64 ad 3b
       -0.0005562886 -0.0009579533 -0.0009546732 0.0052915453
0000a0 8c cf 51 bb 27 8d e4 bb d9 f4 12 3c 80 79 ef 3a
       -0.0032014577 -0.0069748345 0.008969509 0.0018270463
0000b0 d2 80 05 bc 50 ec 97 3b 00 0d 20 3c 19 86 74 bb
       -0.008148389 0.004636325 0.009768724 -0.0037311374
0000c0 1c c6 07 3c 50 7a 23 3c 0d 8d 86 3c d4 18 6b 3b
       0.008286979 0.009977892 0.01642468 0.0035872953
0000d0 9b d1 dc bb e5 d2 3f 3c d9 b3 f2 3a c4 eb 4c bb
       -0.006738854 0.011707996 0.0018516734 -0.0031268457
0000e0 c2 68 c3 3a 07 0b 1c bc 94 71 f8 37 c2 e8 1e 3c
       0.001490854 -0.0095241135 2.9616793e-05 0.0096990485
0000f0 d2 63 32 ba 11 db 0b bc d5 cd a4 3b 5c 99 bf ba
       -0.00068050355 -0.008536116 0.00502942 -0.0014617848
000100 f2 94 fb 3b 13 fa 32 3c ea 1d c6 3b dd b1 27 3c
       0.007677668 0.01092388 0.0060460465 0.010235277
000110 12 ee c8 bb a8 9a 4c 3a a7 3c db 3b 9d 55 3c 3c
       -0.006131896 0.0007805028 0.00669058 0.011495021
000120 ef 9c 3e bc 34 81 6f bc a7 6a 6e 3c 72 81 f6 bc
       -0.011634096 -0.014618207 0.014551795 -0.030091021
000130 19 8d c1 3b 78 0f b4 bb 42 87 f5 3a f4 7e a3 ba
       0.0059067127 -0.005495008 0.0018732327 -0.0012473748
000140 bc 2d b0 3b d8 2f 97 3b 31 ba 28 bc 83 fd 1c 3b
       0.0053765457 0.0046138577 -0.010298298 0.0023954816
000150 f0 28 1b bc c7 c5 be 3c c1 1d 26 3c b5 ee 56 3b
       -0.0094702095 0.023287667 0.01013893 0.003279609
000160 8c 64 61 3c 49 32 eb 3b 26 0a a7 3b 1b 5d 3c bc
       0.013756882 0.0071776253 0.0050976453 -0.011496807
000170 b9 b7 87 bb db 1a 47 3c e1 31 cb 3b 81 11 99 ba
       -0.0041417745 0.012152399 0.0062010144 -0.001167819
000180 77 c1 8d bb 7b 2b 7a bc f1 44 81 3c 17 ed ed ba
       -0.0043260413 -0.015269156 0.015779944 -0.0018152323
000190 84 02 3d bb cb 78 f2 ba 84 fd 26 3b f7 5c 2c bc
       -0.002884061 -0.0018499134 0.0025480697 -0.010520211
0001a0 ba e9 91 3b a8 e6 8f 3b 77 3f 16 3b 91 9f 3e 3b
       0.004452911 0.00439151 0.0022926012 0.0029086808
0001b0 e9 cf c3 bb a8 7d f9 bb 19 94 4e 3b ce 98 fa 3b
       -0.0059757126 -0.0076138563 0.0031521379 0.0076476103
0001c0 36 58 0d 3b 32 c0 54 3a 31 6c d0 3b 7e 03 39 3c
       0.002156747 0.00081157975 0.0063605537 0.0112923365
0001d0 90 02 07 3c d1 b2 a1 bb f1 ad 2e 3c b7 7f 2e 3b
       0.008240357 -0.0049346467 0.010661588 0.0026626417
0001e0 b2 6a 14 3c fd 13 42 3b 40 ae f2 3a 15 80 9c 3c
       0.009058641 0.0029613965 0.0018515065 0.019104043
0001f0 09 55 ca ba c2 c9 66 3c c3 5c 03 3c f6 a4 26 3c
       -0.0015436719 0.014086189 0.008017722 0.010171166

network_body._body_endoder.seq_layers.0.weight f4 [128, 131]
000000 94 c3 0b bd 35 5c 81 3d 2c fc c3 3c e0 da 8f bc
       -0.034122065 0.06316415 0.023923956 -0.017560422
000010 bb 7d 24 bd 5e 79 6e 3b 39 29 bb bd a4 16 47 bd
       -0.04015897 0.0036388258 -0.09138722 -0.048605576
000020 39 d4 5c bc 21 9f d4 3d e1 fc b3 bd a7 5c 96 bd
       -0.013478332 0.10381914 -0.08788467 -0.07341891
000030 ce 73 ba bd ba 0b c3 3c 7d 66 80 3d 3a 08 4c 3e
       -0.09104119 0.023809303 0.06269548 0.19925013
000040 8a 75 d5 bc f8 18 bc bd 3b a1 55 bc 8a e2 8e 3d
       -0.026057024 -0.0918445 -0.013038929 0.06976803
000050 68 42 9c 3c 05 dc e8 bc 89 c4 f1 3d b6 ef 3e 3d
       0.019074634 -0.028425226 0.11805064 0.046615325
000060 2e ff 32 be 4e e3 55 bc 73 ac 43 3d 15 e8 d3 3c
       -0.17480156 -0.013054682 0.047771882 0.025867501
000070 79 35 8b 3d 53 59 06 3e bc b2 99 3d 62 0b 38 bd
       0.067973085 0.13120012 0.07504794 -0.04493273
000080 41 ee 90 3d bf ee 51 bd b8 73 22 bc b3 cc 65 3e
       0.07076693 -0.051253077 -0.009915285 0.22441368
000090 2c 74 b6 bd 6d 4d e5 3c fc 86 16 be f1 0b 88 3d
       -0.08908877 0.027991021 -0.1469993 0.06642903
0000a0 ae 0d 2d 3c e9 c1 66 bc 88 d9 c5 3d a9 96 97 3d
       0.0105623435 -0.014084318 0.096606314 0.07401783
0000b0 91 7f 1f 3d 6f b3 32 bd 0f 0b 53 bd eb 5f 28 3d
       0.038940016 -0.043628152 -0.05152422 0.0411071
0000c0 cd 92 91 3d ff 00 eb 3d 8e f1 e1 bb 05 17 01 3d
       0.07108078 0.11474799 -0.0068952506 0.031516094
0000d0 cc 4f 19 3e 7e 89 0e bd 30 a0 43 3d a3 18 b4 3c
       0.14971846 -0.03479909 0.04776019 0.021984404
0000e0 14 bc ef bd 89 67 2b 3d 59 d2 09 bd 36 c7 77 3d
       -0.11705795 0.041846786 -0.03364787 0.060492717
0000f0 0e bf a6 3c 5d 77 f9 bc b8 ea 16 3e 7f 6b 5f bd
       0.020354774 -0.030452425 0.14737976 -0.054545876
000100 66 29 90 3d a2 95 88 bc d1 62 95 bd 0f 80 41 bd
       0.07039146 -0.016672913 -0.07294238 -0.047241267
000110 00 0b 51 bd 14 7c 06 be 52 db 06 3e a3 b9 97 3c
       -0.05103588 -0.1313327 0.13169602 0.018521136
000120 06 37 af bd f3 d0 ce bc 58 56 55 3e 6e 64 bd 3c
       -0.08555417 -0.02524612 0.20833719 0.023119178
000130 2b 1b 51 3d e3 61 83 3d e4 44 54 bd 42 10 fc 3c
       0.0510513 0.06415155 -0.05182351 0.030769471
000140 86 77 81 bd 14 8a ce bd 73 a8 03 bd a0 26 30 3d
       -0.063216254 -0.1008493 -0.032143068 0.043005586
000150 41 a2 70 3c 39 5c 1d be 0c e9 ba bd f2 00 e8 bc
       0.014687122 -0.15367211 -0.091264814 -0.028320763
000160 d2 34 ea bd ed 30 10 be 4e ca 25 3d 49 ce 47 bc
       -0.11435856 -0.14081164 0.040476136 -0.012195178
000170 11 04 1b 3e fe 0c 0f bd f6 22 99 bd dc e9 60 3c
       0.1513827 -0.0349245 -0.074773714 0.013727631
000180 3a c7 22 bd 1f 8e a0 3c e2 ab dc bc 2c 9b ba bd
       -0.03974078 0.019599019 -0.026937429 -0.09111628
000190 23 b9 b0 bd d7 26 18 3e 8f 40 3d 3d 5e 44 c2 bd
       -0.08629062 0.14858566 0.046204146 -0.09485696
0001a0 d1 e6 03 be 50 34 c9 bd 95 f5 89 3e ac d6 2e 3d
       -0.12881018 -0.09824431 0.26945177 0.042685196
0001b0 09 e8 f7 bb a2 7d ec 3d 18 d1 12 3b a1 49 12 bd
       -0.0075655025 0.115474 0.0022402462 -0.03571475
0001c0 65 bf de 3c 41 c0 e6 bb 75 c2 82 3c 9d 63 c2 bc
       0.027190873 -0.0070419614 0.015961865 -0.02372914
0001d0 71 54 80 bd 7e 8d 32 be ae 51 df 3d 05 6d 37 be
       -0.06266106 -0.17436787 0.10904251 -0.17912681
0001e0 28 be 99 3b 24 b7 ea bd 17 84 08 bd 4f 40 01 3d
       0.004691858 -0.114607126 -0.033329096 0.03155547
0001f0 f4 ac 2b bd bf 0b 12 3d a4 77 91 bd 60 0c ff 3c
       -0.041912988 0.035655733 -0.07102898 0.03113383
000200 03 0a 12 3e bc 1f 0e 3d f6 d5 ba 3d 4f b0 a7 3d
       0.14261632 0.034698233 0.09122841 0.08187925
000210 ca 3b d1 bd 15 ab 71 3d 56 7a b5 bc 4b a9 61 3a
       -0.10216482 0.059001047 -0.02215306 0.00086082955
000220 9d 63 33 3d 84 f8 ec bd d6 91 ce 3d 3f 58 b5 bb
       0.04379617 -0.11570838 0.1008641 -0.0055342014
000230 1a a9 da 3b b2 bf 98 3d 4f 2c bd bd 8b 39 3a bd
       0.0066729905 0.07458438 -0.09236967 -0.045465034
000240 99 52 c3 bd 3c 19 6c 3d a8 a7 35 bc 7d eb fa 3b
       -0.09537239 0.057641253 -0.011087336 0.007657467
000250 87 ce 1c 3d fc e0 2e bd ca 34 b4 bd 7d 6e 5a 3d
       0.038282897 -0.04269503 -0.08799131 0.053328026
000260 f5 75 38 bd cd 25 e2 bc 36 5f c1 3d b2 15 b4 bc
       -0.045034368 -0.027605915 0.09441988 -0.021983001
000270 12 85 d4 3c 37 f2 d8 3c 34 1e d8 3d 92 9a 8e 3c
       0.02594236 0.026482685 0.10552636 0.01740769
000280 db 13 88 3d 61 41 15 bd ff 21 1c be da cd 0f 3d
       0.06644412 -0.036439303 -0.15247343 0.035108425
000290 c7 19 06 3d 47 67 04 3d 8d ea 8a bb 36 8e 3b bd
       0.032739427 0.032325055 -0.0042393864 -0.04578992
0002a0 ba a7 1b be b8 be ae bc 4d 70 99 3c d4 b9 7a bd
       -0.15200701 -0.021331176 0.018730307 -0.061212376
0002b0 0b ab e7 bd ec 40 86 3d 0a c7 ba bd a0 61 c1 bd
       -0.11311921 0.065553516 -0.09119995 -0.094424486
0002c0 1b 92 3f bc 30 47 3a bb f1 4a 85 3d 17 3a 3d bc
       -0.011692549 -0.0028423779 0.065084346 -0.011549494
0002d0 18 ac ba bd ad 91 5a bd 32 6a 16 3e 69 85 5f bd
       -0.091148555 -0.053361584 0.14688948 -0.05457059
0002e0 35 fe 94 3c 78 55 bc bc da 02 4f 3d 91 db 49 be
       0.018187622 -0.022989973 0.05053983 -0.19712664
0002f0 04 92 5e 3d 5f 53 c1 bd ca e3 95 bd 70 55 4a 3c
       0.05433847 -0.0943973 -0.07318838 0.012349471
000300 a8 79 28 3e 5f df f2 bd c8 9f ad 3c 33 34 de 3c
       0.16452658 -0.11859011 0.021194354 0.0271245
000310 2d 02 88 3d 7a 97 7a 3d 63 3f f7 bc 8f f8 45 3d
       0.0664104 0.061179616 -0.030181592 0.048332747
000320 2f 73 3b be 80 f2 72 3d ac 8a 25 bd f1 ee a9 3d
       -0.18305658 0.059313297 -0.04041545 0.082975276
000330 d8 58 a2 3d 90 2f e3 bc cb 9d ab 3d f9 4b 59 3d
       0.07927102 -0.02773264 0.08379706 0.05305097
000340 62 c5 c6 bd a4 f1 ae 3c 19 95 00 bd 32 c7 37 be
       -0.097056165 0.021355458 -0.03139219 -0.1794708
000350 07 8d 56 bd 03 32 2f 3d 7e 77 08 be 90 f1 00 be
       -0.052380588 0.042772304 -0.13326833 -0.12592149
000360 d7 1d 08 3e 7e bb 06 bb 3d 87 44 bd 69 29 39 bd
       0.13292633 -0.0020558531 -0.047980536 -0.045205507
000370 12 14 87 be 2e 1a f1 bd 91 b2 85 bd 82 69 fb bb
       -0.263825 -0.117725715 -0.065281995 -0.0076724896
000380 0b be 32 bc c2 89 e2 3d 25 7f b7 3a ab 6a 33 3e
       -0.010909568 0.110614315 0.0013999684 0.1752116
000390 7c 0c bf 3d 41 0b ef 3d b2 3f 16 bd 71 9b ca bc
       0.09328553 0.116720684 -0.03668184 -0.024732323
0003a0 d2 58 62 3d bf c9 83 be 45 3b a1 3d 7a 72 fb bd
       0.055260487 -0.25739858 0.07872633 -0.12277694
0003b0 c5 3d 04 be a9 2c fa 3c b1 7a 03 3e 18 15 da bd
       -0.12914188 0.030538874 0.12839772 -0.106485546
0003c0 d1 2e 8d bd ce 8c 44 3e f8 bd 9f 3d b0 f2 37 3d
       -0.06893695 0.19194338 0.077999055 0.04490918
0003d0 0a 13 19 3d 28 24 c9 3d 68 9f 5f be d0 f3 15 be
       0.037371673 0.098213494 -0.21838152 -0.14643788
0003e0 bd 04 17 bd de f6 f5 bd b9 d3 9a bc 55 c2 ac bd
       -0.036869753 -0.12009977 -0.018899785 -0.084355034
0003f0 4e e1 ee 3d 41 c6 f1 bd 9b 16 85 bc af 7c a8 3b
       0.11664067 -0.11805392 -0.01624613 0.0051418166

network_body._body_endoder.seq_layers.0.bias f4 [128]
000000 32 cc 49 3c f3 d6 4d 3c 74 7d fe 3b 48 ef 1a 3c
       0.01231675 0.012563455 0.00776642 0.009456463
000010 2d 81 7c bc 39 ba a8 3c 05 cd 7b bb a6 5d 40 3b
       -0.015411657 0.02059661 -0.0038421762 0.0029352694
000020 c6 87 82 3c c3 e9 da bb c8 b1 f1 bb bd 56 08 3c
       0.015933882 -0.0066806986 -0.0073759295 0.008321461
000030 52 bd 0f bc 27 0d 86 3c 71 9f fb ba 35 45 16 3b
       -0.008773165 0.016363693 -0.0019197298 0.0022929434
000040 cf 41 c7 ba eb 8c 35 3c 25 48 b4 3b 1e 11 80 bc
       -0.0015202108 0.011080961 0.0055017644 -0.015633162
000050 da f5 59 b9 b9 af 39 3a 9c df b2 bb d2 3d d3 bb
       -0.0002078632 0.00070833747 -0.005458785 -0.0064465785
000060 fd 02 b9 3a 19 4e 42 bc 07 9e 23 3c a3 46 8f bb
       0.001411527 -0.01185944 0.009986407 -0.004372434
000070 3a d5 0e 3c 44 1f 8e bc 84 a3 3a 3b 23 de 42 3c
       0.008717829 -0.017348893 0.002847881 0.011893782
000080 05 62 a2 3c c7 1a 67 3c a4 09 af 3c ea 9a 20 bc
       0.01982213 0.014105505 0.021366902 -0.009802559
000090 2b 6d 46 3c e6 e0 a4 bc 61 04 80 3a 0d fa 80 3a
       0.012110989 -0.020126771 0.000976693 0.0009840146
0000a0 04 07 52 bc 5a 55 d8 b9 b7 8e c8 3a 8e 9f 9b bb
       -0.0128190555 -0.00041262322 0.0015301321 -0.004749245
0000b0 3e 13 29 3c a2 80 5f bb ef 2d 2c bc d6 5d 92 bb
       0.010319529 -0.003410377 -0.010508998 -0.0044667525
0000c0 f1 52 a1 bc 29 18 01 bb 66 44 04 bc 10 73 a4 3c
       -0.01969287 -0.0019698238 -0.008072948 0.020074397
0000d0 b9 df 22 3c 99 6b 83 3b b5 84 94 bc 97 3a 1d 3d
       0.009941035 0.0040106294 -0.018129686 0.038385954
0000e0 24 4c 17 bc d2 d8 07 3b 6e 81 25 3b 7e 5a e6 3b
       -0.009234462 0.00207286 0.0025254148 0.0070298305
0000f0 39 f1 2c bc 3b f8 96 3b c0 17 f2 3b b4 16 e5 bb
       -0.010555559 0.004607228 0.007388085 -0.006991232
000100 c8 16 44 bc 5f 23 25 3b 18 98 0a 3c 22 74 cd ba
       -0.011968322 0.0025198085 0.008459114 -0.0015674869
000110 18 2a 50 bc f2 80 18 bc 6f d6 06 3c 5e e3 eb 3a
       -0.012705348 -0.009308087 0.008229836 0.0017996838
000120 9c 59 b8 bc c5 24 9a bc e1 4f 4d 3c 5b ba b2 ba
       -0.022503667 -0.018816361 0.012531252 -0.001363586
000130 7f d6 81 3a 40 2e a7 3a 93 3e 8e 3c 9f 2c 89 bb
       0.0009905844 0.0012754872 0.017363822 -0.0041862275
000140 d3 9c 77 3b 36 83 85 39 40 c7 8a bc 44 72 87 3c
       0.0037782684 0.00025465497 -0.016940713 0.016533978
000150 c3 40 84 3b 00 81 dd bb 87 4c 24 3c c9 17 00 bc
       0.0040360405 -0.0067597628 0.010028011 -0.007818171
000160 58 29 79 ba 2c a4 ef 3b 09 e2 22 3c c8 92 3c b9
       -0.0009504757 0.007313272 0.009941586 -0.00017983757
000170 3d 3a 2d bb 36 62 17 bc 98 e4 f2 ba 71 dc cc 3b
       -0.0026432418 -0.009239724 -0.0018531261 0.0062518646
000180 c9 9f 10 3c f2 a9 38 3b 12 84 1f 3b e8 a8 03 3c
       0.008827158 0.0028177467 0.0024340195 0.008035876
000190 37 8a 1b 3d aa 57 f3 bc f5 b3 c2 b9 1d a3 e6 39
       0.03797361 -0.029704887 -0.00037136642 0.00043990547
0001a0 92 ed 64 3c d9 a6 07 3c 6d c0 94 3c 6a 13 e6 3b
       0.013972657 0.008279526 0.018158162 0.0070213573
0001b0 50 0b 1b 3b 3c 96 8d 3c 67 95 9c 3b c6 67 aa bb
       0.0023657866 0.017283551 0.0047785523 -0.005200359
0001c0 71 9d 00 3c e0 7f 2f 3c 65 ef 7d 3c 29 b6 95 3c
       0.007850037 0.01071164 0.015498971 0.018275337
0001d0 85 34 de 3b e7 1c ab 3b c3 69 06 3c dd e1 bf 3c
       0.006781163 0.0052219513 0.0082039265 0.02342313
0001e0 d2 bc ab 3c d1 c2 f7 3b d3 5f b2 bb 72 61 33 bc
       0.02096406 0.0075610657 -0.005443552 -0.010948526
0001f0 83 e8 bd bb 42 30 8c 3c be 3a fb 39 9c 0e 24 3c
       -0.00579554 0.017112855 0.00047918217 0.010013249
