Assets/result/ppo/My Behavior/My Behavior-1499937.onnx (onnx, 578818 bytes, 21 tensors)

network_body.observation_encoder.processors.0.self_ent_encoder.seq_layers.0.bias f4 [128]
000000 5e 12 5e bc bf b6 c8 bb cb 50 95 3c 1a 61 6f bc
       -0.013554184 -0.0061253007 0.018227002 -0.014610553
000010 fb 0a 17 3c 88 90 9d bc c4 b4 4c 3c 0e a2 cb bc
       0.009218927 -0.019233957 0.01249427 -0.024857547
000020 43 a6 c6 3a 14 09 9b bb 2b b4 e2 3b 5f 14 61 bb
       0.0015155751 -0.004731307 0.0069184504 -0.0034344418
000030 68 bb 04 bc 06 ae b1 3c c5 38 fd bb 9c 95 04 bc
       -0.008101322 0.021689426 -0.0077277147 -0.00809231
000040 7c cf d3 39 5c 39 59 bc 0c ec 2a bc 4f 15 b1 3b
       0.00040399644 -0.013258304 -0.0104322545 0.0054041515
000050 0c 50 e5 3b e0 a0 e0 ba 7d 76 88 3b ee b7 90 bc
       0.0069980677 -0.0017137788 0.0041645155 -0.01766583
000060 5b 6e 08 3c 67 d5 ea bb 80 ea aa 3c 27 1d b9 ba
       0.008327092 -0.007166553 0.020863771 -0.0014123068
000070 1b 31 66 bc 01 bf 21 3b fc 96 a7 bc 64 17 86 bc
       -0.014049794 0.0024680498 -0.020457737 -0.016368575
000080 00 71 75 bb 87 2f 98 39 25 4e e6 3b d2 6a 87 bc
       -0.0037451386 0.0002902711 0.0070283585 -0.016530428
000090 14 6e 7b bc 8b 48 da 3b ed e5 b3 3b 05 85 9c bb
       -0.015346069 0.00666148 0.005490056 -0.0047765994
0000a0 29 69 c1 ba a7 2a 06 3c 48 3a 3c 3c 77 cd fd 39
       -0.0014756072 0.00818888 0.011488505 0.00048409004
0000b0 e1 ab 98 bc 40 79 f4 b9 44 b1 bd bb 8c da 64 3c
       -0.018636646 -0.00046629645 -0.005788954 0.013968121
0000c0 99 e3 98 bb 60 6c f5 bb 6f 7c 4a 3c c6 25 93 bb
       -0.0046658036 -0.007489726 0.012358769 -0.004490587
0000d0 36 72 ae bc 8d 24 57 3c 7a c0 17 3b 53 f3 dc b9
       -0.021294694 0.013131273 0.0023155496 -0.0004214296
0000e0 ca 58 cb 3b f4 73 df bc 94 73 05 bc f0 49 59 bc
       0.006205653 -0.02727697 -0.008145232 -0.013262257
0000f0 de 3b b3 3c 99 79 80 3c 4a b9 24 3c 62 04 1c 3c
       0.021879133 0.015682982 0.010053942 0.009522529
000100 4d dc 34 bc 03 34 25 bc bb 46 40 3c 95 40 0c bb
       -0.011038852 -0.010083201 0.011735613 -0.0021400799
000110 b0 9c c7 3a 11 30 44 3c 22 64 13 3c e4 80 35 bc
       0.0015229192 0.011974351 0.0089960415 -0.011078093
000120 a2 4b b0 bc b7 c1 97 3c 54 88 99 3b c9 94 18 3c
       -0.02152044 0.018524988 0.004685441 0.009312817
000130 55 12 3f 3a 04 d3 a1 3a cf 03 ef bb b7 e1 e2 bc
       0.00072888035 0.0012346213 -0.007294155 -0.02769552
000140 a7 40 f6 3b f1 2b ab bc 09 78 13 bb 7a 0e 3a 3c
       0.0075150314 -0.020894976 -0.0022501966 0.011355991
000150 21 07 48 bc 12 44 9f bb 27 9e b4 3c bd 22 99 3b
       -0.012208731 -0.0048604095 0.02204807 0.0046733306
000160 44 95 45 3b b9 ae d0 3b d6 a7 28 bb da 35 10 3c
       0.0030148784 0.006368485 -0.0025734804 0.008801902
000170 4c d4 35 ba 54 c1 b1 bb 6e 78 50 3c a1 24 c1 bb
       -0.0006936237 -0.005424658 0.012724025 -0.005894259
000180 f5 d2 7e 3b 89 23 0f 3c e9 1a e3 bb 51 fd 62 3b
       0.0038883064 0.0087365 -0.006930698 0.0034635852
000190 88 58 bd 3c 41 91 8d 3b 38 e8 57 3c 36 3f 18 bb
       0.023113504 0.004320294 0.013177924 -0.0023231036
0001a0 14 1d 55 bc 18 5e f2 3b 3d 95 ba 3b 93 cb 92 bc
       -0.013007421 0.0073964708 0.00569406 -0.017919337
0001b0 74 7c 88 bb 0a ce 8b bc 7e 23 ab bb 8c eb 07 3c
       -0.0041652266 -0.01706602 -0.005222737 0.008295905
0001c0 a3 7e 84 bb 1e 42 82 bc 63 d8 d1 3c 54 de f9 bb
       -0.0040434166 -0.015900668 0.025615877 -0.0076253805
0001d0 7c 7c 95 bb b3 dc da 3b 2a 1b 92 bc 1e 0a b2 3b
       -0.004561959 0.0066791414 -0.017835218 0.005433335
0001e0 b9 93 9d bc 67 50 08 3b 34 40 d0 bb 86 ad 1d bc
       -0.019235479 0.0020799877 -0.00635531 -0.009623891
0001f0 a2 7d c9 3c 12 fe ca bb 76 d9 cb 3b dd 30 7d 3c
       0.02459604 -0.0061948383 0.0062209917 0.015453544

network_body.observation_encoder.processors.1.self_ent_encoder.seq_layers.0.bias f4 [128]
000000 2c 38 eb 3b 4b 2f 01 3c 7a 67 54 bc 12 cd 2a bc
       0.007178327 0.007884811 -0.012964124 -0.010424869
000010 b5 fa d3 bb 20 e0 82 3c 59 e1 4d bc 71 84 19 3a
       -0.0064690956 0.015976012 -0.012565934 0.0005856222
000020 19 fa 67 ba 72 3b 0b bc c6 ba c2 3a 71 d6 ab bb
       -0.0008849218 -0.00849806 0.0014856688 -0.0052440693
000030 6d ff fc 3a cb d3 9a bc bf 3e 52 bc 05 e6 6c 3b
       0.0019302197 -0.018899819 -0.012832343 0.0036147845
000040 53 22 c8 3b 57 45 15 bc 12 74 b4 bb 04 a9 8b bc
       0.0061076074 -0.00911077 -0.0055070007 -0.017048366
000050 4a 70 81 3c 8c 73 e5 3a 84 36 8a bb 04 ef 02 bc
       0.015800614 0.0017505749 -0.0042179246 -0.007991556
000060 0d 5c 6a bc 82 02 a8 bb ed ce c0 3b 8a cc 0b bc
       -0.014304173 -0.005127252 0.0058840425 -0.008532653
000070 24 b9 04 3c 38 75 e4 bb 9b 93 93 3c 57 d9 43 3c
       0.008100782 -0.0069719814 0.01801472 0.011953673
000080 3c d0 6b bb a0 fe d2 bb 7c d1 10 3b ff 20 cc 3b
       -0.0035982272 -0.006439045 0.0022097519 0.0062295194
000090 dc dc 28 bc b4 cd 0b bc 09 ef 41 ba 8d 14 f4 3b
       -0.010306563 -0.00853293 -0.0007397985 0.007448739
0000a0 27 e3 32 bc 5e 64 a1 3b 03 de 05 3b 25 d5 08 bc
       -0.010918415 0.004925295 0.0020426519 -0.008351599
0000b0 78 e3 eb 3a 6d 33 87 3c b3 97 12 bc 2c 0b 0d bb
       0.0017996868 0.016504014 -0.008947301 -0.0021521552
0000c0 b6 de f1 3b ac 83 74 3b 4f d4 61 bc 21 b4 37 3c
       0.0073812855 0.0037309928 -0.0137835285 0.01121238
0000d0 01 e5 af 3b 07 49 f0 bb 7c 02 3d 3b e2 18 2b bc
       0.0053678756 -0.0073329243 0.0028840592 -0.010442944
0000e0 ae 4e 49 3c 0d ae 4c 3c fe e9 07 bb ef 89 9a bb
       0.012286825 0.012492669 -0.0020738835 -0.00471615
0000f0 eb 0b 05 bc 24 04 20 bc d1 f3 91 3c af fb c7 3a
       -0.008120517 -0.009766612 0.017816456 0.0015257503
000100 77 37 43 3c 6a 84 a6 3b e8 72 42 bb 0b 2a 12 bb
       0.011915079 0.005081703 -0.002967054 -0.0022302892
000110 d2 8f 54 3b da c0 09 3c fd 5f b1 bb 5b 32 f0 3a
       0.0032434356 0.008407796 -0.005413054 0.0018325554
000120 47 0c f1 3b 94 7b 01 3c 74 13 1f bc 07 db 48 bc
       0.0073562 0.0079029985 -0.009709228 -0.012259251
000130 46 26 34 3c 06 26 6c 3b f9 fb ee bb 5c fe 28 3c
       0.010995453 0.0036033406 -0.007293221 0.01031455
000140 41 86 ca bb a2 10 4e bc fe de d6 bb c0 6e f4 3b
       -0.006180555 -0.012577208 -0.0065573445 0.0074594915
000150 4d 65 a5 bb 00 cc af 3c ea a1 54 bb 29 69 0a 3a
       -0.0050474764 0.02145958 -0.003244514 0.00052799523
000160 c8 a2 57 3b f7 de 64 bc 0d ec eb bb cb be 56 bc
       0.0032903422 -0.013969175 -0.0071997703 -0.013107012
000170 c8 29 ac bc c8 28 5b 3b 30 43 85 3c 4a 0f 0e bc
       -0.021016017 0.0033441056 0.016267389 -0.008670637
000180 f1 c6 92 3c 3e 15 c8 b9 79 f7 84 3b 3e 31 4c 3b
       0.017917128 -0.000381628 0.0040578214 0.003115728
000190 0c 27 34 bc 4a 79 bf bb 8f fc 47 ba fd df ef 3b
       -0.010995638 -0.005843316 -0.0007628882 0.0073204027
0001a0 07 db e4 3b d1 84 e4 bb 61 76 9b 3a 62 e3 43 3c
       0.006984118 -0.0069738408 0.0011860841 0.011956068
0001b0 13 ab 18 b8 ec 09 9a bc 07 1d a1 bb 8d 2a bd 3c
       -3.639895e-05 -0.01880356 -0.0049167904 0.023091579
0001c0 b8 2e e3 3b c1 36 24 3c 00 44 11 bc 1e bd f1 3a
       0.0069330595 0.01002282 -0.00886631 0.0018443202
0001d0 18 e7 1a bb 75 48 06 bc ec 99 20 39 c8 4c 99 3b
       -0.0023636278 -0.008195986 0.0001531613 0.0046783425
0001e0 c9 b4 a0 3b c3 67 ed ba 3a 8c 91 3b ae bf 43 ba
       0.004904364 -0.0018112588 0.004441765 -0.0007467222
0001f0 c1 d9 d9 bb ca ba 68 3b 25 46 1c 3b ea 32 bd 3b
       -0.0066482727 0.0035511726 0.002384552 0.0057738917

network_body.observation_encoder.rsa.fc_q.bias f4 [128]
000000 e3 63 1f 3c 0e 78 d6 3c 7c 5a e2 bc 27 45 49 3b
       0.009728405 0.026180293 -0.027631037 0.0030711384
000010 6b 2e 39 bc 84 93 46 bc fd 98 c1 b9 9d af 0c bd
       -0.011302571 -0.012120131 -0.00036925814 -0.034347165
000020 df f9 e8 bc 05 3f 99 3a e9 f6 5c bb 20 94 91 3c
       -0.02843946 0.0011691755 -0.0033716506 0.017770827
000030 21 16 05 3c 67 d0 40 3c 44 13 f4 3b 66 49 c3 bb
       0.008122952 0.011768437 0.0074485857 -0.0059596775
000040 d0 77 53 3c 23 36 e6 3c 1a a5 4d bc 7e c1 7b b9
       0.0129069835 0.028101986 -0.01255157 -0.00024009307
000050 92 e4 c1 3c 59 9f 7e 3c 02 84 22 bc 22 42 74 bc
       0.023668561 0.015540921 -0.009919168 -0.014908345
000060 e3 0a 3d 39 a1 b6 81 3c d8 1f d0 3c ab 0e 06 3d
       0.000180285 0.015834155 0.02540581 0.032728832
000070 be 9e de bc 04 e6 8b bc 21 3a 93 3c d9 b8 8e 3c
       -0.027175304 -0.017077453 0.017972054 0.017422127
000080 e3 13 86 3b ad fb 20 3c 83 8d ba bc 97 0b 13 3c
       0.004091726 0.009825629 -0.022772556 0.008974931
000090 56 d1 fe bc 1b 4b 8f 3c 00 d1 49 3d dd d4 f4 bc
       -0.031105679 0.017491868 0.049271584 -0.029886657
0000a0 b7 fe 3f bc aa 64 9f bc aa 15 f5 3b a9 37 99 ba
       -0.011718444 -0.01945718 0.007479389 -0.0011689562
0000b0 09 a6 ee bc 05 a2 25 bc 0d e1 dd bb 96 3b 0c bb
       -0.029131906 -0.010109429 -0.006771213 -0.002139782
0000c0 8e 62 ff bb 95 42 2b 3c 10 96 ca 3c 46 95 d5 3c
       -0.007793731 0.010452886 0.024729759 0.026072156
0000d0 38 f1 58 bc e6 a9 ce bc 1a 4d c1 3c 65 3d c6 3c
       -0.013241105 -0.025227498 0.023596335 0.024199197
0000e0 3d 03 a9 3c de 3f a0 bc 38 14 f4 bc 22 b1 f1 3c
       0.020631427 -0.019561704 -0.029794797 0.029503409
0000f0 9a d6 01 3d 49 16 89 bc 7d 24 3a bc 77 cf 15 3c
       0.0316988 -0.01673426 -0.011361239 0.009143702
000100 3e 98 5c bc a3 51 d6 ba c9 68 0f 3c 38 14 fa b9
       -0.013464032 -0.0016351234 0.00875301 -0.0004769878
000110 9b 82 30 bc c8 09 6a bb 71 59 15 3b 26 07 a8 bb
       -0.010773326 -0.0035711396 0.0022788907 -0.0051278053
000120 e0 81 39 3c b0 a3 54 3c bb 95 56 3c c9 77 fc ba
       0.0113224685 0.012978479 0.013097222 -0.0019261773
000130 b0 a6 38 bc 29 7c ba 38 25 d2 44 bc bc dd 8a bb
       -0.01127021 8.892298e-05 -0.012012993 -0.0042378586
000140 a5 15 e8 3a 2b 8f 35 bc 1b 51 71 3c bb 41 82 3a
       0.0017706646 -0.011081497 0.01472881 0.0009937802
000150 ca 13 1b bb da 5d 55 3c 11 5f 1c 38 60 d0 34 3c
       -0.0023662918 0.013022864 3.7281836e-05 0.011036009
000160 8d 21 01 3c 75 1e 2e 3c 4f c8 10 bc 8c a0 74 bb
       0.007881534 0.010627379 -0.00883682 -0.0037327139
000170 43 f3 8f bc 9b 9a ec bb b3 39 c1 3b 4c 03 0f bc
       -0.01757205 -0.007220579 0.005896771 -0.008728813
000180 ba fc ff 3a b1 ce 03 bc 6e de 30 3c 59 16 1d 3b
       0.0019530274 -0.008044885 0.010795219 0.002396962
000190 0e aa 46 3b 83 5a 66 bc d5 a9 17 3c 25 c5 75 bc
       0.0030313763 -0.014059666 0.0092568 -0.015000616
0001a0 74 a9 1b 3c e9 11 2d bc 95 02 e2 bb 1d 28 09 bc
       0.00950085 -0.010563352 -0.0068972805 -0.00837138
0001b0 1e fe 8d bb ad 5a 9d 3a 22 e4 2c bb 3d 8d 9d bc
       -0.0043332716 0.0012005173 -0.0026381095 -0.019232387
0001c0 c2 36 88 ba bb 95 86 bb f1 59 d5 3a 59 d4 c5 bb
       -0.0010392296 -0.0041072047 0.0016277415 -0.0060372767
0001d0 3c 82 89 3c 38 06 7f bc 6f 1e eb bb 85 76 d7 3b
       0.016785733 -0.0155654475 -0.007175259 0.006575408
0001e0 3c 9b a1 39 40 75 40 3b 16 5c 0b 3c 2a 3c 62 b9
       0.00030823972 0.0029366761 0.008505842 -0.00021575452
0001f0 e0 02 5d b9 d2 0e 05 3a fa a0 21 bc 63 9a 3a bc
       -0.00021077273 0.0005075756 -0.00986504 -0.011389348

network_body.observation_encoder.rsa.fc_k.bias f4 [128]
000000 88 1b 02 b5 ad 47 6c b4 b4 95 14 b4 50 d7 a6 34
       -4.8468837e-07 -2.2005288e-07 -1.3838036e-07 3.107657e-07
000010 5a 0c 8d 34 71 cc d8 34 fa 5f 9a 34 39 66 21 b5
       2.6272284e-07 4.0381886e-07 2.8754567e-07 -6.012593e-07
000020 8f 63 db b1 0f 8f c9 b4 df 6a 65 34 dc ce f9 31
       -6.3850574e-09 -3.7543256e-07 2.1366166e-07 7.270371e-09
000030 dc 1a 7c 34 99 8f 26 b3 34 4a 1a b3 82 d3 91 34
       2.34791e-07 -3.8780488e-08 -3.5923406e-08 2.7162247e-07
000040 e6 d9 db b0 72 a5 d0 34 fa d3 71 34 97 e0 cb b4
       -1.5996278e-09 3.8863396e-07 2.252199e-07 -3.7975107e-07
000050 c3 9d c7 33 4a 32 b0 b4 5d fb 5d b4 9b 52 2f 32
       9.295356e-08 -3.2819145e-07 -2.0673674e-07 1.0205123e-08
000060 e1 9b 2f b4 22 33 6a b4 40 8c 8e b3 8f ed e0 b4
       -1.6354853e-07 -2.181155e-07 -6.6379016e-08 -4.1896098e-07
000070 7c 87 4f b4 20 41 49 b5 0d 0a 73 34 dc ca 8e b4
       -1.9327666e-07 -7.4973104e-07 2.2634795e-07 -2.659716e-07
000080 38 6f 33 35 54 2a 30 34 cf bd 5e b4 80 f0 cc 34
       6.684454e-07 1.6406676e-07 -2.0744413e-07 3.8172948e-07
000090 e9 5d 08 35 e8 02 e5 34 ff f6 62 34 5c 1d 4f 34
       5.0800605e-07 4.2656688e-07 2.1137747e-07 1.9289058e-07
0000a0 73 cd 0b b4 5f 25 b7 34 dc d7 2a b5 44 04 38 35
       -1.3020126e-07 3.4113597e-07 -6.364405e-07 6.855155e-07
0000b0 23 6b 07 35 8d 50 cc 34 8b 4f 20 35 bf 19 b3 33
       5.0447323e-07 3.805657e-07 5.9720395e-07 8.34002e-08
0000c0 44 90 c4 34 bf 5b 22 32 20 28 f9 34 c9 a6 f2 2f
       3.6612812e-07 9.450502e-09 4.640906e-07 4.4138052e-10
0000d0 d2 0f 84 b4 b6 14 b7 34 c8 9a df b4 ca d9 bc b4
       -2.4598427e-07 3.4101475e-07 -4.1649605e-07 -3.517619e-07
0000e0 54 b2 b3 34 0d ae 17 b4 c5 0b 44 b4 02 71 6a b4
       3.34711e-07 -1.412629e-07 -1.8258204e-07 -2.183406e-07
0000f0 65 59 4b 34 bd c4 9b b4 c2 38 2a b4 24 90 5f b5
       1.893837e-07 -2.9014146e-07 -1.5853132e-07 -8.3283726e-07
000100 0c bf 6d b4 9a f4 95 33 0d 89 08 35 69 f8 18 35
       -2.2141847e-07 6.982846e-08 5.0863383e-07 5.6985897e-07
000110 32 6e 15 b5 6f cb 65 34 72 3b a7 34 b1 07 86 b5
       -5.566718e-07 2.1401296e-07 3.1149426e-07 -9.986016e-07
000120 8f 65 71 b4 34 30 0f 35 f6 99 ad 35 f5 81 29 b5
       -2.2481821e-07 5.3341796e-07 1.2934313e-06 -6.314652e-07
000130 63 0e 05 b5 ae 2d 90 b4 68 bc 9d b4 90 26 78 b4
       -4.9567296e-07 -2.6855326e-07 -2.9380612e-07 -2.3110829e-07
000140 ea 28 1e 35 07 45 2a 34 98 cf 47 35 ad 13 26 35
       5.8919125e-07 1.5857596e-07 7.4435366e-07 6.186845e-07
000150 e0 ae 8e 34 81 f7 49 34 cc 6c 2e 35 af 36 4b 34
       2.65768e-07 1.8809625e-07 6.497837e-07 1.8925742e-07
000160 ba 7f eb 34 36 38 47 35 c1 46 26 b4 18 e6 c3 33
       4.3865094e-07 7.4215075e-07 -1.5485695e-07 9.122249e-08
000170 09 fa 57 b5 9b 1b 90 34 ad d6 f9 b3 f6 e3 0d b5
       -8.045759e-07 2.6842176e-07 -1.1634015e-07 -5.285832e-07
000180 60 60 1e b5 d5 70 31 b5 5f c4 45 34 64 de c7 b3
       -5.899983e-07 -6.610183e-07 1.8418494e-07 -9.307112e-08
000190 af 5b ca 34 96 7e 49 35 7d bc 88 b1 22 ae 16 b5
       3.769214e-07 7.506254e-07 -3.9795496e-09 -5.613275e-07
0001a0 31 9b 20 b3 c2 67 ee b4 65 09 19 35 5b ef 25 34
       -3.739405e-08 -4.4406448e-07 5.701061e-07 1.54539e-07
0001b0 2d d2 3a 34 08 c7 fe 34 26 51 76 b3 46 56 2a 33
       1.7399061e-07 4.7456e-07 -5.7350142e-08 3.9659675e-08
0001c0 e0 53 92 34 68 89 e9 34 4d 34 11 34 9e ec f7 b4
       2.7255646e-07 4.3499608e-07 1.3523204e-07 -4.6179497e-07
0001d0 d1 ba 00 b5 7d c0 30 b5 65 bf cf b4 30 69 06 34
       -4.795557e-07 -6.5845217e-07 -3.8696012e-07 1.251799e-07
0001e0 86 7b 40 35 27 11 a3 34 a8 b3 c5 b4 f7 cf ba 34
       7.1705324e-07 3.0373596e-07 -3.6824827e-07 3.4796514e-07
0001f0 2a b5 0c 35 86 71 71 b5 1f 43 c8 b4 6c 6c 36 34
       5.241769e-07 -8.9944695e-07 -3.730174e-07 1.6989515e-07

network_body.observation_encoder.rsa.fc_v.bias f4 [128]
000000 ed 8c 4d bc 3b b7 a2 3b 56 1e d5 b8 75 54 d9 3b
       -0.012545806 0.0049656904 -0.00010162282 0.0066323825
000010 a5 98 1b bc 30 9c 1d 3b ac f1 b7 bb 67 21 4c 3c
       -0.0094968425 0.0024049394 -0.0056135263 0.012459136
000020 94 55 19 bc a7 3f 57 3b 4f ce 09 bc 9b c2 00 3c
       -0.009358782 0.0032844336 -0.008411004 0.007858898
000030 13 66 e1 ba c9 45 06 bb e9 66 8d ba 59 ac c3 bb
       -0.0017196558 -0.0020488373 -0.0010788116 -0.005971473
000040 e8 b3 33 39 98 a7 17 bb f9 cb c0 3b a9 9a 44 3b
       0.0001713779 -0.0023140665 0.0058836904 0.0029999411
000050 8f 50 83 bb 54 a1 af 3b 65 02 a3 ba 89 0c db bb
       -0.004007406 0.005359808 -0.0012436627 -0.006684844
000060 96 a3 1f 3c 0c c0 ea bb b8 f9 b8 bb 21 7f 68 3c
       0.009743592 -0.007164007 -0.005645003 0.014190466
000070 7b 34 3c 3c df 1b 87 3b 6a 48 57 3b 14 32 a4 3a
       0.011487122 0.0041231955 0.0032849559 0.0012527131
000080 86 11 b2 39 38 11 21 bc a1 a1 2e 3c 95 56 a4 bb
       0.00033963862 -0.009830765 0.0106586525 -0.005015204
000090 50 da 2f 3c c9 81 9b 3b 93 16 ba 3b d1 b2 47 bc
       0.010733202 0.004745696 0.0056789606 -0.012188629
0000a0 c0 13 a0 3a 85 80 34 3b 9d 8f 14 3c 4f 7b ef bb
       0.0012212917 0.0027542424 0.009067443 -0.0073084007
0000b0 4e aa 2a bc 61 4b 11 3a 47 27 82 3b 1c 1d a6 3b
       -0.01041658 0.00055425434 0.0039719674 0.005069388
0000c0 65 68 6f bb 38 9c 4f 3c 8e 1b 3d bc a3 16 37 bb
       -0.003653073 0.012671523 -0.011542214 -0.0027937077
0000d0 2c 38 c5 3b a1 84 80 3b 62 ec 54 3b 60 67 a5 bb
       0.006018659 0.0039220606 0.0032489528 -0.0050477237
0000e0 02 02 78 bb d9 90 a2 bb d3 83 c1 3a 65 94 54 3c
       -0.0037842994 -0.004961115 0.0014764018 0.012974833
0000f0 73 6d 5e 3b ae 6d ef 3b 14 2c d1 3b cc 2a 81 3b
       0.0033939749 0.007306776 0.0063834284 0.0039418694
000100 07 a8 0a bc 11 28 52 bc 3b df dd bb bc 17 a9 ba
       -0.008462912 -0.012826935 -0.006770996 -0.001290075
000110 5e e1 a8 bb 13 dd 03 bb 69 c1 d5 bb 6f 95 b2 ba
       -0.005153819 -0.0020120784 -0.0065233004 -0.0013624857
000120 8a 61 6c bb f9 76 a8 3b a7 79 81 bb 83 ab ce bb
       -0.003606888 0.005141136 -0.0039512697 -0.006307067
000130 c9 89 54 ba d4 b3 97 3b dc b6 ff bb 3b af 0d bc
       -0.000810769 0.0046295915 -0.007803781 -0.008647735
000140 29 b5 d1 bb fd 6c c9 bb 53 5e 0d 3b 2b b5 96 bb
       -0.00639977 -0.0061470256 0.0021571114 -0.0045992336
000150 c0 0e 2b bc f1 55 fd bb 9c e3 ae 3b 02 50 ce bb
       -0.010440528 -0.0077311923 0.0053371917 -0.006296159
000160 0e 6d cd bb e9 52 ba 3b 2d 81 7e bb a0 1b 55 3b
       -0.006269104 0.005686153 -0.003883432 0.0032517686
000170 eb df 33 bc 6e d9 89 ba 38 3f 29 bc c5 0b 50 3b
       -0.010978679 -0.001051707 -0.010330014 0.0031745296
000180 8d cc cc bb 1f ac 6b ba 08 59 06 ba 09 f2 c2 3b
       -0.0062499703 -0.00089901866 -0.0005124961 0.005949263
000190 fa c7 30 3c 66 9d 7c bc 21 7c 68 bb 12 57 a4 3b
       0.010789866 -0.015418386 -0.0035474377 0.0050152624
0001a0 4f df f8 3b 33 a3 c2 3b df 74 22 3b 3b fa a2 3a
       0.00759498 0.005939865 0.00247889 0.0012434194
0001b0 b8 94 c1 bb 74 aa 37 3c cf 6b b1 3b 14 ea 50 3c
       -0.0059076212 0.011210073 0.005414463 0.012751121
0001c0 34 2e 85 3c 1c 76 4c 3a 75 07 08 3c 8a 88 94 bc
       0.016257383 0.0007799582 0.008302559 -0.018131513
0001d0 6c 8b d8 3a 02 b9 a3 bb 36 62 12 bc 91 34 11 bc
       0.0016521043 -0.00499642 -0.008934548 -0.00886263
0001e0 3c 5f 8f 3b 56 b4 88 bb 26 ba 84 bb 15 a2 3c 3b
       0.0043753665 -0.0041718883 -0.004050511 0.0028783132
0001f0 45 32 c4 bb fc 91 85 3b 46 3e 83 bb aa 6f 2a 3c
       -0.005987438 0.0040762406 -0.0040052263 0.010402599

network_body.observation_encoder.rsa.fc_out.bias f4 [128]
000000 92 50 78 3a 05 5b 72 3c d0 39 1f 3b 0e 2c e3 3b
       0.0009472455 0.014792209 0.0024295934 0.006932742
000010 3a 2d e6 3b 80 a0 a7 3b 99 32 c5 bb 92 10 4b bb
       0.0070244344 0.0051155686 -0.0060179946 -0.0030985218
000020 d3 91 05 bc e2 63 0e bc 4f 76 0b 3c b3 8e 3e bc
       -0.008152443 -0.008690806 0.008512094 -0.011630702
000030 e8 59 04 37 fa 25 38 bb 6f ce c5 bb 31 e6 d8 3b
       7.888746e-06 -0.0028098808 -0.0060365717 0.006619238
000040 37 15 ff 3b f2 e9 fe 3a 61 1a f3 bb 10 0f ce 3b
       0.0077845114 0.0019448383 -0.007418916 0.0062884167
000050 14 fd 43 bc e8 71 06 3c 15 ab c3 b9 ec 75 a5 3c
       -0.011962194 0.008205868 -0.00037320764 0.020197831
000060 f8 45 57 bc bf 24 68 3b b4 ae c5 bb a1 a9 b8 bb
       -0.01313924 0.0035422293 -0.006032789 -0.0056354557
000070 8a c4 57 3c 19 4c 2b bc 32 10 cb 3a 3b 45 18 3b
       0.013169417 -0.010455155 0.0015492497 0.0023234624
000080 cc ed 50 bb bc 98 04 bc e4 a4 13 3c 88 16 e2 3b
       -0.003188002 -0.008093055 0.009011481 0.0068996586
000090 f3 c3 9c 3b 40 37 a3 bb b1 1e f1 bb 5f fe b8 bb
       0.004784101 -0.0049809515 -0.007358395 -0.005645558
0000a0 12 50 41 bb 63 d2 2e bc 28 79 ba 3b 39 bf f6 bb
       -0.0029497189 -0.010670277 0.0056907125 -0.0075301197
0000b0 3f 64 24 3c 5d 79 26 bc 96 3f b3 3a b5 a1 f6 38
       0.010033666 -0.010160771 0.0013675566 0.000117603144
0000c0 6c 91 12 3b ad 5a 27 3c 4c 23 36 3b 7c 43 45 3b
       0.002236451 0.01021449 0.0027792035 0.0030100038
0000d0 6d 45 c1 ba 5a 4c 90 bb c4 7e 96 bb 57 54 17 3b
       -0.0014745422 -0.004403633 -0.0045927484 0.0023091042
0000e0 be 5c 0b 39 77 7d f5 b9 00 fc 50 bc 90 5a de 3b
       0.00013290622 -0.0004682352 -0.012755394 0.0067856982
0000f0 46 26 69 3b 39 70 36 bc 36 cb 6f b9 7c 0c 65 3c
       0.0035575791 -0.011135154 -0.00022868518 0.013980027
000100 a2 8f 61 3b e5 39 32 bc 92 e7 41 bb 93 05 6c bb
       0.0034417887 -0.010878061 -0.002958749 -0.0036014065
000110 cb a6 64 3b 1c 7c af 39 a6 b8 d3 bb 7a e5 b4 bb
       0.0034889455 0.0003347107 -0.006461221 -0.00552052
000120 ee 2a 47 3c 47 e5 be ba 6a 67 56 bb b1 52 0c 3b
       0.012156231 -0.001456418 -0.0032715448 0.0021411593
000130 09 08 57 3c 9b 17 e2 bb 20 d4 df 3a 89 7a eb b7
       0.013124474 -0.0068997866 0.0017076768 -2.8071243e-05
000140 95 be dd b5 47 d6 6a bb 71 1a f0 ba ab 2f b6 3b
       -1.652125e-06 -0.0035833286 -0.0018318427 0.0055598817
000150 ac e2 1a 3b 56 8a 19 bc 88 d7 1b bc 9f 3e 8e bc
       0.0023633642 -0.009371361 -0.009511836 -0.017363844
000160 e6 32 a9 ba 89 83 63 bb 3c b0 c8 3b 90 bb 07 bc
       -0.0012908846 -0.0034715852 0.0061245244 -0.0082844645
000170 f5 35 40 3b ad 96 8b 3b 33 10 91 bb 8b cc b8 3b
       0.0029329036 0.0042599053 -0.00442698 0.005639618
000180 2e 92 bb 3b 1f ce 52 3c 3f a5 d9 bb fe 3a f5 bb
       0.005724213 0.012866526 -0.0066420133 -0.007483839
000190 ee b2 9e bb e7 86 d2 ba 59 ca 2c b8 eb ca 80 3b
       -0.0048431074 -0.0016061933 -4.1196447e-05 0.0039304397
0001a0 a5 9d 32 3b 5b 03 4d 3c df 25 f5 3a aa 3b 8a 3c
       0.0027254608 0.012513007 0.0018703303 0.016874153
0001b0 f4 b0 0a bc 11 72 c4 bb 08 79 4a bc 6e b7 df 3b
       -0.0084650405 -0.005995043 -0.012357958 0.0068272864
0001c0 f9 fa 86 bb 6f 13 69 38 05 78 6b bb c8 a3 a3 bb
       -0.0041192737 5.5569628e-05 -0.0035929692 -0.0049938895
0001d0 94 11 bc 3b aa f0 92 3b 6c 55 73 3c c0 3c 5f 3b
       0.0057394 0.004484256 0.014851909 0.003406331
0001e0 26 23 a8 3b 17 da 42 bc 4c 83 34 3b 2b fc 41 bc
       0.005131143 -0.011892817 0.002754408 -0.011839907
0001f0 c8 06 f7 3b 4d 57 90 39 f4 48 25 3c 0c a1 d4 3b
       0.00753865 0.00027530864 0.010088194 0.006488925

network_body.observation_encoder.x_self_encoder.seq_layers.0.weight f4 [128, 3]
000000 45 ce 78 bc 95 27 0f bd 00 23 71 bc 2a c2 a3 3c
       -0.015185897 -0.034949858 -0.014717817 0.019990046
000010 42 06 f8 bb cf 5a 08 3d 34 30 dd 3c 9b b9 08 3d
       -0.0075691054 0.033289727 0.027000524 0.033380132
000020 98 c5 2a bb f0 1c 16 bc f7 cc 5b bc 7f ea fa 3c
       -0.0026057716 -0.009162173 -0.013415567 0.030629395
000030 ef 4c 57 3c c9 86 66 3c 41 25 6c bc 60 eb 7c bd
       0.013140901 0.014070221 -0.014413179 -0.06174791
000040 1c 6a 92 bd d5 85 4f bd 16 91 a5 bc bd e2 2e bd
       -0.07149145 -0.05066474 -0.020210784 -0.042696703
000050 ee ff c4 ba 92 9e 89 3c 22 9a d9 3c 0c 49 b8 3b
       -0.0015029886 0.016799245 0.026562754 0.0056239422
000060 33 80 aa 3c 1b 80 19 3d 98 48 61 bb 55 1d 6d bc
       0.020813083 0.037475687 -0.0034375545 -0.014472325
000070 3d 78 01 bd c9 bc 29 3d 83 a0 a9 3c 58 ac eb 3c
       -0.03160881 0.041439805 0.02070642 0.028768703
000080 cc 13 3a 3d 07 7c 3d bd 28 64 54 bc f0 e8 45 bc
       0.045429036 -0.04626086 -0.012963332 -0.012079462
000090 e6 8e f9 3b 12 14 9a 3c 69 64 cd bc 20 07 f3 3c
       0.007615912 0.018808398 -0.025072293 0.029666483
0000a0 d2 4a b0 bc b9 b3 48 bc b3 ee 00 3d 65 9e 93 bc
       -0.021520052 -0.0122498805 0.03147764 -0.018019864
0000b0 3f 34 7b bc dc 3e d3 bc 16 e9 a1 bc 0d 3d 3c ba
       -0.015332281 -0.02578681 -0.019764464 -0.0007180728
0000c0 af b3 9d bb c8 3b f3 bb 95 3b 07 bd 72 db ae 3b
       -0.0048126797 -0.007422898 -0.033015806 0.0053362185
0000d0 68 2b a6 3b da ee 90 3b 9c ae 1b bc 83 f1 23 bc
       0.0050710924 0.0044230046 -0.009502079 -0.010006311
0000e0 de b6 35 3d 6a 8d 89 bb 72 c4 12 bd 47 3b 85 bd
       0.04436385 -0.004197766 -0.035831876 -0.06505447
0000f0 70 42 79 bc 1f 2e ab bc 31 97 d2 3c de 91 93 3c
       -0.015213594 -0.020896016 0.02570686 0.01801389
000100 a3 f4 b6 3c c7 a9 07 3d 92 e8 f2 3c 41 29 5c 3d
       0.022333449 0.033120897 0.029651914 0.05375028
000110 00 4c c4 bc b9 32 3c bc 6e 05 60 bd 50 5f 3f 3c
       -0.02396202 -0.011486703 -0.05469268 0.011680439
000120 a8 4d a3 bd 27 39 98 3d 8c 9c 84 bb 9b 64 7c bc
       -0.07973796 0.07432776 -0.004046982 -0.015404846
000130 d6 ae b1 bc 26 02 cd bc a0 a7 e2 3b bd b3 24 3c
       -0.021689814 -0.025025439 0.006916955 0.010052619
000140 5b 6b fc 3c 41 4f b6 bc 67 ad 09 bd b7 a7 d1 bc
       0.03081291 -0.022254588 -0.033612635 -0.025592668
000150 d3 0b 1d bc 33 a6 06 bd 01 31 d8 3c 1e cb 74 bc
       -0.009585339 -0.032873344 0.026390554 -0.014941005
000160 1c 04 00 bd 08 ec 86 3d f0 8c b3 3b 0f a6 9c bb
       -0.03125392 0.06587988 0.0054794475 -0.004780538
000170 4b 05 f0 bc e1 30 b9 3c 7d 6d e9 3c bd 72 f7 bb
       -0.029299399 0.022606315 0.02849459 -0.0075515197
000180 ef 37 61 3d 22 af d2 3c be 5d 9b bd bd a2 91 3d
       0.054984983 0.025718275 -0.07586239 0.07111118
000190 f6 55 4a 3d f1 00 ff bc aa 2d 51 bc 13 a2 7a bc
       0.049398385 -0.031128379 -0.012767235 -0.015297431
0001a0 6c f6 f5 3c e3 23 82 bb 5e 13 a0 bb b6 45 87 3b
       0.03002473 -0.003971563 -0.0048851212 0.0041281832
0001b0 7b 46 07 bc e9 61 3a bc a1 48 e9 ba 89 7c 82 ba
       -0.00825655 -0.011375883 -0.0017798134 -0.0009955327
0001c0 1b 64 ed 3a 3e 24 14 bd 70 a2 76 bc 11 e7 b4 bc
       0.0018111499 -0.036167376 -0.015053377 -0.022082837
0001d0 27 b3 ee 3c 2b 09 14 3d bb db 92 bb 98 69 6a bd
       0.02913816 0.036141556 -0.0044817603 -0.05722961
0001e0 8e f8 1f 3c 16 78 a6 3c 85 3e 90 3c 2f 37 64 bb
       0.00976385 0.020320933 0.017607937 -0.003482293
0001f0 14 7b d0 bb 1f 34 5f 3c af 91 d2 bc 88 7b 07 bd
       -0.0063623283 0.0136232665 -0.025704233 -0.033076793
000200 48 9e 87 bd a8 78 f2 3c ad b9 da bc 77 e9 7b bc
       -0.06621987 0.029598549 -0.026699865 -0.015375487
000210 70 5e 13 bb c3 16 61 bb 2c bf be bc bb f8 4a 3d
       -0.002248671 -0.0034345842 -0.023284517 0.049553614
000220 98 cc 6e bc 88 53 ff bc 6d ca c5 bc 28 85 f0 3b
       -0.014575146 -0.03116776 -0.024144376 0.007340092
000230 94 ed cc bb a0 60 0e bb 9e 9d a5 bb ef f7 27 3c
       -0.0062539075 -0.0021725073 -0.00505419 0.010251983
000240 ac c7 27 3b d0 a6 7c 3d 78 31 8f bc 8f 8a 01 3c
       0.0025601191 0.061682522 -0.017479643 0.00790657
000250 f2 12 45 3d d7 3f f3 3b f3 9f 70 bc 79 01 b6 bc
       0.04811377 0.007423382 -0.014686572 -0.0222175
000260 f3 01 1e bb 6a 82 28 bc 57 35 6f bd 7b 29 83 bb
       -0.0024110049 -0.010284999 -0.05840048 -0.0040027476
000270 13 43 c7 bc f7 cf 25 bd 4c 25 4f bd f9 d9 08 bd
       -0.024323976 -0.040481534 -0.05057268 -0.033411
000280 6a ab 17 bd 3c d3 5b bd 57 1c cf bb df 75 39 bd
       -0.037028708 -0.053668246 -0.006320517 -0.045278426
000290 ef 68 e1 bc 06 54 74 bc 76 cc 28 bd a8 4f d8 3b
       -0.027515857 -0.014912611 -0.041210614 0.0066012926
0002a0 6c 40 bb 3c dc 2e a5 bb 47 89 4a 3c 2c 9c 37 3d
       0.022857867 -0.0050409865 0.012361831 0.04482667
0002b0 81 e0 0a bb 0a b4 fe bb 8e ae a8 3b 99 a6 aa bd
       -0.0021190944 -0.007772927 0.0051477617 -0.08332557
0002c0 8c 2e 86 3a f9 3b 2c 3b 64 20 43 bd eb 39 e2 3c
       0.0010237261 0.0026280864 -0.047638312 0.027615508
0002d0 0c 92 83 bd 4c a9 52 3d 6a dd ab 3c ab 93 20 bc
       -0.064243406 0.051430985 0.020979602 -0.009800832
0002e0 16 6c 56 bd a2 e8 40 3c 44 7c 93 3c d3 67 d6 3c
       -0.052349173 0.011774214 0.01800359 0.026172554
0002f0 7d 4e 23 bc c7 73 6a 3b 70 cf c0 3b d2 bd 24 bd
       -0.0099674435 0.0035774575 0.0058841035 -0.04022009
000300 aa a8 86 3c a4 4b 99 ba 8a fd b8 3c 81 41 2f 3d
       0.016437847 -0.0011695516 0.022581834 0.04278708
000310 89 c5 4d 3d e6 fe 25 bc 97 eb 5b bc 40 9c 92 bc
       0.050237212 -0.010131573 -0.013422868 -0.017896771
000320 b7 2d ab bc f7 fa 7d 3d 49 c5 29 3d c8 33 b1 bc
       -0.020895822 0.062006917 0.04144791 -0.021631137
000330 6b 57 8a bc 97 ca 89 3c 9a a8 8a 3b 27 da 02 3d
       -0.016887387 0.016820235 0.0042315247 0.031946328
000340 a1 0b 25 3d 73 1a fa 3b 5e b4 04 39 ec 9f aa 3a
       0.040294293 0.0076325475 0.00012655693 0.0013017631
000350 11 4a 64 3d 56 9b 25 bc 7c 67 3c bd c3 31 f1 3c
       0.055734698 -0.010107836 -0.045997128 0.029442674
000360 70 54 e5 ba e1 93 28 bd 13 e3 df 3c 25 06 9a bc
       -0.0017496478 -0.041156653 0.027329957 -0.018801758
000370 d9 a7 41 bd 3b 55 9b bc a6 46 4b 3d 0b 5d 09 3d
       -0.047279213 -0.01896154 0.049627922 0.033536
000380 b0 0f 12 bd 6c 7c 13 bd 85 b4 21 bc 50 bf e4 bc
       -0.035659492 -0.03600733 -0.009869699 -0.027923256
000390 41 79 6b bc 1a 28 e8 ba e0 32 66 3b 25 77 8e 3d
       -0.014372171 -0.0017712147 0.0035125539 0.06956319
0003a0 42 3c b8 3b f0 9c 22 bd 96 7a 6a 3c 3b 09 93 3c
       0.0056224177 -0.03970045 0.014311453 0.017948737
0003b0 cc 2d 50 bd e4 ab 2f 3d 91 eb da 3c d2 34 af bd
       -0.050824925 0.042888537 0.026723655 -0.085549966
0003c0 ae d4 af 3c a5 3b 4e 3c 72 4e dc 3c 6d 1f 6e bd
       0.021463718 0.012587463 0.026892874 -0.05813544
0003d0 3d e6 cc bc 55 7c 8d bc 0b d8 fa bb 6c 05 74 bc
       -0.02501213 -0.0172712 -0.007655149 -0.014893871
0003e0 84 c6 35 3c 5c da 9a bd e8 dd 14 3d 0e 92 b9 bb
       0.011094693 -0.0756118 0.03634444 -0.005663163
0003f0 1e 05 15 3d 8d 6f 4a 3c 17 12 01 3b 78 6c 17 3c
       0.036381833 0.012355697 0.001969462 0.00924217

network_body.observation_encoder.x_self_encoder.seq_layers.0.bias f4 [128]
000000 b9 6d 39 3c 5c 97 1d bb 1c 39 88 bc d5 34 92 bb
       0.011317664 -0.0024046516 -0.016628794 -0.0044618645
000010 47 0e bd bc 77 88 71 3c 5d ed 87 bc c4 55 35 bc
       -0.023078097 0.014742008 -0.016592676 -0.011067811
000020 b6 28 1a 3a 81 e7 98 bc fb 0c 6c bc 83 17 81 3c
       0.00058807 -0.018665077 -0.014407392 0.015758282
000030 0f 28 d2 3a f0 94 e1 bb 71 8d 4b bc bb 6b f5 3c
       0.0016033667 -0.00688421 -0.012423859 0.029958596
000040 56 d4 1c bb b4 c4 83 bc cb f8 b2 3c 44 73 53 bc
       -0.0023930273 -0.016085006 0.02184715 -0.012905899
000050 34 c7 3e 3b f1 20 af bb 26 a5 85 bb e2 1d 3e 3c
       0.0029110434 -0.005344503 -0.004078525 0.011603804
000060 e3 b6 41 bd 2c f0 1a 3b 77 86 89 3c c0 5e 2b 3c
       -0.047293555 0.0023641689 0.01678775 0.010459602
000070 4f 23 95 bb 8e 1f 2e 38 62 61 a5 bc ef e9 55 bb
       -0.0045513283 4.151422e-05 -0.020188037 -0.0032640656
000080 78 82 63 bc 89 5d 5d bc 70 51 42 3c d0 61 74 bb
       -0.013886087 -0.01351107 0.0118602365 -0.0037289746
000090 19 2f 0d 3b 9b 14 79 3c 96 8e 33 3c c4 63 7d bc
       0.0021542965 0.015202667 0.010959288 -0.0154656805
0000a0 c4 6d 18 bb d9 d0 7b bc a6 5f 96 3b 6f 8d a2 bc
       -0.0023258785 -0.015369617 0.004589039 -0.019842831
0000b0 3b 6f 85 bb c6 8d 0c bc 81 28 d0 3c a3 e8 ff bb
       -0.0040720976 -0.008578723 0.025409939 -0.007809715
0000c0 34 9a 86 bc f8 57 de bb 67 57 05 bc 4b af 77 bc
       -0.016430952 -0.006785389 -0.008138514 -0.015117477
0000d0 07 56 0c 3c a1 66 6f 3c cf ab 3c 3c fb 01 5e 3a
       0.008565432 0.014611871 0.011515572 0.0008468923
0000e0 e3 d0 04 bc 90 c4 62 bc 7c 37 2d ba 6d 61 3b 3b
       -0.008106443 -0.013840809 -0.0006607694 0.0028592006
0000f0 ba 80 11 bd 6b 5d 35 3b 77 1d 45 3b 13 39 d0 3a
       -0.035523154 0.002767409 0.0030077377 0.001588615
000100 1f 26 03 bd 2f 17 6f bc 33 31 13 3c 1d 47 e8 bb
       -0.032018777 -0.01459293 0.008983898 -0.0070885555
000110 63 3d 3d 3c 55 c2 90 bb 13 5b 4c 3c e7 f7 48 bc
       0.01155028 -0.0044176974 0.012472886 -0.012266136
000120 ea 51 46 3b 8c 91 5e 3c d5 a1 20 bc 5d 99 a7 3c
       0.0030261227 0.013584506 -0.009804209 0.020458871
000130 f8 4b b9 3c f8 bd ab bb a2 cc ce bb 86 b4 5e bc
       0.022619233 -0.005241152 -0.006311015 -0.013592845
000140 ad a0 1a bb 21 6b ba 3c 3d a0 c8 b9 2f 6f 94 bc
       -0.0023594305 0.022756161 -0.0003826636 -0.018119423
000150 b2 41 05 bc f7 1b a5 3b 74 91 85 3c 4f 04 ac bb
       -0.008133339 0.005038734 0.016304709 -0.005249537
000160 c4 a8 2b 3c 5b 68 e4 3b 28 6e 5b 3c 40 63 33 3c
       0.010477249 0.006970448 0.0133929625 0.010948956
000170 89 4d 98 3c 8d 21 c2 bc 68 c4 24 bc 12 8d dd bb
       0.01859166 -0.023697639 -0.0100565925 -0.0067612017
000180 a8 4d 31 bb d3 ba 8d 3c b5 44 88 bb 74 58 aa bc
       -0.0027054343 0.017300999 -0.004158581 -0.02079413
000190 da 1a 83 3b 96 d4 32 bc da c9 76 bc ee e3 cd ba
       0.0040010037 -0.010914942 -0.015062774 -0.0015708187
0001a0 22 57 33 bc 6f 6c 7f bc 07 79 9f bc e2 84 b8 3b
       -0.010946067 -0.015589817 -0.01946689 0.0056310752
0001b0 6f 04 a0 3c 2b e4 7f bb 06 be f0 bc 54 1f d6 3b
       0.019533364 -0.003904591 -0.029387485 0.0065344963
0001c0 aa 2a 80 3b 5c 2c 09 bc 01 24 e5 bc c9 35 8d 3c
       0.003911336 -0.0083723925 -0.02797127 0.01723756
0001d0 f5 98 b5 3b dc 8f 57 bc ea b0 29 bc 57 9d 7b bc
       0.0055419155 -0.013156857 -0.010357121 -0.015357337
0001e0 1d a7 d3 3c e5 99 3d bc dc e6 88 bb 76 a3 01 3c
       0.025836522 -0.011572336 -0.004177911 0.007912507
0001f0 d0 99 17 bc 7f ec 25 bb 71 d9 94 3a 94 6c 9f 3c
       -0.00925298 -0.0025317965 0.0011356306 0.019460954

network_body._body_endoder.seq_layers.0.weight f4 [128, 131]
000000 be e5 37 3d 52 8c 47 bd 1a 85 98 3d 73 4f 9f bd
       0.044896834 -0.048717804 0.07447262 -0.077788256
000010 58 f2 d1 bd 05 a7 f1 3d fb 01 a4 bd 89 31 08 3d
       -0.102513015 0.117994346 -0.0800819 0.033250365
000020 11 4f f2 bd 76 ff 3b 3d 4f 06 e3 bc 1b 07 4c bc
       -0.11831487 0.045897923 -0.02771297 -0.012452866
000030 59 dd ab 3c ec 1d 18 3d 86 ff 63 be c4 ce 25 be
       0.02097957 0.03713791 -0.22265443 -0.16192156
000040 9a 61 2c 3e 67 57 c0 bd 5a ef 7e 3d dd 42 b6 3d
       0.16834107 -0.09391671 0.062239982 0.08899472
000050 e9 91 a2 3d 8b 89 81 3d 88 c3 3e bd ae 14 b0 bc
       0.079379864 0.06325062 -0.046573192 -0.021494236
000060 50 44 ec 3d 10 10 fc bd bf ef 91 bd 37 30 9c 3d
       0.11536467 -0.12307751 -0.07125806 0.07626384
000070 fc 18 81 bd 6a 0f 81 bd 9c af 0a bd 5c 5d 0a bd
       -0.063035935 -0.06301768 -0.03385888 -0.03378044
000080 a6 0b 00 3d bf 9f a0 bd 9a 3d b4 bd d7 b6 42 bd
       0.03126111 -0.07842969 -0.08800812 -0.04753765
000090 4b 85 11 be 82 1d 5a 3c 8b f6 a1 bd 7d d8 18 bd
       -0.14211003 0.013312699 -0.079083525 -0.037315834
0000a0 7b c6 df bd c4 d8 d6 bd fc 0c eb 3d 3d 4e f6 bd
       -0.10926529 -0.104905635 0.11477086 -0.120266415
0000b0 67 b9 2a be e2 ca 3e 3d b1 58 ae bd 5f e2 19 be
       -0.16672288 0.046580203 -0.0851301 -0.1502776
0000c0 6a f7 26 bd aa 16 c3 bc 2e 11 20 bd 6b fd a8 3c
       -0.040763296 -0.023814518 -0.039078884 0.020628652
0000d0 f2 5d 61 3d c9 05 cf 3d b3 80 a2 bd 6c b3 11 bd
       0.055021234 0.10108525 -0.07934704 -0.0355715
0000e0 e1 75 15 be 87 dc 76 3d d1 ed de 3a 2b 0f b7 bd
       -0.14595748 0.060268905 0.0017008131 -0.0893844
0000f0 8b 75 4c be c8 fb 95 bc f0 10 67 3d 80 a2 8d bd
       -0.19966714 -0.018308535 0.056412637 -0.0691576
000100 ef c6 4b 3d 0a c7 cb 3d 24 45 6b bd 09 24 dd 3d
       0.049750265 0.09950073 -0.057438985 0.10797889
000110 38 7e a2 3c 3d 5f a3 3d 35 90 0a bd 5f 9c ec 3b
       0.019835576 0.0797715 -0.033828933 0.0072207893
000120 cb e3 16 bd 04 1d 94 3d 35 9d 0b 3e 28 4f d5 3c
       -0.036838334 0.07232097 0.13634188 0.026038721
000130 3d 0e 1f 3c bd 6e c3 3c 34 c3 4c 3d 72 5c 4b bd
       0.0097079845 0.023856515 0.049990848 -0.04964871
000140 29 f6 d4 bd ee b5 46 bd ad 83 01 3e 3f 61 98 3d
       -0.10398514 -0.048513345 0.12647887 0.07440423
000150 70 5b 33 be 35 8e 32 bd 43 77 94 bd 87 e9 44 ba
       -0.1751535 -0.04359265 -0.0724931 -0.0007511605
000160 04 44 4f 3d b2 c5 f2 3c 49 8c 2c 3d 56 46 b6 bc
       0.050601974 0.029635284 0.042125974 -0.022250336
000170 5c ca 94 3d 7c 90 12 be 12 5b 12 bc 51 e0 44 3e
       0.072651595 -0.14312929 -0.008932846 0.19226195
000180 01 b9 37 3d 6e f5 42 bd 7b d9 54 3d 50 42 d4 bd
       0.044854168 -0.04759734 0.051965218 -0.103642106
000190 9b 7f 93 bd a6 74 b7 bd 26 66 d6 bc 61 a4 d9 3d
       -0.07202073 -0.08957796 -0.026171755 0.10627056
0001a0 4d 41 76 bd 6a 4f 7f 3d dd 7f a2 3c 91 c3 0b 3b
       -0.06012087 0.062331595 0.01983636 0.0021326283
0001b0 26 f7 7a bd ee 21 16 3d 6a fc 76 bd ac af 18 3c
       -0.061270855 0.03665345 -0.060299315 0.009319227
0001c0 7c c7 f5 3b b4 e7 54 bd 71 09 dd bc 69 51 a9 bc
       0.007500587 -0.05197878 -0.026982041 -0.020668702
0001d0 27 55 7a 3d 84 11 e0 3d c2 a7 e5 3c 3c 35 84 3c
       0.061116364 0.10940841 0.028034095 0.016138665
0001e0 43 36 94 3d 99 a2 3f bd 8a 5f e1 bd 3a e6 10 3d
       0.07236912 -0.046785925 -0.11004551 0.03537581
0001f0 04 f3 d1 bd 83 91 21 be e4 f8 25 3d 28 88 eb 3d
       -0.1025143 -0.15778165 0.040520564 0.11500579
000200 c9 53 20 bc b2 c3 17 be a9 59 ba 3c ac 8e ed 3d
       -0.009785601 -0.14820746 0.022747831 0.11599478
000210 d2 e7 55 bd 7c 99 d2 3c 1a 40 1f bd fe 03 f0 3d
       -0.052223034 0.025707953 -0.03887949 0.117195114
000220 ca f9 cb 3d f1 8f 8a bd 9f bd d3 bd 49 09 a6 bd
       0.09959753 -0.06765736 -0.10338902 -0.0810724
000230 ef 15 d7 3d 40 99 3b 3d 22 c3 bb bd 9b 7e 24 3e
       0.105022304 0.045800447 -0.09168078 0.16063921
000240 46 e1 37 3c a1 c1 00 be 58 7b 75 bb f1 84 2c 3e
       0.011223143 -0.12573864 -0.0037457552 0.16847588
000250 63 2b 17 bd 4f 5c 52 3d 36 88 26 bd e4 ce 5f bc
       -0.03690661 0.051357564 -0.040657245 -0.013660166
000260 85 90 a1 bd c2 3c 2e 3d 09 b9 ef bd 1e 37 23 bd
       -0.07888893 0.042538412 -0.117052145 -0.039847486
000270 77 7a cb 3d 73 85 a8 3e 9b 5a 64 3d 11 19 52 be
       0.09935468 0.32914314 0.05575047 -0.20517375
000280 bb 26 34 be d9 28 63 3d 24 8a e2 3d 19 b1 43 3d
       -0.175929 0.055458877 0.110615045 0.047776315
000290 19 c8 93 3e 60 61 e4 3d 7f 15 3d bd 8f d2 d6 bd
       0.288636 0.11151385 -0.04616308 -0.104893796
0002a0 4b f1 e8 bd 57 d2 be 3d c1 b7 1e 3e 54 3b 87 3d
       -0.11374148 0.09317463 0.15499784 0.06603113
0002b0 c6 f7 13 3c 53 1a 2e 3d 83 f6 94 3d ca 16 b3 bc
       0.009031242 0.042505573 0.07273581 -0.021861453
0002c0 5b f1 84 3d c6 cb c3 3d 2c 64 73 bd 54 fe cb bd
       0.064913474 0.09560351 -0.059421703 -0.099606186
0002d0 d8 b3 49 3d 91 00 84 3b e0 f9 8a 3d 7b 62 bf bd
       0.049243778 0.004028388 0.06785941 -0.093449555
0002e0 03 4c f7 bc f4 a8 5a bb c9 e3 c2 bc cf f6 fd bb
       -0.030187612 -0.0033364864 -0.023790257 -0.007750369
0002f0 ae 70 76 bd 7b b3 06 3e 95 95 6c 3d 6b f0 08 3d
       -0.060166053 0.13154404 0.05775984 0.033432405
000300 19 17 fd bd 9f a0 0a be 8b cc b6 b9 27 d7 07 3e
       -0.12357921 -0.13537835 -0.00034866142 0.13265668
000310 78 07 af bc 70 c8 16 be ef e1 42 bd da 2d 2c 3c
       -0.021365866 -0.14724898 -0.04757875 0.010508979
000320 8a c9 ad 3d ca 2a 70 ba 97 01 ff 3c f6 80 01 bd
       0.08485706 -0.00091616495 0.031128688 -0.031617127
000330 1b 3e 49 3c 09 e3 dd bc ff 08 41 be a4 67 9a 3d
       0.0122828735 -0.027085798 -0.18851088 0.07539299
000340 30 75 1b 3e 4a b3 b8 3d 04 fa 0d 3c fd 23 34 3c
       0.15181422 0.09018572 0.008665565 0.010994908
000350 de b2 4a bd 23 6e 05 bb 58 2e c5 3c f9 04 84 3d
       -0.049486987 -0.0020359836 0.02406995 0.06446261
000360 51 a8 39 3d 39 23 06 3e e8 d7 a0 3d e0 51 a5 3b
       0.045326535 0.13099374 0.07853681 0.0050451607
000370 0a 27 60 be b7 13 c8 bd 25 13 1e 3e 38 44 3f be
       -0.21889892 -0.09769385 0.1543699 -0.18678367
000380 c9 77 a6 3d 53 41 1a bd 37 02 11 3d 4e 71 d9 3c
       0.08128316 -0.037659954 0.035402503 0.026543286
000390 1d 30 07 3d 04 8a 8d bc 16 cb 92 3c 6a 68 c6 3d
       0.03300487 -0.017277725 0.017919105 0.09687884
0003a0 d7 0f a4 3d 70 55 a3 3c 1c 5e f4 bd 61 46 26 bd
       0.08010834 0.0199382 -0.119320124 -0.040594462
0003b0 e5 c0 76 3d cd 4c 90 bd ab 25 93 39 cc 9a 32 bd
       0.060242552 -0.070458986 0.0002806609 -0.043604657
0003c0 75 86 ce 3d b1 79 f0 3d b3 26 19 3d 9c 6f 69 3d
       0.100842394 0.11741961 0.037390422 0.056991205
0003d0 6c d9 13 3e 93 46 1a 3d 93 02 ff 3d e0 fc fc bd
       0.14438409 0.03766496 0.12451663 -0.123529196
0003e0 2e 30 17 bc e3 ef 05 bd ec 40 18 3d 54 4f 0e bd
       -0.0092277955 -0.032699477 0.03717129 -0.034743622
0003f0 3f 12 f0 3c 03 6d 8b bc 9f e0 1d be e8 fd fa 3d
       0.029305575 -0.017019754 -0.15417717 0.1225546

network_body._body_endoder.seq_layers.0.bias f4 [128]
000000 d1 98 a7 3c cb b3 29 bc 6f f1 80 3c ac 40 35 bc
       0.02045861 -0.010357807 0.015740125 -0.011062782
000010 46 c1 6b bb 66 09 80 3c 30 a0 ba 3c e2 26 24 3c
       -0.0035973354 0.015629482 0.022781461 0.010019036
000020 6e a3 1d 3b 40 06 0d bc bd 67 4c bb ec 48 81 bb
       0.002405371 -0.008607447 -0.0031189763 -0.0039454605
000030 0a eb 1b 3c 94 6d 37 bc 89 c3 62 bb 09 68 f0 3a
       0.009516487 -0.011195559 -0.0034601411 0.0018341552
000040 b9 94 07 3c 14 1e 39 ba fd a6 14 bb 6e e4 a9 ba
       0.008275204 -0.0007061672 -0.002268254 -0.0012961754
000050 e5 9d 48 3c 87 0a 05 3c 9f 81 70 bb 01 fd 7a bb
       0.012244676 0.008120186 -0.0036698354 -0.0038297775
000060 87 de af bb a6 70 8d 3c af 63 ac bb 52 63 f3 bb
       -0.0053671035 0.017265629 -0.0052609066 -0.0074276114
000070 d1 49 82 3c 01 2a b2 3b b4 3f dc 3b 4c 7b c1 3b
       0.015904339 0.005437136 0.006721461 0.0059045907
000080 54 be 99 3b e6 81 8b bb d0 68 82 3c 1f 18 2d 3c
       0.0046918783 -0.0042574285 0.01591912 0.010564833
000090 6b 9b 6c bc 77 67 c9 ba 8d 0f a8 bc 45 92 ba bc
       -0.014441351 -0.0015365918 -0.020515228 -0.022774825
0000a0 7c 87 d3 3a 6e 76 71 3a cd 50 ed 3a 6e 2a 39 bc
       0.00161384 0.0009211068 0.0018105746 -0.01130162
0000b0 e8 ba 69 bc cd 6d 19 bc 1e e6 59 3c 80 2f 17 3c
       -0.014265753 -0.009364557 0.013299493 0.0092276335
0000c0 b9 df f3 3b 32 18 95 ba be 8c 2d bc 91 4c d6 3b
       0.0074424413 -0.0011375009 -0.010592638 0.006539889
0000d0 d9 19 31 3b 64 b5 9b 38 26 33 0c 3c 72 cb 59 3c
       0.0027023463 7.4247626e-05 0.008557117 0.013293134
0000e0 95 ac 51 3b cd 97 93 3c 62 c5 4d 3b 69 63 58 3c
       0.0031993736 0.01801672 0.0031398167 0.013207295
0000f0 fa b6 20 bc dd 40 22 bc 8b 1d 80 3b 7a 3d af bb
       -0.00980925 -0.00990316 0.003909772 -0.0053479047
000100 76 7e 01 bc 19 d0 06 3c 54 62 26 3c 76 06 7d 3a
       -0.007903686 0.008228325 0.010155279 0.0009652147
000110 83 04 c0 3b b4 e9 5d bb 03 74 1d 3c 78 9d 04 3c
       0.005859913 -0.0033861222 0.009610179 0.008094184
000120 aa 80 7a bc b1 34 ed 3b 8f 37 54 3b 39 8e 82 bb
       -0.015289465 0.0072389473 0.0032381748 -0.0039842394
000130 c5 e9 49 bb db 1b 40 bc 9e 67 7a 3c 7d da f8 3b
       -0.0030809504 -0.011725391 0.015283493 0.007594405
000140 36 71 1f 3c ad a2 a3 3b 02 28 9b 3b 64 5d 87 bb
       0.009731581 0.0049937577 0.004734994 -0.004131006
000150 c3 7b 33 3c 2c 88 ce ba af b9 cf bb 34 c2 2a 3c
       0.0109548 -0.0015757135 -0.006339274 0.010422278
000160 19 15 6e 3b d1 6c 24 bc 25 cb b6 ba b4 bf 18 bc
       0.0036328493 -0.0100357095 -0.001394604 -0.009323049
000170 25 22 4c ba 61 bb 8d 3c c1 fb 50 ba 0c a6 1f 3c
       -0.00077870704 0.017301263 -0.00079720846 0.0097441785
000180 60 10 8b 3c 66 91 13 bc a9 0b 39 3c e9 dd 8f 3a
       0.016975582 -0.009006834 0.011294284 0.0010976169
000190 a7 74 95 3c ea e9 cf 3b cd 34 3f bb 32 06 15 bc
       0.0182441 0.0063450234 -0.0029175759 -0.009095715
0001a0 fb 4a 60 bb 6b 91 de bb ac 14 c1 bb 99 67 a4 b9
       -0.003422438 -0.0067922375 -0.005892357 -0.00031357704
0001b0 cf 0e 62 b9 55 4b 40 bc 9c cd 18 3c e1 fa 3a 3b
       -0.00021558556 -0.011736711 0.009326365 0.0028530883
0001c0 03 50 43 ba a2 a9 67 ba 73 2c ed ba ea 63 70 bc
       -0.00074505823 -0.0008837228 -0.0018094912 -0.014672259
0001d0 e8 35 0a 3b a8 49 40 bc d1 5d ab bc 78 6f 0f 3b
       0.002108926 -0.011736311 -0.020918759 0.002188651
0001e0 36 92 ae ba be cc 11 3c 39 00 35 3b bf a7 c6 bb
       -0.0013318721 0.008898912 0.002761854 -0.0060624774
0001f0 25 94 1c 3c 46 64 61 3a f9 25 7b 3a 96 a3 2c 3c
       0.009556805 0.0008598011 0.00095805485 0.010537049
